Relu_fixed_simple/TorchSaves/Best_Ball_Gen0.pt (torch_old, 16332 bytes, 17 tensors)

weight f4 [10, 6]
0	0xbdb7e590	-0.089793324
1	0xbe8afccc	-0.27145994
2	0x3d9d68b4	0.07685986
3	0xbe91b0b2	-0.2845512
4	0x3e327c10	0.17430139
5	0x3c964900	0.018345356
6	0xbeadec81	-0.339695
7	0xbea72c68	-0.32651067
8	0xbeceb6eb	-0.4037393
9	0xbe682e67	-0.22673951
10	0xbec41aaa	-0.38301593
11	0x3b92d780	0.004481256
12	0x3e12ba44	0.14328867
13	0xbde44460	-0.11145854
14	0xbeaeec1d	-0.34164515
15	0xbe695870	-0.22787642
16	0x3eb2690c	0.3484577
17	0xbe5ef358	-0.21772516
18	0x3e646758	0.22305048
19	0x3e9f040e	0.3105778
20	0x3d6106c0	0.054938078
21	0xbeaf16bb	-0.3419703
22	0x3bee8180	0.007278621
23	0xbea1a643	-0.3157216
24	0xbec9dac3	-0.39424714
25	0xbe51e225	-0.20496424
26	0xbe8b59ba	-0.27216893
27	0xbe0f58d8	-0.13998735
28	0xbcdbdb70	-0.026838034
29	0xbec0244f	-0.375277
30	0x3e8182f6	0.25295228
31	0xbd0bb7c0	-0.034110785
32	0xbd3f40f8	-0.04669282
33	0xbbfdef00	-0.0077494383
34	0xbe254dc5	-0.16142948
35	0xbec695e3	-0.3878623
36	0xbd17d670	-0.037069738
37	0x3e2c931c	0.16852993
38	0xbe9430e2	-0.28943545
39	0xbe38365f	-0.17989491
40	0x3c57cd60	0.013171524
41	0x3eb642f8	0.35597968
42	0x3ea7ff1e	0.32811826
43	0xbe7da120	-0.24768496
44	0xbe808886	-0.2510416
45	0x3e828f12	0.2549978
46	0xbcef8750	-0.029239327
47	0xbbca05c0	-0.0061652362
48	0x3deef078	0.116669595
49	0xbe3798c3	-0.17929368
50	0xbd6325d0	-0.055455983
51	0xbda997a8	-0.08280879
52	0xbe61465e	-0.21999499
53	0x3ec1966a	0.3781007
54	0xbe3c1e7d	-0.18371005
55	0xbc905de0	-0.017622888
56	0xbdcb9ed4	-0.099424034
57	0x3ebac618	0.3647926
58	0xbe8cd60a	-0.2750705
59	0xbe0db0d6	-0.13836989

bias f4 [10]
0	0x3e38400c	0.17993182
1	0x3e0de7fc	0.13858026
2	0xbc47fa60	-0.01220569
3	0x3e95cd26	0.29258078
4	0xbe811700	-0.2521286
5	0xbe5330fd	-0.20624156
6	0x3ea92ed4	0.3304354
7	0xbe0d1a44	-0.13779551
8	0x3ea89ffa	0.32934552
9	0xbea5b951	-0.32367948

weight f4 [10, 10]
0	0x3e4a18f6	0.19736084
1	0x3d7bafd0	0.061446965
2	0x3de4bd94	0.11168972
3	0x3ae92900	0.0017788708
4	0x3e00343e	0.12519929
5	0x3de9bad8	0.11412591
6	0x3d199620	0.037496686
7	0xbd7122f0	-0.05887121
8	0x3cfb1dd0	0.030653864
9	0x3e8be8db	0.27326092
10	0xbdcb5fc2	-0.09930374
11	0xbdae0e2c	-0.08498797
12	0x3d9e9f4c	0.07745227
13	0x3d8a9c4c	0.067680925
14	0xbe3e9c2d	-0.18614264
15	0x3c9eb9f0	0.019375771
16	0x3d3229b8	0.043496817
17	0x3d95c138	0.07312244
18	0xbdfae024	-0.12249783
19	0x3e66476a	0.2248818
20	0x3da23204	0.07919696
21	0xbe4c25e5	-0.1993633
22	0xbc258540	-0.01010257
23	0x3daf88a8	0.08570987
24	0xbda2f4ec	-0.079568714
25	0xbdab4704	-0.083631545
26	0xbbef2e00	-0.007299185
27	0x3e0e978c	0.13924998
28	0x3e806ff9	0.25085428
29	0x3e064f76	0.1311625
30	0x3e949c8d	0.2902569
31	0xbd8d407c	-0.06897065
32	0x3e85c73d	0.2612857
33	0xbdfc2e00	-0.12313461
34	0x3e6f032a	0.2334105
35	0x3df684c0	0.12037039
36	0xbe8593c8	-0.2608931
37	0x3e5c97d6	0.21542296
38	0xbe9d5ce3	-0.3073493
39	0x3df761d0	0.12079203
40	0xbe83e55e	-0.2576093
41	0xbe0df4dd	-0.13862939
42	0xbe4f5cbb	-0.20250218
43	0x3ea12f3d	0.31481352
44	0xbe04c276	-0.12964806
45	0xbd67b0e8	-0.056565195
46	0xbe931402	-0.28726202
47	0x3e267aa0	0.16257715
48	0x3e8f0513	0.2793356
49	0xbd8e0974	-0.06935397
50	0xbd3cb0a0	-0.04606688
51	0x3e0b23c6	0.13587865
52	0xbe257dfb	-0.16161339
53	0xbe8455e3	-0.25846776
54	0x3e008dee	0.12554142
55	0x3e0ce504	0.13759238
56	0x3d4629a8	0.04837957
57	0xbe1e737e	-0.15473744
58	0x3e2308e2	0.15921357
59	0x3cc124e0	0.023577154
60	0xbcceb410	-0.025232345
61	0xbe992107	-0.2990801
62	0xbe815788	-0.25262094
63	0x3e94d2d1	0.2906709
64	0x3db04b40	0.08608103
65	0x3dda0758	0.10645932
66	0x3e566efe	0.20940778
67	0x3e64f696	0.2235969
68	0x3def983c	0.11698958
69	0x3e92debd	0.2868556
70	0xbe0d59f4	-0.13803846
71	0xbd2926b8	-0.04129669
72	0xbea0a840	-0.31378365
73	0x3e8d5ee7	0.27611467
74	0xbe79996d	-0.24374934
75	0x3e2459d8	0.16049898
76	0x3e449c8a	0.1920034
77	0xbe722b7a	-0.23649397
78	0xbcec2330	-0.028825372
79	0xbe537be0	-0.20652723
80	0xbdeff03e	-0.117157444
81	0xbe5e892f	-0.21732019
82	0x3e1b335c	0.15156311
83	0xbe0003e4	-0.12501484
84	0x3e74b6d2	0.23897865
85	0xbdbd057e	-0.09229563
86	0xbd932cd2	-0.07186283
87	0x3d9edf78	0.07757467
88	0xbe0b12ac	-0.13581342
89	0xbd88cdda	-0.06679888
90	0x3e151548	0.145589
91	0xbe28625a	-0.16443768
92	0x3e44c54a	0.19215885
93	0xbdd276a2	-0.10276534
94	0x3d27c0c0	0.040955305
95	0xbd6b71d8	-0.057481617
96	0xbd07d7e0	-0.03316486
97	0xbdce80e6	-0.10083179
98	0xbe89bb6f	-0.26900813
99	0xbe520666	-0.20510253

bias f4 [10]
0	0xbcb08c10	-0.021551162
1	0xbb9a2600	-0.004704237
2	0xbdfa85ea	-0.12232573
3	0xbe5e4f82	-0.21710017
4	0x3e6abdc2	0.2292395
5	0x3e82b17b	0.25526032
6	0x3e451e96	0.19249949
7	0x3df80854	0.121109635
8	0xbd1daaa0	-0.0384928
9	0xbd9a0d3e	-0.07522057

weight f4 [10, 10]
0	0x3da27e94	0.07934299
1	0x3dea3f84	0.11437896
2	0xbe885528	-0.2662747
3	0xbe2ad506	-0.16682824
4	0x3dd250b0	0.10269296
5	0xbd8538a8	-0.06504947
6	0x3e96b93d	0.294382
7	0xbe5e4d72	-0.2170923
8	0xbe1a470f	-0.15066169
9	0x3d1ee860	0.03879583
10	0x3dc104cc	0.09424743
11	0x3ea00539	0.31253985
12	0xbe59d3be	-0.2127218
13	0x3d8f896c	0.07008633
14	0xbbf490c0	-0.0074635446
15	0x3cd563d0	0.02604857
16	0x3c5d7480	0.013516545
17	0xbe7e1fca	-0.24816814
18	0x3e50fdbe	0.20409295
19	0x3dbbc3f0	0.091682315
20	0xbe64208f	-0.22278045
21	0x3e2dda5a	0.16977826
22	0xbe6b809b	-0.22998278
23	0x3e8bc4e1	0.27298644
24	0x3e8bc1a1	0.27296165
25	0x3e715092	0.23565891
26	0x3e94f203	0.2909089
27	0x3dbf21b0	0.09332597
28	0xbe898fb6	-0.26867455
29	0x3e9a9f61	0.3019972
30	0x3cfc9180	0.030831099
31	0xbe917ef0	-0.28417158
32	0xbd2e0208	-0.042482406
33	0xbe65a0d3	-0.22424631
34	0xbe79a2bc	-0.24378484
35	0x3e80664f	0.25078055
36	0xbdcac58a	-0.09900959
37	0x3e4c00aa	0.19922128
38	0xbdfcfe9c	-0.123532504
39	0x3e425e6a	0.18981329
40	0x3d8ad9c4	0.06779817
41	0xbc5e58e0	-0.013570994
42	0x3db68134	0.08911362
43	0xbe431fb1	-0.19055058
44	0xbe6001d7	-0.21875702
45	0x3e42c612	0.1902087
46	0x3e3e8a3a	0.18607417
47	0x3df246b0	0.11829889
48	0x3e9f68ab	0.31134543
49	0xbe3e7e83	-0.18602948
50	0xbe10c10b	-0.1413614
51	0x3d5c0b78	0.053721875
52	0x3e98a06b	0.2980989
53	0x3e1f5de0	0.15563154
54	0x3d10bf18	0.03533849
55	0xbdf45696	-0.119305775
56	0x3e8dd2fd	0.27700034
57	0x3c55c660	0.013047785
58	0x3e9560b3	0.29175338
59	0x3dfbdcd4	0.12297979
60	0x3e985c2b	0.2975782
61	0x3e4ccd76	0.20000252
62	0x3d0d0d60	0.034436584
63	0x3e8df201	0.27723697
64	0xbd040ce8	-0.03223887
65	0x3c329680	0.01090014
66	0xbc9d9da0	-0.0192402
67	0xbe966cd0	-0.29379892
68	0xbe229426	-0.15876827
69	0xbe6efefa	-0.23339453
70	0xbd8322c4	-0.064031154
71	0x3d743cb0	0.05962819
72	0x3e6c0552	0.23048905
73	0x3e9cb1fb	0.30604538
74	0xbdd600e2	-0.10449387
75	0x3df8773c	0.12132117
76	0xbe2dbd79	-0.1696681
77	0x3e6a072a	0.22854295
78	0x3df3b930	0.11900556
79	0xbc780320	-0.015137464
80	0xbe905ffc	-0.2819823
81	0xbe83f109	-0.25769833
82	0xbc407c40	-0.0117483735
83	0x3ddd1e1c	0.107967585
84	0xbe10fa8c	-0.14158076
85	0x3da196c4	0.078900844
86	0xbe8e0534	-0.27738345
87	0x3dcd5230	0.10025442
88	0xbe090098	-0.13379133
89	0xbd4a44d8	-0.04938206
90	0x3e7be1e2	0.24597886
91	0x3e832ef5	0.25621763
92	0x3e906acf	0.28206488
93	0xbd116a30	-0.03550166
94	0xbdfdaf48	-0.12386948
95	0x3dc447a4	0.09583977
96	0xbdf59b1c	-0.119924754
97	0xbdc0660e	-0.093944654
98	0xbe9f099a	-0.31062013
99	0xbe95b180	-0.29236984

bias f4 [10]
0	0x3dd825b0	0.10554063
1	0xbe3414ae	-0.17586014
2	0x3e0b4e90	0.13604188
3	0x3e82f89d	0.25580302
4	0x3e4568a6	0.19278201
5	0xbe8ed00e	-0.27893108
6	0xbd0caf68	-0.034346968
7	0xbe6a99ca	-0.22910228
8	0xbe90e57f	-0.28300092
9	0x3e7e1cd2	0.24815682

weight f4 [10, 10]
0	0x3e4bee7a	0.1991519
1	0x3c5e3c80	0.013564229
2	0xbe84965a	-0.2589596
3	0x3e0be258	0.13660562
4	0x3d276f48	0.04087761
5	0x3e84df83	0.25951776
6	0x3e94a487	0.29031774
7	0x3e898651	0.26860288
8	0x3e5b8542	0.21437553
9	0xbc188240	-0.009308398
10	0x3d364398	0.044498056
11	0x3e70ad82	0.23503688
12	0xbe971ebb	-0.29515633
13	0x3dc36f20	0.0954268
14	0xbe782d76	-0.24236092
15	0x3e6725de	0.22573039
16	0x3b3fc700	0.00292629
17	0x3e3c231a	0.18372765
18	0xbe329ff3	-0.17443828
19	0x3e98b87f	0.2982826
20	0x3cfb3520	0.03066498
21	0x3e9a33d9	0.30117682
22	0xbe1108db	-0.14163534
23	0xbc713f00	-0.014724493
24	0x3e67aeb2	0.22625235
25	0x3e25af2c	0.16180104
26	0x3d9e9b44	0.07744458
27	0xbe97e178	-0.29664207
28	0x3e85d78b	0.2614101
29	0xbdc87938	-0.09788746
30	0xbd566f40	-0.05235219
31	0x3ddb6110	0.107118726
32	0x3dc686dc	0.09693691
33	0x3e1eb018	0.15496862
34	0x3d467fe8	0.048461825
35	0x3e968093	0.2939497
36	0xbe38dd69	-0.18053211
37	0xbdb0b8e8	-0.08629018
38	0x3d75d768	0.06001988
39	0xbe88242f	-0.26590106
40	0x3dc41a94	0.09575382
41	0x3c03b740	0.008039296
42	0xbe0969c0	-0.13419247
43	0xbc9f2f90	-0.01943186
44	0x3e43bba6	0.19114551
45	0x3c6e9a40	0.014563143
46	0xbc283280	-0.010265946
47	0x3e2f0762	0.1709266
48	0xbe873a76	-0.2641179
49	0x3e2689e2	0.16263536
50	0x3c6a50e0	0.014301509
51	0x3dda26f4	0.10651961
52	0x3e83f303	0.2577134
53	0x3ddaaf30	0.106779456
54	0x3e91b1ff	0.28456113
55	0xbe8b1706	-0.27166003
56	0x3e698f6a	0.22808614
57	0xbe233d61	-0.15941383
58	0xbe2f453b	-0.17116253
59	0xbde0d6e4	-0.10978487
60	0xbe76d844	-0.24105936
61	0xbe3909c3	-0.1807013
62	0x3e56b332	0.20966795
63	0xbe17fa32	-0.14841536
64	0x3e894225	0.26808277
65	0xbe3acf25	-0.18243082
66	0x3d908170	0.07055938
67	0x3e583d72	0.2111719
68	0x3dc3097c	0.095232934
69	0x3d20edb8	0.039289206
70	0xbdef2eca	-0.11678846
71	0xbe8fa7cc	-0.28057706
72	0xbd9c81a0	-0.076419115
73	0x3e9ae993	0.30256328
74	0xbe65c15b	-0.2243704
75	0x3dd8cb78	0.105856836
76	0xbe295a09	-0.16538252
77	0xbe094bc2	-0.13407806
78	0x3ddd5864	0.10807875
79	0xbd9b675e	-0.07588075
80	0x3e08c152	0.13354996
81	0x3e923e93	0.28563365
82	0xbe8464cb	-0.2585815
83	0x3da4c8b4	0.080460936
84	0xbe19574f	-0.14974712
85	0xbb95f280	-0.0045760274
86	0xbb4f3100	-0.00316149
87	0x3e64eec2	0.22356704
88	0x3e87bfcb	0.26513514
89	0x3d653b40	0.05596471
90	0xbe4846b6	-0.19558224
91	0x3c61f520	0.0137913525
92	0xbe6ba839	-0.2301339
93	0x3e882ab7	0.2659509
94	0xbd1ae750	-0.037818253
95	0xbe1dc5d6	-0.154075
96	0x3e9e7e99	0.3095596
97	0xbdad7348	-0.08469254
98	0x3e828d45	0.25498405
99	0xbdeca662	-0.115551725

bias f4 [10]
0	0xbe8657c5	-0.26238838
1	0xbe212d27	-0.1573988
2	0x3cb71f90	0.022353917
3	0xbdc26ec8	-0.09493786
4	0xbe99fe17	-0.30076668
5	0xbe3a4e99	-0.18194045
6	0x3e773ee2	0.24145082
7	0x3e50f26e	0.2040498
8	0xbe76d5b3	-0.24104957
9	0xbd8fe7d8	-0.070266426

weight f4 [10, 10]
0	0x3e347c6a	0.17625585
1	0xbe93564c	-0.28776777
2	0xbe935e9d	-0.28783122
3	0x3e8fa557	0.28055832
4	0xbd8eaa28	-0.069660485
5	0xbc884800	-0.016635895
6	0xbe88c87a	-0.2671545
7	0xbdf3ff12	-0.11913885
8	0x3e91a69f	0.28447434
9	0x3c290360	0.010315746
10	0xbc05db20	-0.008169919
11	0xbe1bfddb	-0.15233557
12	0x3d7a8fe8	0.061172396
13	0xbd9dca8a	-0.07704647
14	0x3e31853a	0.17335978
15	0xbe9eabf1	-0.30990556
16	0xbde50cac	-0.111840576
17	0x3dfd0acc	0.12355575
18	0xbe49e808	-0.19717419
19	0xbe243df3	-0.16039257
20	0xbe8a6e96	-0.27037495
21	0x3e9b23df	0.30300805
22	0x3e825e23	0.25462446
23	0xbdb0906a	-0.08621295
24	0x3baaed00	0.005216241
25	0x3dff74d8	0.12473458
26	0x3de97748	0.11399704
27	0xbe2a0e58	-0.16607034
28	0xbe4d298a	-0.20035377
29	0xbe8a7db9	-0.27049044
30	0x3d2ba6f8	0.04190728
31	0xbdd8dfd0	-0.10589564
32	0x3b0a8200	0.0021134615
33	0x3d58e278	0.052950352
34	0xbd93be20	-0.07213998
35	0xbdb23410	-0.087013364
36	0xbe78421a	-0.24243966
37	0xbe22f2bb	-0.15912907
38	0xbe938bab	-0.28817496
39	0x3e6f162e	0.23348305
40	0xbde8ecdc	-0.11373302
41	0xbe9b3bd3	-0.3031908
42	0xbe940f8f	-0.2891812
43	0x3d76a7b0	0.060218513
44	0x3e719ad2	0.23594216
45	0xbd0ec630	-0.034856975
46	0x3d7170d8	0.058945507
47	0xbe7a6408	-0.24452221
48	0x3e8af87f	0.27142712
49	0x3e1d679e	0.15371558
50	0xbe080d77	-0.13286386
51	0xbe81d9e4	-0.2536155
52	0x3e7c6242	0.24646857
53	0xbe9ec290	-0.31007814
54	0xbe8232af	-0.25429294
55	0xbe0f4c75	-0.1399401
56	0x3e0de95c	0.13858551
57	0xbe8700bb	-0.26367745
58	0x3d31d690	0.043417513
59	0xbe1b7652	-0.15181854
60	0x3e99d26b	0.3004335
61	0xbe28ef1a	-0.1649746
62	0xbe7b5f71	-0.24548127
63	0xbe64878c	-0.22317332
64	0x3d4136b8	0.047171324
65	0xbddf5c9a	-0.10906334
66	0x3e3ccb26	0.1843687
67	0xbe690d3e	-0.22758958
68	0x3e80ae57	0.2513301
69	0x3d2fdc18	0.042934507
70	0xbe5ec21a	-0.21753731
71	0x3e3481fa	0.17627707
72	0xbe23f553	-0.16011553
73	0xbea1d6b4	-0.31609118
74	0x3d588e70	0.052870214
75	0xbe5408f6	-0.20706543
76	0xbe93675a	-0.28789788
77	0x3e491b6a	0.19639364
78	0xbe18e89f	-0.14932488
79	0x3e67bce6	0.22630653
80	0xbe4f1f14	-0.20226699
81	0x3e2bf218	0.1679157
82	0x3df86514	0.12128654
83	0xbe08c8c8	-0.13357842
84	0xbe19913a	-0.14996806
85	0x3c243be0	0.010024041
86	0xbdcfdbe2	-0.10149361
87	0x3d1ec7e0	0.038764834
88	0xb9dde400	-0.00042322278
89	0x3e809c3b	0.25119194
90	0x3d146728	0.03623119
91	0xbe27f96a	-0.16403738
92	0x3e11afaa	0.14227167
93	0xbe1c5ff9	-0.15270986
94	0xbdfbfe2a	-0.12304337
95	0xbe656d68	-0.22405016
96	0x3e6b0a3a	0.2295312
97	0xbe9a06d6	-0.3008334
98	0x3a4a5400	0.00077182055
99	0x3e388e50	0.18023038

bias f4 [10]
0	0xbd1a15e8	-0.037618548
1	0xbe9a54c6	-0.30142802
2	0x3d9522c0	0.07282019
3	0x3e2d7ef0	0.16942954
4	0x3e985c81	0.29758075
5	0x3e802095	0.25024858
6	0xbe9e6a11	-0.30940297
7	0xbd592900	-0.053017616
8	0xbd5679e0	-0.052362323
9	0xbd0e2090	-0.034699023

weight f4 [10, 10]
0	0xbd417c68	-0.047237784
1	0xbe0d29e8	-0.13785517
2	0xbe403704	-0.18770987
3	0x3e6cfb96	0.23142847
4	0xbe9cee41	-0.30650523
5	0xbe94e8f7	-0.29083988
6	0x3e7ad02a	0.24493471
7	0xbde1b930	-0.1102165
8	0xbab2c800	-0.0013639927
9	0x3e20f422	0.1571813
10	0x3e06d9b0	0.13168979
11	0x3e415e6a	0.18883672
12	0xbdf7bcf0	-0.12096584
13	0xbe6de3bc	-0.23231405
14	0x3e9ef027	0.31042597
15	0xbd071268	-0.032976538
16	0xbe820f23	-0.25402173
17	0xbe2003b3	-0.15626411
18	0xbe9e4e29	-0.30919006
19	0x3e937619	0.2880104
20	0xbe618922	-0.22024968
21	0xbe91479b	-0.28374943
22	0xbe5540a0	-0.20825434
23	0xbd490c90	-0.049084246
24	0x3dfbcff0	0.1229552
25	0x3e8efc0b	0.2792667
26	0xbe35a9d4	-0.17740566
27	0x3e1b3d2e	0.15160057
28	0x3e61c552	0.22047928
29	0x3d940b5c	0.07228729
30	0xbe6bbd8a	-0.23021522
31	0x3e9b8771	0.3037677
32	0x3dddcbdc	0.10829899
33	0xbe86ff86	-0.26366824
34	0x3e686a06	0.22696695
35	0x3e785e06	0.24254617
36	0x3d9aaa7c	0.075520486
37	0xbd2eb790	-0.042655528
38	0xbe92972f	-0.2863097
39	0x3e92b87d	0.28656378
40	0xbe3cba3f	-0.18430422
41	0x3dd7f898	0.10545462
42	0x3e1af8f2	0.15134028
43	0x3e7ca056	0.24670538
44	0xbe8386b0	-0.25688696
45	0xbe21f419	-0.15815772
46	0x3e95520f	0.29164168
47	0xbe885137	-0.26624462
48	0xbe6e90b4	-0.23297387
49	0x3e86ad7b	0.2630423
50	0xbe7108e9	-0.23538555
51	0x3e4f7f06	0.202633
52	0xbd10e2a8	-0.035372406
53	0xbe2d7940	-0.16940784
54	0x3e9742a1	0.2954302
55	0xbe546132	-0.20740202
56	0x3b696700	0.0035614371
57	0x3c07c240	0.008286059
58	0x3d41c760	0.04730928
59	0x3e0a8382	0.13526729
60	0x3cbbd280	0.022927523
61	0xbe775570	-0.24153686
62	0xbe9da8d9	-0.30792883
63	0x3e7f5f82	0.24938777
64	0xbdeda4ca	-0.11603697
65	0x3e35c2e4	0.17750126
66	0xbe1be114	-0.15222579
67	0xbdf1d194	-0.11807552
68	0xbe97d5c7	-0.29655287
69	0xbdf2780e	-0.11839305
70	0xbe2d5160	-0.16925573
71	0x3c2eb120	0.010662347
72	0x3e3b8656	0.18312964
73	0x3c0f69c0	0.00875324
74	0x3e9531c1	0.29139522
75	0x3e86afef	0.26306102
76	0xbe6b523d	-0.2298059
77	0xbe76f1a8	-0.24115622
78	0x3e41b60e	0.18917105
79	0xbe9dd0ca	-0.30823356
80	0xbcb866f0	-0.022510022
81	0x3dfab680	0.1224184
82	0x3e123fde	0.14282176
83	0x3d49f6e0	0.049307704
84	0x3d8ee7b8	0.069777906
85	0x3e5e61ea	0.21717039
86	0x3e311e08	0.17296612
87	0x3e5c425e	0.21509692
88	0x3e9f1a61	0.31074813
89	0xbdc9aefc	-0.09847829
90	0x3e3e6346	0.18592557
91	0x3dd6722c	0.10470995
92	0xbe1a6e2a	-0.15081087
93	0x3e468e4e	0.19390222
94	0x3e277102	0.16351703
95	0x3e85d777	0.2614095
96	0x3e3659be	0.17807671
97	0x3e9ff841	0.3124409
98	0x3e9c42e1	0.30519775
99	0xbd61c088	-0.055115253

bias f4 [10]
0	0x3dca19b0	0.09868181
1	0x3e2ebe5c	0.17064804
2	0xbd9456e8	-0.072431386
3	0xbe0ec35f	-0.13941716
4	0x3d173538	0.036915988
5	0x3e806c01	0.250824
6	0xbc88ee50	-0.016715199
7	0x3e02eb24	0.12785012
8	0xbe31ee93	-0.17376165
9	0xbd8faec8	-0.07015759

weight f4 [1, 10]
0	0xbe6de05e	-0.2323012
1	0x3e10ed44	0.1415301
2	0x3e4b9472	0.19880846
3	0xbe1daade	-0.15397212
4	0xbe33804b	-0.17529409
5	0x3e352698	0.17690504
6	0xbdf6112e	-0.120149955
7	0x3e85cb07	0.2613146
8	0xbd9a1238	-0.07523006
9	0xbe469378	-0.19392192

add_tensors f4 [10, 6]
0	0x00000000	0.0
1	0x00000000	0.0
2	0x00000000	0.0
3	0x00000000	0.0
4	0x00000000	0.0
5	0x00000000	0.0
6	0x00000000	0.0
7	0x00000000	0.0
8	0x00000000	0.0
9	0x00000000	0.0
10	0x00000000	0.0
11	0x00000000	0.0
12	0x00000000	0.0
13	0x00000000	0.0
14	0x00000000	0.0
15	0x00000000	0.0
16	0x00000000	0.0
17	0x00000000	0.0
18	0x00000000	0.0
19	0x00000000	0.0
20	0x00000000	0.0
21	0x00000000	0.0
22	0x00000000	0.0
23	0x00000000	0.0
24	0x00000000	0.0
25	0x00000000	0.0
26	0x00000000	0.0
27	0x00000000	0.0
28	0x00000000	0.0
29	0x00000000	0.0
30	0x00000000	0.0
31	0x00000000	0.0
32	0x00000000	0.0
33	0x00000000	0.0
34	0x00000000	0.0
35	0x00000000	0.0
36	0x00000000	0.0
37	0x00000000	0.0
38	0x00000000	0.0
39	0x00000000	0.0
40	0x00000000	0.0
41	0x00000000	0.0
42	0x00000000	0.0
43	0x00000000	0.0
44	0x00000000	0.0
45	0x00000000	0.0
46	0x00000000	0.0
47	0x00000000	0.0
48	0x00000000	0.0
49	0x00000000	0.0
50	0x00000000	0.0
51	0x00000000	0.0
52	0x00000000	0.0
53	0x00000000	0.0
54	0x00000000	0.0
55	0x00000000	0.0
56	0x00000000	0.0
57	0x00000000	0.0
58	0x00000000	0.0
59	0x00000000	0.0

add_tensors f4 [10]
0	0x00000000	0.0
1	0x00000000	0.0
2	0x00000000	0.0
3	0x00000000	0.0
4	0x00000000	0.0
5	0x00000000	0.0
6	0x00000000	0.0
7	0x00000000	0.0
8	0x00000000	0.0
9	0x00000000	0.0

add_tensors f4 [10, 10]
0	0x00000000	0.0
1	0x00000000	0.0
2	0x00000000	0.0
3	0x00000000	0.0
4	0x00000000	0.0
5	0x00000000	0.0
6	0x00000000	0.0
7	0x00000000	0.0
8	0x00000000	0.0
9	0x00000000	0.0
10	0x00000000	0.0
11	0x00000000	0.0
12	0x00000000	0.0
13	0x00000000	0.0
14	0x00000000	0.0
15	0x00000000	0.0
16	0x00000000	0.0
17	0x00000000	0.0
18	0x00000000	0.0
19	0x00000000	0.0
20	0x00000000	0.0
21	0x00000000	0.0
22	0x00000000	0.0
23	0x00000000	0.0
24	0x00000000	0.0
25	0x00000000	0.0
26	0x00000000	0.0
27	0x00000000	0.0
28	0x00000000	0.0
29	0x00000000	0.0
30	0x00000000	0.0
31	0x00000000	0.0
32	0x00000000	0.0
33	0x00000000	0.0
34	0x00000000	0.0
35	0x00000000	0.0
36	0x00000000	0.0
37	0x00000000	0.0
38	0x00000000	0.0
39	0x00000000	0.0
40	0x00000000	0.0
41	0x00000000	0.0
42	0x00000000	0.0
43	0x00000000	0.0
44	0x00000000	0.0
45	0x00000000	0.0
46	0x00000000	0.0
47	0x00000000	0.0
48	0x00000000	0.0
49	0x00000000	0.0
50	0x00000000	0.0
51	0x00000000	0.0
52	0x00000000	0.0
53	0x00000000	0.0
54	0x00000000	0.0
55	0x00000000	0.0
56	0x00000000	0.0
57	0x00000000	0.0
58	0x00000000	0.0
59	0x00000000	0.0
60	0x00000000	0.0
61	0x00000000	0.0
62	0x00000000	0.0
63	0x00000000	0.0
64	0x00000000	0.0
65	0x00000000	0.0
66	0x00000000	0.0
67	0x00000000	0.0
68	0x00000000	0.0
69	0x00000000	0.0
70	0x00000000	0.0
71	0x00000000	0.0
72	0x00000000	0.0
73	0x00000000	0.0
74	0x00000000	0.0
75	0x00000000	0.0
76	0x00000000	0.0
77	0x00000000	0.0
78	0x00000000	0.0
79	0x00000000	0.0
80	0x00000000	0.0
81	0x00000000	0.0
82	0x00000000	0.0
83	0x00000000	0.0
84	0x00000000	0.0
85	0x00000000	0.0
86	0x00000000	0.0
87	0x00000000	0.0
88	0x00000000	0.0
89	0x00000000	0.0
90	0x00000000	0.0
91	0x00000000	0.0
92	0x00000000	0.0
93	0x00000000	0.0
94	0x00000000	0.0
95	0x00000000	0.0
96	0x00000000	0.0
97	0x00000000	0.0
98	0x00000000	0.0
99	0x00000000	0.0

add_tensors f4 [1, 10]
0	0x00000000	0.0
1	0x00000000	0.0
2	0x00000000	0.0
3	0x00000000	0.0
4	0x00000000	0.0
5	0x00000000	0.0
6	0x00000000	0.0
7	0x00000000	0.0
8	0x00000000	0.0
9	0x00000000	0.0
