Relu_fixed_simple/TorchSaves/Best_Ball_Gen2.pt (torch_old, 16332 bytes, 17 tensors)

weight f4 [10, 6]
0.10380091 1.1634779 -0.0035850387 0.060075566 0.2766655 -0.7384914 -0.09823954 0.010670602
0.028567014 -0.32302547 -0.62140036 -0.45230973 0.20582676 -0.09894 0.066060916 0.3012586
-0.24975587 -0.7348933 -0.01455459 -0.13142566 0.13581459 0.29246712 0.082777515 0.0009777788
0.36088464 -0.16403736 -0.120773725 0.028631711 0.053440437 -0.73809886 -0.44047362 0.28656587
0.25012523 0.58192146 -0.18812022 -0.35602647 0.24424107 0.28721112 -0.07537879 0.29967597
0.124904305 0.072903305 0.13837387 0.42961627 0.30930886 0.195211 -0.24058154 -0.121348575
-0.01822401 1.0130897 -0.055921674 0.23489226 0.012648284 -0.3198508 0.73008597 -0.015375014
-0.34841925 -0.019273821 -0.2107717 -0.28448874
00000000: 9295 d43d d8ec 943f f8f2 6abb cc11 763d
00000010: 1aa7 8d3e c60d 3dbf d031 c9bd c0d3 2e3c
00000020: 5f05 ea3c 9863 a5be 1814 1fbf 2495 e7be
00000030: 40c4 523e 0ea1 cabd f24a 873d 913e 9a3e
00000040: 01c0 7fbe f821 3cbf 6076 6ebc 7394 06be
00000050: fb12 0b3e 40be 953e 4287 a93d d028 803a
00000060: dfc5 b83e 69f9 27be 3758 f7bd 0d8d ea3c
00000070: 5ce4 5a3d 0cf4 3cbf c285 e1be c3b8 923e
00000080: 6a10 803e cef8 143f 96a2 40be 1a49 b6be
00000090: 551a 7a3e 560d 933e 3260 9abd 216f 993e
000000a0: d4cd ff3d 544e 953d e1b1 0d3e aaf6 db3e
000000b0: bb5d 9e3e 64e5 473e 025b 76be 9a85 f8bd
000000c0: 854a 95bc ecac 813f 200e 65bd 9987 703e
000000d0: c03a 4f3c 7cc3 a3be eae6 3a3f 7ce7 7bbc
000000e0: 0264 b2be 22e4 9dbc 89d4 57be 82a8 91be

bias f4 [10]
-0.063027084 0.05832245 -0.104706824 0.018992571 0.06188424 0.09188231 -0.01177305 -0.06917257
0.26685947 -0.7279053
00000000: 5814 81bd 85e3 6e3d 8870 d6bd 4f96 9b3c
00000010: 547a 7d3d cb2c bc3d c0e3 40bc 59aa 8dbd
00000020: cea1 883e 0058 3abf

weight f4 [10, 10]
0.02198264 0.006044115 0.09576294 -0.012501553 0.2990362 0.1068383 0.1909768 0.13104239
-0.266362 0.14736773 0.35333318 0.08183634 -0.15368506 -0.051735677 -0.027790017 -0.10280836
-0.4600373 -0.10894245 0.027503036 0.27986717 -0.008155696 0.07791035 -0.13541195 0.19852781
0.2155786 -0.19800209 0.17795032 -0.0070483107 -0.13592723 -0.29131043 -0.0045159645 0.0026202202
-0.15553987 -0.03650828 0.006755439 -0.19742462 0.049525335 -0.17734575 -0.13004017 -0.02380392
-0.4984588 0.12637877 0.1614609 -0.0074854465 0.23251309 0.36343592 -0.09592019 -0.11298602
0.011447281 -0.10429643 -0.38776556 -0.62273765 -0.086374156 -0.21689479 -0.010243707 0.13673478
0.033290967 -0.039199285 0.10440141 -0.07981509 0.0016165888 0.07997492 0.42186868 -0.16103908
0.2345092 -0.71735024 0.16505992 0.19697239 0.058365285 -0.14658502 0.00028939173 -0.14550823
0.02897517 -0.005339722 -0.15195952 0.17736275 0.04957346 -0.17620999 -0.04651358 -0.04164748
-0.17914814 0.05739215 -0.2851602 0.10965095 -0.09847714 0.67244995 -0.07360339 -0.16870463
-0.31705785 -0.033469714 -0.111604646 -0.15072048 0.06691243 -0.34593704 -0.03831912 0.31136772
0.03781545 0.11127797 -0.010065049 0.058492422
00000000: f014 b43c b60d c63b 5c1f c43d 50d3 4cbc
00000010: 461b 993e 0ace da3d 6c8f 433e fa2f 063e
00000020: 9a60 88be 91e7 163e 16e8 b43e d099 a73d
00000030: 9e5f 1dbe cae8 53bd e4a7 e3bc 308d d2bd
00000040: 028a ebbe 381d dfbd 0c4e e13c c04a 8f3e
00000050: 789f 05bc 768f 9f3d 6ea9 0abe e04a 4b3e
00000060: a3c0 5c3e 0fc1 4abe 9c38 363e 84f5 e6bb
00000070: 8230 0bbe a426 95be a8fa 93bb 00b8 2b3b
00000080: d845 1fbe b589 15bd bb5c dd3b ae29 4abe
00000090: 14db 4a3d 209a 35be 4029 05be 7000 c3bc
000000a0: fe35 ffbe 7069 013e 0256 253e 7a48 f5bb
000000b0: e917 6e3e 4614 ba3e ce71 c4bd 3765 e7bd
000000c0: 608d 3b3c 5e99 d5bd 3589 c6be bc6b 1fbf
000000d0: efe4 b0bd ab19 5ebe 39d5 27bc 3404 0c3e
000000e0: 1c5c 083d 6e8f 20bd 68d0 d53d 1876 a3bd
000000f0: b8e3 d33a e4c9 a33d 2cff d73e 6ee7 24be
00000100: 2e23 703e 44a4 37bf 7805 293e 21b3 493e
00000110: 7010 6f3d 621a 16be 80b9 9739 1c00 15be
00000120: 565d ed3c d6f8 aebb 479b 1bbe 959e 353e
00000130: 8a0d 4b3d 6470 34be 0685 3ebd 8c96 2abd
00000140: 9c72 37be 0814 6b3d 8500 92be ad90 e03d
00000150: 62ae c9bd ae25 2c3f 60bd 96bd e8c0 2cbe
00000160: 6855 a2be 8a17 09bd fa90 e4bd 7856 1abe
00000170: 6209 893d a91e b1be 82f4 1cbd 976b 9f3e
00000180: 60e4 1a3d b4e5 e33d e0e7 24bc c095 6f3d

bias f4 [10]
-0.093759514 0.447832 -0.100537956 -0.10182361 0.10831977 -0.015336633 0.372016 0.18349305
-0.59796244 0.29877076
00000000: fd04 c0bd 3c4a e53e d8e6 cdbd e688 d0bd
00000010: c1d6 dd3d 8046 7bbc e278 be3e 9ae5 3b3e
00000020: 1114 19bf 7bf8 983e

weight f4 [10, 10]
0.6182589 0.1328254 -0.09809698 0.2703722 0.018031262 0.5469867 0.33864778 -0.09723532
-0.080149814 -0.037006304 -0.054753423 -0.02659043 -0.60640967 0.19910464 0.1958747 -0.950668
0.18785053 -0.008034592 0.19386983 0.66875905 0.7903422 0.2291847 -0.14691254 0.25966123
-0.3728222 0.32220343 -0.13056469 -0.00042005628 -0.13413449 0.9251126 0.036532696 -0.28859434
0.15656616 0.101672694 -0.065223604 -0.22225347 0.018483102 -0.3178607 0.043769136 -0.13648841
-0.016895544 0.3393241 0.026928013 -0.25840828 -0.00455904 -0.019922592 -0.017312719 0.041954685
0.019821562 0.0007005334 0.19146077 -0.31978434 -0.1970863 0.082632035 -0.024402916 0.54787004
-0.41848314 -0.480291 0.19366395 -0.21232983 -0.11756247 -0.03729689 0.0042965543 0.11627516
-0.45500204 0.08054681 -0.54418343 0.6123812 -0.16443692 0.34383678 0.014716517 0.20446385
-0.217481 -0.19488718 -0.11037926 -0.8181742 -0.009139407 0.04782991 -0.2392903 -0.0156158805
-0.11035133 -0.21529542 -0.26291972 0.28265482 0.06856899 0.4489277 -0.09335392 -0.5648732
-0.193789 0.06779923 -0.0051778555 0.34901825 -0.23791274 0.34742594 -0.38547015 -0.025614712
-0.42249864 0.3074304 0.0430513 0.6171796
00000000: 3746 1e3f 6203 083e 12e7 c8bd 3a6e 8a3e
00000010: 4cb6 933c 5207 0c3f 3e63 ad3e 5023 c7bd
00000020: 9625 a4bd ec93 17bd 2045 60bd 2cd4 d9bc
00000030: aa3d 1bbf 16e2 4b3e 6193 483e fa5e 73bf
00000040: e45b 403e 85a3 03bc d085 463e cb33 2b3f
00000050: de53 4a3f 65af 6a3e 3e70 16be 51f2 843e
00000060: 8de2 bebe d9f7 a43e c0b2 05be 003b dcb9
00000070: 8d5a 09be 2ed4 6c3f 4fa3 153d a3c2 93be
00000080: e152 203e c639 d03d f493 85bd 6a96 63be
00000090: e069 973c a3be a2be 4447 333d 9ec3 0bbe
000000a0: 8668 8abc e3bb ad3e 2398 dc3c 174e 84be
000000b0: 0064 95bb b434 a3bc 67d3 8dbc add8 2b3d
000000c0: d460 a23c 00a4 373a 4b0e 443e c6ba a3be
000000d0: fed0 49be fc3a a93d a0e8 c7bc 3641 0c3f
000000e0: 6c43 d6be b4e8 f5be d84f 463e fe6c 59be
000000f0: 98c4 f0bd a0c4 18bd 1cca 8c3b ac21 ee3d
00000100: 07f6 e8be baf5 a43d 9b4f 0bbf 04c5 1c3f
00000110: 2762 28be 600b b03e 8c1d 713c f95e 513e
00000120: 57b3 5ebe 8190 47be 850e e2bd dd73 51bf
00000130: 74bd 15bc 4ce9 433d 8408 75be c0d9 7fbc
00000140: e1ff e1bd 6776 5cbe 6a9d 86be 22b8 903e
00000150: e66d 8c3d dad9 e53e 5730 bfbd 889b 10bf
00000160: a070 46be 53da 8a3d 00ab a9bb 85b2 b23e
00000170: 669f 73be d0e1 b13e 585c c5be f2d5 d1bc
00000180: be51 d8be 8467 9d3e 8f56 303d 7bff 1d3f

bias f4 [10]
-0.1335928 -0.008607011 0.08348679 0.03645084 -0.01763717 0.012977958 0.064450204 -0.0024426568
0.12770341 0.16896582
00000000: 8dcc 08be 6c04 0dbc 1ffb aa3d 7a4d 153d
00000010: d47b 90bc 80a1 543c 78fe 833d fb14 20bb
00000020: afc4 023e 6005 2d3e

weight f4 [10, 10]
-0.27964172 0.0031679794 0.124828726 0.21238786 0.07007596 0.03398621 -0.0027385019 -0.52815735
0.045996767 0.25331527 -0.18529928 -0.31093088 0.060036626 0.071012765 -0.34516022 -0.6051966
-0.068862885 0.024389684 -0.10924201 0.0484958 -0.1408579 0.070804134 -0.025858076 0.0014727958
0.32378706 0.18200776 0.18573311 0.09739635 0.038614035 0.54491985 0.24863915 0.057960805
0.0035285354 0.24469562 -0.017931912 0.12105268 0.7903003 -0.20880906 -0.049410522 0.3714332
0.3249851 -0.055667605 -0.3195883 0.051043887 -0.49303567 -0.083698094 0.16125953 -0.24002382
-0.43328556 0.119333655 0.14480297 0.32512003 -0.51747 -0.088025354 -0.06575324 -0.027275013
-0.0030809194 -0.33279 -0.23422238 -0.05696976 0.5788232 0.20396261 -0.0006187384 0.12187728
-0.06934803 -0.24362287 -0.003854055 -0.3523847 0.09588733 -0.1282656 -0.0046150684 -0.06591566
0.062479705 -0.20102489 0.36359307 -0.42097157 0.19043323 0.21034878 0.21755067 -0.45147774
0.39678413 -0.10490653 -0.06097969 0.2567769 -0.28840905 0.007863496 -0.41081005 -0.015370394
-0.42090333 0.07006201 -0.09855537 -0.09747502 0.2428927 0.41500315 0.0223579 0.16852525
0.22125186 -0.0013528656 -0.42386883 -0.079394184
00000000: 332d 8fbe e09d 4f3b 34a6 ff3d 347c 593e
00000010: fc83 8f3d 2035 0b3d 7078 33bb 5235 07bf
00000020: 1b67 3c3d 8ab2 813e 18bf 3dbe 5532 9fbe
00000030: f7e8 753d 246f 913d d7b8 b0be 2aee 1abf
00000040: fc07 8dbd e0cc c73c 46ba dfbd 88a3 463d
00000050: 0e3d 10be c201 913d 51d4 d3bc d40a c13a
00000060: 6bc7 a53e 3e60 3a3e d230 3e3e bd77 c73d
00000070: c029 1e3d de7f 0b3f 439b 7e3e 4f68 6d3d
00000080: 003f 673b 7d91 7a3e f2e5 92bc 78ea f73d
00000090: 1f51 4a3f 0bd2 55be b062 4abd 7e2c be3e
000000a0: 7264 a63e b703 64bd 14a1 a3be 6513 513d
000000b0: 2c6f fcbe e869 abbd 3821 253e cec8 75be
000000c0: 9bd7 ddbe 3465 f43d 3b47 143e 2276 a63e
000000d0: ea78 04bf a346 b4bd a2a9 86bd d96f dfbc
000000e0: 40e9 49bb 7363 aabe fed7 6fbe 2059 69bd
000000f0: c22d 143f 93db 503e d532 22ba cc9a f93d
00000100: 5706 8ebd 4678 79be 5094 7cbb c46b b4be
00000110: 9460 c43d 0f58 03be 003a 97bb cafe 86bd
00000120: b8ea 7f3d 78d9 4dbe df28 ba3e 9689 d7be
00000130: ee00 433e ac65 573e 9ac5 5e3e 1728 e7be
00000140: 4a27 cb3e 3cd9 d6bd d7c5 79bd 4378 833e
00000150: 5aaa 93be e5d5 003c b255 d2be 1bd4 7bbc
00000160: a480 d7be ac7c 8f3d 66d7 c9bd fca0 c7bd
00000170: ddb8 783e 4b7b d43e ea27 b73c e291 2c3e
00000180: d98f 623e a352 b1ba 5605 d9be 6b99 a2bd

bias f4 [10]
0.03251288 -0.47351092 -0.33570877 -0.64245176 -0.031361654 0.0074685477 0.065594114 -0.11136052
-0.47475028 -0.019236326
00000000: 3a2c 053d 0670 f2be 05e2 abbe b877 24bf
00000010: 1475 00bd b8ba f43b 3556 863d fc10 e4bd
00000020: 7812 f3be 8095 9dbc

weight f4 [10, 10]
0.0063062776 -0.075994685 -0.73468983 -0.040354185 0.25523967 -0.51618314 0.0103792455 0.022119474
-0.032749984 -0.09196815 -0.022328343 -0.087889284 0.14272112 0.041863646 0.2609526 0.49555412
0.05190233 0.1335527 -0.18143162 -0.09572239 0.0013189653 0.11861811 -0.30887142 -0.41599685
-0.03224033 0.614293 0.017736092 -0.7102118 -0.3281012 -0.22404328 -0.016211584 0.0436225
-0.20703404 -0.047311205 0.18817107 -0.022990301 -0.000423518 -0.050461303 0.07056625 -0.35296106
0.6616899 -0.00036854297 0.7083332 0.0035312325 0.121611804 -0.18334511 0.102005176 0.008468421
-0.14764301 -0.13452326 0.12432354 0.014622569 0.099914536 0.38728312 -0.21579689 0.8529844
0.031790417 0.043386348 0.012812247 -0.4000638 0.011457264 -0.36930168 -0.41160277 0.21241388
-0.033313833 0.07959166 -0.059237726 0.39219266 -0.040881496 -0.150529 0.23747751 0.064441204
0.0154201 0.12628406 0.25143868 0.04958682 0.14870366 0.5728116 -0.43370688 0.20269383
0.92213106 -0.023353102 0.002412036 0.015374802 0.1137556 0.08269019 0.07014836 -0.0019736541
0.27722546 0.111266166 0.03979197 0.22708699 -0.7694756 -0.115786605 0.07392411 -0.03073126
0.006067902 0.07672191 -0.22129379 -0.0011217818
00000000: e4a4 ce3b 1aa3 9bbd a214 3cbf 6e4a 25bd
00000010: c6ae 823e 9424 04bf b60d 2a3c e633 b53c
00000020: d924 06bd cc59 bcbd eee9 b6bc 4cff b3bd
00000030: 7c25 123e 3779 2b3d 949b 853e 45b9 fd3e
00000040: 8a97 543d 0ac2 083e 36c9 39be 1a0a c4bd
00000050: 22e1 ac3a 0dee f23d 6524 9ebe 8afd d4be
00000060: 700e 04bd 4e42 1d3f 484b 913c 71d0 35bf
00000070: e1fc a7be 9a6b 65be 28ce 84bc 82ad 323d
00000080: bb00 54be 65c9 41bd ebaf 403e 2856 bcbc
00000090: a00b deb9 83b0 4ebd 0a85 903d 50b7 b4be
000000a0: 8264 293f 0039 c1b9 5355 353f 406c 673b
000000b0: 9c0f f93d d2be 3bbe 17e8 d03d 22bf 0a3c
000000c0: bb2f 17be 77c0 09be 579d fe3d 8093 6f3c
000000d0: fe9f cc3d f949 c63e dcf9 5cbe 305d 5a3f
000000e0: ab36 023d e2b5 313d 75ea 513c 2ad5 ccbe
000000f0: 40b7 3b3c 1c15 bdbe 99bd d2be 0683 593e
00000100: 1674 08bd f400 a33d 42a3 72bd 7acd c83e
00000110: 5b73 27bd 4624 1abe 4e2d 733e c0f9 833d
00000120: 96a4 7c3c 9c50 013e 92bc 803e 8d1b 4b3d
00000130: c645 183e c8a3 123f d40e debe f98e 4f3e
00000140: c810 6c3f 014f bfbc 4013 1e3b 98e6 7b3c
00000150: b2f8 e83d 7959 a93d f2a9 8f3d 6c58 01bb
00000160: 7ff0 8d3e 84df e33d e8fc 223d 7e89 683e
00000170: 5afc 44bf 8721 edbd 8665 973d 20c0 fbbc
00000180: 40d5 c63b 6020 9d3d d79a 62be c008 93ba

bias f4 [10]
0.0025784224 -0.15923983 -0.7136327 -0.05889396 -0.112197846 -0.4214069 0.1754116 -0.08578281
0.15284055 0.43544286
00000000: c0fa 283b c40f 23be a2b0 36bf cb3a 71bd
00000010: fcc7 e5bd a5c2 d7be 199f 333e e6ae afbd
00000020: 3c82 1c3e 5ef2 de3e

weight f4 [10, 10]
-0.30645457 -0.062147334 0.37174726 0.10592209 -0.6407783 -0.40101433 -0.2539876 0.4347363
0.006564796 0.18207267 0.3879835 0.00878801 -0.2988872 -0.161727 0.3030246 0.08874836
-0.09963239 -0.018731654 -0.2479768 -0.07450087 0.010214656 -0.34231496 -0.170659 -0.45374304
-0.1544666 -0.0039068367 -0.25334397 -0.0051428825 -0.3237701 -0.016813356 0.032372802 0.43109214
0.17419577 0.033104017 0.36430323 0.33488423 -0.31214637 0.038338766 -0.27437115 0.16306525
0.21409489 0.079579934 0.22415875 0.0744807 0.075665355 -0.51664644 0.37900952 -0.07311176
0.0630924 0.15686604 0.09874819 -0.34116513 -0.04113376 0.44277903 0.5561743 -0.0037105135
-0.030974755 0.02401419 0.14741145 -0.0033656133 0.41980234 0.14697903 0.43113774 -0.17298804
-0.013264274 0.00015366683 0.1475457 -0.23863187 0.22151336 0.29790866 -0.04369803 0.25157595
0.07868884 0.035724763 -0.044570714 0.2965744 0.08027886 -0.3220047 -0.058197524 -0.606506
0.028931886 -0.08289701 0.21019055 0.0021539032 -0.13036223 -0.22443292 -0.42770633 0.23020138
-0.7655052 0.23946266 -0.15510792 -0.0008382015 -0.28948364 0.13511382 0.004663051 -0.13462143
0.043913145 0.17412893 -0.33563772 -0.02574794
00000000: 9de7 9cbe 348e 7ebd a855 be3e aeed d83d
00000010: 0c0a 24bf c051 cdbe aa0a 82be c295 de3e
00000020: 801d d73b 4271 3a3e c6a5 c63e 96fb 0f3c
00000030: be07 99be c39b 25be 0a26 9b3e b3c1 b53d
00000040: 110c ccbd 2073 99bc a1ed 7dbe ea93 98bd
00000050: 5f5b 273c e843 afbe 3cc1 2ebe 0251 e8be
00000060: 7e2c 1ebe ec04 80bb 4db6 81be a085 a8bb
00000070: 32c5 a5be 2abc 89bc 5899 043d 1cb8 dc3e
00000080: 6060 323e 1498 073d f485 ba3e f275 ab3e
00000090: a6d1 9fbe 1c09 1d3d 607a 8cbe 94fa 263e
000000a0: b13b 5b3e cefa a23d df89 653e 5689 983d
000000b0: 70f6 9a3d f142 04bf 890d c23e 9ebb 95bd
000000c0: 9736 813d 7ea1 203e 7e3c ca3d 32ad aebe
000000d0: e07b 28bd efb3 e23e 7061 0e3f 162c 73bb
000000e0: c5be fdbc 68b9 c43c 07f3 163e 9f91 5cbb
000000f0: 55f0 d63e ac81 163e 16be dc3e c723 31be
00000100: 6652 59bc a021 2139 3816 173e ea5b 74be
00000110: 66d4 623e 7c87 983e b5fc 32bd 90ce 803e
00000120: 9d27 a13d 2154 123d c88f 36bd 9ad8 973e
00000130: 3e69 a43d cddd a4be 8760 6ebd fa43 1bbf
00000140: 9002 ed3c e8c5 a9bd 313c 573e 8028 0d3b
00000150: ad7d 05be bed1 65be 53fc dabe e9b9 6b3e
00000160: 26f8 43bf b335 753e 9cd4 1ebe c0ba 5bba
00000170: 3337 94be 475b 0a3e 82cc 983b 33da 09be
00000180: 45de 333d db4e 323e b5d8 abbe 58ed d2bc

bias f4 [10]
-0.06471071 -0.5120093 -0.11262158 -0.6683479 0.60120255 -0.06737515 -0.26584008 0.20028943
-0.00949125 0.02459577
00000000: 0c87 84bd 0b13 03bf 25a6 e6bd d918 2bbf
00000010: 69e8 193f fcfb 89bd 311c 88be ac18 4d3e
00000020: 3081 1bbc 117d c93c

weight f4 [1, 10]
0.0038437396 0.30266455 -0.13319689 0.09268454 -0.008170916 -0.17765135 -0.013344863 0.0049564242
-0.049577165 -0.08623565
00000000: 40e7 7b3b d9f6 9a3e c464 08be 64d1 bd3d
00000010: 4edf 05bc 3cea 35be 6aa4 5abc 8069 a23b
00000020: 6d11 4bbd 519c b0bd

add_tensors f4 [10, 6]
-0.23351966 0.7693203 0.015368404 0.2619649 -0.06529159 -0.34961414 -0.26571727 0.23657577
-0.007274898 -0.57227266 -0.22925687 -0.27926254 -0.026885334 0.014881477 0.035555165 0.08101491
0.003503901 -0.44262132 0.30276337 -0.0115981605 -0.15690084 0.6369233 0.24159348 -0.016751861
0.1741843 0.103309885 0.12093044 0.0071236733 0.23802193 -0.3975169 -0.18508917 0.016237475
0.1429035 0.23699293 -0.052066687 -0.1329415 -0.04288082 0.18628109 0.050459787 0.09189788
-0.100250036 0.042938713 0.039601278 0.07127394 0.16635463 0.07495976 -0.42629382 0.13778116
-0.0037323025 0.65236163 -0.3871523 0.020105677 0.26148966 -0.11829637 0.38268888 0.0027514435
-0.18650477 -0.047337983 0.004177844 -0.5162077
00000000: c71f 6fbe 2df2 443f c2cb 7b3c 4320 863e
00000010: 99b7 85bd a000 b3be 180c 88be eb40 723e
00000020: 4462 eebb 7680 12bf 50c2 6abe 80fb 8ebe
00000030: a23e dcbc 70d1 733c 4ba2 113d 25eb a53d
00000040: b4a1 653b 439f e2be cd03 9b3e 3606 3ebc
00000050: 9daa 20be 680d 233f 4864 773e 333b 89bc
00000060: 5e5d 323e 2294 d33d 61aa f73d b46d e93b
00000070: 05bc 733e 5687 cbbe 0488 3dbe 7404 853c
00000080: 4c55 123e 46ae 723e e143 55bd d121 08be
00000090: cca3 2fbd 78c0 3e3e ecae 4e3d f534 bc3d
000000a0: e44f cdbd 81e0 2f3d f334 223d 12f8 913d
000000b0: de58 2a3e 8184 993d 2f43 dabe 8116 0d3e
000000c0: a599 74bb 2c01 273f d438 c6be a9b4 a43c
000000d0: f9e1 853e 5e45 f2bd ccef c33e 9051 343b
000000e0: 1bfb 3ebe 79e5 41bd 4ce6 883b 3026 04bf

add_tensors f4 [10]
-0.19904143 0.0027141455 0.15694827 0.00635284 0.14123668 -0.052350856 0.094913214 -0.016520567
0.18487293 -0.44948104
00000000: 84d1 4bbe cedf 313b 0cb7 203e 7c2b d03b
00000010: 59a0 103e da6d 56bd dc61 c23d 2456 87bc
00000020: 544f 3d3e 6122 e6be

add_tensors f4 [10, 10]
-0.045290463 0.008178158 0.10442974 -0.18156086 -0.4148378 -0.08601785 -0.12769695 0.18018512
0.0005615055 0.015069577 0.15843819 -0.021654317 -0.17096332 0.059107482 0.095445186 0.014348201
-0.057710864 0.21234605 -0.009312437 0.014499409 -0.00010353411 -0.054331407 -0.10010881 -0.23467447
0.122000754 0.025575409 -0.074546896 -0.0014273971 -0.0343287 0.01919524 -0.013587924 0.13844557
-0.09968575 -0.20519002 0.14655216 0.1925459 -0.10449116 0.24757163 -0.11561198 0.035973515
-0.009008483 0.028434766 0.020162063 0.16986018 -0.1758391 -0.2783559 0.10542053 0.22285353
-0.0024275573 -0.09955097 0.06329827 -0.121001735 -0.25951746 0.24973518 0.3969757 -0.0010699085
0.026433757 0.14971681 0.09247245 0.002571963 0.17135733 -0.101162165 0.19539288 -0.06118682
0.024366075 9.665499e-05 0.0193901 -0.00742205 -0.043966107 0.0369682 0.06023946 0.08609644
-0.06985813 0.00378186 -0.13213795 0.06529226 0.024579156 -0.21390505 -0.02886128 -0.30218253
-0.14156172 0.21739939 0.014680842 0.13437054 0.095981434 0.05847629 -0.25432527 0.05233024
-0.4668784 0.12815084 -0.059797 -0.018431555 -0.011443553 -0.0581346 -0.006045102 -0.06055388
-0.046272915 0.11164509 -0.11532674 0.07003562
00000000: 7e82 39bd aefd 053c 42df d53d 17eb 39be
00000010: 9f65 d4be 202a b0bd fdc2 02be 7382 383e
00000020: ff31 133a 63e6 763c 9f3d 223e 6564 b1bc
00000030: 0211 2fbe b01a 723d c478 c33d b814 6b3c
00000040: 3a62 6cbd 3e71 593e 3193 18bc ee8e 6d3c
00000050: 7420 d9b8 9c8a 5ebd d905 cdbd 814e 70be
00000060: 88db f93d 8583 d13c 0bac 98bd 8017 bbba
00000070: 409c 0cbd 563f 9d3c e29f 5ebc adc4 0d3e
00000080: 0b28 ccbd 551d 52be c511 163e c12a 453e
00000090: 76ff d5bd 6b83 7d3e f9c5 ecbd f758 133d
000000a0: 5198 13bc 07f0 e83c e92a a53c d4ef 2d3e
000000b0: 2a0f 34be aa84 8ebe b8e6 d73d b733 643e
000000c0: a717 1fbb 61e1 cbbd 86a2 813d c2cf f7bd
000000d0: 79df 84be 94ba 7f3e 6640 cb3e 2c3c 8cba
000000e0: 9b8b d83c 5d4f 193e 3262 bd3d 618e 283b
000000f0: 4c78 2f3e 1c2e cfbd 1215 483e 089f 7abd
00000100: 5d9b c73c 41b3 ca38 fdd7 9e3c ab34 f3bb
00000110: ce15 34bd f86b 173d a7bd 763d 5553 b03d
00000120: c711 8fbd 15d9 773b 2c4f 07be f3b7 853d
00000130: 3a5a c93c ed09 5bbe 7e6e ecbc abb7 9abe
00000140: 8ef5 10be f29d 5e3e ea87 703c 6e98 093e
00000150: ea91 c43d d684 6f3d ec36 82be 3c58 563d
00000160: b00a efbe f939 033e b3ed 74bd c6fd 96bc
00000170: bd7d 3bbc 8c1e 6ebd fe15 c6bb 5807 78bd
00000180: ab88 3dbd 2ea6 e43d 6d30 ecbd d66e 8f3d

add_tensors f4 [1, 10]
0.2107632 0.09169495 -0.26625735 0.1824581 0.03090276 -0.02759959 0.026914855 -0.033693165
0.008284013 0.07184396
00000000: 4fd2 573e 90ca bb3d e252 88be 4cd6 3a3e
00000010: c927 fd3c 8918 e2bc 8b7c dc3c d801 0abd
00000020: abb9 073c ed22 933d
