Relu_fixed_simple/TorchSaves/Last_Gen0.pt (torch_old, 16332 bytes, 17 tensors)

weight f4 [10, 6]
0	0xbe5cb97f	-0.21555136
1	0x3d045620	0.032308698
2	0xbe9af7ee	-0.3026728
3	0x3de67f08	0.11254698
4	0x3ecff754	0.40618384
5	0x3e991bda	0.29904062
6	0xbbc31140	-0.005952984
7	0xbea239fc	-0.31684864
8	0xbea8105a	-0.32824975
9	0x3d0b5f20	0.034026265
10	0x3e36c500	0.17848587
11	0x3d52dbb8	0.05147907
12	0x3ea21670	0.31657743
13	0x3dcce360	0.10004306
14	0xbe28ee5b	-0.16497175
15	0x3e61155c	0.21980804
16	0x3d9e145c	0.07718727
17	0x3cd629f0	0.026143044
18	0xbeabf1c6	-0.33582896
19	0x3e5be984	0.21475798
20	0x3e19ae68	0.15007937
21	0x3e868790	0.262753
22	0xbea96e6e	-0.33092064
23	0xbe662880	-0.22476387
24	0xbdecbd68	-0.11559564
25	0xbdea4dfc	-0.114406556
26	0xbb620280	-0.0034486353
27	0x3c524ce0	0.012835711
28	0xbdb33288	-0.087498724
29	0x3dde00b8	0.10839981
30	0xbeb840a8	-0.3598683
31	0x3e9cd3b2	0.3063026
32	0x3e46f0f4	0.19427854
33	0x3e087a98	0.13328016
34	0xbe76f87c	-0.24118227
35	0xbda17144	-0.07882932
36	0x3dbc8788	0.09205538
37	0x3ec3cfb0	0.3824439
38	0x3e80ebde	0.25179952
39	0x3d118940	0.035531282
40	0xbebeb49f	-0.37247178
41	0x3c837a40	0.016049504
42	0x3ebc3422	0.36758524
43	0xbb2b3400	-0.0026123524
44	0xbe865349	-0.26235417
45	0xbea42937	-0.32062694
46	0x3d0b1e68	0.033964545
47	0x3e46f9cc	0.19431227
48	0x3e89ad18	0.26889873
49	0x3dd43d00	0.10363197
50	0xbc1bf6e0	-0.009519309
51	0x3e02bdfc	0.12767786
52	0x3c84ecc0	0.016226172
53	0x3d4b0318	0.049563497
54	0xbe2591d2	-0.16168907
55	0x3ea0a338	0.31374526
56	0xbdd4c5bc	-0.10389277
57	0xbe6427d1	-0.22280814
58	0x3e9db19c	0.30799568
59	0x3de024b0	0.109444976

bias f4 [10]
0	0xbdf26718	-0.1183607
1	0x3ebbf070	0.36706877
2	0xbe71b251	-0.23603179
3	0xbda9d734	-0.08293
4	0x3e5d6c7c	0.21623415
5	0x3cd285c0	0.025698543
6	0xbea8deea	-0.3298257
7	0x3c4292c0	0.011875808
8	0xbd4cd150	-0.050004303
9	0x3e03a438	0.12855613

weight f4 [10, 10]
0	0x3e0d595e	0.13803622
1	0x3dac0290	0.08398926
2	0x3d32de80	0.043669224
3	0xbe8f9e8b	-0.28050646
4	0xbe936fdb	-0.28796276
5	0xbd433bb0	-0.047664344
6	0x3e9bc6af	0.3042502
7	0x3e924825	0.28570667
8	0x3e01bb38	0.12669075
9	0x3e11353a	0.1418046
10	0xbea0d448	-0.31411958
11	0xbe20447a	-0.15651122
12	0xbd2ec5b0	-0.042669
13	0x3e3606d2	0.17776039
14	0xbe7e5508	-0.24837124
15	0xbe33bec7	-0.17553245
16	0xbd5ef378	-0.05443141
17	0x3e8654e9	0.26236656
18	0x3e6cf4c6	0.23140249
19	0x3df597e4	0.119918615
20	0x3e0cf1fe	0.13764188
21	0xbdbe2b02	-0.09285547
22	0x3e40baea	0.18821302
23	0xbe8a47a4	-0.27007782
24	0x3e6ad3da	0.22932377
25	0x3d29a6d0	0.04141885
26	0xbe30de94	-0.17272407
27	0x3d730c88	0.059338123
28	0x3e6c28aa	0.23062387
29	0x3d667198	0.056260675
30	0xbe13981e	-0.14413497
31	0xbe4122b7	-0.18860899
32	0x3b784c80	0.0037887394
33	0xbda8f8f0	-0.08250606
34	0xbda207b2	-0.07911624
35	0x3df3b9bc	0.119006604
36	0xbc29fb80	-0.010374904
37	0x3e9ff4eb	0.31241545
38	0x3dfcf48c	0.12351331
39	0xbe8efa18	-0.2792518
40	0x3e8d3d1d	0.27585688
41	0x3d108760	0.035285354
42	0x3ea0ec63	0.3143035
43	0x3c675ba0	0.014120966
44	0xbe3af781	-0.18258478
45	0x3cd8a560	0.026446044
46	0x3e3d7bba	0.18504229
47	0xbe739ab7	-0.23789488
48	0x3e80af0b	0.25133547
49	0x3e4002ae	0.18751022
50	0xbdf30234	-0.118656546
51	0xbe2b8113	-0.16748457
52	0xbe7611e8	-0.24030268
53	0xbe7b9cd2	-0.24571541
54	0x3de262a0	0.110539675
55	0xbc9ce810	-0.019153625
56	0xbdd55382	-0.104163185
57	0x3d5ffc58	0.054684013
58	0x3e8cb53d	0.27482024
59	0xbdc66400	-0.09687042
60	0x3e2b41c8	0.16724312
61	0x3d94ae1c	0.07259771
62	0xbdf146f8	-0.11781114
63	0xbc2232a0	-0.009899765
64	0xbda1ac76	-0.078942224
65	0xbd89edb2	-0.0673479
66	0x3dc69e80	0.096982
67	0x3e195eaa	0.14977518
68	0x3d1dcbb0	0.03852433
69	0x3e0d3fe8	0.1379391
70	0xbe4c35fc	-0.19942468
71	0x3e92dbb7	0.28683254
72	0x3e27cade	0.16385981
73	0x3d7d1100	0.06178379
74	0x3e9edecd	0.31029359
75	0x3e318eca	0.17339626
76	0xbe98b08f	-0.29822204
77	0xbe1e8031	-0.15478589
78	0x3dce981c	0.10087606
79	0xbe163ea0	-0.14672327
80	0xbe77c54d	-0.24196358
81	0x3e3a5578	0.18196666
82	0xbe46ce82	-0.19414714
83	0x3be82900	0.0070849657
84	0x3da00d84	0.07815078
85	0xbd637250	-0.05552894
86	0x3e25e17c	0.16199297
87	0x3de2f6d8	0.11082238
88	0x3dc7319c	0.09726259
89	0xbe65fc78	-0.2245959
90	0x3e004628	0.12526762
91	0xbe8aa6df	-0.27080438
92	0x3e80b8b7	0.25140926
93	0x3d90f164	0.070772916
94	0xbe570968	-0.20999682
95	0xbe04723a	-0.12934199
96	0x3e8ef92f	0.27924487
97	0xbe87ddce	-0.2653641
98	0x3d94cc28	0.07265502
99	0xbcc07f90	-0.023498327

bias f4 [10]
0	0xbe8c01f9	-0.27345255
1	0xbe714b03	-0.23563771
2	0xbdafc63e	-0.085827336
3	0x3df9e52c	0.12201914
4	0xbd03d940	-0.032189608
5	0x3c0a5720	0.008443624
6	0xbe911391	-0.2833524
7	0x3c6f8ea0	0.014621407
8	0xbcc96b20	-0.024587214
9	0x3e5ab0d2	0.21356514

weight f4 [10, 10]
0	0xbe9341e7	-0.28761217
1	0x3e534206	0.20630655
2	0x3e62b6ee	0.22140095
3	0x3e648416	0.22316012
4	0x3e784a3e	0.24247071
5	0x3e7544aa	0.23951975
6	0x3e3dd692	0.18538883
7	0xbe906c56	-0.28207654
8	0x3e2fa9e2	0.17154649
9	0xbe8a971d	-0.27068415
10	0xbcf8f950	-0.030392319
11	0x3db4016c	0.08789334
12	0xbe0f2956	-0.13980612
13	0xbe0fa952	-0.14029434
14	0xbe99a7ed	-0.3001093
15	0xbe9f0454	-0.3105799
16	0xbc871ca0	-0.016493142
17	0x3ddaa1b0	0.10675371
18	0x3e9a4645	0.30131736
19	0x3e9f3dd1	0.3110185
20	0xbd937250	-0.07199538
21	0x3e994abf	0.2993984
22	0x3da8c4a8	0.08240634
23	0x3e24c520	0.16090822
24	0x3d7ebc30	0.06219119
25	0x3cb55860	0.022136867
26	0xbe2cbbf2	-0.1686857
27	0x3cc84ce0	0.02445072
28	0x3d4d60d0	0.050141156
29	0x3e7e1762	0.24813607
30	0xbe003b8e	-0.12522718
31	0xbe7db848	-0.24777329
32	0xbdd74374	-0.105109125
33	0x3e369f2e	0.1783416
34	0xbc480680	-0.012208581
35	0xbcf81e70	-0.030287951
36	0x3de418dc	0.11137554
37	0x3d7e5a50	0.062097847
38	0x3e1edfaa	0.15515009
39	0x3e0c906e	0.1372697
40	0xbe2c0ae3	-0.16801028
41	0x3e87c48b	0.26517138
42	0x3d65f9a8	0.056146294
43	0xbe3a8680	-0.1821537
44	0xbe90e7fa	-0.28301984
45	0x3e3092c0	0.1724348
46	0xbd85a5b0	-0.06525743
47	0xbe69a8c6	-0.22818288
48	0xbe4c86de	-0.19973323
49	0xbdeedb80	-0.1166296
50	0x3b82aec0	0.003988117
51	0x3e93eba9	0.28890732
52	0xbe54722a	-0.20746675
53	0x3ca77830	0.020443052
54	0xbe3ed7a8	-0.18636954
55	0xbe82e355	-0.25564066
56	0x3ddfad3c	0.10921714
57	0x3e559cba	0.20860568
58	0xbe94dee6	-0.29076308
59	0xbe036d31	-0.12834622
60	0xbe1b039f	-0.151381
61	0x3e2a1aa8	0.16611731
62	0x3e96f0bf	0.2948055
63	0x3df6d6b0	0.12052667
64	0x3e7333fe	0.23750302
65	0x3e9ad131	0.30237725
66	0x3e446046	0.1917735
67	0xbde5b2ee	-0.11215769
68	0x3dae71c4	0.08517793
69	0xbdf562ec	-0.119817585
70	0x3e9d6709	0.30742672
71	0x3e8fbeeb	0.28075346
72	0x3de8ace8	0.11361104
73	0xbcccd480	-0.025003672
74	0x3d1c5468	0.038166434
75	0xbe9174f6	-0.28409547
76	0x3e048316	0.1294063
77	0x3d5f2330	0.054476917
78	0xbaafa400	-0.0013400316
79	0xbe0628c4	-0.13101488
80	0xbe8fd18a	-0.28089553
81	0x3e4deb42	0.20109275
82	0x3e93a3c3	0.28835878
83	0x3cf079e0	0.02935499
84	0xbe731e14	-0.23741943
85	0x3e6270da	0.22113362
86	0x3e3a14a2	0.18171933
87	0xbdce9288	-0.10086542
88	0xbc9c04a0	-0.019045174
89	0x3d7cbe18	0.061704725
90	0x3e8f5199	0.27991942
91	0x3e9da085	0.3078653
92	0xbe6b0216	-0.22950014
93	0xbe3e22f7	-0.18568026
94	0x3e661446	0.22468671
95	0xbdbd0898	-0.09230155
96	0xbd95defc	-0.073179215
97	0x3ea0cddf	0.31407067
98	0x3e1f6030	0.15564036
99	0x3b84bd40	0.0040508807

bias f4 [10]
0	0x3e8339b5	0.25629964
1	0xbe7bc72f	-0.24587701
2	0xbe8d83c7	-0.276396
3	0xbe918519	-0.28421858
4	0x3e3746f0	0.17898154
5	0xbe2374dc	-0.15962547
6	0xbe79b53e	-0.24385545
7	0x3e35ce56	0.17754492
8	0x3c8a6940	0.01689589
9	0xbe3025da	-0.17201939

weight f4 [10, 10]
0	0xbd589128	-0.052872807
1	0x3ba1b400	0.0049347878
2	0xbe400b93	-0.18754415
3	0x3e8ff0fb	0.2811354
4	0xbd722dc0	-0.05912566
5	0x3ddd6100	0.10809517
6	0x3e2c092c	0.16800374
7	0xbe1285d7	-0.14308868
8	0xbe992b38	-0.29915786
9	0xbe27bf95	-0.16381676
10	0xbe59629c	-0.21229023
11	0xbe6f8d22	-0.23393682
12	0xbdd8104e	-0.10549985
13	0xbcfdae20	-0.030966818
14	0xbd252670	-0.04031986
15	0x3c81f360	0.01586312
16	0x3db8a1c4	0.09015229
17	0xbe9b76d3	-0.30364093
18	0xbdbf7f44	-0.09350446
19	0xbe9524e3	-0.29129705
20	0xbe0a84d0	-0.13527226
21	0x3e38d756	0.18050894
22	0xbdf5fb02	-0.120107666
23	0xbdb86c32	-0.090050116
24	0x3de8cdf8	0.113674104
25	0x3dd3c598	0.103404224
26	0x3def37dc	0.11680576
27	0x3de56334	0.11200562
28	0xbd0f4c58	-0.034984916
29	0x3e2ceb32	0.16886595
30	0xbe73baa0	-0.2380166
31	0xbe16a223	-0.14710288
32	0xbe990254	-0.2988459
33	0x3d593020	0.05302441
34	0xbea12b15	-0.3147818
35	0xbe01626b	-0.126352
36	0xbdfa7440	-0.12229204
37	0x3dfeca7c	0.124409646
38	0xbdc3c2f2	-0.09558667
39	0xbe06aa15	-0.13150819
40	0x3de5537c	0.11197564
41	0xbe1f0ea0	-0.15532923
42	0xbe384d85	-0.17998321
43	0xbe832778	-0.2561605
44	0xbd9d8e1e	-0.07693122
45	0xbd944180	-0.07239056
46	0x3e7d645e	0.24745318
47	0x3e8e5e6f	0.27806422
48	0xbdf80bae	-0.12111603
49	0xbdd5e47a	-0.10443969
50	0x3cf86cf0	0.030325383
51	0xbdcffef2	-0.10156049
52	0x3dd52498	0.1040737
53	0xbe391f77	-0.18078409
54	0xbe6bfad9	-0.2304491
55	0xbda1afaa	-0.078948334
56	0xbe44464f	-0.19167446
57	0xbe886906	-0.26642627
58	0xba863400	-0.0010238886
59	0x3df5b708	0.11997801
60	0xbe702eb4	-0.23455316
61	0xbe0bf91f	-0.13669251
62	0x3d7e7588	0.062123805
63	0xbe79e001	-0.24401857
64	0xbe456406	-0.19276437
65	0x3e67f62e	0.22652504
66	0xbe5f12ca	-0.21784511
67	0xbd6441c8	-0.055726796
68	0x3e7ba26a	0.24573675
69	0xbe4dda38	-0.20102775
70	0x3dc78d38	0.09743732
71	0xbe546cd9	-0.20744647
72	0x3e8957a3	0.26824674
73	0xbbdbda80	-0.006709397
74	0xbdcfb7ea	-0.10142501
75	0x3e8c965d	0.27458468
76	0xbddc8130	-0.10766828
77	0x3d584df8	0.05280873
78	0x3d7aae30	0.061201274
79	0xbe77eb7a	-0.24210921
80	0x3d4ef528	0.050526768
81	0xbe664868	-0.22488558
82	0x3e8d3afb	0.2758406
83	0x3ce20040	0.02758801
84	0xbe633d5e	-0.22191378
85	0x3e8a0717	0.26958534
86	0x3e77c676	0.241968
87	0x3dfc12e0	0.123082876
88	0x3db67a88	0.0891009
89	0xbce22380	-0.027604818
90	0x3dde4498	0.10852927
91	0xbe919cf3	-0.28440055
92	0xbd4a0d58	-0.04932913
93	0xbe8a7b94	-0.27047408
94	0xbc520460	-0.012818426
95	0x3dffd4c0	0.12491751
96	0xbe24e324	-0.16102272
97	0xbe9ea765	-0.30987087
98	0x3e03c6ea	0.12868848
99	0x3e803a3d	0.25044432

bias f4 [10]
0	0xbc586500	-0.013207674
1	0xbe0f6e62	-0.14006951
2	0x3d35b640	0.04436326
3	0xbd5442c0	-0.05182147
4	0xbe2a146a	-0.1660935
5	0xbe8cdded	-0.27513066
6	0x3e75af8e	0.2399275
7	0xbe859b5e	-0.26095098
8	0x3bebf640	0.007200986
9	0x3e72335a	0.23652402

weight f4 [10, 10]
0	0xbd77e530	-0.060521305
1	0xbe07450c	-0.13209933
2	0x3e540bba	0.20707598
3	0x3d087bf8	0.03332135
4	0xbd00a9f8	-0.031412095
5	0xbe3589a7	-0.17728291
6	0xbe9583a3	-0.29201993
7	0xbe861c54	-0.26193488
8	0x3e38f7fc	0.18063349
9	0x3b483f00	0.003055513
10	0xbda3aef8	-0.07992357
11	0xbdf0ae82	-0.11752035
12	0xbb7d3300	-0.0038635135
13	0xbe6ccd3a	-0.23125163
14	0x3df0f698	0.11765784
15	0x3dfe0f94	0.12405315
16	0x3df5a3b0	0.119941115
17	0x3e8ad245	0.27113548
18	0xbd442e60	-0.04789579
19	0xbe5c1d84	-0.21495634
20	0x3db2f238	0.08737606
21	0xbe852bb3	-0.26009902
22	0x3c1fa2a0	0.009743363
23	0x3e5bffe2	0.2148433
24	0x3e3ae57c	0.18251604
25	0xbe8f0710	-0.27935076
26	0x3e8e3651	0.27775815
27	0x3e9eedb7	0.31040737
28	0xbe7b2474	-0.24525625
29	0x3e32f4a0	0.1747613
30	0x3de76780	0.11299038
31	0xbd39f080	-0.045395374
32	0x3d10c108	0.03534034
33	0xbd13cd20	-0.036084294
34	0x3b925840	0.0044660866
35	0x3e78fe96	0.24315867
36	0x3c5d9520	0.013524324
37	0xbe11f287	-0.14252673
38	0xbe07e817	-0.13272129
39	0xbe72a4ae	-0.23695633
40	0x3df20944	0.118181735
41	0x3bff58c0	0.0077925622
42	0x3e3d63f6	0.18495163
43	0x3e64bcc2	0.2233763
44	0x3e040b94	0.12895042
45	0x3e998b13	0.29988918
46	0x3e7b6cea	0.24553266
47	0x3e84243b	0.25808892
48	0xbe00e5ef	-0.12587713
49	0x3d95b924	0.073107034
50	0x3e9b2f0d	0.30309334
51	0xbe236646	-0.15956983
52	0xbe8fbee7	-0.28075334
53	0x3d55b020	0.05216992
54	0xbd8d8508	-0.06910139
55	0xbe97a3aa	-0.29617053
56	0x3e50dd4e	0.20396921
57	0xbe19b7e6	-0.15011558
58	0xbdb431c4	-0.087985545
59	0x3e35a93e	0.17740342
60	0xbdfe9472	-0.124306574
61	0x3e98ebe7	0.2986748
62	0x3d8d7c64	0.06908491
63	0x3d620378	0.05517909
64	0x3e8324f3	0.25614128
65	0xbba55240	-0.0050452054
66	0xbdb11b98	-0.08647841
67	0xbd875718	-0.06608409
68	0x3e153fb0	0.14575076
69	0x3e90b52b	0.2826322
70	0xbe666689	-0.22500052
71	0xbe35717b	-0.1771907
72	0x3d96bb4c	0.07359943
73	0xbcbe7290	-0.023247987
74	0x3e7bc8d2	0.24588326
75	0xbd8a8e94	-0.06765476
76	0x3e7f6e76	0.24944481
77	0x3daaea6c	0.08345494
78	0x3d915978	0.07097143
79	0xbe15b169	-0.14618458
80	0x3e829d1b	0.25510487
81	0xbe9bc0f2	-0.30420643
82	0xbdeaff3a	-0.11474462
83	0x3e8ed8c7	0.27899763
84	0xbe86e74b	-0.26348338
85	0x3cb43520	0.021997988
86	0xbe9edc55	-0.31027475
87	0xbe80f7f8	-0.25189185
88	0x3e5c56be	0.21517465
89	0xbd9381a0	-0.072024584
90	0xbea0b161	-0.3138533
91	0xbe8ee56e	-0.27909416
92	0xbdcd0804	-0.100112945
93	0x3e979477	0.29605457
94	0xbe8cbc91	-0.27487615
95	0x3d69bf18	0.057067007
96	0x3d85c5dc	0.06531879
97	0xbd4e0450	-0.05029708
98	0xbdf2e23e	-0.118595585
99	0xbdb9ef74	-0.09078875

bias f4 [10]
0	0x3d772d38	0.06034586
1	0xbdc6194a	-0.09672792
2	0xbe77b0de	-0.24188563
3	0xbe81c12e	-0.25342697
4	0x3e0e4830	0.13894725
5	0x3e6eb9e6	0.23313102
6	0x3cd1e620	0.025622427
7	0xbdb197b0	-0.0867151
8	0xbe1c0d5a	-0.15239468
9	0x3da5805c	0.08081123

weight f4 [10, 10]
0	0xbe24bc25	-0.16087396
1	0xbde9de98	-0.114194095
2	0xbe671b7f	-0.22569083
3	0x3e834e6b	0.25645766
4	0xbc86ecf0	-0.016470402
5	0xbe26efbb	-0.16302387
6	0x3e9293c7	0.2862837
7	0x3daf9520	0.08573365
8	0xbe35e971	-0.17764832
9	0xbdd50e6e	-0.10403143
10	0x3e48154e	0.19539377
11	0x3db59728	0.088667214
12	0xbdc614ec	-0.09671959
13	0x3e792e9e	0.2433419
14	0xbe352742	-0.17690757
15	0xbe50e764	-0.20400769
16	0x3e4f373a	0.20235911
17	0x3e1ac108	0.15112698
18	0xbdd173fa	-0.10227199
19	0xbe238be2	-0.1597133
20	0x3e88c49b	0.26712498
21	0xbe5560f8	-0.20837772
22	0x3c0f5c20	0.008749992
23	0xbd493b18	-0.04912862
24	0x3d9d8584	0.07691482
25	0xbe25c353	-0.16187792
26	0x3e984cab	0.29745993
27	0x3d25dbd0	0.040492833
28	0xbe6f5f2e	-0.23376152
29	0xbe113e68	-0.14183962
30	0x3d910d70	0.07082641
31	0xbd0318a0	-0.032005906
32	0x3e500342	0.20313743
33	0x3e208b0a	0.15678039
34	0x3d6e49a0	0.058175683
35	0x3e8a96e1	0.27068236
36	0x3c766a60	0.01504001
37	0xbe6c578a	-0.23080269
38	0x3e91d937	0.28486034
39	0xbde01d06	-0.10943036
40	0x3e2261b6	0.15857586
41	0xbe4e39a4	-0.20139176
42	0x3d02e038	0.031952113
43	0x3e85918b	0.26087603
44	0x3db0b970	0.086291194
45	0xbd7f5598	-0.062337488
46	0x3e1d1540	0.15340137
47	0xbe486fca	-0.19573894
48	0xbe833437	-0.25625774
49	0xbdbaad0e	-0.09115039
50	0xbe701970	-0.23447204
51	0x3df84f10	0.12124455
52	0x3e8a8667	0.27055666
53	0x3e8eac89	0.2786601
54	0xbe8c86ee	-0.27446693
55	0xbda6157a	-0.08109565
56	0x3d26e828	0.040748745
57	0x3de4d684	0.11173728
58	0xbe94afe8	-0.29040456
59	0x3e2c50da	0.16827717
60	0xbdc75344	-0.097326785
61	0xbe90bc2a	-0.28268558
62	0xbd09cac8	-0.033640653
63	0xbe2299af	-0.15878938
64	0xbe22a07b	-0.15881531
65	0xbdcb6740	-0.09931803
66	0xbe7027f4	-0.23452741
67	0x3e8bd249	0.27308872
68	0xbe374335	-0.17896731
69	0x3d8d6ba8	0.069052994
70	0xbd25e570	-0.04050201
71	0x3e75726a	0.23969427
72	0xbca5d380	-0.020242453
73	0x3c6b2b40	0.014353573
74	0x3df1f1d0	0.118137
75	0xbd826c20	-0.063682795
76	0x3c8add10	0.016951114
77	0xbe9de546	-0.30838984
78	0x3cf462b0	0.029832214
79	0x3e428eaa	0.18999735
80	0x3e60a3de	0.2193751
81	0x3dd7c954	0.10536447
82	0xbe92b891	-0.28656438
83	0xbc4be460	-0.012444586
84	0x3e94088f	0.2891278
85	0x3bc0e940	0.0058871806
86	0x3e800a89	0.25008038
87	0x3d7b99c8	0.061425954
88	0x3e322dde	0.1740031
89	0x3ce0bf40	0.027434945
90	0x3e894af3	0.26814994
91	0x3e71d2d6	0.23615584
92	0xbe971ead	-0.2951559
93	0xbe247d1e	-0.16063353
94	0xbdc97294	-0.09836307
95	0x3e9e7843	0.30951127
96	0x3e78df96	0.24304041
97	0x3e6c764a	0.23091999
98	0x3e5ad872	0.2137163
99	0xbe7050ba	-0.23468295

bias f4 [10]
0	0x3e4042da	0.18775502
1	0xbe644485	-0.22291763
2	0xbe938add	-0.28816882
3	0x3e26c358	0.16285455
4	0xbdd7b6b8	-0.10532898
5	0xbe26d9a0	-0.16293955
6	0xbe95bebc	-0.2924708
7	0x3dc13b08	0.094350874
8	0xbe5f18ae	-0.21786758
9	0x3e89d031	0.2691665

weight f4 [1, 10]
0	0xbc1faf20	-0.009746343
1	0xbdd26180	-0.10272503
2	0xbc584d80	-0.013202071
3	0x3e071962	0.13193277
4	0xbe87aacc	-0.26497495
5	0xbe86a51e	-0.2629785
6	0xbbb1d4c0	-0.005426973
7	0xbc32dce0	-0.0109169185
8	0x3e6e45f6	0.23268875
9	0xbb162300	-0.0022909045

add_tensors f4 [10, 6]
0	0x00000001	1e-45
1	0x00000000	0.0
2	0x00000000	0.0
3	0x00000001	1e-45
4	0x00000001	1e-45
5	0x00000000	0.0
6	0x00000001	1e-45
7	0x00000000	0.0
8	0x00000001	1e-45
9	0x00000001	1e-45
10	0x00000000	0.0
11	0x00000000	0.0
12	0x00000000	0.0
13	0x00000001	1e-45
14	0x00000001	1e-45
15	0x00000000	0.0
16	0x00000001	1e-45
17	0x00000001	1e-45
18	0x00000000	0.0
19	0x00000000	0.0
20	0x00000001	1e-45
21	0x00000001	1e-45
22	0x00000001	1e-45
23	0x00000000	0.0
24	0x00000001	1e-45
25	0x00000000	0.0
26	0x00000000	0.0
27	0x00000000	0.0
28	0x00000001	1e-45
29	0x00000001	1e-45
30	0x00000000	0.0
31	0x00000000	0.0
32	0x00000001	1e-45
33	0x00000001	1e-45
34	0x00000000	0.0
35	0x00000000	0.0
36	0x00000001	1e-45
37	0x00000000	0.0
38	0x00000001	1e-45
39	0x00000001	1e-45
40	0x00000001	1e-45
41	0x00000001	1e-45
42	0x00000000	0.0
43	0x00000000	0.0
44	0x00000000	0.0
45	0x00000001	1e-45
46	0x00000001	1e-45
47	0x00000001	1e-45
48	0x00000001	1e-45
49	0x00000000	0.0
50	0x00000000	0.0
51	0x00000001	1e-45
52	0x00000000	0.0
53	0x00000000	0.0
54	0x00000000	0.0
55	0x00000000	0.0
56	0x00000000	0.0
57	0x00000001	1e-45
58	0x00000001	1e-45
59	0x00000000	0.0

add_tensors f4 [10]
0	0x00000000	0.0
1	0x00000000	0.0
2	0x3f800000	1.0
3	0x3f800000	1.0
4	0x3f800000	1.0
5	0x00000000	0.0
6	0x00000000	0.0
7	0x3f800000	1.0
8	0x00000000	0.0
9	0x00000000	0.0

add_tensors f4 [10, 10]
0	0x3d5e2662	0.054235823
1	0x3eea26bc	0.45732677
2	0xbda7c4da	-0.08191843
3	0x3e63e578	0.22255504
4	0x3d1ccb6e	0.038279943
5	0x3ef59742	0.47966963
6	0xbe8f9bf2	-0.28048664
7	0x39a51680	0.00031488016
8	0x3d5f3e2b	0.054502647
9	0xbe87eb76	-0.2654683
10	0xbe2ab6e3	-0.16671328
11	0x3f165d4c	0.5873611
12	0x3d2ef3e8	0.042713076
13	0xbe5d8855	-0.21634038
14	0x3d550b79	0.052012894
15	0xbe0e6c34	-0.13908464
16	0x3e12ce4e	0.14336511
17	0xbb1a4400	-0.0023539066
18	0xbea3756c	-0.31925523
19	0xbb3f29f4	-0.0029169293
20	0xbdd79b74	-0.10527697
21	0x3db39199	0.08768005
22	0xbe0aa5b1	-0.13539769
23	0x3e7b4a84	0.24540144
24	0x3e58182c	0.21102971
25	0xbe0fb8df	-0.14035366
26	0x3d5ef820	0.05443585
27	0xbedfff74	-0.43749583
28	0x3e91aa95	0.28450456
29	0xbc45bbd8	-0.012068711
30	0x3dbfd894	0.09367481
31	0xbd887eec	-0.066648334
32	0x3ca8ddf8	0.020613655
33	0x3edf56d1	0.43620923
34	0xbe09dd59	-0.13463344
35	0xbe1788e9	-0.14798321
36	0x3e38c541	0.18043996
37	0x3e16bc1b	0.14720194
38	0xbf289fc4	-0.65868783
39	0x3d59a764	0.05313815
40	0xbd617b4a	-0.05504922
41	0xbd48c108	-0.049012214
42	0x3dedb32c	0.1160644
43	0xbea85c47	-0.32882902
44	0x3cc4e54b	0.024035117
45	0x3d31bcf4	0.04339309
46	0x3d9b0e09	0.07571036
47	0xbe316661	-0.1732421
48	0xbd97e417	-0.074165516
49	0x3f08e5f0	0.53475857
50	0xbe420834	-0.18948442
51	0x3e347cd4	0.17625743
52	0x3df04a5e	0.117329344
53	0xbe839671	-0.25700715
54	0x3d4fc742	0.050727136
55	0xbcf893e0	-0.03034395
56	0xbdb0596f	-0.08610808
57	0xbc672896	-0.014108798
58	0xbdbc5502	-0.091959015
59	0xba4b4400	-0.0007753968
60	0xbd860c8f	-0.06545364
61	0x3d8c4116	0.06848352
62	0x3e1f4f61	0.15557624
63	0xbea3d6bd	-0.3199977
64	0xbdf50634	-0.11964074
65	0xbc34637d	-0.011010048
66	0xbea1f675	-0.31633344
67	0x3e6d7059	0.23187388
68	0xbcc42600	-0.023943901
69	0x3e1ec80c	0.15506
70	0xbe42b7f2	-0.19015482
71	0xbd9e3ba9	-0.07726223
72	0x3ce81c50	0.028333813
73	0x3de7204d	0.11285458
74	0x3d34fe6c	0.044187948
75	0xbe875ed8	-0.26439548
76	0x3e013afa	0.12620154
77	0x3d0d026c	0.034426138
78	0xbe991f72	-0.29906803
79	0xbf571458	-0.8401542
80	0x3eb5d8d5	0.35516992
81	0x3ec3dbde	0.38253683
82	0x3dcacf92	0.09902872
83	0x3e9ada14	0.30244505
84	0xbcd23ea1	-0.02566463
85	0xbcc820c0	-0.024429679
86	0x3cb413ac	0.021982037
87	0xbec2435c	-0.37942016
88	0xbcc3d080	-0.023903131
89	0xbd83a910	-0.064287305
90	0xbe901f09	-0.28148678
91	0x3ec10db6	0.37705773
92	0x3e6c8d31	0.23100735
93	0xbdddea97	-0.1083576
94	0xbdb2555e	-0.08707689
95	0xbe0ad2d5	-0.13556989
96	0x3ed0ef14	0.40807402
97	0xbc446506	-0.0119869765
98	0xbbf1428b	-0.007362669
99	0x3e57e0e4	0.21081883

add_tensors f4 [1, 10]
0	0x00000000	0.0
1	0x00000000	0.0
2	0x00000001	1e-45
3	0x00000001	1e-45
4	0x00000000	0.0
5	0x00000000	0.0
6	0x00000000	0.0
7	0x00000000	0.0
8	0x00000001	1e-45
9	0x00000001	1e-45
