Relu_fixed_simple/TorchSaves/Last_Gen998.pt (torch_old, 16332 bytes, 17 tensors)

weight f4 [10, 6]
0	0xbd940ef9	-0.07229418
1	0x3d19b9a8	0.03753057
2	0x3f4a0c42	0.78924954
3	0x3ec8a6e7	0.39189836
4	0xbdaabbaf	-0.08336579
5	0xbba8d2e2	-0.0051520923
6	0xbdba2810	-0.090896726
7	0xbec49822	-0.38397318
8	0xbe8589b5	-0.26081625
9	0xbe953fdd	-0.29150286
10	0xbeab8702	-0.3350144
11	0x3f0506b6	0.51963365
12	0xbc2bb3aa	-0.010479847
13	0xbec3ad00	-0.38217926
14	0x3da7ef2d	0.08199916
15	0x3c02d890	0.007986203
16	0xbd9ce6a4	-0.07661179
17	0x3da6e0ba	0.08148332
18	0xbdeffeec	-0.11718544
19	0xbcbd1480	-0.023081064
20	0x3ed2b19a	0.41151124
21	0x3d9d7ce4	0.076898366
22	0xbf09628e	-0.5366601
23	0xbe55c8b6	-0.20877346
24	0x3e213a90	0.15744996
25	0x3ce85680	0.028361559
26	0x3e6cff32	0.23144224
27	0x3e40cf82	0.18829158
28	0x3e5f9100	0.21832657
29	0x3d43a40c	0.04776387
30	0xbcb92fba	-0.022605766
31	0xbf2fa1f9	-0.68606526
32	0xbe227962	-0.15866616
33	0xbeb70c69	-0.35751656
34	0x3f0901f8	0.5351863
35	0xbc31c6bf	-0.010850607
36	0x3e7a2ab2	0.2443035
37	0xbc436f40	-0.01192838
38	0xbbac2a9e	-0.005254104
39	0xbe9a6297	-0.30153343
40	0xbdb162cc	-0.08661422
41	0xbe31ca7d	-0.173624
42	0x3bdda1f2	0.00676369
43	0xbe52325a	-0.2052702
44	0xbea3525c	-0.31898773
45	0x3e2d4144	0.16919428
46	0x3f0616b5	0.523784
47	0x3ea9825a	0.33107263
48	0xbdb1ff70	-0.08691299
49	0x3e816407	0.25271627
50	0xbd00eacb	-0.031473916
51	0xbee7d166	-0.45276946
52	0xbce4ae10	-0.02791503
53	0xbcfe5f70	-0.031051368
54	0xbe34aab4	-0.17643243
55	0x3d6b9650	0.057516396
56	0xbc552b10	-0.013010755
57	0x3e71c416	0.23609957
58	0xbe025f10	-0.12731576
59	0xbaa4a800	-0.0012562275

bias f4 [10]
0	0x3e383114	0.17987472
1	0xbeb5e3b0	-0.35525274
2	0xbde137f0	-0.10996997
3	0x3d42cf60	0.04756105
4	0x3c9c39a7	0.01907046
5	0x3c2443b0	0.010025904
6	0xbe08e2c7	-0.13367759
7	0xbea48b68	-0.3213761
8	0x3eee73dc	0.4657277
9	0x3d4790ae	0.04872196

weight f4 [10, 10]
0	0x3ad2b518	0.0016075699
1	0x3db79898	0.08964652
2	0xbbf43c30	-0.007453464
3	0xbdc92bac	-0.09822783
4	0xbf132d76	-0.5749124
5	0xbf49dd23	-0.7885305
6	0x3db93d0a	0.090448454
7	0xbef8c06c	-0.48584306
8	0x3e75847e	0.23976323
9	0xbc7710e1	-0.015079708
10	0xbb44524b	-0.0029956277
11	0x3f2b7e7f	0.6698989
12	0xbde4698e	-0.111529455
13	0xbe8e73f2	-0.27822834
14	0x3edec55e	0.43509954
15	0x3da47498	0.08030051
16	0xbdc91bba	-0.098197415
17	0x3e0a3ab4	0.13498956
18	0xbdf98105	-0.12182812
19	0xbc555400	-0.013020515
20	0xbe1c59db	-0.15268652
21	0xbe17ccd8	-0.14824235
22	0x3eb0ca4b	0.34529337
23	0x3de181a0	0.11011052
24	0xbe4aa79a	-0.19790497
25	0x3edf93a7	0.43667337
26	0xbd1ba818	-0.038002104
27	0xbe84bca8	-0.25925183
28	0xbd4d8de1	-0.050184134
29	0x3e293398	0.16523588
30	0x3e0dff81	0.13866998
31	0x3e2c0f17	0.16802631
32	0xbc864e86	-0.016394865
33	0xbe44f77a	-0.1923503
34	0x3f0d9ef6	0.5532068
35	0xbc9e9f00	-0.019362926
36	0xbe4dd2ee	-0.20099995
37	0x3ecaf822	0.39642435
38	0x3eddaa20	0.43293858
39	0xbdd5e500	-0.10444069
40	0xbe306507	-0.17226039
41	0x3e3a388e	0.18185636
42	0xbe7777c3	-0.24166779
43	0x3e93b286	0.2884714
44	0x3d076f72	0.033065267
45	0x3d189dea	0.037259974
46	0xbf120230	-0.5703459
47	0xbac32d80	-0.0014890879
48	0x3e9dd475	0.30826154
49	0x3da153dc	0.07877323
50	0x3e5a27e0	0.21304274
51	0xbb04821a	-0.0020219148
52	0x3d16e6d8	0.036841244
53	0x3ca4cce0	0.020117223
54	0x3e04e20c	0.12976855
55	0x3df82782	0.121169105
56	0xbdbf2ba9	-0.093344994
57	0xbd1262a8	-0.035738617
58	0xbdf29179	-0.11844153
59	0x3d6a2b22	0.05717004
60	0x3e144f19	0.14483298
61	0x382b0000	4.0769577e-05
62	0xbce33ba0	-0.027738392
63	0x3be93de0	0.007117972
64	0xbd374840	-0.044746637
65	0x3c5c28f6	0.0134375
66	0x3dced422	0.10099055
67	0xbd293b16	-0.041316114
68	0xbc8ba22b	-0.017045101
69	0xbda00f7c	-0.078154534
70	0xbdb8ff70	-0.09033096
71	0x3d179970	0.037011564
72	0xbf2e309f	-0.6804294
73	0xbc0438cf	-0.008070185
74	0x3ec079f2	0.37593037
75	0xbeccfbc1	-0.40035823
76	0xbe697a68	-0.228006
77	0x3c89cfca	0.016822714
78	0x3f1c7294	0.6111233
79	0x3eb8e884	0.36114895
80	0xbd7922e8	-0.060824305
81	0x3e0e320a	0.13886276
82	0xbd713ef3	-0.058897924
83	0xbec91a64	-0.39277947
84	0xbeab6d78	-0.33481956
85	0xbec29594	-0.38004744
86	0x3e4d50a5	0.20050295
87	0x3e62f576	0.22163948
88	0x3d1b37c3	0.037894975
89	0x3da83318	0.0821287
90	0xbceb798e	-0.028744485
91	0xbea9f32a	-0.33193332
92	0xbc8494a6	-0.016184162
93	0x3e0270af	0.12738298
94	0x3d8177de	0.06321691
95	0xbd874d11	-0.06606496
96	0xbdca3d23	-0.09874942
97	0xbe8c384a	-0.27386695
98	0xbd85493e	-0.065081105
99	0x3d94adcc	0.072597116

bias f4 [10]
0	0xbf70084e	-0.9376267
1	0xbef8ebfa	-0.48617536
2	0x3ec14102	0.3774491
3	0x3f548e10	0.8302927
4	0xbdaaddea	-0.08343108
5	0x3ea4ff0c	0.32225835
6	0x3bfca8ef	0.007710568
7	0xbe1d3977	-0.15353952
8	0xbdd8e0b8	-0.10589737
9	0xbee55970	-0.44794798

weight f4 [10, 10]
0	0x3e6ad3c6	0.22932348
1	0x3de6bc8a	0.1126643
2	0xbe00e228	-0.12586272
3	0xbe810c6b	-0.25204787
4	0xbb872a38	-0.004124906
5	0x3d5c214c	0.053742692
6	0x3d85a0de	0.065248236
7	0xbebd3c52	-0.36960083
8	0x3e86c128	0.26319242
9	0x3b3a66f5	0.0028442715
10	0xbe1241c4	-0.142829
11	0xb9e4d500	-0.00043646246
12	0xbc13db58	-0.009024464
13	0x3df80fac	0.12112364
14	0xbe97005a	-0.29492456
15	0xbcd10d9e	-0.025519188
16	0x3e640421	0.222672
17	0x3f46be73	0.7763435
18	0x3dd79fe9	0.10528547
19	0xbe765477	-0.24055658
20	0x3d9d84b7	0.07691329
21	0x3bb92f0d	0.005651361
22	0xbc4eca22	-0.012621434
23	0x3c7bc241	0.015366138
24	0x3eb0bea8	0.3452046
25	0xbdbd434a	-0.0924135
26	0x3d8e4924	0.06947544
27	0x3eaa35fe	0.33244318
28	0x3e15027d	0.1455173
29	0x3dedfe04	0.11620715
30	0xbd882942	-0.06648494
31	0xbed1380e	-0.4086308
32	0xbdc525c9	-0.096263476
33	0xbbf68db4	-0.0075242165
34	0xbc5f7290	-0.013638154
35	0xbee0d2ee	-0.43910927
36	0xbd5f6328	-0.054537922
37	0xbe1a9824	-0.150971
38	0x3f055b0d	0.5209206
39	0xbe3174bc	-0.17329687
40	0xbd8e37b6	-0.0694422
41	0x3d0b7c8c	0.034054324
42	0xbb388488	-0.0028155167
43	0xbe5527be	-0.20815942
44	0x3daee042	0.085388675
45	0x3e7e135a	0.2481207
46	0x3a8cbc20	0.0010737218
47	0x3e9fb0b6	0.31189507
48	0x3ddadbd1	0.10686458
49	0x3bbcf542	0.0057665417
50	0xbd926376	-0.07147877
51	0x3e996b4e	0.2996468
52	0xbbb32168	-0.005466629
53	0x3cf56598	0.02995567
54	0x3d8ede96	0.06976049
55	0xbcdb5fe4	-0.026779123
56	0xbf2f6372	-0.68511117
57	0x3e9f8f25	0.31163898
58	0x3e1ac69a	0.15114823
59	0xbd16c990	-0.03681332
60	0xbe0bd02a	-0.13653627
61	0xbe5c6e70	-0.21526504
62	0x3d158fc0	0.036514044
63	0x3e699e45	0.22814281
64	0xbe070e20	-0.13188982
65	0xbd5b23e4	-0.053501025
66	0xbf11376d	-0.567252
67	0xbd8a5a18	-0.06755465
68	0x3ed34e77	0.412708
69	0xbe413145	-0.18866451
70	0x3e67e7f8	0.22647083
71	0x3bb31106	0.005464676
72	0x3e383b30	0.17991328
73	0x3d8b35e4	0.06797388
74	0x3e01aa68	0.12662661
75	0xbb39d5c0	-0.0028356165
76	0xb96fe410	-0.00022877776
77	0xbe572b3e	-0.2101259
78	0xbe8e8278	-0.27833915
79	0x3cb21694	0.021739282
80	0x3cc49664	0.023997493
81	0x3f06a054	0.5258839
82	0x3c870bf1	0.016485186
83	0x3d34b3e9	0.04411689
84	0xbdb00a4e	-0.085957155
85	0xbe1f686e	-0.1556718
86	0x3d2ad7e4	0.041709796
87	0x3e464c50	0.19365048
88	0xbe536f4e	-0.20647928
89	0xbba97d74	-0.005172426
90	0xbdb12618	-0.08649844
91	0x3d997e40	0.074947834
92	0xbf0ebed1	-0.5575991
93	0xbf22e898	-0.6363616
94	0xbe340bd7	-0.17582642
95	0x3ee9f309	0.45693234
96	0x3dfcdd8e	0.12346946
97	0x3d595d60	0.053067565
98	0xbc8b3281	-0.016991856
99	0xbd3e818b	-0.04651026

bias f4 [10]
0	0x3df83b0e	0.12120639
1	0x3dc35f98	0.095397174
2	0x3ded9e12	0.11602415
3	0x3cff73cf	0.031183152
4	0xbc97e00c	-0.018539451
5	0xbda4bf58	-0.080443084
6	0x3e5e0468	0.21681368
7	0xbdc6e484	-0.09711555
8	0xbd94bcbe	-0.07262562
9	0x3ef1c145	0.47217765

weight f4 [10, 10]
0	0xbd614738	-0.05499956
1	0xbd5519d1	-0.052026574
2	0xbe83323c	-0.25624263
3	0x3e95dd4f	0.29270408
4	0xbe0493a6	-0.12946948
5	0xbd6642f3	-0.05621619
6	0x3e0f9570	0.1402185
7	0x3d349bd2	0.044093914
8	0xbe2d4203	-0.16919713
9	0x3e6f791a	0.2338604
10	0x3e56299e	0.20914313
11	0xbd407114	-0.04698284
12	0xbecd4b74	-0.4009663
13	0x3d723d4d	0.059140492
14	0xbee508f1	-0.44733384
15	0x3d9ae941	0.07564021
16	0x3d958278	0.073002756
17	0xbd20588c	-0.039146945
18	0xb9ce319a	-0.00039328338
19	0xbd18a3f9	-0.03726575
20	0x3d549080	0.05189562
21	0xbeb31fae	-0.34985107
22	0xbbecf64d	-0.00723151
23	0x3e81ec07	0.25375387
24	0x3f0b0571	0.5430518
25	0xbcf42740	-0.029803872
26	0x3bdcd1ce	0.006738878
27	0xbe40c758	-0.18826044
28	0xbe075ac8	-0.13218224
29	0xbc6c6980	-0.01442945
30	0x3c57d24c	0.013172697
31	0x3d81e7c4	0.06343034
32	0xbf21985c	-0.63123107
33	0x3d13cd1f	0.03608429
34	0xbcee4138	-0.029083833
35	0xbde6636a	-0.112494305
36	0x3dd667f6	0.10469048
37	0xbd8e8535	-0.06959001
38	0xbb07f080	-0.0020742714
39	0x3e07184b	0.13192861
40	0x3e75787c	0.23971742
41	0xbe5af0aa	-0.21380869
42	0x3acd7171	0.0015674067
43	0xbf323d9e	-0.6962527
44	0x3e56efd7	0.20989929
45	0xbd4542f3	-0.04815955
46	0xbcb2e914	-0.021839656
47	0xbe80e610	-0.25175524
48	0x3ea625a3	0.3245059
49	0x3e34f03c	0.17669767
50	0x3e6f5147	0.23370849
51	0xbdc48347	-0.09595352
52	0xbe2e8092	-0.17041233
53	0xbf1f1d5c	-0.62154174
54	0xba859aa0	-0.0010193177
55	0x3d3d70c0	0.046250105
56	0x3d995b86	0.0748816
57	0x3d0038ed	0.03130429
58	0x3b23ff88	0.0025024135
59	0x3bb81b14	0.0056184623
60	0xbcb72dfb	-0.022360792
61	0x3ea16f0b	0.31530032
62	0xbcedabe8	-0.029012635
63	0x3eb86fab	0.36022696
64	0x3d893e30	0.067013144
65	0xbc1b6590	-0.009484664
66	0x3c3b7469	0.011441329
67	0x3f0d5fe3	0.55224437
68	0x3f0911b8	0.5354266
69	0x3f248b8e	0.64275444
70	0x3db63880	0.08897495
71	0x3e90bd7b	0.28269562
72	0xbef226ff	-0.47295377
73	0xbe82dcd1	-0.25559095
74	0xbd789df0	-0.060697496
75	0x3cb4b894	0.02206067
76	0xbf09f81b	-0.53894204
77	0x3d654a9c	0.055979356
78	0x3e80ee33	0.25181732
79	0x3e9a1bd4	0.30099356
80	0xbec9c172	-0.394054
81	0xbe499945	-0.19687374
82	0xbee39b87	-0.44454595
83	0x3de607da	0.11231966
84	0x3e163a2c	0.14670628
85	0x3cbff5c7	0.023432625
86	0x3d3e38ac	0.046440765
87	0xbdc37c09	-0.09545142
88	0x3da1f2c6	0.079076335
89	0xbd2adcec	-0.041714594
90	0x3cec78f7	0.028866274
91	0x3ea26b18	0.3172233
92	0xbd79e259	-0.061006878
93	0x3e783c99	0.24241866
94	0xbde56afe	-0.11202048
95	0x3c0ef9d8	0.00872656
96	0x3e2dfbf2	0.16990641
97	0x3e4914bf	0.1963682
98	0xbebdf50b	-0.37101015
99	0xbe043dbc	-0.12914175

bias f4 [10]
0	0x3df78df8	0.12087625
1	0xbea63430	-0.3246169
2	0x3c31acf4	0.010844458
3	0x3cf09900	0.029369831
4	0x3e8f30f0	0.27967024
5	0x3bba5f75	0.005687649
6	0x3db54c3c	0.08852431
7	0x3d74ab40	0.05973363
8	0x3ee6dcc5	0.4509031
9	0xbe6e6073	-0.2327898

weight f4 [10, 10]
0	0x3eb0d891	0.34540227
1	0x3dee9694	0.11649814
2	0xbdcf66e0	-0.10127044
3	0x3e1a0e0d	0.15044422
4	0x3d2a1b0c	0.0415297
5	0x3eab1da2	0.33421046
6	0xbe7fedf4	-0.24993116
7	0x3ec8c172	0.39210087
8	0xbe028368	-0.1274544
9	0x3eded856	0.43524426
10	0x3dd46d33	0.103723906
11	0xbe1417e4	-0.14462239
12	0xbde5ede5	-0.112270154
13	0xbb7fc6e0	-0.003902845
14	0x3daef562	0.08542897
15	0x3ca8796a	0.020565707
16	0x3d0c1624	0.034200802
17	0xbe0d4804	-0.13797003
18	0xbf55d58c	-0.8352897
19	0xbcb61540	-0.02222693
20	0xbf002805	-0.50061065
21	0xbc7b390d	-0.015333426
22	0x3e956f2d	0.29186383
23	0xbb208464	-0.0024492973
24	0xbeab1811	-0.334168
25	0x3da67057	0.08126896
26	0x3f266368	0.6499543
27	0x3f0e1614	0.5550244
28	0x3e1394ef	0.14412282
29	0x3ee26d90	0.44224215
30	0x3d83b669	0.06431276
31	0x3e77bc9c	0.24193043
32	0xbd356d56	-0.044293724
33	0x3e00cb4e	0.12577555
34	0x3dbdf8a6	0.092759416
35	0x3e248925	0.16067941
36	0x3d8c1b41	0.06841136
37	0x3e75d1fe	0.24005887
38	0x3e4fe34a	0.20301548
39	0x3c1227c0	0.00892061
40	0xbe98649d	-0.29764262
41	0xbd956ffc	-0.0729675
42	0xbeab221f	-0.3342447
43	0x3e3764e4	0.1790958
44	0x3e82f36a	0.25576335
45	0x3d2ec204	0.042665496
46	0x3b928a00	0.0044720173
47	0xbec413b2	-0.38296276
48	0x3d6acc58	0.057323784
49	0xbdf0d7d0	-0.11759913
50	0xbe95a5f3	-0.29228172
51	0x3f124dc4	0.5714991
52	0xbf04c833	-0.5186798
53	0xbf4e6818	-0.80627584
54	0x3b95be14	0.004569778
55	0xbe814fbe	-0.2525615
56	0xbeeee010	-0.4665532
57	0xbe7ce312	-0.24695995
58	0xbdd6e54d	-0.104929544
59	0xbe55a7b4	-0.20864755
60	0xbdd4272c	-0.10359034
61	0xbec8af31	-0.3919616
62	0x3d187ea8	0.037230164
63	0x3dfae494	0.12250629
64	0xbddc49c5	-0.10756258
65	0xbc110778	-0.008851878
66	0x3d47e962	0.048806556
67	0xbf4bad80	-0.79561615
68	0x3e63ebb6	0.22257885
69	0xbdf6794a	-0.12034853
70	0xbc6e4ebe	-0.014545141
71	0x3e2ac14e	0.16675302
72	0x3ab423a0	0.0013743527
73	0xbf0cfd10	-0.5507364
74	0x3f217ee8	0.6308427
75	0xbef2cf85	-0.4742395
76	0x3ec48eda	0.38390237
77	0xbaab1c30	-0.0013054665
78	0xbdce32ea	-0.10068305
79	0xbebf97fe	-0.37420648
80	0xbd2b37ca	-0.04180125
81	0x3e4e5041	0.20147802
82	0x3d076ea8	0.033064514
83	0xbcc5ac79	-0.024130093
84	0x3c216d0c	0.009852659
85	0x3c969be0	0.018384874
86	0xbbe5cf60	-0.0070132464
87	0x3dac7546	0.08420806
88	0x3dacc320	0.08435655
89	0xbc3f303c	-0.011669215
90	0xbdbf8f18	-0.09353465
91	0xbc901082	-0.017585997
92	0x3cbc66b0	0.022998184
93	0x3c3798b8	0.011205845
94	0x3e1f7625	0.15572412
95	0x3c7d0cb0	0.0154449195
96	0x3e0119b7	0.12607466
97	0x3ea0f3e2	0.31436068
98	0xbee5bf98	-0.44872737
99	0x3f0b9446	0.5452312

bias f4 [10]
0	0xbdcff2a6	-0.101537034
1	0x3dcce12c	0.100038856
2	0xbe266cd2	-0.16252449
3	0x3e2a45b8	0.16628158
4	0xbd18a088	-0.03726247
5	0xbc9f9c10	-0.019483596
6	0xbeb0efd6	-0.3455798
7	0x3e6c937e	0.23103139
8	0x3d199891	0.037499014
9	0x3de0cec6	0.10976939

weight f4 [10, 10]
0	0xbe659daa	-0.22423425
1	0xbd9a7034	-0.07540932
2	0x3e7d49ce	0.24735186
3	0xbe6820a0	-0.22668695
4	0xbeaf3511	-0.34220174
5	0xbde7c28c	-0.11316404
6	0xbc3268b0	-0.010889217
7	0x3a875d98	0.0010327576
8	0x3f653e76	0.8954843
9	0x3eadc2ce	0.33937687
10	0xbccf7b02	-0.02532721
11	0x3ee1a2af	0.4406943
12	0xbf2987fa	-0.6622311
13	0x3d114984	0.0354705
14	0x3f27f338	0.656055
15	0x3c2b4310	0.010453001
16	0x3e162984	0.14664274
17	0x3e062a7a	0.13102141
18	0x3deb903d	0.11502121
19	0x37ee5a00	2.841372e-05
20	0xbc1abc3e	-0.0094442945
21	0x3eefbb94	0.46822798
22	0xbd3f91b4	-0.046769813
23	0x3d6ffc8d	0.05859046
24	0x3e10ab37	0.14127813
25	0x3e674d5a	0.22588101
26	0xbda916a4	-0.082562715
27	0x3e722e30	0.23650432
28	0x3d042de8	0.032270342
29	0x3ee33a60	0.44380474
30	0xbdb5ca4b	-0.08876475
31	0xbd8d1082	-0.06887914
32	0x3f74c564	0.95613694
33	0x3f0439f2	0.5165092
34	0x3e009288	0.12555897
35	0xbe222148	-0.15833008
36	0xbf5a4a1d	-0.8526934
37	0xbe88fe64	-0.26756585
38	0xbf10c50e	-0.5655068
39	0xbde368e8	-0.11103994
40	0x3e8183cf	0.25295874
41	0xbd131d6c	-0.03591673
42	0xbe0a3a35	-0.13498767
43	0x3e139ed7	0.14416061
44	0x3f06490a	0.524552
45	0xbe432c72	-0.19059923
46	0xb6794000	-3.7141144e-06
47	0x3d8cc5c0	0.06873655
48	0x3db8c290	0.09021485
49	0xbf5d18da	-0.86366045
50	0x3f06cf7f	0.52660364
51	0xbec43d69	-0.38328102
52	0xbeb6d84e	-0.35711902
53	0x3c1c6160	0.0095447
54	0xbde9b640	-0.114117146
55	0x3d48ba94	0.04900606
56	0x3e86e626	0.26347464
57	0x3d92d29a	0.07169075
58	0x3ea811f4	0.32826197
59	0x3d7ff6c0	0.06249118
60	0x3dcc2c97	0.09969442
61	0xbdfd3a44	-0.12364629
62	0x3ca1e0a0	0.01976043
63	0x3eb5a7d7	0.35479614
64	0xbe36a59a	-0.1783661
65	0xbaeadd00	-0.0017918646
66	0x3df0a4f7	0.117502145
67	0xbceb4540	-0.028719544
68	0xbe9d82aa	-0.3076375
69	0x3c35aa38	0.011087947
70	0xbeab1cb5	-0.3342034
71	0xbcfb09c0	-0.030644298
72	0xbe8f307e	-0.27966684
73	0x3ea60e6a	0.32432872
74	0x3e3ccba6	0.1843706
75	0xbe53882a	-0.20657411
76	0xbdf14b96	-0.11781995
77	0xbdfe3e0a	-0.12414177
78	0xba151b70	-0.00056879874
79	0xbedc95ec	-0.4308313
80	0x3f1afa37	0.6053805
81	0x3e17164d	0.14754601
82	0x3e8bdb9d	0.2731599
83	0xbe5f3c1e	-0.21800277
84	0xbf2572a6	-0.64628065
85	0x3f675ce0	0.9037609
86	0xbdec054a	-0.11524446
87	0x3ce56de2	0.028006498
88	0x3e1586fa	0.1460227
89	0x39af4500	0.0003343001
90	0x3e8a617e	0.27027506
91	0xbdf32278	-0.11871809
92	0xbd21748e	-0.039417796
93	0xbe790422	-0.24317983
94	0x3d3b00ce	0.045655064
95	0x3ea20217	0.3164222
96	0xbea11e7f	-0.3146858
97	0x3ee05909	0.43817928
98	0xbe708026	-0.23486385
99	0x3da60622	0.081066385

bias f4 [10]
0	0x3ec0cb04	0.3765489
1	0x3e58ceb0	0.21172595
2	0xbe2f231d	-0.17103238
3	0x3e9fbc18	0.31198192
4	0xbe178986	-0.14798555
5	0xbf2825fb	-0.65682954
6	0x3d8f3962	0.06993367
7	0xbe5a4898	-0.21316755
8	0xbdeddfdf	-0.11614966
9	0xbe89fc3e	-0.26950258

weight f4 [1, 10]
0	0xbd23a23e	-0.039949648
1	0xbda8e4ba	-0.08246751
2	0xbe6d6a19	-0.23185004
3	0x3e6e18d3	0.23251657
4	0xbd6fc084	-0.058533207
5	0x3ed88346	0.42287654
6	0x3da5fe74	0.08105174
7	0x3eefa611	0.46806386
8	0xbe8a3193	-0.26990947
9	0xbef2c7aa	-0.47417957

add_tensors f4 [10, 6]
0	0x3c06b936	0.008222869
1	0xbe17a672	-0.14809588
2	0x3ed5e1fe	0.4177398
3	0x3db3bf2d	0.08776698
4	0xbcd4751c	-0.025934748
5	0xbb034dc4	-0.0020035366
6	0x3e931446	0.28726405
7	0xbe2295ba	-0.15877429
8	0xbe21e9ee	-0.15811893
9	0xbdaba67d	-0.083813645
10	0xbe2eebaf	-0.17082094
11	0x3e08926c	0.13337106
12	0x3c62dbf6	0.013846388
13	0xbe299b82	-0.16563228
14	0xbdc2e1eb	-0.09515747
15	0xbdce731e	-0.100805506
16	0xbd0473ff	-0.032337185
17	0xbe6a9ac7	-0.22910605
18	0xbe9368ef	-0.28790995
19	0xbe840f42	-0.2579289
20	0x3de4ac98	0.11165732
21	0x3e1cca1e	0.15311477
22	0xbe5451ce	-0.20734331
23	0xbe016460	-0.12635946
24	0x3d502eaf	0.05082577
25	0x3e9c07dc	0.30474746
26	0xbd91edeb	-0.071254574
27	0xbd183cfa	-0.037167527
28	0x3d4e2692	0.050329752
29	0x3e892f87	0.26794073
30	0xbbb67e29	-0.0055692387
31	0xbe924752	-0.28570038
32	0x3de4ff6d	0.11181531
33	0xbdf75d83	-0.12078383
34	0x3e0672be	0.13129708
35	0xbb94effe	-0.004545211
36	0x3d71b2f6	0.05900856
37	0x3db3e334	0.0878357
38	0x3c2585b1	0.010102675
39	0x3d03f678	0.032217473
40	0xbeacd217	-0.33754036
41	0x3cf9c4e6	0.030489396
42	0x3b26b963	0.002544009
43	0x3cc3bfb3	0.02389512
44	0xbe06d46e	-0.13166973
45	0xbdc705f9	-0.09717936
46	0x3e88324a	0.26600868
47	0x3e0393bb	0.12849323
48	0x3e05a8e4	0.13052708
49	0x3d538369	0.051638994
50	0x3befff69	0.0073241484
51	0xbe3c65ec	-0.18398255
52	0xbdf47d34	-0.11937943
53	0x3e5c6461	0.21522667
54	0xbea56426	-0.3230297
55	0xbea633b0	-0.3246131
56	0x3b82511f	0.0039769555
57	0x3cbb9313	0.022897279
58	0xbede75ce	-0.43449253
59	0x3ea6290c	0.3245319

add_tensors f4 [10]
0	0xbd227712	-0.039664336
1	0xbda9ca81	-0.08290578
2	0xbedc44ea	-0.43021327
3	0x3e4426ca	0.19155422
4	0x3c1816ae	0.009282751
5	0xbdb720da	-0.08941813
6	0xbdb0d65e	-0.08634637
7	0xbe00fb8d	-0.12595959
8	0x3e496d74	0.1967066
9	0xbcea2f83	-0.028587108

add_tensors f4 [10, 10]
0	0x3cc01dcb	0.023451706
1	0xbe84be78	-0.25926566
2	0x3d8f774f	0.07005178
3	0xbda4f826	-0.08055143
4	0xbd277c45	-0.040889997
5	0xbd7d4c4f	-0.06184035
6	0xbb234cbe	-0.0024917568
7	0xbc591acd	-0.013251019
8	0x3f179525	0.5921195
9	0x3d937ac3	0.07201149
10	0xbc2ccd65	-0.010547017
11	0x3e6aadd4	0.22917873
12	0xbec5b346	-0.38613337
13	0x3e39a345	0.18128689
14	0x3edaac41	0.42709544
15	0xbe02571f	-0.12728547
16	0x3d13b958	0.03606543
17	0xbdb043b7	-0.086066656
18	0x3cde9124	0.027168818
19	0xbc661ad3	-0.014044481
20	0xbb9f4dbc	-0.0048615616
21	0x3e915e69	0.28392342
22	0xbc6a02ae	-0.014282865
23	0xbb3f602d	-0.0029201612
24	0x3baa402e	0.005195639
25	0x3e0c3f12	0.13695934
26	0xbeae47a2	-0.34039026
27	0x3dae482b	0.08509859
28	0xbe8c0bb4	-0.2735268
29	0x3e1ddfc1	0.15417387
30	0x3c7a415a	0.01527437
31	0xbcceddd7	-0.025252266
32	0x3f2cfeeb	0.67576474
33	0x3e7001e7	0.23438226
34	0x3d2cbcc8	0.042172223
35	0xbd667929	-0.05626789
36	0xbf1c69d0	-0.6109896
37	0xbe30509e	-0.17218253
38	0xbe808860	-0.25104046
39	0x3dc89054	0.097931534
40	0x3df0b1b4	0.11752644
41	0x3e103d25	0.14085825
42	0x3e15a89f	0.14615105
43	0x3d0dfc55	0.03466447
44	0x3e5fc60c	0.21852893
45	0xbd8d030d	-0.068853475
46	0xbc8b36aa	-0.01699384
47	0x3eb5c807	0.3550417
48	0xbdd5b234	-0.1043438
49	0xbf144d5a	-0.5793053
50	0x3e77d065	0.2420059
51	0xbdc7658b	-0.09736165
52	0xbe500f42	-0.2031832
53	0xbe19b5de	-0.15010783
54	0x3dc07358	0.09397
55	0x3e0bd8b3	0.13656883
56	0x3ca0bfb3	0.01962266
57	0x3c7611ae	0.015018864
58	0x3d139664	0.036032096
59	0xbdb64ce0	-0.089013815
60	0xbdd948f5	-0.106096186
61	0xbec1df6a	-0.37865764
62	0xbe8f37cb	-0.27972254
63	0x3e3a366a	0.1818482
64	0xbd2bde96	-0.04196032
65	0xbe072f46	-0.13201627
66	0xbd36a68a	-0.044592418
67	0x3e8cb8c1	0.27484706
68	0xbc0a2136	-0.00843077
69	0xbd15576a	-0.036460318
70	0xbdbde600	-0.09272385
71	0xbea82121	-0.32837775
72	0xbe030424	-0.12794548
73	0x3e3f8419	0.18702735
74	0xbd626351	-0.055270497
75	0x3c546bff	0.012965201
76	0xbd070dbf	-0.032972094
77	0xbd735485	-0.059406776
78	0x3c1e1809	0.009649285
79	0xbe45267e	-0.19252965
80	0x3e9ea091	0.30981877
81	0x3c6ebe89	0.014571794
82	0x3e12c284	0.14332014
83	0xbdd1b915	-0.1024038
84	0xbee6913b	-0.45032677
85	0x3f28cfc2	0.65942013
86	0x3d53adc5	0.05167939
87	0xbcc1deae	-0.023665752
88	0x3c9a3da3	0.018828219
89	0xbb8e3ff0	-0.004341118
90	0x3ce6118d	0.02808454
91	0xbd2d4157	-0.04229864
92	0xb9e96b31	-0.00044521087
93	0xbdcbf45c	-0.09958717
94	0xbdc67ad5	-0.09691397
95	0x3c3d9eb9	0.011573487
96	0xbe407cfb	-0.18797676
97	0x3e3aa770	0.18227935
98	0xbdaf3ac8	-0.085561335
99	0x3c39604e	0.011314465

add_tensors f4 [1, 10]
0	0x3d723f36	0.059142314
1	0x3e1caaf5	0.1529959
2	0xbde8c3ca	-0.11365469
3	0xbbe38c59	-0.006944221
4	0x3d88e8d6	0.06685035
5	0x3e0e6e49	0.13909258
6	0x3cc0a132	0.023514364
7	0x3e836c1e	0.25668424
8	0xbf05853a	-0.5215641
9	0xbe8f74ad	-0.28018704
