Linear_harder/TorchSaves/Best_Ball_Gen3.pt (torch_old, 14130 bytes, 17 tensors)

weight f4 [10, 6]
0	0xbde337ac	-0.11094603
1	0xbdd9daec	-0.10637459
2	0x3ece94e4	0.4034797
3	0x3e5a5bcc	0.2132408
4	0x3c1c6940	0.009546578
5	0xbeb28556	-0.34867352
6	0xbe8119cc	-0.25214994
7	0xbe4cf9fb	-0.20017235
8	0x3e8f71bc	0.2801646
9	0xbe8f6ae2	-0.28011233
10	0xbe8cf72a	-0.2753232
11	0x3c6e4320	0.014542371
12	0xbe8dc0e8	-0.27686238
13	0xbe936313	-0.28786525
14	0x3d9f0708	0.07765013
15	0x3ec53a70	0.38521147
16	0xbe6ab6cd	-0.22921295
17	0xbe1b1772	-0.15145662
18	0x3e6c3110	0.23065591
19	0xbebe17c6	-0.37127513
20	0xbec2ddb4	-0.3805977
21	0x3c434280	0.01191771
22	0x3dfbf8d0	0.123033166
23	0x3e6ef490	0.2333548
24	0xbd3297a0	-0.043601632
25	0x3e93afb8	0.28845
26	0xbe793dc4	-0.24339968
27	0xbec74df9	-0.38926676
28	0xbdcd9f54	-0.10040155
29	0x3ecdcb08	0.40193963
30	0xbe429bad	-0.19004698
31	0xbecc1260	-0.3985777
32	0xbd5a5b70	-0.053309858
33	0x3da62a18	0.081134975
34	0x3e69ed50	0.22844434
35	0xbe49abb5	-0.19694407
36	0x3ebd8154	0.37012732
37	0x3e5c9b10	0.21543527
38	0xbe2562fc	-0.16151041
39	0x3eb8f08c	0.36121023
40	0xbe910bd9	-0.28329352
41	0xbe57715d	-0.21039338
42	0xbe9981aa	-0.29981738
43	0x3ec2c794	0.3804289
44	0xbe4b4ce6	-0.19853553
45	0xbe286767	-0.16445695
46	0x3d6f00f0	0.058350503
47	0xbe284156	-0.16431174
48	0xbdcc5fcc	-0.09979209
49	0xbe8b11b0	-0.27161932
50	0xbecc5a0e	-0.39912456
51	0xbe21e7e8	-0.15811121
52	0x3cfc0d60	0.030768096
53	0xbe87a456	-0.26492566
54	0xbddab774	-0.10679522
55	0x3db1f7ec	0.086898655
56	0x3eaa568a	0.3326915
57	0xbecea1aa	-0.40357715
58	0xbe19f104	-0.15033346
59	0x3e724640	0.23659611

bias f4 [10]
0	0x3e912b68	0.2835343
1	0x3db61924	0.08891514
2	0xbeab2159	-0.3342388
3	0xbeaaf386	-0.3338892
4	0x3e4baebc	0.19890875
5	0xbdc15340	-0.09439707
6	0xbd22feb0	-0.03979367
7	0xbe54d963	-0.20786051
8	0xbecbaf2a	-0.39782077
9	0xbe79c07b	-0.24389832

weight f4 [10, 10]
0	0xbe7dd9cb	-0.24790113
1	0x3d8d23d8	0.06891602
2	0x3e246d74	0.16057378
3	0xbd2f3d80	-0.04278326
4	0xbe2101f7	-0.15723406
5	0x3d24d3b0	0.040240943
6	0xbd1d2210	-0.038362563
7	0x3e02bf1c	0.12768215
8	0x3e8871ef	0.26649424
9	0xbe487e58	-0.19579446
10	0x3dbc5c58	0.09197301
11	0x3d415b98	0.04720649
12	0xbe96632a	-0.2937253
13	0xbc6d7c60	-0.014494985
14	0x3df2d6b4	0.118573576
15	0xbdaf9c30	-0.08574712
16	0x3e252a66	0.16129455
17	0xbcf79120	-0.030220568
18	0xbe689ca2	-0.22716
19	0xbd9151e8	-0.070957005
20	0xbe4ec94c	-0.20193976
21	0x3d9e3fb0	0.07726991
22	0x3df0eef4	0.11764327
23	0xbea0143c	-0.31265438
24	0xbe6ad9fc	-0.22934717
25	0xbdf5c5a0	-0.120005846
26	0xbe5e14ee	-0.21687672
27	0xbe575c68	-0.21031344
28	0x3e8a3693	0.26994762
29	0x3e79461e	0.24343154
30	0x3e2a50f0	0.16632438
31	0x3e9029b3	0.28156814
32	0xbe90300d	-0.2816166
33	0x3c6a45c0	0.014298856
34	0xbd587fb0	-0.052856147
35	0x3e8310c3	0.25598726
36	0xbe9254a4	-0.285802
37	0x3e87ad4f	0.2649941
38	0x3e88c95d	0.26716128
39	0x3e04e8c8	0.12979424
40	0x3e433afe	0.19065472
41	0x3db00160	0.08594012
42	0x3e1b5978	0.15170848
43	0xbe0dae51	-0.13836028
44	0xbda2662a	-0.079296425
45	0xbe27f645	-0.16402538
46	0x3e9efcc7	0.3105223
47	0x3c338860	0.010957807
48	0x3dfa98e4	0.12236193
49	0xbc0b3ea0	-0.008498818
50	0xbe17aaf8	-0.14811313
51	0xbe66ef9f	-0.22552346
52	0x3dbabefc	0.09118459
53	0xbc9c82f0	-0.019105405
54	0x3e40d506	0.18831262
55	0x3e453b82	0.19260982
56	0xbddf15f2	-0.108928576
57	0xbe898ec7	-0.26866743
58	0xbdf1aab8	-0.1180014
59	0xbe021727	-0.12704144
60	0x3c7bb780	0.015363574
61	0x3e7e3ab6	0.24827084
62	0x3e06e642	0.13173774
63	0x3e617f7e	0.2202129
64	0xbe55cdff	-0.20879363
65	0x3e767e42	0.24071601
66	0xbe976e18	-0.29576182
67	0xbe03a467	-0.12855683
68	0x3e595e8e	0.21227476
69	0x3dd044d8	0.10169381
70	0xbda5aa42	-0.08089115
71	0xbe6258b2	-0.22104147
72	0xbe5cc842	-0.21560767
73	0xbd82d404	-0.06388095
74	0xbe8793f2	-0.2648006
75	0x3e48b5b2	0.19600561
76	0x3e947bef	0.29000804
77	0x3e84b825	0.2592174
78	0xbe96af52	-0.29430634
79	0x3e6e29f6	0.23258194
80	0x3caa72c0	0.02080667
81	0xbd9e60d4	-0.07733312
82	0x3cd26540	0.025683045
83	0xbe2081d6	-0.15674528
84	0xbd071b10	-0.032984793
85	0xbe2b3d66	-0.1672264
86	0xbe4d232c	-0.20032948
87	0x3e8192d9	0.25307348
88	0xbe9ff36d	-0.31240407
89	0xbdbde98c	-0.09273061
90	0x3d9b0e30	0.075710654
91	0x3e294a56	0.16532263
92	0x3e2be5fa	0.16786948
93	0x3e01ccf2	0.12675837
94	0xbbfd6980	-0.007733524
95	0xbe63c8b8	-0.22244537
96	0x3ddb641c	0.10712454
97	0xbe9a6f04	-0.30162823
98	0xbe854883	-0.26031885
99	0x3e29a5ba	0.16567126

bias f4 [10]
0	0x3e42cf4a	0.19024387
1	0xbd822df4	-0.06356421
2	0xbdebe4a6	-0.115182206
3	0x3e42c576	0.19020638
4	0xbd7adcd8	-0.06124577
5	0x3e470ffe	0.19439694
6	0x3e8b6ce7	0.27231523
7	0xbe8da2f8	-0.27663398
8	0x3e1a8fbc	0.15093893
9	0x3c33a160	0.010963768

weight f4 [10, 10]
0	0x3dad51cc	0.08462867
1	0xbd0a0368	-0.033694655
2	0x3e549b42	0.20762351
3	0xbd6dd368	-0.05806294
4	0xbe470a22	-0.19437459
5	0xbcd87b60	-0.026426017
6	0x3e6f579e	0.23373267
7	0x3e9b9b99	0.3039215
8	0x3d226350	0.039645493
9	0xbe575e20	-0.21032
10	0xbe5c2018	-0.21496618
11	0xbe94a914	-0.29035246
12	0x3d4a4690	0.0493837
13	0x3e4c724a	0.19965473
14	0xbc25b7e0	-0.01011464
15	0x3d421988	0.04738763
16	0xbe9f6cf5	-0.31137815
17	0x3e1dee4a	0.15422931
18	0x3e11b964	0.14230877
19	0x3e820f13	0.25402126
20	0xbe0415be	-0.12898919
21	0x3ccffe20	0.02538973
22	0x3cf55070	0.029945582
23	0x3e72e0c6	0.23718557
24	0xbe272823	-0.16323905
25	0xbe32b6a1	-0.1745248
26	0xbe90c2a0	-0.28273487
27	0xbe345407	-0.17610179
28	0xbd97ae66	-0.07406311
29	0xbe791071	-0.24322678
30	0x3d6dd390	0.05806309
31	0x3e966087	0.2937052
32	0x3cc0fb60	0.023557365
33	0x3d23abc0	0.039958715
34	0xbe0a1877	-0.13485895
35	0xbdd7c150	-0.10534918
36	0x3dd91cdc	0.106012076
37	0xbd85144c	-0.06498012
38	0xbe6ec724	-0.23318154
39	0x3e33b2ca	0.17548671
40	0x3d84d5cc	0.06486091
41	0xbe4619f4	-0.19345838
42	0xbe8da874	-0.27667582
43	0x3e7b1056	0.2451795
44	0x3d88081c	0.06642172
45	0xbcd67e20	-0.026183188
46	0x3d633948	0.05547455
47	0x3e34aaee	0.1764333
48	0xbe10d6d5	-0.14144452
49	0xbe94ba7c	-0.29048526
50	0x3e59b4fe	0.2126045
51	0x3e4d88de	0.20071742
52	0xbe4217af	-0.18954347
53	0x3c5967e0	0.013269395
54	0x3e4706ae	0.19436142
55	0x3deb6ca0	0.11495328
56	0xbd0fc008	-0.035095245
57	0xbd896ee4	-0.06710604
58	0xbe957fd2	-0.29199082
59	0xbe019f15	-0.12658341
60	0xbdee771a	-0.116438106
61	0xbe977956	-0.2958476
62	0x3e3034c6	0.17207631
63	0x3dbe776c	0.09300122
64	0xbd2a9368	-0.041644484
65	0x3e24ac36	0.16081318
66	0xbe728960	-0.23685217
67	0x3cb3d440	0.021951795
68	0x3e11adea	0.14226499
69	0xbe11f537	-0.14253698
70	0xbe9247f3	-0.28570518
71	0xbe6eea90	-0.23331666
72	0x3da317ac	0.079634994
73	0xbda72ee0	-0.081632376
74	0xbe848f1f	-0.25890443
75	0x3e4fa55a	0.2027792
76	0x3e25f37c	0.16206163
77	0x3d5b3958	0.053521484
78	0x3e4c719e	0.19965217
79	0x3e8dce71	0.27696565
80	0x3b312780	0.00270316
81	0x3e7d4216	0.24732241
82	0xbd6be9c8	-0.057595998
83	0xbd434e20	-0.047681928
84	0xbe5b2ea5	-0.21404512
85	0x3e990ca7	0.29892465
86	0x3de53a04	0.11192706
87	0xbe7c0118	-0.24609792
88	0xbe85912a	-0.26087314
89	0xbd48bf30	-0.049010456
90	0x3ddc382c	0.107529014
91	0x3e61c75e	0.22048709
92	0x3ea1a919	0.31574324
93	0x3db83684	0.08994773
94	0xbd9ca4dc	-0.07648632
95	0xbdcd447a	-0.100228265
96	0x3db356b4	0.08756772
97	0x3b806c00	0.0039191246
98	0x3cfa21b0	0.030533642
99	0xbc850540	-0.016237855

bias f4 [10]
0	0xbd96d920	-0.07365632
1	0x3e93e1d3	0.28883228
2	0x3e05e588	0.1307584
3	0x3e7e63d6	0.24842772
4	0x3dc90780	0.09815884
5	0x3e57953a	0.21053019
6	0x3e83f489	0.25772503
7	0x3dd9d334	0.10635987
8	0xbe037cea	-0.1284062
9	0x3e0e5462	0.13899377

weight f4 [10, 10]
0	0x3c460700	0.01208663
1	0xbe16ec6c	-0.14738625
2	0x3e521eb2	0.20519522
3	0x3dcdf890	0.10057175
4	0x3e60eb6e	0.2196481
5	0x3e78545e	0.24250934
6	0x3dcf40fc	0.10119817
7	0x3e943417	0.2894599
8	0xbe72f7f7	-0.23727404
9	0x39db9400	0.00041881204
10	0x3cc5d090	0.024147302
11	0xbe4b1062	-0.19830468
12	0xbe9434a3	-0.2894641
13	0x3e8ca94f	0.27472922
14	0xbdc983dc	-0.09839603
15	0xbd5a5af0	-0.05330938
16	0xbd9b7dfa	-0.075923875
17	0xbc731440	-0.014836371
18	0xbe97c66e	-0.29643577
19	0xbe8283cc	-0.25491178
20	0xbe8a401e	-0.27002043
21	0xbd9b1b88	-0.075736105
22	0xbd9bb510	-0.07602894
23	0x3dd47f04	0.10375789
24	0x3c618dc0	0.013766706
25	0x3e2efdb4	0.17088968
26	0xbd8e64b8	-0.06952804
27	0x3e24150e	0.16023657
28	0xbd9e026e	-0.07715307
29	0x3e7375fa	0.23775473
30	0x3dca5e80	0.09881306
31	0x3e3a97bc	0.18221945
32	0xbe77fa63	-0.24216609
33	0x3e1cdee6	0.15319404
34	0xbde90016	-0.113769695
35	0x3e45e8f6	0.19327149
36	0x3e56ae7e	0.20965001
37	0x3d057d50	0.03259021
38	0x3e24eed2	0.16106728
39	0x3e1d4ab4	0.15360528
40	0xbd838af4	-0.064229876
41	0x3e5c4566	0.21510848
42	0x3e809513	0.25113735
43	0xbe60de68	-0.21959841
44	0x3d9e2618	0.077221096
45	0x3d478e78	0.048719853
46	0x3e35d586	0.17757234
47	0x3e8f9da7	0.28049967
48	0x3d098680	0.033575535
49	0x3defd4c0	0.11710501
50	0xbd37d988	-0.04488519
51	0xbe26a186	-0.16272554
52	0xbe98a724	-0.29815018
53	0x3d3d78c0	0.046257734
54	0xbdf70f4a	-0.12063463
55	0xbd9157e0	-0.07096839
56	0x3cdc6970	0.026905745
57	0xbe2b79b3	-0.16745643
58	0x3cfb97f0	0.030712098
59	0x3dbbe534	0.091745764
60	0xbbe515c0	-0.006991118
61	0x3d32d2f0	0.043658197
62	0xbc8e1cd0	-0.017347723
63	0x3e89d4cd	0.26920167
64	0xbcf4bcd0	-0.029875189
65	0xbd8145a8	-0.06312114
66	0xbd70f260	-0.058824897
67	0x3e339e78	0.1754092
68	0xbe93af03	-0.2884446
69	0xbe192801	-0.14956667
70	0x3ddf1f70	0.10894668
71	0xbce0a5d0	-0.027422816
72	0x3e4babc2	0.19889739
73	0x3d95b830	0.073105216
74	0x3d918174	0.07104769
75	0x3e370f16	0.17876849
76	0x3e2f8510	0.17140603
77	0xbe80d142	-0.2515965
78	0xbe0e6094	-0.13904029
79	0xbe905706	-0.28191394
80	0xbe981ffa	-0.29711896
81	0x3e9eaf17	0.30992958
82	0x3d9a3d5c	0.075312346
83	0xbdd31306	-0.10306363
84	0x3dc8230c	0.0977231
85	0xbe2e00d5	-0.16992505
86	0x3e6e1876	0.23251519
87	0xbd964886	-0.073380515
88	0x3dc26184	0.09491256
89	0xbe7d3e08	-0.24730694
90	0xbe0053f4	-0.12532026
91	0xbe24b59f	-0.16084908
92	0x3e66787a	0.22506896
93	0xbd0db3c8	-0.03459528
94	0x3de4f938	0.11180347
95	0xbe0fb324	-0.1403318
96	0x3e0c59dc	0.13706154
97	0x3d05bfc0	0.03265357
98	0x3e90be0d	0.28269997
99	0xbe922297	-0.28542015

bias f4 [10]
0	0xbd1235f8	-0.035696
1	0x3dbdcf30	0.092680335
2	0x3e65743a	0.22407618
3	0xbe9d7d15	-0.30759493
4	0x3e86f23b	0.26356682
5	0xbce454f0	-0.027872533
6	0xbe405e33	-0.18785934
7	0xbe2117d3	-0.15731744
8	0x3d1232d0	0.03569299
9	0xbd923c7c	-0.07140443

weight f4 [10, 10]
0	0x3e18fe12	0.1494067
1	0xbe7d3fd2	-0.24731377
2	0xbdbdc6f6	-0.092664644
3	0x3e0ea4b8	0.13930023
4	0x3e5856b2	0.21126822
5	0x3dd959b4	0.10612813
6	0xbdf7b40c	-0.12094888
7	0xbe4f13f8	-0.20222461
8	0xbd965958	-0.0734126
9	0x3d3afa28	0.045648724
10	0xbe94c1b9	-0.2905405
11	0x3e521f92	0.20519856
12	0xbd8b2566	-0.067942426
13	0xbe61acf7	-0.22038637
14	0xbd3a1c88	-0.045437366
15	0x3dd16ff8	0.102264345
16	0x3de7d3ec	0.11319718
17	0x3d8f5870	0.0699929
18	0x3dc83114	0.09774986
19	0x3e14d85a	0.14535657
20	0x3e423a56	0.18967566
21	0xbe8368a4	-0.25665772
22	0xbe187b1b	-0.14890711
23	0x3e423bfa	0.18968192
24	0x3dc30280	0.09521961
25	0x3e488776	0.19582924
26	0x3e9db14b	0.30799326
27	0x3db07c08	0.08617407
28	0x3e5f6576	0.21816048
29	0x3e97f835	0.29681554
30	0x3e81b781	0.25335315
31	0xbdd651ee	-0.104648456
32	0x3def9d94	0.116999775
33	0x3da11a7c	0.078663796
34	0x3dcb78f0	0.09935176
35	0x3e9cbe0d	0.30613747
36	0x3e6139ce	0.21994707
37	0xbe2deb1f	-0.16984223
38	0xbe2c9418	-0.16853368
39	0xbe94791d	-0.28998652
40	0xbbeb3c40	-0.007178813
41	0xbd341468	-0.043964773
42	0x3d999604	0.07499316
43	0x3d862e74	0.06551829
44	0xbe4c0c31	-0.19926526
45	0xbea00d0b	-0.3125995
46	0x3e9900b7	0.29883358
47	0x3e7f5c5e	0.24937579
48	0xbdba6faa	-0.091033295
49	0x3caa74c0	0.020807624
50	0x3e947b85	0.29000488
51	0x3e33b234	0.17548448
52	0xbdbe627c	-0.09296128
53	0x3e2d95e6	0.16951713
54	0xbe6c31c0	-0.23065853
55	0x3d9dae18	0.076992214
56	0x3e5ac7e2	0.21365312
57	0xbd73e898	-0.05954799
58	0x3e80941f	0.25113007
59	0x3cf4f850	0.02990356
60	0xbe9aa9e9	-0.30207756
61	0x3e08c088	0.13354695
62	0x3dbe9644	0.09306005
63	0x3e384e18	0.1799854
64	0x3db1ff5c	0.08691284
65	0x3e9341cf	0.28761145
66	0xbde7ce04	-0.11318591
67	0x3d935450	0.07193816
68	0x3e6d35d6	0.23165068
69	0x3cad1cb0	0.021131843
70	0xbe368f66	-0.1782814
71	0x3d997f8c	0.07495031
72	0x3e1484b4	0.14503747
73	0xbc4c0460	-0.012452215
74	0xbd03f618	-0.032217115
75	0xbe941103	-0.2891923
76	0x3e017aac	0.12644452
77	0x3e9d758d	0.30753747
78	0xbe2d1263	-0.16901545
79	0x3e80d2cd	0.25160828
80	0xbe25a59f	-0.1617646
81	0x3b9ffa00	0.0048820972
82	0xbdb60ee4	-0.08889559
83	0xbe13262e	-0.14370033
84	0x3d2dc278	0.042421788
85	0x3e5fb1a2	0.21845105
86	0x3d00b598	0.03142318
87	0xbddb3aa0	-0.10704541
88	0xbe0d283c	-0.1378488
89	0x3e515562	0.20442727
90	0x3dbeaf74	0.09310809
91	0x3e159d26	0.14610729
92	0xbc15aa80	-0.009134889
93	0xbb4b5d00	-0.0031030774
94	0xbc018600	-0.007905483
95	0xbc00ce80	-0.007861733
96	0xbe1ab9c5	-0.15109928
97	0x3e17622a	0.1478354
98	0xbe33cccf	-0.17558597
99	0xbd568b30	-0.052378833

bias f4 [10]
0	0xbce66680	-0.028125048
1	0x3d8b8984	0.068133384
2	0xbe1f97ff	-0.15585326
3	0xbde04368	-0.10950357
4	0xbda6fd54	-0.08153787
5	0xbe18710c	-0.14886874
6	0x3e05d942	0.13071159
7	0xbc3fdae0	-0.011709899
8	0xbd2e1808	-0.042503387
9	0x3d2a1360	0.041522384

weight f4 [10, 10]
0	0xbe558960	-0.20853186
1	0x3e518882	0.2046223
2	0xbded6548	-0.115915835
3	0xbe3588d3	-0.17727976
4	0xbd3b6aa8	-0.045756012
5	0x3e4dea6e	0.20108959
6	0xbea059d6	-0.3131854
7	0x3e82d05b	0.25549588
8	0xbdafdec0	-0.08587408
9	0x3d1fb0b0	0.03898686
10	0x3e1d2f76	0.15350136
11	0xbe380480	-0.17970467
12	0xbe656083	-0.22400098
13	0xbe9ae6cb	-0.30254206
14	0xbe579d29	-0.21056046
15	0x3e19983c	0.14999479
16	0x3cbcd480	0.023050547
17	0x3db653b8	0.08902687
18	0x3e862a2b	0.26204047
19	0x3e0d2a2e	0.13785622
20	0x3e8a0229	0.26954773
21	0x3e9cd7e3	0.30633458
22	0xbe8c044f	-0.27347037
23	0x3e3bfeaa	0.18358865
24	0x3c70b720	0.014692098
25	0xbdb7e8be	-0.08979939
26	0xbe0ec741	-0.13943197
27	0xbd2cb2a0	-0.042162538
28	0x3e8b6a05	0.27229324
29	0xbe20eb33	-0.15714721
30	0xbdfa773c	-0.122297734
31	0xbcc7b4e0	-0.02437824
32	0x3e1742dc	0.14771599
33	0x3ea1c481	0.31595233
34	0xbe74c194	-0.23901969
35	0x3e584dce	0.2112343
36	0x3d460998	0.048348993
37	0xbe0bee91	-0.13665225
38	0x3e4379d6	0.19089445
39	0xbe925e1c	-0.28587425
40	0x3e4cf03a	0.20013514
41	0x3dbd7894	0.09251514
42	0xbb0c2980	-0.002138704
43	0x3e849355	0.25893655
44	0xbe7e223e	-0.2481775
45	0xbe90d0ca	-0.28284293
46	0x3cd6e300	0.026231289
47	0xbe91ffce	-0.28515476
48	0xbe15dc54	-0.1463483
49	0x3e00f26c	0.12592477
50	0xbcf54390	-0.029939443
51	0x3e401b2e	0.18760368
52	0xbe6ec426	-0.23317012
53	0xbdb60364	-0.088873655
54	0xbe303857	-0.17208992
55	0x3dcf0770	0.101088405
56	0x3e30e4bc	0.17274755
57	0xbdddcbdc	-0.10829899
58	0xbddf0c3e	-0.10891007
59	0x3e8b0055	0.2714869
60	0x3e27ab68	0.1637398
61	0xbe950a08	-0.29109216
62	0xbc3c4c00	-0.011492729
63	0xbc844400	-0.016145706
64	0x3e406eae	0.18792221
65	0xbde9021a	-0.11377354
66	0xbd8da6f6	-0.06916611
67	0xbe14f043	-0.14544778
68	0xbe416f99	-0.18890227
69	0x3d9dccdc	0.077050894
70	0x3e814ea1	0.25255302
71	0xbea120c5	-0.31470314
72	0x3e1b4ab4	0.15165216
73	0xbe30d179	-0.17267407
74	0x3e184210	0.14868951
75	0x3e9d7791	0.30755284
76	0x3d837fcc	0.0642086
77	0x3e816da3	0.2527896
78	0x3bb12740	0.0054062903
79	0x3e688d92	0.22710255
80	0x3d76d260	0.060259223
81	0xbe274994	-0.16336662
82	0xbc90d710	-0.017680675
83	0x3e4237c2	0.18966582
84	0xbda9cac0	-0.082906246
85	0xbd4db900	-0.050225258
86	0xbe33ac42	-0.1754618
87	0xbe6c189d	-0.23056264
88	0x3d5332e0	0.05156219
89	0xbe2c3b31	-0.16819455
90	0xbe5b41ea	-0.21411863
91	0x3e3410f8	0.17584598
92	0xbe28efa3	-0.16497664
93	0x3c540300	0.012940168
94	0xbe3d7dd0	-0.18505025
95	0x3e4927b6	0.19644055
96	0x3e7dde02	0.2479172
97	0xbd8f194e	-0.06987248
98	0x3e764b22	0.24052098
99	0xbd05aa80	-0.032633305

bias f4 [10]
0	0xbe820cad	-0.25400296
1	0x3e4a30c2	0.19745162
2	0x3cf86dd0	0.0303258
3	0x3c185840	0.009298384
4	0x3e50c57e	0.20387837
5	0xbde111d8	-0.109897316
6	0xbe34bba4	-0.17649704
7	0x3daf3490	0.085549474
8	0x3d609608	0.05483058
9	0x3e7a7f06	0.24462518

weight f4 [1, 10]
0	0x3c9df270	0.019280642
1	0xbe718fa2	-0.23589948
2	0x3d2b8500	0.041874886
3	0xbe7b93d8	-0.24568117
4	0xbd8ec4f8	-0.069711626
5	0xbe3aee1b	-0.18254893
6	0x3e4ddf6e	0.20104763
7	0xbe0686bf	-0.13137339
8	0x3e77b626	0.24190578
9	0x3dfb09a4	0.12257698

add_tensors f4 [10, 6]
0	0x00000000	0.0
1	0x00000000	0.0
2	0x00000000	0.0
3	0x00000000	0.0
4	0x00000000	0.0
5	0x00000000	0.0
6	0x00000000	0.0
7	0x00000000	0.0
8	0x00000000	0.0
9	0x00000000	0.0
10	0x00000000	0.0
11	0x00000000	0.0
12	0x00000000	0.0
13	0x00000000	0.0
14	0x00000000	0.0
15	0x00000000	0.0
16	0x00000000	0.0
17	0x00000000	0.0
18	0x00000000	0.0
19	0x00000000	0.0
20	0x00000000	0.0
21	0x00000000	0.0
22	0x00000000	0.0
23	0x00000000	0.0
24	0x00000000	0.0
25	0x00000000	0.0
26	0x00000000	0.0
27	0x00000000	0.0
28	0x00000000	0.0
29	0x00000000	0.0
30	0x00000000	0.0
31	0x00000000	0.0
32	0x00000000	0.0
33	0x00000000	0.0
34	0x00000000	0.0
35	0x00000000	0.0
36	0x00000000	0.0
37	0x00000000	0.0
38	0x00000000	0.0
39	0x00000000	0.0
40	0x00000000	0.0
41	0x00000000	0.0
42	0x00000000	0.0
43	0x00000000	0.0
44	0x00000000	0.0
45	0x00000000	0.0
46	0x00000000	0.0
47	0x00000000	0.0
48	0x00000000	0.0
49	0x00000000	0.0
50	0x00000000	0.0
51	0x00000000	0.0
52	0x00000000	0.0
53	0x00000000	0.0
54	0x00000000	0.0
55	0x00000000	0.0
56	0x00000000	0.0
57	0x00000000	0.0
58	0x00000000	0.0
59	0x00000000	0.0

add_tensors f4 [10]
0	0x00000000	0.0
1	0x00000000	0.0
2	0x00000000	0.0
3	0x00000000	0.0
4	0x00000000	0.0
5	0x00000000	0.0
6	0x00000000	0.0
7	0x00000000	0.0
8	0x00000000	0.0
9	0x00000000	0.0

add_tensors f4 [10, 10]
0	0x00000000	0.0
1	0x00000000	0.0
2	0x00000000	0.0
3	0x00000000	0.0
4	0x00000000	0.0
5	0x00000000	0.0
6	0x00000000	0.0
7	0x00000000	0.0
8	0x00000000	0.0
9	0x00000000	0.0
10	0x00000000	0.0
11	0x00000000	0.0
12	0x00000000	0.0
13	0x00000000	0.0
14	0x00000000	0.0
15	0x00000000	0.0
16	0x00000000	0.0
17	0x00000000	0.0
18	0x00000000	0.0
19	0x00000000	0.0
20	0x00000000	0.0
21	0x00000000	0.0
22	0x00000000	0.0
23	0x00000000	0.0
24	0x00000000	0.0
25	0x00000000	0.0
26	0x00000000	0.0
27	0x00000000	0.0
28	0x00000000	0.0
29	0x00000000	0.0
30	0x00000000	0.0
31	0x00000000	0.0
32	0x00000000	0.0
33	0x00000000	0.0
34	0x00000000	0.0
35	0x00000000	0.0
36	0x00000000	0.0
37	0x00000000	0.0
38	0x00000000	0.0
39	0x00000000	0.0
40	0x00000000	0.0
41	0x00000000	0.0
42	0x00000000	0.0
43	0x00000000	0.0
44	0x00000000	0.0
45	0x00000000	0.0
46	0x00000000	0.0
47	0x00000000	0.0
48	0x00000000	0.0
49	0x00000000	0.0
50	0x00000000	0.0
51	0x00000000	0.0
52	0x00000000	0.0
53	0x00000000	0.0
54	0x00000000	0.0
55	0x00000000	0.0
56	0x00000000	0.0
57	0x00000000	0.0
58	0x00000000	0.0
59	0x00000000	0.0
60	0x00000000	0.0
61	0x00000000	0.0
62	0x00000000	0.0
63	0x00000000	0.0
64	0x00000000	0.0
65	0x00000000	0.0
66	0x00000000	0.0
67	0x00000000	0.0
68	0x00000000	0.0
69	0x00000000	0.0
70	0x00000000	0.0
71	0x00000000	0.0
72	0x00000000	0.0
73	0x00000000	0.0
74	0x00000000	0.0
75	0x00000000	0.0
76	0x00000000	0.0
77	0x00000000	0.0
78	0x00000000	0.0
79	0x00000000	0.0
80	0x00000000	0.0
81	0x00000000	0.0
82	0x00000000	0.0
83	0x00000000	0.0
84	0x00000000	0.0
85	0x00000000	0.0
86	0x00000000	0.0
87	0x00000000	0.0
88	0x00000000	0.0
89	0x00000000	0.0
90	0x00000000	0.0
91	0x00000000	0.0
92	0x00000000	0.0
93	0x00000000	0.0
94	0x00000000	0.0
95	0x00000000	0.0
96	0x00000000	0.0
97	0x00000000	0.0
98	0x00000000	0.0
99	0x00000000	0.0

add_tensors f4 [1, 10]
0	0x00000000	0.0
1	0x00000000	0.0
2	0x00000000	0.0
3	0x00000000	0.0
4	0x00000000	0.0
5	0x00000000	0.0
6	0x00000000	0.0
7	0x00000000	0.0
8	0x00000000	0.0
9	0x00000000	0.0
