Linear_harder/TorchSaves/Best_Ball_Gen5.pt (torch_old, 14130 bytes, 17 tensors)

weight f4 [10, 6]
7.38603e-06 0.24226111 0.31447354 -0.050155908 -0.057869777 1.1872883 0.021579875 -0.045474827
0.049212366 -0.005279459 -0.03314528 0.4970346 -0.49320313 -0.05101978 0.32626975 -0.3691793
-0.006287545 0.008012547 0.37544268 -0.69788957 0.00018835091 -0.0056972206 0.5521684 -0.36986092
-0.24941751 1.066087 -0.40128863 0.045160186 -0.010579983 0.00010799244 -0.056825384 0.061720654
-0.28828907 0.36641967 -0.42913145 -0.08522551 0.14551836 -0.002430942 0.11190227 0.1319308
0.0099756345 0.19241562 0.9729844 -0.0036630929 0.5262709 0.28231764 -0.068693765 0.0011862695
-0.022157706 0.6253696 -0.47031504 0.39887226 0.01889753 0.604568 0.15417874 -0.4084519
0.36449695 -0.107216775 -0.08430518 0.0054186173
00000000: 84d5 f736 4c13 783e ad02 a13e 4870 4dbd
00000010: dc08 6dbd 10f9 973f 47c8 b03c d043 3abd
00000020: e892 493d 50ff acbb 58c3 07bd 527b fe3e
00000030: 1f85 fcbe 1efa 50bd d40c a73e 1205 bdbe
00000040: c007 cebb 0f47 033c 063a c03e e4a8 32bf
00000050: 1080 4539 c0af babb e95a 0d3f 695e bdbe
00000060: 4e67 7fbe 8a75 883f b475 cdbe e3f9 383d
00000070: aa57 2dbc 007a e238 bcc1 68bd ccce 7c3d
00000080: a09a 93be 5c9b bb3e 1eb7 dbbe b68a aebd
00000090: c402 153e 7050 1fbb 042d e53d de18 073e
000000a0: d870 233c 9a08 453e 8115 793f 8010 70bb
000000b0: b1b9 063f f08b 903e 51af 8cbd 997c 9b3a
000000c0: 1484 b5bc 3918 203f 22cd f0be fc38 cc3e
000000d0: fece 9a3c f8c4 1a3f 08e1 1d3e 9c20 d1be
000000e0: 589f ba3e 7894 dbbd 32a8 acbd a88e b13b

bias f4 [10]
-0.111220375 0.1596397 -0.28910387 0.62388253 -0.16879448 0.017660297 -0.013817006 0.05029337
0.74272174 -0.13852938
00000000: 82c7 e3bd 9778 233e 6c05 94be c4b6 1f3f
00000010: 76d8 2cbe 54ac 903c b960 62bc 6c00 4e3d
00000020: 0323 3e3f a5da 0dbe

weight f4 [10, 10]
0.02827882 0.48800853 0.89127374 -0.10384576 -0.7578879 -1.1525524 0.21733417 -0.08398156
-0.04588752 0.49241808 0.25598377 0.0298184 0.48501065 -0.24678926 0.20705017 -0.250818
0.023233235 -0.19540009 -0.9324684 0.37192687 0.05489731 -0.16072185 0.94144946 0.02036263
0.34226868 0.4581073 0.002478294 -0.4298909 0.27586603 -0.1407266 -0.04638453 -0.0034559201
-0.14062846 0.027449358 -0.38439858 -0.398544 0.56403506 0.94068545 0.20469753 0.19433753
-0.24663195 -0.045607824 0.037894912 0.578782 -0.007857289 0.014449472 -0.018324472 0.6140332
-0.01470552 -0.21227339 -0.22482756 0.015500374 -0.26632157 0.0058055986 -0.36455628 0.7212662
0.00060334534 0.06710195 0.076280504 -0.06503704 -0.331676 -0.113045506 -0.16267754 0.6976968
-0.041884366 -0.21701813 0.0005181234 -0.102251865 0.22667903 0.23448381 0.2594932 -0.071079075
-0.008455649 0.0112632625 -0.05904348 -0.29561174 0.09228254 -0.46867564 -0.097753525 0.073199496
0.46049815 0.12325409 -0.00086387387 -0.118244864 -0.03406713 -0.023782998 0.030924618 0.18495403
0.033703487 0.07452764 -0.08089814 -0.02377078 1.507997 -0.01720452 -0.287767 -0.009798545
0.27582356 0.2449671 -0.07279422 -0.011640713
00000000: fca8 e73c 41dc f93e 842a 643f 16ad d4bd
00000010: f104 42bf d686 93bf d98c 5e3e 86fe abbd
00000020: 8df4 3bbd 391e fc3e 4e10 833e b845 f43c
00000030: 5153 f83e 53b6 7cbe f604 543e 386b 80be
00000040: a053 be3c f616 48be 40b6 6ebf 336d be3e
00000050: 00dc 603d 4594 24be d502 713f 88cf a63c
00000060: d73d af3e 0a8d ea3e e06a 223b a91a dcbe
00000070: 503e 8d3e a21a 10be b4fd 3dbd b87c 62bb
00000080: e800 10be 7add e03c e4cf c4be f60d ccbe
00000090: 9a64 103f c3d0 703f 3b9c 513e 6b00 473e
000000a0: 168d 7cbe 45cf 3abd b237 1b3d 0f2b 143f
000000b0: dcbb 00bc 7abd 6c3c 341d 96bc 4831 1d3f
000000c0: 6cef 70bc 325e 59be 3239 66be 48f5 7d3c
000000d0: 4d5b 88be e43c be3b 1fa7 babe e7a4 383f
000000e0: d229 1e3a bf6c 893d f438 9c3d 2432 85bd
000000f0: 70d1 a9be 6784 e7bd f194 26be 429c 323f
00000100: f18e 2bbd 003a 5ebe acd2 073a 6d69 d1bd
00000110: 8c1e 683e 861c 703e 4bdc 843e e891 91bd
00000120: 9089 0abc 8c89 383c 93d7 71bd 6c5a 97be
00000130: a1fe bc3d 41f6 efbe 0033 c8bd 9ee9 953d
00000140: 6ac6 eb3e a46c fc3d 9875 62ba 5d2a f2bd
00000150: fa89 0bbd 90d4 c2bc a055 fd3c 9764 3d3e
00000160: ab0c 0a3d f3a1 983d edad a5bd f0ba c2bc
00000170: 0c06 c13f 7ef0 8cbc 3256 93be 148a 20bc
00000180: bf38 8d3e a8d8 7a3e 2315 95bd b0b8 3ebc

bias f4 [10]
-0.31424525 -0.16702694 -0.15301412 -0.050932944 -0.043858528 0.028049769 0.2506026 0.0020450838
-0.079427585 -1.9469262
00000000: c1e4 a0be 1c09 2bbe bcaf 1cbe 109f 50bd
00000010: 00a5 33bd a1c8 e53c fc4e 803e d006 063b
00000020: eeaa a2bd e134 f9bf

weight f4 [10, 10]
-0.10139744 -0.07526812 0.0069062114 -0.003381744 0.8748574 -0.00074685516 -0.20864083 0.0019159019
-0.055145316 -0.14007255 -0.3677383 -0.02038851 0.5263516 -0.005132951 -0.51724553 -0.02080039
0.26626503 -0.11017573 -0.1895178 -0.0048817494 -0.024325047 -0.1757772 0.0043406114 -0.008942308
0.0045666993 -0.23359476 -0.023938496 -0.09380836 0.13336357 -0.147295 0.058857955 0.013934139
0.0022892107 -0.07208426 0.0049928688 0.1642459 -0.00079764426 -0.037923932 -0.5495483 0.15096357
-0.16889592 -0.021515448 0.04854007 -0.06696111 -0.0006054533 0.019812316 -0.0008001998 -0.22727059
0.12884435 0.06499238 0.09529689 -0.013005514 0.025029808 -0.034918875 -0.022406653 -0.31378195
-0.7583059 0.30702513 6.674711e-05 0.32456487 0.008975903 -0.15788072 -0.07852422 1.0454471
-0.3715371 -0.0053031873 0.7057903 -0.009917041 0.031312164 0.3597213 0.049335673 0.16222045
-0.6703442 0.009805568 -0.09059917 -0.00904803 -0.8566557 -0.5387961 -0.1056799 0.48645958
0.019993989 0.04449001 0.04359238 -0.03293936 -0.15485752 -0.09968205 0.448955 -0.11456223
0.18074177 0.20451722 -0.1875868 0.33876255 0.069881186 -0.032834888 0.05867585 -0.211274
0.33039412 0.18482333 0.38022187 0.18171963
00000000: 76a9 cfbd 2c26 9abd 804d e23b 40a0 5dbb
00000010: a8f6 5f3f 9ac8 43ba f1a5 55be 001f fb3a
00000020: 0ee0 61bd 2e6f 0fbe 3248 bcbe ce05 a7bc
00000030: fabe 063f 5032 a8bb 346a 04bf 9465 aabc
00000040: e453 883e d0a3 e1bd f410 42be 15f7 9fbb
00000050: 5245 c7bc f0fe 33be b03b 8e3b c282 12bc
00000060: 40a4 953b 7733 6fbe aa1a c4bc 991e c0bd
00000070: 7690 083e 80d4 16be 0a15 713d 044c 643c
00000080: 9506 163b eaa0 93bd 389b a33b 1430 283e
00000090: 0019 51ba 2056 1bbd 33af 0cbf 3296 1a3e
000000a0: 0df3 2cbe 2a41 b0bc f4d1 463d e822 89bd
000000b0: 48b7 1eba 704d a23c 80c4 51ba 9fb9 68be
000000c0: c6ef 033e ba1a 853d 042b c33d 1415 55bc
000000d0: 500b cd3c 1807 0fbd 288e b7bc 07a8 a0be
000000e0: 5620 42bf 6632 9d3e 95fa 8b38 5e2d a63e
000000f0: aa0f 133c 7cab 21be 4ed1 a0bd 36d1 853f
00000100: 1c3a bebe 5cc6 adbb acae 343f 167b 22bc
00000110: 2f41 003d 642d b83e 3414 4a3d 1e1d 263e
00000120: ad9b 2bbf 88a7 203c 0f8c b9bd 303e 14bc
00000130: ca4d 5bbf 8bee 09bf b46e d8bd 3b11 f93e
00000140: 6fca a33c 283b 363d ec8d 323d 6ceb 06bd
00000150: f892 1ebe 1a26 ccbd 6edd e53e 9a9f eabd
00000160: 5f14 393e f66c 513e c116 40be 4972 ad3e
00000170: de1d 8f3d e07d 06bd 1756 703d 3658 58be
00000180: 6b29 a93e 5442 3d3e 71ac c23e b614 3a3e

bias f4 [10]
-0.05815595 -0.14483607 -0.014044792 0.017822944 -0.5006672 0.007523477 1.3470327 -0.7437774
-0.12022516 0.09486573
00000000: ef34 6ebd e84f 14be 211c 66bc 6c01 923c
00000010: ba2b 00bf 8087 f63b 916b ac3f 3268 3ebf
00000020: 9c38 f6bd f748 c23d

weight f4 [10, 10]
0.039871573 -0.05902955 0.21184026 -0.5926959 -0.13121323 0.24075137 0.30000287 0.036684155
1.9537724 -0.1174727 -0.117699824 -0.6647474 -0.4230815 0.59851575 0.065014295 -0.019633822
0.13536584 -0.08358728 -0.1280252 -0.01541946 0.36442822 -0.16908242 0.0509365 0.00023642788
0.019722559 0.0031966441 0.092553295 0.01414267 0.011058062 0.19754854 -0.012186427 -0.15646172
0.11462209 0.5966561 0.000246081 -0.03768131 -0.2561021 -0.03678122 -0.10206248 -0.0037460416
-0.6842028 0.3372259 0.023087487 0.7621618 0.030658305 0.0006750229 -0.7283988 0.121393025
-0.2423054 0.1695751 0.09374052 0.002675414 -0.27797845 -0.036648877 -0.0043653995 0.16954975
0.15253806 0.0734483 -0.31066456 -0.16765735 0.066640526 -0.07454443 -0.017688708 0.1501291
0.3957661 0.021443546 0.0034752786 -0.12852184 0.08963517 0.17299406 0.0014699578 0.041346222
0.025538824 -0.0003812334 0.010731434 -0.61540246 -0.031785708 -0.7735269 -0.08597061 0.15405262
-0.067064255 0.2336647 -0.016058981 0.28679127 0.5517669 0.008852586 -0.05665409 -0.13888846
-0.07229032 -0.20752093 -0.08451347 -0.05143922 0.06621526 -0.029075824 -0.07698597 -0.004235302
0.6408773 0.009202749 0.30432007 0.6105906
00000000: 6050 233d f8c8 71bd a7ec 583e ebba 17bf
00000010: c35c 06be 8787 763e fa99 993e 2042 163d
00000020: 3715 fa3f 8795 f0bd 9b0c f1bd e32c 2abf
00000030: 239e d8be 5438 193f 3726 853d 1cd7 a0bc
00000040: 589d 0a3e cf2f abbd 0a19 03be e7a1 7cbc
00000050: 5696 ba3e f123 2dbe cba2 503d a0e9 7739
00000060: 3491 a13c ca7e 513b 958c bd3d a8b6 673c
00000070: e02c 353c 2a4a 4a3e 94a9 47bc 8037 20be
00000080: fcbe ea3d 74be 183f 6f04 8139 b857 1abd
00000090: d01f 83be e8a7 16bd 2206 d1bd 2680 75bb
000000a0: ea27 2fbf e0a8 ac3e f821 bd3c 091d 433f
000000b0: 2027 fb3c 05f4 303a 5878 3abf e89c f83d
000000c0: e81e 78be 18a5 2d3e 08fb bf3d 0056 2f3b
000000d0: 3153 8ebe 221d 16bd a00b 8fbb 739e 2d3e
000000e0: f032 1c3e 106c 963d 6d0f 9fbe 5eae 2bbe
000000f0: d47a 883d c0aa 98bd e9e7 90bc 71bb 193e
00000100: dba1 ca3e 60aa af3c 80c1 633b 3b9b 03be
00000110: a592 b73d 5b25 313e 99ab c03a a85a 293d
00000120: cc36 d13c 48e0 c7b9 e6d2 2f3c 048b 1dbf
00000130: bb31 02bd dc05 46bf 5c11 b0bd f8bf 1d3e
00000140: fc58 89bd cd45 6f3e 208e 83bc 4ed6 923e
00000150: 9840 0d3f 700a 113c 1e0e 68bd c738 0ebe
00000160: f30c 94bd 5e80 54be 6615 adbd eeb1 52bd
00000170: de9b 873d 6c30 eebc d2aa 9dbd 4ac8 8abb
00000180: 8910 243f 20c7 163c d7cf 9b3e aa4f 1c3f

bias f4 [10]
0.0442174 0.010235198 0.040769786 -0.019754365 0.5826138 0.00912332 -0.12227419 -0.3773626
-0.43334422 0.5404655
00000000: 4e1d 353d 88b1 273c 38fe 263d e8d3 a1bc
00000010: 2e26 153f fa79 153c e46a fabd ac35 c1be
00000020: 4bdf ddbe f25b 0a3f

weight f4 [10, 10]
0.17850225 0.0068583065 -0.29803526 0.3281055 0.68198586 0.4373849 -0.37040424 -0.07248846
0.10059291 -0.45423427 -0.015399465 -0.010886177 -0.21589887 0.29009336 -0.0020358013 0.23483324
-0.171754 0.6375419 0.032156356 -0.35880956 0.00087102165 0.20679414 -0.295785 0.22187202
-0.061596017 -0.9143064 -0.23146251 -0.37144017 -0.061062776 0.21599165 -0.110117674 -0.014916256
-0.19243415 -0.6253655 0.4185031 -0.11993262 0.668056 0.7177417 0.17100729 0.69499457
0.27335656 -0.7429179 0.0051127067 -0.1814403 0.07603323 0.040260613 -0.10498522 -0.014406513
-0.0018258974 -0.040540002 0.045430735 -0.1498023 -0.0015686862 0.007533796 0.31819856 0.49872294
0.094141334 -0.59328514 0.052254662 0.31282222 0.3240924 -0.00029082224 0.026095606 -0.005764611
0.032719824 -0.12833408 0.05390241 -0.00834997 0.012565502 0.0053315624 0.23815532 -0.12917936
-0.10082849 0.027398609 -0.028287195 -0.2527818 0.07658871 0.28213316 0.0016806722 0.13551965
0.022213653 -0.5454457 -0.45721298 0.012999915 -0.65118825 -0.029946022 1.0235692 0.50428224
-0.0030754907 -0.01484859 0.285646 -0.012290128 -0.0013040176 1.2678216 -0.08243081 0.48301056
0.0052448967 -0.007738615 0.033933885 -0.12659569
00000000: 4bc9 363e a5bb e03b 1498 98be 72fd a73e
00000010: a096 2e3f eaf0 df3e a0a5 bdbe d474 94bd
00000020: a803 ce3d 6591 e8be 0a4e 7cbc f05b 32bc
00000030: 9814 5dbe 1e87 943e 146b 05bb 2078 703e
00000040: 48e0 2fbe f235 233f 62b6 033d e3b5 b7be
00000050: 4655 643a d8c1 533e 2271 97be 6b32 633e
00000060: 1b4c 7cbd fc0f 6abf 8204 6dbe 682d bebe
00000070: f61c 7abd ea2c 5d3e 6085 e1bd 5063 74bc
00000080: 750d 45be f417 20bf 0a46 d63e 3c9f f5bd
00000090: b805 2b3f ecbd 373f 891c 2f3e 2aeb 313f
000000a0: 64f5 8b3e de2f 3ebf 7e88 a73b 7ccb 39be
000000b0: 4fb7 9b3d 50e8 243d 7e02 d7bd 4c09 6cbc
000000c0: f352 efba 460d 26bd 9415 3a3d c665 19be
000000d0: 609c cdba 10de f63b ecea a23e 9d58 ff3e
000000e0: 2ccd c03d 89e1 17bf fc08 563d 3c2a a03e
000000f0: 70ef a53e 8079 98b9 74c6 d53c 10e5 bcbb
00000100: 3905 063d 026a 03be c6c8 5c3d 50ce 08bc
00000110: 89df 4d3c 63b4 ae3b fdde 733e 9847 04be
00000120: 2b7f cebd 0c73 e03c 8cba e7bc 9e6c 81be
00000130: 8bda 9c3d c273 903e 004a dc3a aac5 0a3e
00000140: 68f9 b53c 54a2 0bbf d217 eabe 98fd 543c
00000150: 46b4 26bf 5c51 f5bc 5104 833f a418 013f
00000160: 2c8e 49bb 8047 73bc 3140 923e 885c 49bc
00000170: 92eb aaba fa47 a23f 7cd1 a8bd 294d f73e
00000180: 62dd ab3b 3594 fdbb 42fe 0a3d 4da2 01be

bias f4 [10]
0.37762824 0.023182765 -0.0010586429 0.016025232 0.45577854 0.48123875 0.05469805 0.107809335
0.042551495 0.09937093
00000000: 7d58 c13e c8e9 bd3c 29c2 8aba 5947 833c
00000010: ce5b e93e ed64 f63e 100b 603d 24cb dc3d
00000020: 7a4a 2e3d fc82 cb3d

weight f4 [10, 10]
-0.048319552 -0.005847456 0.027155176 -0.58850414 0.19523248 0.43702784 0.1366223 0.15523747
0.23852348 -0.7022248 -0.2688188 0.029275373 0.008581817 0.25140023 -0.014680959 -0.032790758
-0.011304197 -0.057261057 0.004147939 0.007304102 -0.0105030555 -1.7791736 0.0122634545 -0.38829318
0.11189668 0.0013679371 -0.38772786 -0.04669184 0.026760742 0.5745545 0.39734524 -0.1675365
0.06852178 0.022390202 -0.077603735 -0.21584855 -0.06696634 0.3623479 -0.023387564 -0.068799555
0.09382829 0.09133353 -0.1623419 0.16042323 -1.2845892 0.29904354 0.05456528 0.6160889
-0.0176852 0.051979963 -0.048391223 0.2093001 0.45741302 0.032174945 -0.038501516 0.018868832
-0.11219855 0.077155665 -0.3037538 0.1880378 0.20359482 -0.0023778854 0.5919911 0.07857769
-0.941957 -0.43723038 0.11731365 0.067598805 -0.99260795 0.6550345 0.0056654364 -0.23538879
0.32629633 -0.2851672 0.07250387 0.71397996 -1.5850446 0.06363384 0.121146515 0.013040879
-0.020860141 -0.013360947 -0.022709966 0.04627724 -0.06581993 0.1780931 -0.6403563 0.008004997
0.36048585 0.080021255 0.008952839 -0.33373252 -0.012858776 0.06723669 -0.014281373 0.003651686
0.078930914 0.0168602 -0.31429836 1.1245427
00000000: b9ea 45bd 049c bfbb 8874 de3c 35a8 16bf
00000010: 06eb 473e 1dc2 df3e b7e6 0b3e 92f6 1e3e
00000020: 803f 743e 01c5 33bf 9ea2 89be e8d2 ef3c
00000030: c09a 0c3c 88b7 803e 6888 70bc 9a4f 06bd
00000040: 3d35 39bc 928a 6abd 6feb 873b 4057 ef3b
00000050: 0215 2cbc f6bb e3bf a8ec 483c 5dce c6be
00000060: 162a e53d 5a4c b33a 4484 c6be f13f 3fbd
00000070: 5839 db3c 0116 133f d670 cb3e b08e 2bbe
00000080: 2655 8c3d a86b b73c b5ee 9ebd 6707 5dbe
00000090: a625 89bd aa85 b93e 4797 bfbc c8e6 8cbd
000000a0: 0c29 c03d 130d bb3d f43c 26be fd45 243e
000000b0: 6b6d a4bf 3c1c 993e d87f 5f3d 01b8 1d3f
000000c0: 8de0 90bc f1e8 543d e035 46bd c452 563e
000000d0: 0a32 ea3e e0c9 033d c4b3 1dbd cf92 9a3c
000000e0: 5ac8 e5bd ca03 9e3d 9e85 9bbe fb8c 403e
000000f0: 297b 503e 4cd6 1bbb bb8c 173f 57ed a03d
00000100: 1824 71bf a9dc dfbe 2442 f03d 3e71 8a3d
00000110: 8e1b 7ebf 57b0 273f 20a5 b93b c209 71be
00000120: 5010 a73e 6f01 92be e97c 943d 64c7 363f
00000130: bee2 cabf 7552 823d aa1b f83d 69a9 553c
00000140: e3e2 aabc e0e7 5abc 400a babc 348d 3d3d
00000150: 99cc 86bd 0a5e 363e 64ee 23bf 6427 033c
00000160: 9a91 b83e 2fe2 a33d eeae 123c fdde aabe
00000170: 9ead 52bc 64b3 893d 6bfc 69bc 2051 6f3b
00000180: 88a6 a13d 671e 8a3c b7eb a0be 04f1 8f3f

bias f4 [10]
0.042768218 -0.07206562 0.38342208 0.00012322185 0.14077272 0.18286897 -0.00065586064 -0.1488385
-0.12625152 -0.1630148
00000000: ba2d 2f3d 2497 93bd e64f c43e 1d35 0139
00000010: b926 103e 0142 3b3e 10ee 2bba 1f69 18be
00000020: 1448 01be 5aed 26be

weight f4 [1, 10]
-0.6244043 0.30371666 0.52404 -0.0037003756 0.032220688 0.843279 0.19677457 0.13415162
0.2872541 -0.03958991
00000000: f6d8 1fbf c080 9b3e 7c27 063f 0082 72bb
00000010: d7f9 033d 22e1 573f 467f 493e 0b5f 093e
00000020: f812 933e 0829 22bd

add_tensors f4 [10, 6]
1.957518e-05 -0.020648563 0.13471483 -0.12610209 -0.12571798 1.8512194 -0.014949964 -0.20134094
0.019595565 0.031327605 0.13355537 -0.00908594 -0.2282227 0.046929725 0.1279627 -0.14923202
-0.3816074 0.00046713903 0.21109383 -0.41893235 0.0012163206 0.16908053 0.13412282 0.44375739
-0.07282648 0.4444923 -0.10714123 -0.0141643705 0.026037833 0.017599246 0.019406086 -0.20222835
-0.5720533 0.17930739 -0.20418939 -0.026610266 -0.074737996 0.061732326 0.4909918 -0.33686265
-0.04836496 0.11106563 0.64084077 0.18248817 0.0009301057 0.1245058 -0.0155096445 0.000652128
0.070491016 -0.29187918 -0.11010863 -0.014555213 0.0066519636 -0.31112042 -0.39720392 -0.20255211
0.21250585 -0.029224887 -0.02918824 0.038716372
00000000: 6135 a437 2d27 a9bc aff2 093e e820 01be
00000010: 37bc 00be c2f4 ec3f b2f0 74bc 522c 4ebe
00000020: e186 a03c 6051 003d bdc2 083e 32dd 14bc
00000030: 36b3 69be 6239 403d a708 033e 47d0 18be
00000040: 0c62 c3be 57ea f439 fb28 583e 4d7e d6be
00000050: f26c 9f3a 7223 2d3e 7e57 093e 2b34 e33e
00000060: 0d26 95bd 7f94 e33e dc6c dbbd ad11 68bc
00000070: 4b4d d53c 4b2c 903c 83f9 9e3c f314 4fbe
00000080: 1672 12bf 5b9c 373e 0617 51be c6fd d9bc
00000090: 3c10 99bd 09db 7c3d 4763 fb3e 4379 acbe
000000a0: 561a 46bd 6176 e33d 240e 243f 2ede 3a3e
000000b0: 56d2 733a e6fc fe3d 2a1c 7ebc 92f3 2a3a
000000c0: 985d 903d 3071 95be a280 e1bd fd78 6ebc
000000d0: b7f8 d93b 2d4b 9fbe 505e cbbe d269 4fbe
000000e0: 229b 593e 0869 efbc 2d1c efbc 0f95 1e3d

add_tensors f4 [10]
0.12579252 0.013656901 -0.9663286 -0.43407467 0.04831075 -0.040474363 -0.007942199 0.006717741
1.155062 0.072176814
00000000: c1cf 003e 32c1 5f3c 5061 77bf 093f debe
00000010: 7ee1 453d 72c8 25bd ff1f 02bc 7f20 dc3b
00000020: 12d9 933f 70d1 933d

add_tensors f4 [10, 10]
0.010375913 -0.0018919276 0.0091934865 0.15447898 0.016412286 0.045843154 -0.06051824 0.06987628
0.6696121 -0.203153 -0.14732514 -0.12957022 0.0639418 0.053884797 -0.12707758 -0.01632122
0.013105425 0.07435674 -0.000812369 0.024019077 0.003739283 -1.1338216 -0.0994273 -0.0816833
0.04999957 0.0002952328 -0.92679065 -0.01694471 0.17673667 0.2803529 -0.062264338 -0.4884012
0.03836936 -0.104653165 0.11623796 0.06735654 0.006080539 -0.19499294 -0.0028505567 0.20701414
0.02074298 -0.034506746 -0.088360354 0.36376435 -0.44932708 -0.23047537 0.019661875 0.14175957
-0.008499378 0.00784508 1.2116117 0.122666396 0.27501598 0.1354676 -0.0018488757 0.011049176
-0.3440103 0.014110967 -0.0788451 0.07186376 0.10537996 -0.00092338305 0.10751344 0.005748921
-0.3825976 -0.25156286 0.057928964 0.03247435 -0.5497119 0.27308643 0.025429668 -0.04933851
0.19245504 -0.106272645 0.031567167 0.36664718 -0.53798896 0.013055141 -0.07326929 -0.00014134437
-0.046708204 -0.24828327 0.13820708 -0.119440824 -0.033466585 -0.114152886 -0.3993629 0.0011622534
0.8935989 -0.017900405 0.0007895209 0.21426114 -0.0012946115 -0.0055936025 0.0050205747 -0.09986254
-0.25379676 0.0011899523 -0.04789964 0.37604254
00000000: bcff 293c 8efa f7ba 47a0 163c bd2f 1e3e
00000010: 0f73 863c 08c6 3b3d f9e1 77bd 4c1b 8f3d
00000020: b36b 2b3f 5707 50be 67dc 16be 0eae 04be
00000030: ebf3 823d 4eb6 5c3d a020 02be 14b4 85bc
00000040: 23b8 563c 5948 983d 29f5 54ba a8c3 c43c
00000050: c20e 753b 1121 91bf 8aa0 cbbd 9349 a7bd
00000060: 59cc 4c3d 7ac9 9a39 2742 6dbf a2cf 8abc
00000070: 75fa 343e 6a8a 8f3e e408 7fbd b90f fabe
00000080: 3129 1d3d 6654 d6bd 2b0e ee3d 3af2 893d
00000090: 423f c73b 3bac 47be 68d0 3abb 84fb 533e
000000a0: 2fed a93c f256 0dbd 46f6 b4bd 523f ba3e
000000b0: 330e e6be bc01 6cbe f111 a13c 6c29 113e
000000c0: fa40 0bbc a788 003c 1816 9b3f 8538 fb3d
000000d0: e5ce 8c3e 05b8 0a3e f955 f2ba 9a07 353c
000000e0: 1e22 b0be af31 673c 8a79 a1bd 4f2d 933d
000000f0: 73d1 d73d 300f 72ba 0230 dc3d 7261 bc3b
00000100: d5e3 c3be d9cc 80be ec46 6d3d d303 053d
00000110: ebb9 0cbf fcd1 8b3e e151 d03c 2d17 4abd
00000120: ef12 453e 79a5 d9bd 934c 013d 2eb9 bb3e
00000130: a5b9 09bf 3be5 553c 360e 96bd d735 14b9
00000140: 1a51 3fbd f83d 7ebe 2886 0d3e 649d f4bd
00000150: 4214 09bd fdc8 e9bd 4b79 ccbe c156 983a
00000160: e6c2 643f dfa3 92bc daf7 4e3a 4667 5b3e
00000170: f4af a9ba 8a4a b7bb a283 a43b bb84 ccbd
00000180: a6f1 81be 2cf8 9b3a 6a32 44bd a688 c03e

add_tensors f4 [1, 10]
-0.15926102 0.19368255 0.16826484 -1.1740333 0.004107132 0.47941098 0.58591974 0.07271229
0.20330082 0.19667256
00000000: 5215 23be b854 463e 9e4d 2c3e b946 96bf
00000010: 1f95 863b 5b75 f53e d6fe 153f 2eea 943d
00000020: 172e 503e 8864 493e
