Linear_harder/TorchSaves/Best_Ball_Gen4.pt (torch_old, 14130 bytes, 17 tensors)

weight f4 [10, 6]
1.4287106 0.007258162 -0.428139 -0.3540237 -0.45771122 0.3401304 0.04642081 0.017583739
0.10514733 -0.062784344 0.5365709 -0.4620981 -0.5497193 -0.06846157 0.013580047 0.88869935
-0.6645131 -0.4924178 -0.5342243 -0.2001501 -0.5142086 -0.06371376 -0.27035108 -1.8091531
0.02713976 0.03283236 0.08448708 0.014263239 -0.05478537 0.117445976 0.0036527668 0.053312436
0.26917407 -0.10688342 -0.0021044388 -0.26404136 -0.07582677 -0.0018105574 0.48049432 0.1707273
0.76906717 0.050619185 0.010371337 0.018737577 -0.19099537 0.021570116 0.15646273 0.0022683367
-0.014903203 2.8374012 -0.65640116 0.33835447 -0.062288538 0.08304046 -0.17811549 0.16673252
0.3546146 1.3067856 0.026243292 -0.42659765
00000000: fddf b63f e0d5 ed3b 0935 dbbe 9842 b5be
00000010: 2059 eabe 9225 ae3e bf23 3e3d c60b 903c
00000020: 7c57 d73d 1495 80bd b65c 093f 1f98 ecbe
00000030: 67ba 0cbf 9435 8cbd d87e 5e3c cd81 633f
00000040: 881d 2abf 301e fcbe ecc2 08bf 26f4 4cbe
00000050: 2da3 03bf 5c7c 82bd 756b 8abe 5492 e7bf
00000060: 3454 de3c 3a7b 063d 9007 ad3d 5cb0 693c
00000070: a066 60bd 8487 f03d 4263 6f3b 245e 5a3d
00000080: 2fd1 893e b2e5 dabd a0ea 09bb 6e30 87be
00000090: 114b 9bbd 3a50 edba 5a03 f63e 23d3 2e3e
000000a0: 96e1 443f 1056 4f3d 8aec 293c 8c7f 993c
000000b0: 4a94 43be d0b3 b03c c437 203e 60a8 143b
000000c0: 902c 74bc fb97 3540 e809 28bf cc3c ad3e
000000d0: 4422 7fbd 1e11 aa3d e863 36be eebb 2a3e
000000e0: 0b90 b53e c044 a73f 2cfc d63c 026b dabe

bias f4 [10]
-1.3730893 0.27017927 -0.49575227 0.021413725 0.36549902 0.13452828 0.035881016 -0.23746173
-0.02034851 -0.14031622
00000000: 64c1 afbf f054 8a3e 3ed3 fdbe d66b af3c
00000010: b022 bb3e c8c1 093e f9f7 123d 2b29 73be
00000020: ebb1 a6bc 0eaf 0fbe

weight f4 [10, 10]
-0.13276686 0.31123173 -0.29741088 -0.2971353 0.74786234 0.18691435 -0.7047881 0.20055416
-0.0628058 -0.68086743 0.14885396 -0.017786905 0.0060353763 -0.2918905 -0.039015632 -0.10393961
-0.30854726 -0.36421177 -0.10889081 -0.32997274 0.66419315 0.3437924 -0.09753415 0.05758489
-0.39202493 0.0012189341 0.26942304 -0.19820559 0.4618081 0.040413026 0.35757446 0.10945258
0.45745578 -0.5331715 -0.10899189 -0.6340175 -0.012739882 -0.029664673 0.2275671 0.26560214
-0.010242537 0.378188 0.04616472 0.120573826 0.11470559 -0.3650211 0.12627144 0.08821752
-0.19873849 -0.33546472 -0.26547733 -0.30856228 -0.5713924 -0.009409462 0.16900502 1.1617706
-0.14547881 -0.17635944 0.1187869 0.120171726 0.34029067 0.5793686 -0.04983448 0.004417807
-0.32663324 0.003298995 0.108810715 -0.27934855 -0.2387346 0.041332737 -0.26847708 0.14358878
-0.1803531 0.18443179 0.16369718 0.0368531 -0.013020439 -0.19234599 0.6268507 0.19917849
-0.008484334 -0.3691887 0.33239737 0.14216244 0.004362114 0.13635008 0.0019709063 0.04432269
-0.034545816 0.025746865 0.1539003 0.4414022 0.049150348 -0.066474244 -0.2705717 0.492723
0.052895226 -0.103971645 -0.026736233 -0.018881872
00000000: 09f4 07be c459 9f3e 3d46 98be 1e22 98be
00000010: e873 3f3f 7a66 3f3e fe6c 34bf 125e 4d3e
00000020: 54a0 80bd 544d 2ebf 2c6d 183e d8b5 91bc
00000030: 68c4 c53b ac72 95be dbce 1fbd 4ade d4bd
00000040: e8f9 9dbe f779 babe 2502 dfbd 30f2 a8be
00000050: 9008 2a3f 8f05 b03e fcbf c7bd 22de 6b3d
00000060: 7eb7 c8be a4c4 9f3a d1f1 893e 68f6 4abe
00000070: 1c72 ec3e 2188 253d 0014 b73e ad28 e03d
00000080: a537 ea3e ed7d 08bf 2437 dfbd f94e 22bf
00000090: f0ba 50bc 5403 f3bc 5a07 693e 01fd 873e
000000a0: 50d0 27bc dca1 c13e 3817 3d3d 69ef f63d
000000b0: c4ea ea3d 0ce4 babe 4d4d 013e 63ab b43d
000000c0: 1a82 4bbe 08c2 abbe a5ec 87be e0fb 9dbe
000000d0: c646 12bf 252a 1abc a70f 2d3e e6b4 943f
000000e0: 66f8 14be 9297 34be 8c46 f33d 981c f63d
000000f0: 943a ae3e 8051 143f 3d1f 4cbd 40c3 903b
00000100: 793c a7be f433 583b 27d8 de3d c606 8fbe
00000110: d876 74be 844c 293d d475 89be f008 133e
00000120: 7cae 38be b0db 3c3e 3ca0 273e 47f3 163d
00000130: ae53 55bc 59f6 44be 4a79 203f 72f5 4b3e
00000140: e001 0bbc 4d06 bdbe fd2f aa3e 0893 113e
00000150: 10f0 8e3b 5b9f 0b3e 522a 013b b68b 353d
00000160: ea7f 0dbd 17eb d23c 0a98 1d3e 78ff e13e
00000170: e051 493d a623 88bd 6088 8abe 3046 fc3e
00000180: aaa8 583d 16ef d4bd f205 dbbc 28ae 9abc

bias f4 [10]
-0.19649075 0.0076793805 0.57017833 0.28242838 0.7038419 0.17642497 -0.33714944 0.36467457
-0.10513536 0.08266799
00000000: df34 49be 50a3 fb3b 35f7 113f 749a 903e
00000010: fc2e 343f bfa8 343e da9e acbe a0b6 ba3e
00000020: 3551 d7bd d64d a93d

weight f4 [10, 10]
0.06541297 -0.033427313 0.009530265 0.3250993 -0.0073352894 -0.89241827 0.61309606 -0.3367867
0.2976121 -0.5333115 0.043886665 0.08907436 0.013330072 -0.004814811 -0.014152229 -0.46156496
-0.009446166 1.0770652 0.46974504 -0.0076835267 -0.35478562 0.012995986 -0.40407473 -0.12306979
-0.17886993 0.03541088 -0.37785858 -0.16342644 0.06759283 -0.52159625 0.008320868 0.057035208
-0.19611135 -0.15273087 -0.02187261 0.000756762 0.0029875045 0.04492897 -0.008826055 -0.33379596
-0.06667436 -0.12618959 -0.0945802 0.08783784 -0.010858138 -0.01394112 0.015250708 0.01691725
-0.33745503 0.40705553 -0.014935885 -0.085669465 -0.5752623 0.019180857 -0.06794719 0.0012887884
0.020191146 0.0041114446 -0.20810722 -0.76595235 -0.2830835 0.10108413 -3.8063896e-05 -0.00030011393
1.2781235 -0.0007046796 0.030808672 0.037975937 -0.6935102 0.8456549 -0.091372415 8.653139e-05
0.4060188 -0.15875682 -0.6559034 -0.0012785941 0.26086634 -0.55966884 0.012158804 -0.04243677
-0.14389507 -0.2136299 0.054656535 -0.024636187 -0.0016579032 -0.78946745 0.19778423 -0.055426665
0.056199215 0.025412321 0.24040627 -1.4893041 0.10014827 -0.27495888 0.36669955 0.00018629432
0.033291504 0.06679553 0.045656167 -0.19627869
00000000: 3cf7 853d 14eb 08bd d424 1c3c 6a73 a63e
00000010: de5c f0bb 8675 64bf ddf3 1c3f 4e6f acbe
00000020: 9d60 983e 1a87 08bf 81c2 333d 9e6c b63d
00000030: 6066 5a3c 90c5 9dbb c0de 67bc 3e52 ecbe
00000040: 18c4 1abc 46dd 893f 6c82 f03e 18c6 fbbb
00000050: 76a6 b5be 1eed 543c e2e2 cebe 040c fcbd
00000060: ae29 37be 000b 113d ae76 c1be 4359 27be
00000070: 1c6e 8a3d 5587 05bf 4054 083c c09d 693d
00000080: 6ad1 48be 7b65 1cbe 302e b3bc 7061 463a
00000090: 02ca 433b 7107 383d 289b 10bc 4ee7 aabe
000000a0: 918c 88bd d837 01be 44b3 c1bd 53e4 b33d
000000b0: 55e6 31bc 4c69 64bc 1bde 793c 0b96 8a3c
000000c0: e8c6 acbe 9569 d03e a4b5 74bc 7973 afbd
000000d0: 6444 13bf 2c21 9d3c e527 8bbd 90ec a83a
000000e0: e767 a53c 4cb9 863b 0f1a 55be 7415 44bf
000000f0: 52f0 90be 3205 cf3d cca6 1fb8 9c58 9db9
00000100: 8d99 a33f 3fba 38ba 7862 fc3c a88c 1b3d
00000110: e289 31bf d77c 583f 7621 bbbd 3078 b538
00000120: b2e1 cf3e 2691 22be 49e9 27bf 8096 a7ba
00000130: 4690 853e 7546 0fbf b835 473c 2ed2 2dbd
00000140: 3b59 13be ccc1 5abe 88df 5f3d d4d1 c9bc
00000150: 004e d9ba 8a1a 4abf f387 4a3e 1207 63bd
00000160: 2631 663d 802d d03c 102d 763e 84a1 bebf
00000170: 891a cd3d 69c7 8cbe 0bc0 bb3e 0058 4339
00000180: ac5c 083d 18cc 883d f601 3b3d 48fd 48be

bias f4 [10]
0.39774483 0.38223797 -0.04267785 0.0015767864 -0.13504176 -0.0020012818 -0.0027370963 -0.049404703
0.115626 -0.014442994
00000000: 36a5 cb3e b2b4 c33e f8ce 2ebd 2cac ce3a
00000010: 6348 0abe f027 03bb db60 33bb 965c 4abd
00000020: 53cd ec3d 4fa2 6cbc

weight f4 [10, 10]
0.019685525 0.079688534 -0.22955264 0.12521613 -0.0073983762 1.0361065 -0.043903947 -0.057912465
-0.100237004 -0.22397701 0.16901255 0.04365824 -0.02521506 0.09717852 0.0002399804 -0.24487251
0.14924675 0.024985984 0.029408775 0.36065948 0.49399775 0.13706632 -0.294673 0.1274684
-0.09628355 0.33056527 0.24356273 0.08422911 0.10938741 -0.07065269 0.10103524 -0.00023726746
0.04969497 -0.21810865 -0.0045576254 -0.50351477 0.046582 0.012337692 -0.08369965 -0.19264081
0.46119925 0.006068995 0.014834514 -0.009119574 0.1113206 -0.58107436 -0.04820828 -0.04071504
-0.3768031 -0.24280287 -0.038826738 0.117381155 -0.08609916 -0.678444 -0.036081564 -0.44509554
-0.007835309 0.30724117 0.085436486 -0.018058032 0.0697736 0.429594 -0.49778354 -0.14974856
0.2633947 -0.037101965 -0.1617105 0.042780392 0.02931711 -0.022227377 0.30903274 0.03223105
-0.015246884 -0.033077076 -0.08253713 -0.035849348 -0.15806392 0.07595646 -0.25776005 0.039632823
-0.031909615 -0.112409145 0.7391422 0.07720601 -0.11005102 0.056858875 -0.046278015 0.064890094
-0.6057528 0.36201087 -0.30572432 0.10133079 -0.05525489 0.0028784946 -0.055305682 -0.015667206
-0.024976596 -0.031964842 0.3041764 -1.1600314
00000000: 8a43 a13c be33 a33d d90f 6bbe a838 003e
00000010: 146e f2bb 239f 843f a0d4 33bd 9f35 6dbd
00000020: 0f49 cdbd 3b5a 65be a011 2d3e fcd2 323d
00000030: d08f cebc 8805 c73d 40a3 7b39 dcbf 7abe
00000040: 24d4 183e 68af cc3c acea f03c 5ca8 b83e
00000050: 46ed fc3e 1d5b 0c3e 61df 96be 1487 023e
00000060: 4f30 c5bd da3f a93e 8268 793e 5080 ac3d
00000070: 8206 e03d 5cb2 90bd 90eb ce3d 00cb 78b9
00000080: f48c 4b3d e057 5fbe 2258 95bb 58e6 00bf
00000090: c4cc 3e3d 0824 4a3c b96a abbd a243 45be
000000a0: 4f22 ec3e 6cde c63b 760c 733c 446a 15bc
000000b0: 0efc e33d 4ac1 14bf 0c76 45bd d0c4 26bd
000000c0: 56ec c0be 51a1 78be c908 1fbd 8865 f03d
000000d0: c254 b0bd 82ae 2dbf 43ca 13bd 90e3 e3be
000000e0: ab5f 00bc b74e 9d3e 53f9 ae3d 70ee 93bc
000000f0: 76e5 8e3d bff3 db3e 7cdd febe b057 19be
00000100: acdb 863e 3bf8 17bd 7097 25be 7e3a 2f3d
00000110: 702a f03c 3016 b6bc 8a39 9e3e b504 043d
00000120: 11ce 79bc d47b 07bd 3a09 a9bd c4d6 12bd
00000130: 82db 21be 0f8f 9b3d 20f9 83be 0756 223d
00000140: a8b3 02bd c436 e6bd 6c38 3d3f 2f1e 9e3d
00000150: 6e62 e1bd dae4 683d 048e 3dbd 19e5 843d
00000160: 9e12 1bbf 7d59 b93e e687 9cbe 8486 cf3d
00000170: f452 62bd 20a5 3c3b 3688 62bd 8358 80bc
00000180: b89b ccbc 91ed 02bd 02bd 9b3e e97b 94bf

bias f4 [10]
0.2769493 -0.16612065 0.59551406 0.21809758 -0.025957622 0.13623044 0.17172807 -0.033298824
-0.23695712 0.110045195
00000000: 4ccc 8d3e 881b 2abe 9c73 183f f954 5f3e
00000010: 14a5 d4bc fe7f 0b3e 7cd9 2f3e 5964 08bd
00000020: e3a4 72be 605f e13d

weight f4 [10, 10]
-0.14610553 0.09552483 0.08394287 -0.0061614346 0.0006451607 0.061682865 -0.15347023 -0.40129045
0.03385176 -0.0002635295 -0.2551556 0.2198039 -0.020069025 0.010847978 -0.058291115 0.3894997
-0.006465763 -0.2836853 0.7778224 -0.7859044 0.0057041943 -0.74098134 0.031222716 0.006987642
-0.21188524 0.09932117 0.011315281 0.12861592 1.4118707 0.8266132 0.3645588 -0.5785912
0.05467716 0.15559208 0.35234573 -0.094260074 -0.0049596457 -0.09940031 0.11424442 0.010534983
0.0035967585 -0.044947766 -0.07141093 -0.03790357 0.06845634 -0.08232881 0.23076236 -0.0431184
0.13796228 -0.03501348 0.02852616 -0.1440219 -0.20807245 0.0023844875 -6.042542e-05 1.2233326
0.35831064 0.057146363 0.21959321 -0.14486255 -0.14113969 -0.010033347 -1.7514803 -0.015968436
0.15102957 -0.0002678875 0.9904825 0.099090405 0.11291988 0.23067617 0.081050545 0.182676
-0.009546094 0.16717663 -0.072135285 -0.36195612 0.004545711 -0.04982739 0.020450506 0.19857888
0.022337552 -0.13779253 -0.008846104 -0.3780801 0.004902673 0.44167274 -0.25260898 -0.17330076
0.5484052 0.13468638 -0.08838694 -0.008939013 0.5636239 -0.23417121 0.08249721 0.104244545
0.7011919 -0.018999532 -0.090218745 -0.28846934
00000000: b09c 15be 86a2 c33d 3dea ab3d dce5 c9bb
00000010: 0020 293a 2ca7 7c3d 4d27 1dbe f175 cdbe
00000020: 25a8 0a3d 552a 8ab9 c1a3 82be 4614 613e
00000030: cc67 a4bc b8bb 313c aac2 6ebd 816c c73e
00000040: c0de d3bb 333f 91be 5e1f 473f 0831 49bf
00000050: 40ea ba3b f4b0 3dbf c8c6 ff3c 97f8 e43b
00000060: 72f8 58be e668 cb3d ba63 393c e4b3 033e
00000070: 2eb8 b43f ec9c 533f 73a7 ba3e 8e1e 14bf
00000080: 28f5 5f3d 8853 1f3e a966 b43e 6d0b c1bd
00000090: 8684 a2bb 6492 cbbd faf8 e93d ec9a 2c3c
000000a0: 98b7 6b3b 261b 38bd e53f 92bd c640 1bbd
000000b0: d632 8c3d 029c a8bd f84c 6c3e eb9c 30bd
000000c0: fc45 0d3e 4b6a 0fbd b2af e93c 7a7a 13be
000000d0: f210 55be 1045 1c3b 4d71 7db8 2a96 9c3f
000000e0: 7e74 b73e 4e12 6a3d 0bdd 603e d956 14be
000000f0: ec86 10be e862 24bc 8230 e0bf 3dd0 82bc
00000100: 7fa7 1a3e 4073 8cb9 4390 7d3f e9ef ca3d
00000110: 8a42 e73d 6036 6c3e d4fd a53d 6b0f 3b3e
00000120: 3867 1cbc 5a30 2b3e aabb 93bd 5052 b9be
00000130: 30f4 943b ce17 4cbd d287 a73c 4358 4b3e
00000140: 3efd b63c 7c19 0dbe 40ef 10bc b793 c1be
00000150: 9aa6 a03b ee22 e23e f755 81be c175 31be
00000160: 4864 0c3f 3aeb 093e 3604 b5bd f074 12bc
00000170: a849 103f 94ca 6fbe 4cf4 a83d 2a7e d53d
00000180: 5081 333f e8a4 9bbc 9bc4 b8bd 41b2 93be

bias f4 [10]
-0.07556301 0.19896276 0.06509769 -0.04744986 -0.09851921 0.017025657 0.021835357 -0.06614476
0.4530098 0.7674548
00000000: c8c0 9abd e5bc 4b3e f051 853d c95a 42bd
00000010: 71c4 c9bd 6479 8b3c 10e0 b23c e776 87bd
00000020: e7f0 e73e eb77 443f

weight f4 [10, 10]
-0.3011059 -0.10591794 -0.19671783 -0.1929476 -0.060191616 -0.38402367 0.14267027 0.10252568
0.08138964 0.0720579 -0.080689244 -0.0053762533 -0.057901643 0.4174384 -0.35925865 0.05438546
2.688769e-05 0.026401192 -0.32901236 -0.3381673 -0.9118383 -0.08953524 2.0916398 0.30108613
0.34215546 -0.027762823 -0.40761006 0.15096739 -0.04036577 -0.09071527 -0.69165546 -0.07421262
0.040316015 -0.57434446 -0.24930447 0.03156794 0.038935605 0.099005 0.0020913035 0.016570376
0.0047777314 0.05393003 -0.033392515 -0.4712885 -1.0170557 -0.04590113 -0.3897779 0.012124464
0.037815485 0.0052464143 -0.10292938 0.080880865 -0.15027186 -0.0013489393 0.032666698 0.28921443
0.028283082 -0.022540301 0.0070888815 -0.35700327 0.097930044 -0.10662766 -0.027886756 0.022369912
0.87180334 0.5086537 0.15656587 -0.04610437 0.020201445 -0.023493944 -0.18050358 0.009589521
-0.075946204 -1.8099494 0.0035172903 -0.1725251 0.22630832 0.22745997 0.013691442 0.11125094
0.011861652 0.15130988 0.010233954 -0.9445909 0.405208 0.020398833 0.077127114 -0.012791406
0.010662872 0.0075676013 -0.009693313 0.26881832 -0.6857966 -0.6638148 0.30699074 -0.2582211
0.49749118 0.1744112 0.022574946 -0.14031637
00000000: 8d2a 9abe 81eb d8bd 6670 49be 0e94 45be
00000010: 7c8b 76bd c09e c4be 2818 123e fcf8 d13d
00000020: 9daf a63d 1893 933d 6740 a5bd 482b b0bb
00000030: 462a 6dbd 7cba d53e c0f0 b7be 4ac3 5e3d
00000040: e08c e137 5047 d83c 4f74 a8be 4424 adbe
00000050: 3c6e 69bf 405e b7bd 6ddd 0540 f627 9a3e
00000060: 002f af3e dc6e e3bc 44b2 d0be 3297 1a3e
00000070: 9456 25bd edc8 b9bd 5510 31bf c9fc 97bd
00000080: 6822 253d 3d08 13bf ac49 7fbe 624d 013d
00000090: f17a 1f3d 22c3 ca3d 400e 093b 99be 873c
000000a0: 848e 9c3b bce5 5c3d 97c6 08bd ba4c f1be
000000b0: e22e 82bf d302 3cbd f890 c7be b0a5 463c
000000c0: 69e4 1a3d 1dea ab3b a4cc d2bd dea4 a53d
000000d0: dee0 19be e4ce b0ba 84cd 053d ea13 943e
000000e0: ecb1 e73c 70a6 b8bc d949 e83b 22c9 b6be
000000f0: 8c8f c83d 9a5f dabd c472 e4bc 1b41 b73c
00000100: 812e 5f3f 2137 023f ce52 203e f0d7 3cbd
00000110: 807d a53c 5f76 c0bc eed5 38be 5e1d 1d3c
00000120: af89 9bbd 6cac e7bf 5782 663b 6baa 30be
00000130: 5ebd 673e 44eb 683e 1252 603c 88d7 e33d
00000140: 6057 423c faf0 1a3e 50ac 273c b6d0 71bf
00000150: 6c77 cf3e 741b a73c d2f4 9d3d 0c93 51bc
00000160: 54b3 2e3c a4f9 f73b b4d0 1ebc 8ea2 893e
00000170: 5e90 2fbf c4ef 29bf e42d 9d3e 8e35 84be
00000180: 2ab7 fe3e da98 323e 18ef b83c 18af 0fbe

bias f4 [10]
0.115768015 0.005742319 0.11753276 -0.2677971 -0.009337589 -0.35848498 -0.06356672 -0.28500953
0.45711428 0.17301416
00000000: c817 ed3d 102a bc3b 04b5 f03d b41c 89be
00000010: b0fc 18bc 588b b7be 452f 82bd c5ec 91be
00000020: e20a ea3e a02a 313e

weight f4 [1, 10]
0.1561481 0.09666933 -0.041027658 0.017569505 -0.6058861 -0.034046516 -0.06096664 0.121189274
0.06847969 -0.036989145
00000000: 4ae5 1f3e 92fa c53d 9e0c 28bd eced 8f3c
00000010: 5a1b 1bbf 5c74 0bbd 28b8 79bd 1532 f83d
00000020: 143f 8c3d ee81 17bd

add_tensors f4 [10, 6]
1.0384963 -0.021153077 -0.20288365 0.11085955 -0.016922597 0.578675 0.015381958 -0.04547697
0.062383544 0.090535015 -0.07129548 0.015067636 -0.2791995 -0.3281405 -0.07415969 0.37923867
-0.3343292 -0.25862548 -1.1767534 -0.11525477 -0.19860227 0.08686666 0.021820733 -2.4713454
0.12262645 0.008644578 0.04621841 0.047595438 0.0028739262 -0.4071034 -0.002828579 -0.16336973
-0.0038318723 0.06803705 -0.06381356 -0.15150963 -0.00866476 0.0031833218 1.0583795 0.107131466
0.08824968 -0.9307987 -0.020810494 0.06340515 0.051619895 -0.09811271 -0.08587509 -0.03269746
0.021319706 1.6984518 -0.3792212 0.12488615 -0.009930401 0.037714425 -1.077724 -0.21814498
-0.3316925 0.4227466 0.012849524 -0.18932131
00000000: 72ed 843f 3849 adbc bbc0 4fbe 550a e33d
00000010: 42a1 8abc 0b24 143f 9c04 7c3c 0f46 3abd
00000020: e385 7f3d 6c6a b93d 5d03 92bd 3fde 763c
00000030: 3df3 8ebe 0802 a8be 09e1 97bd 922b c23e
00000040: 322d abbe 8f6a 84be db9f 96bf b10a ecbd
00000050: 655e 4bbe 26e7 b13d 65c1 b23c 862a 1ec0
00000060: 9423 fb3d fda1 0d3c 844f 3d3d 6ff3 423d
00000070: 7b58 3c3b db6f d0be ae5f 39bb 654a 27be
00000080: 2620 7bbb 0257 8b3d afb0 82bd 5725 1bbe
00000090: a3f6 0dbc 479f 503b fb78 873f be67 db3d
000000a0: 40bc b43d d348 6ebf c57a aabc 8fda 813d
000000b0: 626f 533d 51ef c8bd 47df afbd c6ed 05bd
000000c0: aaa6 ae3c de66 d93f 4829 c2be 4fc4 ff3d
000000d0: 1fb3 22bc 717a 1a3d dcf2 89bf 6661 5fbe
000000e0: 99d3 a9be 3e72 d83e cf86 523c 72dd 41be

add_tensors f4 [10]
-0.86500174 0.18213348 -0.087248385 -0.00023522692 0.17251149 0.031777304 0.011778393 -0.015304357
0.012643496 0.120423205
00000000: c170 5dbf 3381 3a3e 48af b2bd 3fa7 76b9
00000010: daa6 303e eb28 023d 29fa 403c 20bf 7abc
00000020: aa26 4f3c 71a0 f63d

add_tensors f4 [10, 10]
0.06352154 0.088601135 -0.07035827 0.06903473 0.22746046 -0.20285152 0.6527209 0.03424379
-0.0988329 0.6627617 -0.030183742 0.037912656 0.013312058 0.23869452 -0.100743905 -0.001758391
0.0006089047 -0.07591054 -0.06084937 -0.16084856 -0.4887684 0.52306485 1.4624544 0.14006254
0.2474668 0.11673019 -0.057281114 0.022747913 -0.0869054 0.012599819 -0.37726238 -0.036696248
-0.062067077 -0.19966315 0.27619952 0.096813984 -0.04573516 0.0077190124 0.10832557 -2.256273e-05
0.017409885 0.13583852 -0.004933681 -0.25281402 -0.31238216 -0.014943653 -0.08850142 -0.027260445
-0.03056446 0.0015433417 -0.05833599 -0.16814628 -0.47500843 0.0016728672 0.020163579 -0.028816082
-0.07135318 -0.18824817 0.0017571716 -0.13046677 0.035372365 -0.03868299 0.049970828 0.0021755893
0.56445557 0.28136912 0.07536309 0.19550213 0.43643898 -0.003564272 -0.051811885 -0.029156307
0.10899977 -1.0437157 -0.0030530675 0.16874482 -0.41132215 0.03407354 0.006123873 0.021986691
0.2614119 -0.25272897 -0.046577826 -0.40389112 0.1985789 0.06037162 0.049373526 0.031179283
0.0043458827 0.029104235 0.025487844 0.77433264 -1.1500276 0.0098375 0.035619494 -0.16998932
0.16644044 0.09226249 -0.020431072 -0.08078547
00000000: 9517 823d 8374 b53d ff17 90bd 1562 8d3d
00000010: 65eb 683e 4fb8 4fbe b818 273f 3743 0c3d
00000020: e768 cabd c0aa 293f e543 f7bc 4d4a 1b3d
00000030: d11a 5a3c 566c 743e d252 cebd d079 e6ba
00000040: e79e 1f3a fc76 9bbd 303d 79bd 7cb5 24be
00000050: da3f fabe 94e7 053f b531 bb3f 8e6c 0f3e
00000060: f067 7d3e 3d10 ef3d 9a9f 6abd d559 ba3c
00000070: 75fb b1bd 796f 4e3c 8928 c1be ce4e 16bd
00000080: 0c3a 7ebd 7f74 4cbe 066a 8d3e 6946 c63d
00000090: cb54 3bbd c5ef fc3b ccd9 dd3d 1845 bdb7
000000a0: 2d9f 8e3c 4119 0b3e b7aa a1bb d770 81be
000000b0: 8ef0 9fbe 39d6 74bc 3c40 b5bd 4c51 dfbc
000000c0: 5262 fabc f449 ca3a b8f1 6ebd 8a2e 2cbe
000000d0: 4e34 f3be 1c44 db3a 172e a53c b40f ecbc
000000e0: 9e21 92bd 21c4 40be e550 e63a 1599 05be
000000f0: 9de2 103d 0e72 1ebd 36ae 4c3d 5594 0e3b
00000100: 2980 103f 9d0f 903e f757 9a3d b631 483e
00000110: ee74 df3e 9096 69bb b338 54bd 35d9 eebc
00000120: 453b df3d 7a98 85bf f915 48bb 71cb 2c3e
00000130: d198 d2be b290 0b3d c5aa c83b 6f1d b43c
00000140: c8d7 853e b165 81be 64c8 3ebd d1ca cebe
00000150: 4458 4b3e 3b48 773d e53b 4a3d b26b ff3c
00000160: e867 8e3b 016c ee3c e2cb d03c aa3a 463f
00000170: 1b34 93bf 772d 213c bfe5 113d ae11 2ebe
00000180: 5d6f 2a3e 1ef4 bc3d 105f a7bc da72 a5bd

add_tensors f4 [1, 10]
0.09504746 -0.054834604 0.012080737 0.006188266 -0.43087116 -0.11668007 0.29410046 0.0756206
-0.0062269536 -0.10286095
00000000: 3ea8 c23d 409a 60bd 49ee 453c f0c6 ca3b
00000010: 259b dcbe f6f5 eebd 5694 963e f9de 9a3d
00000020: 790b ccbb c3a8 d2bd
