Linear_harder/TorchSaves/Last_Gen998.pt (torch_old, 14130 bytes, 17 tensors)

weight f4 [10, 6]
0	0xbdcbeaf4	-0.09956923
1	0xbde0b529	-0.109720536
2	0x3d275870	0.040855825
3	0xbd899614	-0.06718078
4	0xbe914f69	-0.28380898
5	0x3e0b0188	0.13574803
6	0x3e732069	0.23742832
7	0xbdd6d64f	-0.10490095
8	0x3eafeb3e	0.34359163
9	0x3ea64973	0.32477912
10	0x3ebaceca	0.36485893
11	0x3e8f015e	0.2793073
12	0xbf1d8f50	-0.615468
13	0xbf0c6714	-0.54844785
14	0xbeade7f2	-0.33966023
15	0xbe483d91	-0.19554736
16	0x3eb323ac	0.34988153
17	0xbe9f6aa3	-0.31136045
18	0xbe9eab99	-0.30990294
19	0x3c4b8928	0.012422837
20	0x3ddf8766	0.10914497
21	0x3e5d8901	0.21634294
22	0x3e1ec75c	0.15505737
23	0x3ecd84be	0.40140337
24	0x3bad2973	0.005284482
25	0xbebcb078	-0.36853385
26	0xbd400758	-0.046882004
27	0xbc8cb1d4	-0.017174639
28	0xbd233694	-0.03984697
29	0xbda5ff26	-0.08105306
30	0xbcc14145	-0.023590693
31	0x3f20a106	0.627457
32	0x3df017f3	0.11723318
33	0xbc121d80	-0.008918166
34	0x3ea4808c	0.32129323
35	0x3e5d8dd4	0.21636134
36	0x3e46ad4e	0.19402048
37	0xbd89ca12	-0.06727995
38	0x3f112ff3	0.5671379
39	0xbf18d5de	-0.59701335
40	0x3d00bbaa	0.03142897
41	0x3e736324	0.23768288
42	0x3e43e511	0.1913035
43	0xbbaba4a6	-0.0052381335
44	0xbe0bb5d6	-0.13643584
45	0xbea39d90	-0.31956148
46	0xbf06ee9b	-0.52707833
47	0xbef46424	-0.4773265
48	0xbc754e6c	-0.0149723105
49	0xbb4e6654	-0.0031494098
50	0xbf03758f	-0.51351255
51	0x3f0c70dc	0.5485971
52	0xbd00ca33	-0.031442832
53	0x3e704852	0.23465088
54	0xbec485a0	-0.38383198
55	0x3c6f796e	0.014616353
56	0x3ec57143	0.38562974
57	0x3d9d3ace	0.07677232
58	0xbc40471a	-0.011735702
59	0xbd4be778	-0.049781293

bias f4 [10]
0	0x3f7ee4f9	0.99568135
1	0xbdfc60de	-0.123231634
2	0xbdea224f	-0.11432325
3	0x3d82e68c	0.063916296
4	0x3edf1148	0.43567872
5	0xbe081046	-0.13287458
6	0x3e83ac1e	0.25717252
7	0x3eb50286	0.35353488
8	0xbc45b350	-0.012066677
9	0xbea56fa0	-0.32311726

weight f4 [10, 10]
0	0x3e0204f9	0.1269721
1	0xbd9a3a74	-0.0753068
2	0x3aabe764	0.0013115224
3	0x3db6fc1d	0.089348055
4	0xbd93d06c	-0.07217488
5	0x3e2e022a	0.16993013
6	0xbd4eb784	-0.050467983
7	0xbe9934ec	-0.2992319
8	0xbc1f1308	-0.009709127
9	0x3ed307a0	0.41216755
10	0x3cc35f70	0.02384922
11	0xbc6f4340	-0.014603436
12	0x3e829bbd	0.25509444
13	0x3de59df8	0.11211771
14	0x3ea04fd4	0.31310904
15	0xbe21e9e2	-0.15811875
16	0xbd565f0f	-0.05233675
17	0xbc5a32f0	-0.0133178085
18	0xbda796ac	-0.08183035
19	0x3e4f7f7b	0.20263474
20	0x3dbee791	0.093215115
21	0xbee897f2	-0.45428425
22	0x3cd96d4a	0.02654137
23	0xbe575e43	-0.21032052
24	0xbd62f0a7	-0.055405285
25	0x3e9335c9	0.28751972
26	0xbe770b17	-0.24125324
27	0x3dcf6f90	0.10128701
28	0xbc4e55a0	-0.012593657
29	0xbe75f713	-0.24020033
30	0xbde37f88	-0.11108309
31	0xbd886c48	-0.06661278
32	0x3d3b5360	0.04573381
33	0xbe4ff415	-0.20307954
34	0xbd37b908	-0.044854194
35	0xbcb95260	-0.022622287
36	0x3dc314b4	0.09525433
37	0x3cc7a2c8	0.024369612
38	0x3d2d33ae	0.042285614
39	0x3d538c38	0.051647395
40	0xbe61b8e7	-0.22043191
41	0xbf067d64	-0.5253508
42	0xbf2e7292	-0.6814357
43	0xbdd3f0b4	-0.10348645
44	0xbdc35574	-0.09537783
45	0x3eb230a2	0.3480273
46	0xbf0301e5	-0.51174766
47	0xbd674a1f	-0.05646717
48	0x3dc5f700	0.09666252
49	0x3e5264cd	0.20546265
50	0xbe1fbd6f	-0.15599607
51	0xbed5c19a	-0.4174927
52	0xbc915378	-0.017739996
53	0x3e957a93	0.2919508
54	0x3d0f3d9c	0.034970865
55	0xbde70a46	-0.112812564
56	0xbdd8703b	-0.10568281
57	0xbec55358	-0.3854015
58	0x3f42386d	0.7586735
59	0xbd6d284c	-0.05789976
60	0x3cdf4860	0.02725619
61	0x3d66804c	0.056274697
62	0xbddae5f8	-0.10688394
63	0xbda53b04	-0.08067897
64	0x3d6180ff	0.05505466
65	0xbebe213c	-0.3713473
66	0xbec03058	-0.37536883
67	0xbb27290c	-0.0025506644
68	0x3e6a4496	0.22877726
69	0x3e866e23	0.26255903
70	0x3d278830	0.040901363
71	0xbe7de3b1	-0.24793889
72	0xbed2b647	-0.41154692
73	0xbe396bbc	-0.18107504
74	0x3e95c512	0.29251915
75	0xbdea4f4d	-0.11440907
76	0xbf1de0f0	-0.6167135
77	0xbec88ee8	-0.3917153
78	0xbe9ebe96	-0.3100478
79	0x3caddfd8	0.021224901
80	0x3dcdf8a0	0.10057187
81	0x3e851939	0.25995806
82	0x3e03aa2e	0.12857887
83	0xbed06c9c	-0.40707862
84	0xbe898899	-0.26862028
85	0xbd99028e	-0.074711904
86	0xbc48e37c	-0.012261268
87	0xbe77340c	-0.24140948
88	0x3cca1e2c	0.02467259
89	0xbe22315a	-0.15839139
90	0xbd251e27	-0.04031196
91	0x3ea9969a	0.33122712
92	0x3e94d652	0.29069763
93	0xbe0b4704	-0.13601309
94	0x3d9c32bc	0.07626864
95	0xbed61b23	-0.4181758
96	0x3d062ee3	0.03275956
97	0xbe245c66	-0.16050872
98	0x3e84d228	0.25941586
99	0xbe884bef	-0.26620433

bias f4 [10]
0	0x3f0b29ad	0.5436047
1	0xbe070d9c	-0.13188785
2	0xbeb1b888	-0.347111
3	0x3e3f5cc3	0.1868773
4	0xbeb16716	-0.3464896
5	0xbddc8cc0	-0.107690334
6	0xbe95db1e	-0.29268736
7	0x3d9cf982	0.07664777
8	0xbeff76ba	-0.4989527
9	0x3eb874c9	0.360266

weight f4 [10, 10]
0	0x3e533435	0.20625384
1	0x3d315380	0.043292522
2	0xbe1772d0	-0.14789891
3	0xbd1bf8f7	-0.03807923
4	0xbd8037d1	-0.06260646
5	0xbebb8f3a	-0.3663271
6	0xbe5f6068	-0.2181412
7	0x3f0675ed	0.5252369
8	0xbc49f4cc	-0.0123264305
9	0xbcef52c0	-0.029214263
10	0xbea173e6	-0.31533736
11	0xbd43768c	-0.047720477
12	0x3e80d00b	0.25158724
13	0xbe172736	-0.14761052
14	0x3e188d46	0.14897642
15	0x3e8416a3	0.2579852
16	0xbec99e77	-0.39378712
17	0x3e9d6454	0.30740607
18	0x3ba95e80	0.005168736
19	0xbdfa8f2d	-0.1223434
20	0x3ecbe104	0.3982011
21	0xba2c9fa0	-0.0006585065
22	0x3e95a67b	0.29228577
23	0x3e3d3d60	0.18480444
24	0x3ec5ad0e	0.38608593
25	0xbcb78056	-0.022400063
26	0xbcee4cb0	-0.029089302
27	0x3d6ac86c	0.057320043
28	0xbc921070	-0.017830104
29	0x3b8ec900	0.004357457
30	0x3e3d9b04	0.18516165
31	0xbdc3beaa	-0.09557851
32	0xbcbb17d6	-0.022838514
33	0xbe20ba3f	-0.15696047
34	0x3e41239a	0.18861237
35	0x3db4f40a	0.08835609
36	0x3c166f10	0.009181753
37	0x3d928f1d	0.07156203
38	0xbcef9f08	-0.029250637
39	0x3d01f6b8	0.03172943
40	0x3e0d9f10	0.13830209
41	0x3d9a77de	0.07542394
42	0xbefb86b5	-0.4912621
43	0x3bb0c610	0.0053947046
44	0x3e542fa6	0.20721301
45	0xbef17ef4	-0.4716717
46	0x3b613b00	0.0034367442
47	0xbe098e40	-0.1343317
48	0xbc09a6e8	-0.00840161
49	0x3c9b12b8	0.018929824
50	0x3e28febe	0.16503426
51	0x3e979793	0.2960783
52	0xbe199ea4	-0.15001923
53	0x3def8225	0.11694745
54	0x3e24e531	0.16103055
55	0x3d2cf96a	0.042230047
56	0x3d4d1a50	0.05007392
57	0x3b01ac40	0.0019786507
58	0xbea9b3ae	-0.33144897
59	0x3de21654	0.11039415
60	0x3e7c37dd	0.24630685
61	0x3f1cf156	0.6130575
62	0xbdce956f	-0.10087096
63	0x3e2ca385	0.16859253
64	0xbe6d5480	-0.23176765
65	0x3c2e4bc0	0.010638177
66	0xbede4802	-0.43414313
67	0xbf30fa94	-0.6913235
68	0x3d5e7949	0.054314885
69	0x3e6840e4	0.22681004
70	0xbe83be37	-0.2573106
71	0x3d5ea03f	0.05435204
72	0x3d463dc6	0.048398755
73	0x3ecd6b70	0.4012103
74	0x3e9bc4a3	0.3042346
75	0x3e19bc9b	0.15013354
76	0xbe6eee06	-0.23332986
77	0xbd9647d8	-0.07337922
78	0xbdd09ba4	-0.10185936
79	0x3ec441ac	0.38331354
80	0x3e569beb	0.20957915
81	0xbefec682	-0.49760824
82	0xbcd3de53	-0.025862848
83	0xbd2f0bfd	-0.042736042
84	0xbe0c4f8c	-0.1370222
85	0x3ddcb37b	0.10776421
86	0xbeac9566	-0.33707732
87	0x3e28fd9a	0.16502991
88	0x3e6b75ec	0.22994202
89	0xbf2fb7e3	-0.68639964
90	0x3dd1b5c4	0.10239747
91	0x3c7c02ac	0.015381496
92	0xbd213606	-0.03935816
93	0xbd8b40c0	-0.067994595
94	0xbe44e41a	-0.19227639
95	0xbe94d33a	-0.29067403
96	0xbd677c94	-0.05651529
97	0x3e03cc8a	0.12870994
98	0xbf446f2d	-0.7673214
99	0xbdbb8a04	-0.09157184

bias f4 [10]
0	0x3dcb1c88	0.09917551
1	0xbdcc50b4	-0.099763304
2	0x3c66eb74	0.014094222
3	0x3ebd1c3f	0.36935613
4	0xbea62d46	-0.32456416
5	0xbe9d2e5b	-0.3069943
6	0x3d532064	0.051544562
7	0x3e78a261	0.24280693
8	0x3b005b40	0.001958564
9	0x3d8d1006	0.06887822

weight f4 [10, 10]
0	0x3eb73ee3	0.35790166
1	0xbe7c1e82	-0.24621013
2	0x3ee57114	0.44812834
3	0xbddfd051	-0.10928405
4	0x3d766cd6	0.060162388
5	0x3e8abd2c	0.27097452
6	0x3e15b7a4	0.14620835
7	0x3cfd6a27	0.030934406
8	0xbe57d8d1	-0.21078803
9	0x3dca4686	0.098767325
10	0xbeb0e039	-0.34546068
11	0xbc8b9ea8	-0.017043427
12	0x3ebdd273	0.37074623
13	0x3bf2ffd4	0.007415751
14	0x3db4c2f6	0.08826248
15	0xbd836004	-0.06414798
16	0xbca156a8	-0.019694641
17	0xbe1c5e68	-0.15270388
18	0xbee2970a	-0.4425586
19	0x3d917e72	0.07104196
20	0x3e8d329d	0.27577677
21	0xbe14859c	-0.14504093
22	0x3c6354b4	0.013875175
23	0x3e872234	0.26393282
24	0xbefbdba6	-0.49191016
25	0x3c0392f8	0.008030646
26	0x3c85450e	0.01626828
27	0x3d821b10	0.06352818
28	0xbe1f1b1c	-0.15537685
29	0xbe29401e	-0.16528365
30	0xbec8673a	-0.39141256
31	0xbd446750	-0.04795009
32	0x3dffeb28	0.12496024
33	0xbdb94c8e	-0.09047805
34	0x3db923d4	0.09040037
35	0xbe6eb5e9	-0.2331158
36	0x3e62093e	0.22073838
37	0xbdfd1ab9	-0.123586126
38	0x3f186f2e	0.59544647
39	0xbc4ac384	-0.012375716
40	0x3ecc70f0	0.39929914
41	0x3d2909c0	0.041269064
42	0xbd955f5e	-0.072935805
43	0xbb3dcd48	-0.0028961468
44	0xbc87e380	-0.016587973
45	0xbcac60ca	-0.021042246
46	0x3de29d2a	0.11065133
47	0x3e98b492	0.29825264
48	0x3dbf09bd	0.09328029
49	0xbf0db030	-0.55346966
50	0x3e7c8054	0.24658328
51	0xbe6bfcaa	-0.23045602
52	0x3cc60ec4	0.024176963
53	0xbd0dc440	-0.034610987
54	0x3da63819	0.081161685
55	0xbddf5e15	-0.109066166
56	0xbdd35e0d	-0.10320673
57	0xbd1ec43c	-0.038761362
58	0x3ec987b8	0.39361358
59	0xbdac15d6	-0.084026024
60	0x3abf59c0	0.0014598891
61	0x3e2f70bc	0.17132849
62	0x3dcece5a	0.10097952
63	0xbdd82515	-0.10553948
64	0xbea8c3f2	-0.32961994
65	0xbd56759a	-0.052358247
66	0x3d263bef	0.0405845
67	0x3e30f0b6	0.17279324
68	0xbd2770f4	-0.040879205
69	0xbce91a93	-0.028455054
70	0xbd35b86e	-0.04436534
71	0x3eca1448	0.39468598
72	0xbcf52528	-0.029924944
73	0x3e2169f4	0.15763074
74	0x3c619db7	0.013770512
75	0xbd0e63fc	-0.03476332
76	0xbeb9c832	-0.3628555
77	0xbf4dc084	-0.8037188
78	0xbce8172a	-0.028331358
79	0xbea41e4b	-0.32054362
80	0x3ded6418	0.11591357
81	0xbe47f656	-0.19527563
82	0x3d00d788	0.031455547
83	0xbd1d6f54	-0.03843625
84	0xbf6a0bec	-0.9142444
85	0x3e54e8d2	0.20791939
86	0xbbd21630	-0.0064113364
87	0x3f361cc9	0.7113767
88	0xbdf55df8	-0.11980814
89	0x3e02cf34	0.12774354
90	0x3cbbc318	0.022920176
91	0xbf1aa93b	-0.60414475
92	0xbeafd24a	-0.34340125
93	0x3e67dde8	0.22643244
94	0xbe1d480c	-0.15359515
95	0xbd934198	-0.071902454
96	0xbe1a31b6	-0.15058026
97	0x3ef1edca	0.4725173
98	0xbda13ebc	-0.07873294
99	0xbdcbb9e6	-0.09947567

bias f4 [10]
0	0xbdfaec90	-0.12252152
1	0x3e2365a7	0.15956746
2	0xbe175e36	-0.14782032
3	0xba2737c0	-0.0006378852
4	0x3e4dcf97	0.2009872
5	0xbc9aeee2	-0.018912736
6	0xbded3c12	-0.11583723
7	0xbe795c18	-0.24351537
8	0x3d9e7fa6	0.07739191
9	0xbc9691b0	-0.018380016

weight f4 [10, 10]
0	0x3b5d2920	0.0033746436
1	0xbd808654	-0.06275621
2	0xbe8a2d6c	-0.2698778
3	0x3d0912e4	0.03346528
4	0xbd39e5b0	-0.045385063
5	0xbe86481a	-0.26226884
6	0x3d2b6534	0.04184456
7	0x3ee82c32	0.45346218
8	0x3dc6f948	0.097155154
9	0xbe44c42e	-0.19215462
10	0xbf1cf30c	-0.6130836
11	0x3c8a0326	0.016847204
12	0xb768b000	-1.3869256e-05
13	0xbcd2023a	-0.025635827
14	0x3ce4ceb0	0.027930588
15	0x3f147dd4	0.580045
16	0xbee44674	-0.44585
17	0x3e788d32	0.24272612
18	0x3d545f15	0.05184849
19	0xbdb03478	-0.086037576
20	0x3ea8d439	0.32974413
21	0x3d4d481e	0.050117604
22	0x3d8099d2	0.06279339
23	0x3f15b1dc	0.58474517
24	0xbe3fecd8	-0.18742692
25	0xbc5c2204	-0.013435844
26	0xbd48fe29	-0.04907051
27	0x3e9fc7dc	0.31207168
28	0x3a58b980	0.0008267388
29	0xbd74c45e	-0.059757583
30	0xbe4aa968	-0.19791186
31	0x3ddf4b60	0.109030485
32	0xbdb793f0	-0.08963764
33	0xbe97ee53	-0.29674014
34	0xbe277945	-0.16354854
35	0x3e2e97c4	0.17050081
36	0xbcfadb80	-0.030622244
37	0x3dcc69a9	0.099810906
38	0xbee2230d	-0.44167367
39	0xbd7057ea	-0.05867759
40	0x3cae49d0	0.02127543
41	0x3e3d5c9c	0.18492359
42	0x3e10474f	0.14089702
43	0xbdc6a158	-0.09698743
44	0x3e10afd3	0.14129572
45	0xbdd7bf9c	-0.105345935
46	0xbdd83a24	-0.105579644
47	0xbea3c074	-0.31982768
48	0x3cf0240e	0.029314067
49	0x3e656d25	0.22404917
50	0xbbef73a1	-0.007307485
51	0xbc3053c4	-0.010762159
52	0xbe228f77	-0.1587504
53	0x3cef61e4	0.029221483
54	0xbdac63aa	-0.08417447
55	0xbb6d0c00	-0.0036170483
56	0x3e51851e	0.20460936
57	0xbdef30aa	-0.11679204
58	0xbe466da5	-0.19377764
59	0xbe9b55d7	-0.30338928
60	0xbe8f8a72	-0.28035313
61	0x3c49c8c8	0.012315936
62	0x3e530a30	0.20609355
63	0x3cad206c	0.021133624
64	0x3e078109	0.13232817
65	0xbc0b8260	-0.008514971
66	0xbd8fffc1	-0.07031203
67	0xbe8900f7	-0.2675855
68	0x3d9cd35c	0.07657501
69	0x3dadef95	0.08492962
70	0x3e90790e	0.28217357
71	0x3c675f18	0.014121793
72	0xbf16c18a	-0.5888907
73	0xbe13c674	-0.14431173
74	0x3c9a3b9f	0.018827258
75	0xbdf25540	-0.118326664
76	0x3d935884	0.071946174
77	0x3efcd38a	0.49380141
78	0x3ddd020a	0.107914045
79	0x3dc53e62	0.09631039
80	0xbe73a040	-0.237916
81	0x3e0e848c	0.1391775
82	0x3d9a09cc	0.075214
83	0xbe352a8a	-0.17692009
84	0x3d2f7f01	0.04284573
85	0x3f00d1be	0.5032004
86	0xbe3848c5	-0.1799651
87	0x3d871e62	0.06597592
88	0x3e3f392e	0.18674156
89	0x3e42b852	0.19015625
90	0xbdd65ac4	-0.10466531
91	0xbe044136	-0.12915501
92	0xbeac85af	-0.33695742
93	0xbce38f8e	-0.027778413
94	0x3da15be4	0.07878855
95	0xbdfdb464	-0.123879224
96	0xbed25394	-0.4107939
97	0xbdab4fde	-0.08364843
98	0xbda674dd	-0.08127759
99	0xbe7565b0	-0.23964572

bias f4 [10]
0	0x3abbd440	0.0014330223
1	0xbcbef295	-0.023309032
2	0xbbb932b0	-0.0056517944
3	0xbdac1911	-0.084032185
4	0xbe623dce	-0.22093889
5	0x3f02b15a	0.51051867
6	0x3f39ab6b	0.7252719
7	0xbd655706	-0.055991195
8	0x3ddb9eb4	0.107236296
9	0xbe790596	-0.24318537

weight f4 [10, 10]
0	0x3e5abec6	0.21361837
1	0xbed5d9ff	-0.4176788
2	0xbdb40584	-0.087901145
3	0x3c000b51	0.007815198
4	0x3c2dc418	0.010605834
5	0xbe145f86	-0.14489564
6	0xbd1cd684	-0.038290516
7	0x3d6ec0d2	0.058289357
8	0xb9891d80	-0.00026152655
9	0xbe55165f	-0.20809315
10	0x3cd786ac	0.026309334
11	0x3cc61245	0.024178633
12	0x3f147e6e	0.58005416
13	0xbe6628ef	-0.22476552
14	0x3ea16c7a	0.31528074
15	0xbd4d43ea	-0.050113596
16	0xbd4922fb	-0.049105626
17	0x3f546ca2	0.8297826
18	0x3e7b3d11	0.24535014
19	0x3dbb98b4	0.09159985
20	0x3d9809de	0.07423757
21	0xbe59aad4	-0.21256572
22	0x3f41c4f0	0.7569113
23	0xbea1e518	-0.31620097
24	0x3d796718	0.060889333
25	0x3d37d466	0.044880293
26	0x3d147a0f	0.036249217
27	0xbed040b8	-0.40674376
28	0x3e858adc	0.26082504
29	0xbe98e424	-0.29861557
30	0x3d26658e	0.040624194
31	0x3e45e184	0.19324309
32	0xbea4086b	-0.32037672
33	0xbd8c1ad0	-0.068410516
34	0xbd9025c4	-0.07038453
35	0x3ca27108	0.019829288
36	0x3dbc8d63	0.09206655
37	0xbbf68558	-0.00752322
38	0x3e5572aa	0.20844522
39	0xbea3caf8	-0.3199079
40	0xbc35a8c0	-0.011087596
41	0xbd5cba98	-0.053888887
42	0x3d54bce8	0.051937968
43	0x3c1ab948	0.009443589
44	0xbf15b18c	-0.5847404
45	0x3e198771	0.14993073
46	0x3cc9fd38	0.024656877
47	0xbe0db429	-0.13838257
48	0xbec94f2e	-0.39318222
49	0xbd9242c1	-0.071416385
50	0xbe04b4fc	-0.12959665
51	0x3d8f0206	0.06982808
52	0x3e1e6b16	0.15470538
53	0xbf2fca80	-0.68668365
54	0x3e5015d8	0.20320833
55	0x3ee8e746	0.45488948
56	0x3dbcbb84	0.09215453
57	0xba7fb5a0	-0.0009754542
58	0x3e845beb	0.25851378
59	0xbe4ca1a4	-0.19983536
60	0x3e1b2acc	0.15153044
61	0x3e22a707	0.15884028
62	0xbe8a09c6	-0.26960582
63	0x3b493900	0.003070414
64	0x3d9068c4	0.070512325
65	0xbe45fe23	-0.19335227
66	0xbec64714	-0.38726103
67	0x3e38312c	0.17987508
68	0xbe202c6e	-0.15641949
69	0xbde502e4	-0.11182192
70	0xbe3fab72	-0.18717745
71	0xbdd8ae50	-0.105801225
72	0x398a5c00	0.00026389956
73	0xbb87911c	-0.0041371714
74	0x3bd76824	0.006573694
75	0x3ee94570	0.4556079
76	0x3ee9405a	0.4555691
77	0x3d21da7e	0.03951501
78	0x3ca1e8c8	0.019764319
79	0xbe0666a0	-0.13125086
80	0xbe59d7cd	-0.21273728
81	0x3de3280c	0.11091623
82	0x3ea059b0	0.31318426
83	0x3e9bc6cc	0.30425107
84	0x3cf20e3a	0.0295478
85	0xbeb653d0	-0.3561082
86	0xbe4055f4	-0.18782789
87	0x3d867e36	0.065670416
88	0xbddc8a76	-0.10768597
89	0x3c86488a	0.016392011
90	0x3d823428	0.06357604
91	0xbdda30cc	-0.106538385
92	0x3f55eed4	0.8356755
93	0x3f07d93d	0.53065854
94	0x3e839504	0.25699627
95	0x3e4b9860	0.19882345
96	0x3d7d876a	0.06189672
97	0xbc6a9d50	-0.014319733
98	0xbeac38cd	-0.33637086
99	0xbe86f8a6	-0.2636158

bias f4 [10]
0	0xbe80140f	-0.25015303
1	0xbec39b26	-0.38204306
2	0x3e687c85	0.2270375
3	0xbea6735a	-0.3250988
4	0xbc8b45fc	-0.017001145
5	0x3eaeb4bc	0.34122264
6	0xbd448ead	-0.04798763
7	0x3ddde379	0.108344026
8	0x3dc6e46e	0.09711538
9	0x3dcaf0ae	0.09909187

weight f4 [1, 10]
0	0xbc72a9a4	-0.014810953
1	0x3cf6af60	0.030112922
2	0xb9e4ce00	-0.0004364103
3	0x3c80dfb2	0.015731666
4	0x3e47d315	0.19514115
5	0xba081080	-0.0005190447
6	0xbdd05113	-0.10171714
7	0xbe57caa2	-0.21073392
8	0xbb1101e6	-0.0022126376
9	0x3f0d3127	0.55153126

add_tensors f4 [10, 6]
0	0x3e9b4632	0.30326992
1	0xbc0a03e7	-0.008423782
2	0x3cae7951	0.021298083
3	0x3ea28ebe	0.3174953
4	0xbd89e906	-0.06733899
5	0x3e82c59c	0.2554139
6	0xbd6bbacc	-0.05755119
7	0xbcbfa56d	-0.02339431
8	0x3d18f5dd	0.03734385
9	0x3de934e3	0.113870405
10	0x3d811230	0.06302297
11	0x3ccee0fa	0.025253762
12	0xbe86c34f	-0.26320884
13	0xbe86e69b	-0.26347813
14	0xbe210daf	-0.15727876
15	0xbd5ea655	-0.054357845
16	0x3dad653f	0.08466577
17	0xbd8219ef	-0.06352603
18	0xbded4d6d	-0.115870334
19	0x3dabe58d	0.08393393
20	0xbd8c4942	-0.0684991
21	0xbd9234e6	-0.07138996
22	0x3ebabec2	0.36473662
23	0x3e726fcf	0.23675464
24	0x39f4172b	0.00046556568
25	0xbe076a61	-0.13224174
26	0xbecdd969	-0.40204933
27	0xbdf9eacd	-0.12202988
28	0xbe18445d	-0.14869829
29	0xbc8fc5b8	-0.017550334
30	0x3c0c64f6	0.008568993
31	0x3e90936a	0.28237468
32	0xbcb057f5	-0.021526316
33	0x3eaa0828	0.33209348
34	0x3e062d4d	0.13103218
35	0x3dc3e6e9	0.09565527
36	0xbd9e1d44	-0.07720426
37	0x3e61d715	0.22054704
38	0x3e35b77b	0.17745773
39	0xbe4e9b52	-0.20176437
40	0xbd43b72e	-0.047782116
41	0x3dd895c9	0.10575444
42	0xbe36803f	-0.1782236
43	0xbc4b0853	-0.012392121
44	0xbed12d15	-0.40854707
45	0xbe44d2b3	-0.19221
46	0xbe20c64f	-0.15700649
47	0xbe5834eb	-0.21113937
48	0x3bcbad67	0.0062157395
49	0xb9bc0ea3	-0.0003586906
50	0xbea33432	-0.3187576
51	0x3ea76a6d	0.32698384
52	0x3cb3755a	0.021906544
53	0x3d58d5c9	0.052938256
54	0xbdc19b28	-0.09453422
55	0xbccabe09	-0.024748819
56	0x3ddf8923	0.10914829
57	0x3e80cb15	0.2515494
58	0x3be2200c	0.006900793
59	0x3e9d114b	0.30677256

add_tensors f4 [10]
0	0x3f1b7b98	0.60735464
1	0x3e270d1f	0.16313599
2	0x3da30639	0.07960171
3	0x3c982b70	0.0185754
4	0x3db1d186	0.086825415
5	0xbd9f505f	-0.077790014
6	0xbe119414	-0.14216644
7	0x3e5b1467	0.21394502
8	0xbe1a41d1	-0.1506417
9	0xbdd925a7	-0.10602885

add_tensors f4 [10, 10]
0	0x3d96cc63	0.073632024
1	0xbe0ab93c	-0.13547224
2	0xbc99427a	-0.018708456
3	0xbc73fc0f	-0.014891638
4	0xbd9a032d	-0.07520137
5	0xbd2a5425	-0.041584153
6	0x3e38c5ef	0.18044256
7	0xbc9b0e8b	-0.018927833
8	0xbd6f767b	-0.0584626
9	0xbc12f051	-0.008968429
10	0xbdd6908d	-0.104767896
11	0xbc40ea16	-0.01177456
12	0x3eb0349d	0.3441514
13	0xbe273bb1	-0.16331364
14	0x3b5e23b4	0.0033895792
15	0x3db6a331	0.08917845
16	0xbbef0d59	-0.0072952923
17	0x3f04a39f	0.51812166
18	0x3e083459	0.13301219
19	0xbd83c2a0	-0.06433606
20	0xbe1cae43	-0.1530085
21	0xbd83a7c1	-0.06428481
22	0x3efd79c0	0.4950695
23	0xbd6fcfd8	-0.058547825
24	0xbe6d1284	-0.23151594
25	0xbc1e4faa	-0.009662548
26	0x3b4c2074	0.0031147273
27	0xbe7890b6	-0.24273953
28	0x3e3957f9	0.18099965
29	0xbdda6aab	-0.106648766
30	0xbd18a72a	-0.037268795
31	0x3c939bdd	0.018018657
32	0xbdfe4e00	-0.12417221
33	0xbe8b5a15	-0.27217165
34	0xbe332588	-0.17494786
35	0xbe68068d	-0.22658749
36	0x3b93e4ae	0.0045133447
37	0x3d74f3b9	0.059802745
38	0x3d309ca2	0.043118127
39	0xbd5ef87b	-0.05443619
40	0xbea14725	-0.3149959
41	0x3d88a4b6	0.06672041
42	0xbcc10860	-0.023563564
43	0x3dfb4a09	0.122699805
44	0xbe93da36	-0.2887742
45	0xbdd8dc6a	-0.10588916
46	0x3e0fd5c9	0.14046396
47	0x3e0d1f09	0.1378137
48	0xbdc5185a	-0.09623785
49	0x3df021ab	0.11725172
50	0xbe69c332	-0.22828367
51	0xbdad13c2	-0.08451034
52	0x3ba1aff5	0.004934306
53	0xbef14649	-0.47123936
54	0x3d1afce1	0.03783882
55	0x3e26fadf	0.16306637
56	0x3d491949	0.04909638
57	0xbc2e18da	-0.010626042
58	0x3d5e2873	0.054237794
59	0xbd644bda	-0.0557364
60	0x3c72eba7	0.014826692
61	0xbe101013	-0.14068632
62	0xbe0c229f	-0.13685082
63	0xbd335fa8	-0.043792397
64	0x3cdadf2e	0.026717748
65	0xbd2c7430	-0.042102993
66	0xbe306586	-0.17226228
67	0x3c0b4aba	0.008501703
68	0x3d4002be	0.046877615
69	0x3d01386b	0.031547945
70	0x3c4daa22	0.01255277
71	0xbce80ed0	-0.028327376
72	0xbde906b8	-0.113782346
73	0x3cd6ad79	0.026205765
74	0xbca3ebe7	-0.020009948
75	0x3e5eddeb	0.21764342
76	0x3e799a02	0.24375156
77	0x3cc0564d	0.023478651
78	0xbe0b91a9	-0.13629784
79	0xbda2ed33	-0.079553984
80	0x3d88acb6	0.06673567
81	0x3c9e77e0	0.01934427
82	0x3e104305	0.14088066
83	0x3c846191	0.016159805
84	0xbb8eff97	-0.004363965
85	0xbe651e3a	-0.22374812
86	0x3dbda829	0.0926059
87	0xbcabb148	-0.020958558
88	0xbd75eead	-0.060042072
89	0xbcd15ed6	-0.025557917
90	0x3cd98782	0.026553873
91	0x3daaa0ee	0.08331476
92	0x3f0b99b7	0.54531425
93	0x3ea6175b	0.32439694
94	0x3e080d3d	0.132863
95	0x3d0b23f2	0.033969827
96	0x3a001c8c	0.00048870663
97	0x3e2f20ce	0.17102358
98	0xbcbec753	-0.023288405
99	0xbcbd1b44	-0.02308429

add_tensors f4 [1, 10]
0	0xbd2a5ad1	-0.041590516
1	0xbe8b6b0d	-0.2723011
2	0x3da7ddd6	0.08196609
3	0x3b195e94	0.002340232
4	0xbd1c2983	-0.038125526
5	0x3d26fe66	0.040769957
6	0x3d8ddeab	0.06927236
7	0xbf02cc9e	-0.5109347
8	0xbbf85933	-0.0075789928
9	0x3e90aeb1	0.2825828
