ReLU_simple/TorchSaves/Last_Gen999.pt (torch_old, 106391 bytes, 11 tensors)

weight f4 [86, 6]
00000000: 5a5e 8f3f fe69 e93e b435 953f 16f1 90be
00000010: 12ed 463e 85c1 19bf 36b2 d0bc 03b1 17bf
00000020: cc78 93bf 6853 dabd bb99 23bf 17c8 3dbf
00000030: 8041 06be f006 3dbe 0dc7 eabf 6c46 453e
00000040: 6e7b aebd 074e 4fbe 706b 13be 213c a0bb
00000050: 0ad3 a93f 2ebc 2c3e 160a ca3b 183c 1ebe
00000060: 78fe babf 9e3a c5bd 34b6 6d3f f8b5 37be
00000070: 2098 ac3b 4c8e c83b feb5 013d 0349 2abb
00000080: 307b adbe 8094 17be cbaa 333e 8c7a d43e
00000090: a2bb 173e 8ae3 86bf cd84 f5be f895 613c
000000a0: e855 f83c 8e37 bb3d 541a 5238 652d 72be
000000b0: 074e c0bd 29c6 623d 90ab 50bc 0d6c 36bd
000000c0: eb03 d2bb 2cb7 923d 4878 7bbd b2c2 f6bc
000000d0: 3043 c7bc fc30 84be 009c ae3e 9cc9 eebd
000000e0: 1ca5 c6bd d232 833c 68aa 743e 8655 91bc
000000f0: 409f 9ebe 41ae f2be 0a57 9fbc 8854 f8ba
00000100: 33d5 85bf 0c4a 2c3f 85a1 323f 10cb 7ebc
00000110: 12fa df3e 0024 63bc ca91 da3d eca1 c5bd
00000120: 57df 573e 679c a9be cc9e 293e f33a 863b
00000130: d220 37bf 74a0 04bf 5064 443d 86b7 0d3e
00000140: 6697 b23e 1816 c4bd fee4 77be f15b 123e
00000150: 8032 4a3d 3e0d d33d 6837 bbbd 66de c03f
00000160: f172 aebc 5774 82be 6e01 523e 078c 4d3e
00000170: f2e8 7cbd 01bc 353e 5ee0 3e3f 5901 2fbd
00000180: dc9f aebd e449 593e 7a6f 77bf 404a d93b
00000190: 6a7a 4b3d 92b7 cdbe ac1b 013e cfd9 163e
000001a0: a6a1 473e 3af7 163f 91f0 323f bbd2 943d
000001b0: a03c 033f 5aff b03e 983a 2fbd 1950 da3d
000001c0: 4391 81bd f70a 713b 04fc 8a3f 6f72 123d
000001d0: ff7a 07be 6c9d 61bf b01a 873d 4531 95bd
000001e0: 4c9c 8dbc bb30 87bd ccbd 833c 4234 4a3e
000001f0: 123d 1b3c 1589 cd3e 20ba b5be 3c04 723e
00000200: b7c6 1c3d a9b8 96be e408 0ebc 0c78 13bd
00000210: d79b 3b3f 8ca7 183d 000e 7cbd 4c22 9fbe
00000220: acb1 36be 4333 ac3c da30 b7bd 4466 3bbc
00000230: 42e0 983f f640 e23f a411 eb3d 0e83 943e
00000240: ccf7 443f 20da 5b3e 2a6e 1ebe 90d9 1d3f
00000250: b88a c63d 50b6 bf3b 9249 0dbd 501f 28be
00000260: 1efb 3bbe a3ef e7bc 5853 0dbe 6be1 073f
00000270: bab7 a33e cdd6 583f a7d1 47bf 3ea6 c0be
00000280: 6917 113d 20b1 d5ba 0e8e d7bd f1eb af3e
00000290: a410 0cbc 6213 e03d a36e d73e 2031 15bf
000002a0: f962 e43b 44ad bdbe 260c 613e f0c9 3c3d
000002b0: 1cdb 92bf 0495 f4be a0f4 073f 14e2 0bbc
000002c0: d6d0 0abe 73e3 853a c893 333e 165c 00c0
000002d0: 36d6 3a3f 4bf7 513f e69b 893e 3820 d83e
000002e0: 2667 f93d bc9f 673e 5869 09bf 08b8 cabc
000002f0: eda4 ef3d 8d80 aa3f a9f2 89be 3a64 e2bf
00000300: 7801 153f 957a 9fbc bea4 e63e ba70 b4bf
00000310: 40f3 6d3d b198 19bf 40e4 d93c 7589 4e3e
00000320: 4ad1 7dbf 2e0b bf3d a7d0 a7bf 50d5 e53c
00000330: 6c37 f6bd ec18 a3bd 97aa c13d 4874 1fbc
00000340: 4c8d 0d3f 72b0 d6bd d164 7abb 1d68 0ebf
00000350: 2a6b cbbb 7ed3 8a3f b043 9cbd 4cbe 2f3e
00000360: 93b5 3ebe 3814 de3b eaa4 aa3c 5461 333e
00000370: 24eb 593d 1cf6 a7bb fb9b 7abe a073 063f
00000380: 6a40 54bf 7fdf a0be d2cf 3abf c02e 68bf
00000390: 0915 003e 6003 c53a b4e1 cc3d 3876 da3d
000003a0: 8401 e83e 70ac 54bc 772e b03d ab14 ac3d
000003b0: 68d5 c2bc e8d8 9e3d 5951 21bf 10e1 b63d
000003c0: f031 943e c063 803e 0c75 283f 87f8 b33d
000003d0: 6c0e 9bbb 605c 733c 4b21 0bbd 7407 b5bf
000003e0: 3005 353f 381a a13e 8287 193f 0a75 d0bd
000003f0: ab46 b33d 554f 833c 45da f7bc 5470 ec3e
1.1200669 0.45588678 1.1657014 -0.28308934 0.19426373 -0.6006091 -0.025475603 -0.59254473
-1.1521239 -0.1066044 -0.6390645 -0.7413344 -0.13110924 -0.18459678 -1.8341995 0.19265145
-0.08519636 -0.20244609 -0.14396453 -0.0048899804 1.3267529 0.1686866 0.006165753 -0.15452611
-1.4608908 -0.09630321 0.92856145 -0.1794051 0.005267158 0.0061204787 0.031667702 -0.002598346
-0.33883047 -0.14802742 0.17545621 0.41499746 0.1481767 -1.053819 -0.4795288 0.0137686655
0.0303144 0.091414556 5.009242e-05 -0.23650129 -0.093898825 0.05536476 -0.012736216 -0.04453664
-0.0064091585 0.071638435 -0.061394006 -0.030122135 -0.02432403 -0.25818622 0.34103394 -0.11659548
-0.09699461 0.016015444 0.2389313 -0.017740976 -0.30980873 -0.4739857 -0.019450683 -0.0018946091
-1.0455688 0.67300487 0.6977771 -0.015551344 0.43745476 -0.013863564 0.10672338 -0.09650025
0.21081291 -0.33127138 0.16564482 0.0040963828 -0.71534455 -0.5180733 0.047947228 0.1383954
0.34881133 -0.095745265 -0.24208447 0.14292885 0.049364567 0.1030526 -0.09141427 1.5067871
-0.021295043 -0.25479385 0.20508358 0.20072947 -0.06174559 0.17747499 0.7456111 -0.042725895
-0.085265845 0.21219593 -0.96654475 0.0066311657 0.04967729 -0.40179116 0.12608212 0.14731525
0.19495258 0.5897099 0.69898325 0.07266756 0.5126438 0.34569818 -0.04278049 0.10659809
-0.063265346 0.0036780217 1.0858159 0.035753664 -0.13230513 -0.8813083 0.06596887 -0.07284788
-0.017286442 -0.066010915 0.016081713 0.19746497 0.0094750095 0.40143648 -0.35493565 0.23634428
0.038275447 -0.2943776 -0.008669112 -0.036003157 0.7328467 0.03726916 -0.06153679 -0.31080854
-0.17841214 0.021020537 -0.089448646 -0.011437956 1.1943438 1.7676075 0.11477974 0.29006237
0.7694061 0.21469927 -0.15471712 0.616601 0.09694427 0.0058505908 -0.03449399 -0.16418195
-0.18357512 -0.02831251 -0.13801324 0.53078336 0.3197611 0.8470276 -0.7805428 -0.37626833
0.035422716 -0.0016303398 -0.10525142 0.34359697 -0.008548889 0.10941197 0.42076597 -0.58278084
0.0069698063 -0.37046254 0.2197729 0.04609102 -1.1473117 -0.4776994 0.53107643 -0.008537788
-0.13556227 0.001021488 0.17536843 -2.0056205 0.7298311 0.82017964 0.26876754 0.4221208
0.12177877 0.22619528 -0.53676367 -0.024745956 0.11701379 1.332048 -0.26942948 -1.7686837
0.58205366 -0.019467631 0.45047563 -1.4096901 0.05809331 -0.59998614 0.026598096 0.20169623
-0.99147475 0.09328304 -1.3110551 0.028055817 -0.1202229 -0.07963738 0.094563656 -0.009732313
0.55293727 -0.10482873 -0.0038207064 -0.55627614 -0.0062078433 1.0845792 -0.07630098 0.17162436
-0.18623953 0.0067773126 0.02083059 0.17517596 0.053202763 -0.005125774 -0.24473564 0.5252018
-0.8291079 -0.31420514 -0.7297336 -0.90696335 0.12508024 0.0015030913 0.10003987 0.1066708
0.45313656 -0.012980565 0.086026125 0.084023796 -0.0237834 0.07756215 -0.6301475 0.08929646
0.2894435 0.25076103 0.658036 0.08787637 -0.004731944 0.014853567 -0.033967298 -1.41429
0.7071104 0.31465316 0.59972394 -0.101785734 0.08753713 0.01602904 -0.030255446 0.4617945

bias f4 [86]
00000000: d0c5 593b f21a 91be f8de 4bbf 9970 bebd
00000010: 563f 7abc 8ee7 b53e 055e 68bf 0e09 8c3d
00000020: 0373 54be f6ae cc3e c07b 223b 741b 48bf
00000030: 8429 51bf 4051 babf 58d9 93bb e0b8 433c
00000040: fc77 88bf c8d9 233e 5058 f9bb 7521 763e
00000050: 004b 6839 2697 383d 35d0 a8bd 5e82 a53d
00000060: 8032 533a 8010 883f 761e 05bd 15f5 a13e
00000070: 8781 093d 0069 bfbd c0b4 cb3f cd96 813d
00000080: c4e2 4f3f 9e15 febd 6e7b 9c3c 2c1c 1d3d
00000090: 3216 a1bd c689 debd 66fd 113d f0ab 883d
000000a0: 8290 a9bf 9651 983c bd8f 243e 1988 ffbf
000000b0: 70a8 643d 1a67 a53d 8886 81bc 22be febc
000000c0: 529a 133f 9399 433e 68f8 213c cf86 af3e
000000d0: 629b 273f ad1d b13e ab90 8bbe fa00 8c3c
000000e0: 1369 99bd a013 f43a 91b4 c0be 8d9e 7fbf
000000f0: 05e7 8abd f912 733d 195b 493e b2a8 4cbe
00000100: 8c60 21bf 10c5 b9be c586 3cbe e6c3 3cbe
00000110: 209e 80bd 3c36 44bf ba61 cbbb cd87 c43e
00000120: 5fa9 9e3d 521d b33e f153 0c3f 4bf5 1c3e
00000130: 98b8 c43e bf68 7b3f edc7 1dbe 829a d3bc
00000140: a394 983d ce4f 1fbf 5cf4 c53d 4344 38be
00000150: f27f 693e 8fc1 81be
0.0033229478 -0.2834087 -0.796371 -0.0929882 -0.0152738895 0.35528225 -0.9076846 0.068376645
-0.20746998 0.39977235 0.0024793 -0.7816689 -0.8170397 -1.4556046 -0.0045119934 0.011945933
-1.0661616 0.16001046 -0.0076094046 0.240362 0.00022153184 0.04506602 -0.08242837 0.08081506
0.00080565363 1.0630035 -0.032499753 0.31632295 0.033570793 -0.09346199 1.5914536 0.06327591
0.8120539 -0.12406467 0.019101825 0.038356945 -0.078655615 -0.10866122 0.03564205 0.066734195
-1.3247225 0.01859359 0.16070457 -1.9963409 0.055824697 0.08076306 -0.01581122 -0.031096522
0.5765735 0.19101553 0.009885885 0.34282538 0.6547147 0.34592953 -0.2725881 0.01709031
-0.074907444 0.0018621571 -0.3763776 -0.99851304 -0.06782345 0.059344266 0.19663657 -0.19986227
-0.63037944 -0.3628316 -0.18410785 -0.18434104 -0.0628016 -0.76645255 -0.0062067183 0.38384858
0.07747149 0.34983307 0.54815584 0.15327947 0.38422084 0.98206705 -0.15408297 -0.025830511
0.07450225 -0.6223115 0.096657485 -0.1799479 0.22802714 -0.25342986

weight f4 [86, 86]
00000000: 6c2f 793d f50a 7cbc 24a9 b8bc 0d1c 9abe
00000010: 3c07 b93c d8e7 433c b2a3 373e d2d2 cd3d
00000020: 6f69 39bd 2078 f2bb cf6a 7b3d 4f67 5abe
00000030: ac02 9d3b 18dd c83b 6e6d bcbd 3f51 16bd
00000040: 5295 a9bc a3d3 65bc 66b1 8b3c 29b5 68bb
00000050: d05b 983d 26cf 683d 4424 123b 816d 56ba
00000060: 15b2 0f3d 2421 09bc 032b 13bd 2088 5b3e
00000070: 35c4 863d 9853 043e a6b3 bf3d c07e 94ba
00000080: 7331 fa3e 999b 8abd 7e24 2d3e 521c 51bc
00000090: c33c 82be 701e e8bb ac8d ac3d 743c 27bd
000000a0: e06f 06bd e82a 22bc 0f3f e73c d638 873c
000000b0: c254 debc 2808 d03b 697f 01be 94a9 b83b
000000c0: 2065 5abb e85b 9dbc 9cfd dd3e 4067 8bba
000000d0: 0a5d 10be d6c5 a63d 4eb2 be3d 5652 1b3b
000000e0: 5fa5 e5bc fc87 623e bce3 f3bb bf0c 8fbd
000000f0: ddd0 e7bd 5f75 883d 2c50 b83c 8850 d73d
00000100: f0e5 403b bcb2 ae3a 69f3 b0bb 70f3 b63d
00000110: f826 49bc 7146 2bbe 04ac bdbe f01e edbd
00000120: 981a c339 4a71 46ba b837 8fbd afc3 cd3d
00000130: 1e87 853d 6075 33bb e48f 713d a6f6 9bbc
00000140: 000f 4aba 7df5 afbb 320e 2d3e 2e8c 41bc
00000150: b007 59bc 4533 8b3e a03b 2e3e 9041 cfb8
00000160: b0cb adbc 70ff 8dbe c7d4 80bd aee5 b23d
00000170: f22b 133f d939 bfbd 610f 7e3d ffd0 cdbe
00000180: c1bb 65bc 21b6 d6bc 2868 18bd ac7b fcbc
00000190: 707b 9b3b 2931 e7bd 08d0 bc3b 56e6 5abe
000001a0: 1228 fabe fe1d 32bf 36ab 0c3e 7ec1 9a3d
000001b0: 3d1c f63b 9b5e 24be ee2a c83c 100a baba
000001c0: d822 c53a ab09 b03d c94c 16bc b489 d43b
000001d0: 5689 b83d 82ac 863d 40ea 25bb c0df 883a
000001e0: ca25 ca3e 7870 413c 088b 15bb 08fc 193c
000001f0: 043b 2d3e 09e7 a43d 7903 d93c 7cd0 b8b8
00000200: dc93 b73c 8882 383c 40cd 563e 288d 303e
00000210: 9409 43bd 0a13 83be 9ba0 4fbd 54cc cfbc
00000220: 5266 253d 344e 283d b459 22bc 190f dcbc
00000230: 8d9a 2fbe 7b5f bb3c 2bc7 4c3b 5e45 133d
00000240: 3e56 5a3d 743c 4f3c 16e9 60bd e165 0fbe
00000250: 9624 abbd afa1 cabd 97c2 d8bd bcce dabb
00000260: 4834 4bbe 7c3f 8f3c e69c a0ba 3051 063d
00000270: d248 7a3b 9e47 1abe d133 eebb e5a1 1bbb
00000280: 699f 8abb 5e2a ffbd 9e04 d5be 384b a53b
00000290: 4ec7 9e3d 4ee5 f93d 7e5a 0dbe ef83 d7bd
000002a0: f2e6 aabc 74b8 753c cc61 0cbc cae2 e53c
000002b0: 063e 9ebc 9355 113d eade 6b3c 8c38 aabd
000002c0: caed 8f3d 7b2f 063d c0ad e436 0b07 3ebd
000002d0: a2db fa3d fafb ce3d 3ee9 2b3d d8b6 f73d
000002e0: 32f5 f03d 7d63 2abd d0e1 e63c f232 23bd
000002f0: f6bc 17bc bf9f d5be dd3f 233c 30a8 5bbd
00000300: 4c36 d33d 2036 77bc 92cf 603c d1a7 5abd
00000310: 47f5 acbd 40d2 1abd c4a1 bd3d 651a 18be
00000320: 7045 1dba dc02 5c3d 4659 8ebd ffd1 173d
00000330: 6f17 e23d 8c9f 823d 06ca 92bd d339 71bc
00000340: 1db0 b93e 4cd2 3fbd 3884 a0bb 7e67 c03c
00000350: 31cf 00bc 6ceb 81bc 9658 103e a9d9 ca3c
00000360: 695e 363d f806 9d3e 0b71 22be 8e2d b3bd
00000370: fc47 4fbe 46ac 5abe 386f 593e b401 27bd
00000380: f1ef 7ebc b7cc debc dc3d 1db8 aaa4 b6bd
00000390: 5dc9 563d a336 a93d 3cfb ea3b a427 423d
000003a0: 6c31 33bc 20ee 083b f94a 303d 2e2d edbc
000003b0: 80b4 e03d 9726 87bd b235 cb3c 1880 213d
000003c0: 55a1 bcbd 5d0f 19bd 0312 563d 36eb 983d
000003d0: 9e66 b7bd e93b a53d 7442 b23d e8f0 2a3c
000003e0: 765c 31bc 9e65 11bd 68fc 2a39 165e 21be
000003f0: 9e45 ea3b 1df7 0abe d823 d4be 3938 893e
0.06083624 -0.015383472 -0.02254159 -0.30099526 0.022586457 0.011957131 0.17933539 0.100499764
-0.045266565 -0.007399574 0.061381157 -0.21328472 0.0047915783 0.006129872 -0.092005596 -0.036698576
-0.020701084 -0.014027509 0.017052364 -0.003550837 0.07439387 0.056838177 0.0022299448 -0.00081797695
0.03508194 -0.008369718 -0.03592969 0.21438646 0.06580392 0.12922513 0.09360437 -0.0011329278
0.48865852 -0.06767959 0.16908452 -0.0127631 -0.25436983 -0.0070837066 0.08425459 -0.040829137
-0.032821536 -0.009897925 0.02822831 0.016506594 -0.027140025 0.0063486286 -0.1264626 0.0056354497
-0.0033324435 -0.019208863 0.4335755 -0.0010635629 -0.14097992 0.08143203 0.09311353 0.00237002
-0.028032957 0.22122186 -0.0074429195 -0.06984853 -0.113191344 0.06663012 0.022499166 0.10513407
0.0029433928 0.0013328413 -0.0054001105 0.08933151 -0.012277357 -0.1672609 -0.370453 -0.115781665
0.00037213112 -0.0007569982 -0.069930494 0.10047089 0.06519912 -0.0027383193 0.058975115 -0.01903851
-0.00077079237 -0.0053698407 0.16899946 -0.011813207 -0.013246462 0.27187553 0.17014933 -9.882741e-05
-0.02121529 -0.27733946 -0.06290584 0.08735214 0.5748893 -0.093372054 0.062026385 -0.40198514
-0.014021815 -0.026209893 -0.037208706 -0.03082069 0.0047449395 -0.112886734 0.005762104 -0.21376929
-0.48858696 -0.69577014 0.13737187 0.07556437 0.0075106905 -0.16051714 0.024434533 -0.0014193673
0.0015040291 0.08595594 -0.00917358 0.006486142 0.0901057 0.06575872 -0.0025316626 0.0010442659
0.39481956 0.0118066 -0.0022818465 0.009398468 0.16917044 0.08051879 0.026490914 -8.812637e-05
0.022409372 0.01126159 0.20976734 0.17241347 -0.047616556 -0.25600463 -0.050690275 -0.025365986
0.040380783 0.041090205 -0.009909082 -0.026862668 -0.171488 0.022872677 0.0031246643 0.035954826
0.053304903 0.0126486905 -0.054909788 -0.14003707 -0.083565876 -0.0989412 -0.1058399 -0.0066774767
-0.19844162 0.017486326 -0.0012253791 0.03279227 0.0038190377 -0.15066382 -0.0072693606 -0.002374762
-0.004230429 -0.12459253 -0.41605085 0.005044367 0.07752858 0.122019395 -0.13804051 -0.10523211
-0.020862076 0.01499759 -0.0085682385 0.028062243 -0.019316684 0.035482 0.014396409 -0.08311567
0.070277765 0.032760125 6.8151567e-06 -0.046393435 0.12248923 0.101066545 0.041970484 0.120954216
0.11765517 -0.041598786 0.028183848 -0.039843507 -0.00926136 -0.4172344 0.009963957 -0.053627193
0.10313091 -0.015088588 0.013721364 -0.0533827 -0.084452204 -0.037798166 0.0925937 -0.14853819
-0.00059994217 0.053713664 -0.06950621 0.037065502 0.11039626 0.063780874 -0.07167439 -0.014723259
0.36267176 -0.046831414 -0.004898574 0.023486849 -0.007861898 -0.015859328 0.14096293 0.024761992
0.04452363 0.3066938 -0.15863435 -0.08748923 -0.20242304 -0.2135478 0.21233833 -0.04077311
-0.015560136 -0.027197225 -3.7489328e-05 -0.08918126 0.05243813 0.08262374 0.0071710628 0.047401085
-0.010937076 0.0020893887 0.04304025 -0.028952207 0.10971928 -0.06599157 0.024805877 0.0394288
-0.09210459 -0.037368167 0.05226327 0.07466738 -0.089551196 0.080680676 0.08704081 0.010433413
-0.010825267 -0.0354973 0.00016306492 -0.15758547 0.0071494123 -0.13570829 -0.41433597 0.26800707

bias f4 [86]
00000000: c258 553c f9e2 873e 9246 e2bd f6e7 5bbd
00000010: f82d 8ebb aa22 cfbd a281 3abd 129a 83bd
00000020: 7591 0c3e e8c2 9639 1d5d 57be 0a67 14ba
00000030: 3912 ddbc fc55 9cbe 6f87 2e3b b0c2 d63a
00000040: d9e6 52bb 0814 d8bd 3cd1 a0ba 0447 e03c
00000050: 308f b8bc 2588 b4bc 6757 cf3d ab10 c5bd
00000060: 4c2f 8e3b 38e1 03bb 68a0 9c3b 9c50 99bc
00000070: ba5f ecbd fce4 8a3c 255f b3bd c43f debb
00000080: 6e07 bc3b d3ab db3d 102d 073e 5048 06bd
00000090: 53e6 153c 6833 263b 83a5 9abd 9816 f23b
000000a0: 60e8 d5b9 6c25 20bd 108f 963d e0b2 80bc
000000b0: a600 983d aecf 673e 67b0 a33d 4c9e 4c3d
000000c0: b4c0 383d 1148 81bd bbc9 4abe 8a22 c9bd
000000d0: 1b08 c8b7 7c6c 1bbc 7899 ef3a 14c2 bdbd
000000e0: 7cd5 093d cc9a 0e3b b617 13be 5c34 243b
000000f0: 2c70 9e3b d37d b9bd 058b 843d 945b 3ebe
00000100: 9543 4d3b 6872 d9bd 68e5 ae3d a2c8 4eb9
00000110: 3296 3abb d6f3 a13d ec6a 90be 2215 dd3a
00000120: 2c58 bfbc a08f 9dbb a0b3 273c 8ec6 a03b
00000130: 4a21 943d edf0 3e3d 22a3 723d d4f7 f3be
00000140: 9765 7dbd 00bb 793c 5471 373c 6eab dc3b
00000150: 10ff 27bb 88f9 623e
0.01302165 0.26540354 -0.110486165 -0.053688012 -0.004338976 -0.101140335 -0.045533784 -0.06425871
0.13727362 0.00028755446 -0.21031614 -0.0005661106 -0.026986228 -0.3053435 0.0026631018 0.0016384926
-0.0032181053 -0.10550696 -0.0012269388 0.027377613 -0.022529215 -0.022037575 0.101240925 -0.0962232
0.0043391343 -0.0020123255 0.004779864 -0.018715195 -0.11541696 0.016954891 -0.08758382 -0.006782504
0.0057381904 0.10726132 0.13200784 -0.032783806 0.009149152 0.002536023 -0.075511 0.0073879473
-0.0004079966 -0.03909819 0.07351506 -0.015710294 0.07421999 0.22637817 0.079926305 0.04995565
0.04510565 -0.06312574 -0.19803517 -0.09821041 -2.3845632e-05 -0.009486314 0.001827999 -0.09265533
0.03365086 0.0021759747 -0.14364514 0.0025055623 0.0048351493 -0.09057202 0.06471828 -0.18589622
0.00313208 -0.106175244 0.085398495 -0.00019720432 -0.002847087 0.07907836 -0.28206575 0.001686726
-0.023357473 -0.004808381 0.010235697 0.004906482 0.07232912 0.046616483 0.059237607 -0.47650015
-0.06186446 0.015242338 0.011196453 0.006734303 -0.0025634207 0.22165501

weight f4 [86, 86]
00000000: 103f 3a3c 274c 203e c291 b43c e892 bd3c
00000010: daae 0b3e cfad 513d 2fe4 bebb b677 04be
00000020: 569b 153d 123b 2e3c 89e1 0dbd 50ba ccbd
00000030: c7a3 5fbc b894 14bc d26a d8bd 8ae6 43be
00000040: 061b 85bd 6041 70b9 4699 993d 4c96 af3d
00000050: dc10 3c3d 259f b73e f82b db3c 60f7 45b9
00000060: cecf b03a d65a 5d3c 3a36 c93c 7804 6bbb
00000070: ac28 6abd 887d 193c 7e3a 8b3d 02d7 05be
00000080: 8001 35bc 32a7 453a e80e 063e b487 eabd
00000090: a461 32bd 1ae4 6c3b 27d9 233c bf05 95bd
000000a0: 306a 013d d87a 01bb 36c3 bbbd 3294 17bd
000000b0: d1f4 143e 8775 86bd 0edd 0bbf 9829 d33d
000000c0: 4988 a4bd 8691 d73d d066 c6bb edb6 1b3d
000000d0: a222 3fbe 2ece 63be e24e 313e 74d3 943b
000000e0: c217 7cbc 00b4 053a 6cc7 63be 1cea 15be
000000f0: e6f6 53be 6f88 efbc 14ae 473e 70d2 583d
00000100: 7c14 dd3c 42cd c53c f65d 5ebd 07e2 2aba
00000110: 52e0 28ba d780 053d 08ee c6be 4af6 be3d
00000120: e570 a3bd 2690 74bd 8f49 b0bc dd06 9ebd
00000130: 3808 343c c9f3 b13c 445b 0cbc 201a 95bc
00000140: 65a6 38bc 37ea 153c 48e9 d33b b4e8 93bd
00000150: c7c4 e93b 5821 4fba 56ab 873c 19ed debd
00000160: a094 013c eb05 0b3c f513 eeba b676 72ba
00000170: f9cd 8b3d ee6a 733d c5f3 853e c056 b03a
00000180: 51bd 8abc 4376 51bc 87d8 0abe 1788 b4be
00000190: 9e83 7cbc 2009 d639 643d 7bbc ec22 08be
000001a0: 30da 81bc 3cec 9dba 1833 cfbd 80e3 a9ba
000001b0: 8dd9 a5bc 20c5 fe3c a01d 82bd 1c7d eebe
000001c0: 0821 bb3d ccb3 ffbc 0064 bb3b 36b3 6fbb
000001d0: 2865 0f3e 6c0e d9bd 4d7f 26bd d485 aa3d
000001e0: 5dee bcbd 9856 d7bd 5cbb 51bd 96af 3a3c
000001f0: e8e5 913c 11df 353e 72ca 0b3f 3e44 96bb
00000200: 1023 5aba f8c4 c2bb e6de 9abb 6668 87bd
00000210: 3029 28bd dcd3 243b 804a 2c3b 48ca f43a
00000220: 085f a7bd 1ad4 87bc e24f 293d 877d 97bc
00000230: 5509 14be 9f3f 253c c03b 453d 5c4c c0bd
00000240: 20c0 dc3c 1c2f 593e 38a1 c7bd d657 f0bc
00000250: 10ca 29bb 9cb6 fa3c 52f2 a2be 1837 d83d
00000260: 663d abbd f3d5 983c aefb 15bd 6824 0838
00000270: 3297 7f3d 83b6 3fbd 43c4 1bbe e6c8 bf3d
00000280: 04b7 803d 96ae b3bb e601 96ba 7221 c63b
00000290: 277f 673d 20c3 19bb f200 ea3c 08bc 523e
000002a0: 0848 2bbc 8d8a cebd 2806 2a3c f85c 86bd
000002b0: 34ca d63c b1b7 3cbd 8017 32bd 32d8 e2bd
000002c0: e30d 8ebd 73d8 2c3d b00a 5f3c 4629 2b3e
000002d0: 48b1 ea3d 2653 61be 2e0a a0be 873d 0e3e
000002e0: acea c03b b559 70be 8234 f13d 9d49 883d
000002f0: ce0a ab3d 2bb8 0d3d 8313 d7bd 311d 013b
00000300: dc4f 8dbd 8e13 693d 64e3 483e 6c16 95bd
00000310: eec8 223c 0060 64bc 9ad9 593c 7601 0d3e
00000320: 6d39 05bc a6e9 a3bd 8008 00be a22b 88bb
00000330: f9b0 483c 786e aaba 6484 c83b 6863 30bd
00000340: 10ce ffbc a855 a23b f2c0 00be 34df 223e
00000350: 6fe4 55be 1d8e 44bd d020 09bb 586a 883d
00000360: e24e ba3b 5d0a ba3e 69a7 6bbe acbe 14be
00000370: 38e0 2bbc a3b7 76bc 7fe8 f93b 9e1e 39bc
00000380: f0ab 96be 97c7 62bd b8a5 c7bd 5acc 03bb
00000390: ea39 913c 32ff 8ebc 962f 4ebe 6d4b 9b3c
000003a0: 46ac ac3d 90c8 95bb d57c d3bc c01f 0abc
000003b0: 95f6 59bd 4024 653e 9db7 d33b 4c42 f53d
000003c0: be89 c73d 37e3 5ebe 3a88 3abe 0c8f ae3d
000003d0: d00f 2a38 1eb5 e63c 000d e43b 0ace 903d
000003e0: 202e 903b 4a25 41bc 9e4b 9e3c cea2 73bd
000003f0: 6280 d83c a0e0 bcbb de5c 643c e6f9 10be
0.011367574 0.1565405 0.022042159 0.02314134 0.1364092 0.051191147 -0.0058255414 -0.12936291
0.036525093 0.010634201 -0.034638915 -0.09996474 -0.013649887 -0.00906866 -0.10567249 -0.19130912
-0.06499295 -0.00022912538 0.07499938 0.08573589 0.045914516 0.35863605 0.026754364 -0.00018879538
0.0013489665 0.0135104265 0.02456199 -0.0035860818 -0.057167694 0.009368308 0.06798266 -0.130703
-0.011047721 0.00075398677 0.13091624 -0.114516646 -0.04355015 0.0036146701 0.010000504 -0.072764866
0.03159541 -0.0019757058 -0.09168093 -0.037006564 0.14546515 -0.06565385 -0.5463418 0.10310668
-0.08033807 0.10525803 -0.0060547367 0.03801625 -0.18665555 -0.2224662 0.17315248 0.0045418087
-0.015386524 0.00051003695 -0.22244042 -0.14640087 -0.20699653 -0.029239861 0.195 0.052935064
0.026987307 0.024145726 -0.054288827 -0.0006518666 -0.0006442118 0.032593574 -0.38853478 0.0932432
-0.07980517 -0.059707783 -0.02151945 -0.07716153 0.010988288 0.021722691 -0.008566681 -0.018200934
-0.01127014 0.009150079 0.0064670183 -0.07222119 0.0071340534 -0.0007901392 0.016561192 -0.108850665
0.00790897 0.008485298 -0.0018163907 -0.00092492567 0.068263955 0.059428148 0.26162544 0.0013453588
-0.016935976 -0.012784543 -0.13559161 -0.35260078 -0.015412239 0.0004082406 -0.015334461 -0.13294572
-0.01585111 -0.0012048553 -0.10117167 -0.0012961477 -0.020245338 0.031099856 -0.06353307 -0.46579826
0.091371596 -0.031213664 0.005718708 -0.0036575324 0.14003432 -0.10598454 -0.040648747 0.08326307
-0.09225152 -0.10514563 -0.05120407 0.011394402 0.017809823 0.17760874 0.5460578 -0.004585772
-0.0008321265 -0.0059438907 -0.0047262786 -0.06611709 -0.041054904 0.0025150692 0.0026289523 0.0018676007
-0.08172423 -0.01658063 0.041335948 -0.018492473 -0.14456685 0.010085969 0.048152685 -0.093895644
0.026947081 0.21209377 -0.09747547 -0.029338758 -0.0025907792 0.030604653 -0.318255 0.10557383
-0.0836132 0.018656706 -0.036616974 3.2458833e-05 0.06240005 -0.046804916 -0.15211587 0.0936449
0.062849075 -0.0054834587 -0.0011444658 0.0060464675 0.056517746 -0.002346225 0.028564904 0.2057954
-0.010454185 -0.1008502 0.010377444 -0.06560701 0.026219465 -0.04607362 -0.043479443 -0.11076392
-0.069362424 0.04219861 0.013613388 0.16714963 0.11459595 -0.22004375 -0.31257766 0.13890658
0.00588735 -0.2347172 0.11777593 0.066546656 0.0835167 0.034599464 -0.105017684 0.0019701237
-0.068999976 0.056903414 0.19617993 -0.07279667 0.009935601 -0.013938904 0.013296509 0.13770089
-0.008131367 -0.08003549 -0.12503242 -0.004155592 0.012249225 -0.0013002893 0.006119298 -0.04306355
-0.031226188 0.0049540587 -0.12573603 0.15905458 -0.20887922 -0.047987092 -0.0020924099 0.066609085
0.005685673 0.36336032 -0.2301308 -0.1452586 -0.01049047 -0.015058431 0.0076265926 -0.011298804
-0.29428053 -0.055366125 -0.09748405 -0.0020110817 0.01772781 -0.017455671 -0.2013534 0.018956864
0.08431296 -0.004571028 -0.02581636 -0.008430421 -0.053213675 0.2237711 0.0064610974 0.11975536
0.09743069 -0.21766363 -0.18216029 0.08523378 4.0545885e-05 0.028162535 0.0069595575 0.07070549
0.00440003 -0.011788676 0.019323166 -0.059481435 0.026428405 -0.005764082 0.013938157 -0.14157829

bias f4 [86]
00000000: 821e bd3a 8733 8fbc ce3f 1dbd 9e63 1fbc
00000010: b845 d4bd 5b65 60be 17ec 3cbd ea17 213f
00000020: 9d91 9bbb a329 6dbd 8ec8 0abe f416 403c
00000030: 5ce5 02be f864 2cbc 20de 793e e252 d8bd
00000040: b76e e1bb 4021 31ba 245c bf3b 265b 9abb
00000050: 56c0 643d 0815 64bc b615 643e 9836 ec3b
00000060: f89d cf3c 7ff5 1e3e 5497 1d3d af9a 0cbe
00000070: 349a d0bc b616 adbb 884c 6d3e 9814 cd3c
00000080: 900c da39 60b1 bd3a aa34 633e 10ae 05bd
00000090: 7d34 debe 44e9 ddbe 8c75 2a3b 740f 4bbc
000000a0: 163e 01be 6aa2 a33c 3de2 093d ba91 57bc
000000b0: 082e 1bbc 724b 863c b472 c5bc 2536 9dbe
000000c0: c9fc ee3b 44b6 5fbd b88a 093b c01b 1b3c
000000d0: f496 ed3c 929c 57bd 1097 b5bc 5001 8c3c
000000e0: 2126 50bd 5a1d ddbb b0b2 81bd 9081 f9bc
000000f0: 32d0 85bc e0e1 d13b 7eb5 8e3e 3c9b d03c
00000100: f279 d7bc 5e30 0fbe 50e8 44be dc82 44bd
00000110: c65e cebd da2f 56bc 46b0 23bb a64b 26bb
00000120: 0042 af3d 605c 4e3c c880 0dbd 0133 143e
00000130: 29f8 3f3e 64ef 14bd 8056 d33c 6729 73bd
00000140: 7a5b a73d 227b d73e 8e70 f0be 286f 463c
00000150: 5388 923e c53d 15be
0.0014428648 -0.017480625 -0.038390927 -0.00972834 -0.1036486 -0.21913664 -0.04612359 0.62927115
-0.004747583 -0.057901036 -0.13553068 0.011724222 -0.12782806 -0.01052212 0.2440114 -0.10562684
-0.0068796533 -0.0006756969 0.0058398414 -0.004710573 0.05584749 -0.01392103 0.22273907 0.0072086565
0.02534388 0.15523337 0.038474396 -0.13730882 -0.025464155 -0.0052822484 0.23173726 0.025034234
0.0004158956 0.0014472418 0.22188058 -0.032636702 -0.4339942 -0.4334203 0.0026010005 -0.012393821
-0.1262134 0.019974906 0.033663023 -0.0131573025 -0.009471424 0.016393397 -0.024102546 -0.30705371
0.007293318 -0.05461718 0.0020987224 0.009467065 0.029002644 -0.05263955 -0.022166759 0.01709047
-0.050817613 -0.0067478837 -0.0633291 -0.030457288 -0.016334627 0.0064051 0.27872843 0.025464647
-0.026303265 -0.13983294 -0.19229245 -0.04797636 -0.1007667 -0.013072932 -0.0024976893 -0.002537468
0.085575104 0.012595266 -0.034546643 0.14472581 0.1874701 -0.036361113 0.025798082 -0.059365656
0.08171745 0.4208613 -0.46960872 0.012111463 0.28619632 -0.14574344

weight f4 [1, 86]
00000000: 24c4 24bd c08e c6bc e200 943d 1ead a2bc
00000010: fcb5 893b b877 2a3e 2015 083c 8497 c0bd
00000020: ae1a 9c3c e9b4 253d 5790 88bd 3326 e3bd
00000030: 3086 053a 0858 073d 96c8 1bbb 0b58 1b3b
00000040: c084 53bb 07ad 33be 3185 e63d 51a1 503b
00000050: 56a7 a33d c8b7 263c e182 c1bd 6c75 79bc
00000060: d490 22be b06f 753d 1825 9c3b d0fa 6ebd
00000070: 7c48 0f3d 2e08 413c 0f93 1a3d 10d6 c53b
00000080: 5ee3 c6ba 58ba 08be bc58 843d c0e0 b33a
00000090: daaf 40bd 0282 a53c fc54 86bb 737a a9bd
000000a0: 6a8b 03be 0ab7 fbbd 2716 82bc 7dcf 68be
000000b0: 9aa1 0fbd f488 54bb 9222 a5bd d673 91bc
000000c0: 2ac6 0c3d 80d6 8dbb 54b0 6c3c e55d 43bc
000000d0: 969d 343d 1ea7 6b3d dcce 883d 3494 05bb
000000e0: 90ee ee37 6a68 11bc 9096 e2bb c075 0abe
000000f0: 0ad1 af3c 96a1 98be f2ed 7d3b 9875 a8bc
00000100: 0441 86ba 80dc 193b 5c53 c93c ffdf e63b
00000110: 3c0f f7bc 8b06 83ba 5886 05bc c377 8739
00000120: ea8a 4d3d 3aff 253c 4860 1d3d 7f67 b9bd
00000130: 2f90 e03b 4620 28bc 71ce 1c3d c092 48bb
00000140: 34ec e13e 2d1c dc3d dee7 543b 192f 1c3c
00000150: ca02 2a3e d832 cbbb
-0.040226117 -0.02423799 0.07226731 -0.01985794 0.0042026024 0.16647232 0.008305818 -0.09403899
0.01905569 0.040455732 -0.06668156 -0.1109127 0.0005093543 0.033042938 -0.0023770682 0.00237036
-0.003227517 -0.17546473 0.11255873 0.0031834433 0.07990901 0.010175653 -0.09448791 -0.015225749
-0.1587556 0.059920967 0.004765164 -0.058344662 0.034981236 0.011781735 0.037737902 0.006037481
-0.0015173962 -0.13352334 0.06462237 0.0013723597 -0.047042705 0.020203594 -0.0040994864 -0.082753085
-0.12846151 -0.12290771 -0.015879704 -0.227354 -0.035066225 -0.0032430263 -0.080632344 -0.01775543
0.03436867 -0.004328549 0.014446337 -0.011924242 0.0440956 0.057532422 0.0668008 -0.0020382525
2.84829e-05 -0.008874992 -0.006914921 -0.1352148 0.021461982 -0.2981078 0.0038746563 -0.020563886
-0.0010242765 0.0023477376 0.024575882 0.0070457454 -0.030158632 -0.0009996457 -0.008149706 0.00025838436
0.050181307 0.010131652 0.0384219 -0.090529434 0.0068531255 -0.010261601 0.038282815 -0.0030605048
0.4412552 0.107475616 0.0032486836 0.009532713 0.16602626 -0.0062011294

add_tensors f4 [86, 6]
00000000: a06a 2f3f 532f 6bbe a034 6d3f 31f0 08bf
00000010: ba42 993d b030 15be db1a 3fbd 1bcd fcbd
00000020: e0b0 b3be 2100 033f 7b61 89be 2989 ebbd
00000030: 766c 2b3d 9c0b a8bd 4e7c 74bf f40c 2e3f
00000040: fa1f 02bd 816c 73bd fbdb 42bd 2349 853b
00000050: b43d 033f 87f7 b03e 5f58 683c e908 83bd
00000060: ad41 7dbf 7348 66be d05b 1c3f 5d2d 4cbd
00000070: b1cd 5d3e 333e 97bc baa4 5c3c f402 7db7
00000080: edac 2ebe d5f8 7d3d 4778 54be 08a8 cabc
00000090: 4fe3 dc3e b544 07bf 8030 51bf 8592 d63b
000000a0: 36f7 bf3d 4f80 a63e 8f1d 32b9 92e4 dabd
000000b0: d943 903d 9147 2dbd 2201 d4bd 43b1 d2bd
000000c0: 5c90 84ba a2b6 96be c0e5 013e 1557 323d
000000d0: 0037 c8bb 2bcd 4c3e d2e8 b13f 1c6b 88be
000000e0: 1675 c03e ed3f 17bb 9f25 263d dc4c 17bc
000000f0: 07b6 46bf 9ab8 17be fe9e bc3c ffa4 5e3c
00000100: 673a a03e 4237 063e e46f cb3e 12da 5a3e
00000110: f530 763e 78a6 a3be 3051 113d 95f2 1cbd
00000120: 2dfa 0ebd f5f9 ccbd e01c e1bc a690 063b
00000130: 7f5b 7cbe 59dc 123d 79b0 d1be 388a 933d
00000140: 99fd 2c3e e7fe 5b3f a348 4b3c 20e2 703d
00000150: 08e7 87bd 96c4 a7bc 79a4 5ebe 162d 863f
00000160: 09c0 c03a cf49 ebbd 4e51 e03d a5cd a33d
00000170: 7f9d c0bc 3d2e f1bc 8f30 d73e 666e c9bb
00000180: c4e6 173e 673f 943d 6b23 90be 7863 f13e
00000190: a6b5 023b a896 9dbe 0f30 7e3d 872c e83c
000001a0: 81de e93d 5780 0b3e bd2e 9c3f 13a5 143d
000001b0: 98ad 903e 01fd 593e b760 afbc 5fdc 5f3e
000001c0: 6241 573d 13c1 b1b8 3f9a 803e 39b7 28bd
000001d0: 0d1c 0e3e c8c7 d6be 3222 88bc 4ecf d13b
000001e0: a2c4 f4bb bfaf 343c 4740 12bd 6870 60bd
000001f0: 1ae6 55bb f625 3a3a a933 19bf e07a 943d
00000200: e9f7 e4bb c0a0 3ebe 2b29 fabc 1937 0ebe
00000210: e34e 983d 4492 e2bd 76e3 c5be 4482 063e
00000220: 173d cebd fdd2 3739 4d23 41bc 6898 8abd
00000230: c39f 193f 157d 6e3f d7a7 9a3e 0ad2 f4bd
00000240: b8d2 333e e0f0 9cbd 2ea8 10bf 03b8 693d
00000250: 5a7a ab3e 04e3 ac3c 63ef b93d 570e e53d
00000260: f388 a4bd 14bf dabb 7962 fa3d 20e6 7b3e
00000270: 6900 4dbe be91 d33e 82f8 a6be dd39 61bc
00000280: 2466 0b3c b0fd 333d b1b9 c43c 841f 3c3e
00000290: 51fa b7bb 3b36 883d 6806 413d 10f9 b2be
000002a0: 1594 993a 542a a73e 5f92 833d cf25 66bf
000002b0: 16f8 23bf eec5 b73e 88a1 a63e ce6d eb3c
000002c0: fd40 8cbd 8d74 97ba 7f51 a9bc 7eb7 7fbf
000002d0: d8eb 993e 95a7 f13e 8456 db3c cee2 763e
000002e0: ff1b 2f3d f6a1 643f 0014 833d d954 69be
000002f0: 0531 8cbc 8dcc c83e cf43 eabd e7c1 9bbf
00000300: 3c5b 76bd ae0e d03a 6e0d ee3d dd7a 8cbf
00000310: eacc 653f e5d1 92bd a5d5 393d 2b70 b83d
00000320: 72ed 31be 48a4 093d c045 70bf 1a76 c33d
00000330: 13f2 8c3e 9af2 e4bc 16ac 683c db8e 94bd
00000340: 2ca8 5d3e f181 513c 4400 01ba 65b9 90bf
00000350: 64b9 783a 7304 b33e 6011 52be 6f1b 983d
00000360: 86d6 eebd 6a28 e23c 599a 5e3d 3eaa b13d
00000370: cac4 403e fbc0 553b 59b7 c3bc 154b 663e
00000380: f068 e9be 3115 8e3e 6f9b 90be ca64 7fbe
00000390: f1f0 1cbe 4b03 063d 5058 493d ae09 723f
000003a0: b4a1 783e 2f3f bf3d 3af8 0d3d 9605 513d
000003b0: c610 1cbe 4f3f 3d3e 3dd2 82be 9864 c8bd
000003c0: ddbe ad3d 9ccf 993d 1c9a e63e 221a 3ebc
000003d0: 5709 33bb 3b3e eb3e 1983 44bc b92f 11bf
000003e0: 2324 bdbe c256 003e c24f ad3f 99b6 013e
000003f0: 93f9 c2bd 68c7 0d3b de13 043c 50f8 803e
0.6852207 -0.22967272 0.92658424 -0.53491503 0.0748343 -0.14569354 -0.04665647 -0.12343808
-0.35095882 0.5117207 -0.26832184 -0.115007706 0.041851483 -0.08205339 -0.95502174 0.67988515
-0.031768776 -0.05942965 -0.04757307 0.0040675565 0.51266026 0.34563848 0.014181226 -0.06398184
-0.9892834 -0.22488575 0.61077595 -0.04984795 0.21660496 -0.018462276 0.013467008 -1.5080663e-05
-0.17058153 0.062004883 -0.20749007 -0.024738327 0.43142173 -0.52839214 -0.8171463 0.006548228
0.093733236 0.32519767 -0.00016986414 -0.106881276 0.07044191 -0.04230458 -0.103517786 -0.10287716
-0.0010113823 -0.29436213 0.12685299 0.04354008 -0.006110072 0.2000014 1.3899176 -0.26644218
0.3758933 -0.0023078874 0.040563222 -0.009234633 -0.776215 -0.14816514 0.023025032 0.013589143
0.31294557 0.13107017 0.39733803 0.2137225 0.24042113 -0.31962943 0.035477817 -0.03831728
-0.034906555 -0.10008613 -0.027479589 0.0020532995 -0.24644278 0.03585467 -0.4095495 0.072040975
0.16893615 0.85935825 0.012407455 0.0588094 -0.066358626 -0.020479482 -0.21742429 1.0482509
0.0014705668 -0.11488687 0.10953008 0.07998208 -0.0235126 -0.029440993 0.42029235 -0.0061471937
0.14834124 0.072386555 -0.28152022 0.471462 0.0019944697 -0.30779004 0.06205755 0.028341545
0.114193924 0.13623177 1.2201763 0.03629024 0.28257442 0.2128792 -0.021408422 0.21861409
0.05255259 -8.4759806e-05 0.2511768 -0.04119036 0.13877888 -0.41949296 -0.016617868 0.0064028865
-0.0074697295 0.011028229 -0.03570583 -0.0547947 -0.0032638372 0.00071009935 -0.5984445 0.07249999
-0.006987561 -0.18616009 -0.030537209 -0.13888206 0.074369214 -0.11063054 -0.386501 0.1313563
-0.10070246 0.00017530839 -0.0117882015 -0.067673504 0.600094 0.9315961 0.30206177 -0.11954124
0.17560852 -0.07663131 -0.5650662 0.057060253 0.33491784 0.021104343 0.090788625 0.11184376
-0.080339335 -0.0066756103 0.122258134 0.24599504 -0.20019688 0.4132213 -0.3261147 -0.013746706
0.008508239 0.043943107 0.024014326 0.18371397 -0.005614557 0.06650969 0.04712525 -0.34955645
0.0011717106 0.3264948 0.064244024 -0.8990144 -0.64050424 0.35893196 0.32545114 0.028738882
-0.06848333 -0.001155512 -0.020668743 -0.9988936 0.30062747 0.47198167 0.026774652 0.24109957
0.04275131 0.8930963 0.06400299 -0.22786273 -0.017113218 0.3921856 -0.11438715 -1.2168549
-0.0601456 0.0015873516 0.11623655 -1.0974995 0.897658 -0.071689405 0.045369763 0.09005769
-0.17375734 0.033603936 -0.9385643 0.095440105 0.27528438 -0.027947713 0.014201185 -0.0725381
0.21646184 0.012787328 -0.0004920999 -1.1306578 0.00094880746 0.34964332 -0.2051444 0.074271075
-0.11662011 0.027607162 0.054346416 0.08675049 0.18825069 0.0032616246 -0.023891138 0.22489579
-0.45587873 0.27750543 -0.28243586 -0.24940792 -0.15326287 0.032717984 0.049156487 0.9454602
0.24280435 0.09338223 0.034660555 0.051030718 -0.15240774 0.18481182 -0.25551024 -0.09784812
0.0848367 0.075103015 0.4503945 -0.01160291 -0.00273188 0.45945916 -0.011994147 -0.56713444
-0.36941633 0.12533095 1.3539965 0.12667312 -0.09520259 0.0021633748 0.008061377 0.25189447

add_tensors f4 [86]
00000000: ed6b 083d 6fd6 17bd 2585 c2be f024 0bbd
00000010: db9a 953b fd89 723e 66cf c3be 830f 573e
00000020: 4048 32bb 8cd2 943d 1456 1abd 96f9 26be
00000030: 0afb b3be edb3 31c0 ef1c 0c3d 6b87 1f3e
00000040: 37cb 16bf f901 583c 41ac ddbd 93f5 0f3e
00000050: 7f67 143c 9c67 863c fe98 19bc d1ea 863c
00000060: d24c 5d3d 9d2e 193f a402 893b 9d73 803d
00000070: 4de8 2c3c 2e7e 913d b217 0f3f ac88 2fbd
00000080: 5a92 ba3f bb41 41bd 4b26 52bc c9c5 f8bc
00000090: 01ee 093d 8ec2 0bbd 2438 4fbd 24b9 8bbe
000000a0: 6d7d 80bf 7165 29bd f469 87bd 792b a2bf
000000b0: b4ef ce3c 4954 1d3e 6ded 523c 4287 92bc
000000c0: dd80 a33f 99d0 dc3e 39d1 bdba 4f42 a9bb
000000d0: 7340 b83e c145 2c3e 2a30 3cbf e35c 4a3d
000000e0: 9db7 ee3d 555a e33c 1dac 9e3e e892 1bbf
000000f0: 17b6 443c 9279 b93c 99ef 06be 17af 00be
00000100: 7da4 a8be c652 4fbe 2267 863d 075b e3bd
00000110: bc60 dbbd 9f36 a2be afe6 713c 0a28 6e3e
00000120: 6857 1c3c 8492 433e f1cf 79bd 33d5 61bd
00000130: 9e26 1a3e 607d ed3e 766d 313c dc89 683c
00000140: 4670 47bc 569b a3be 7a0a 1ebe c977 b4bc
00000150: 61b7 d53d f567 9abd
0.03330605 -0.037069734 -0.37992206 -0.033970773 0.0045655794 0.23685451 -0.3824417 0.21002011
-0.002720371 0.07266721 -0.037679747 -0.16306147 -0.35152465 -2.7766068 0.03420728 0.15579002
-0.5890383 0.013184064 -0.108238705 0.14058523 0.0090578785 0.016406827 -0.009374855 0.016469391
0.05402834 0.5983675 0.004181223 0.062720515 0.010553432 0.07104145 0.5589553 -0.04285495
1.4575913 -0.047181826 -0.012826513 -0.030367749 0.033674244 -0.03412109 -0.05059065 -0.2728969
-1.0038277 -0.041356508 -0.06612006 -1.2669517 0.025260784 0.15364183 0.0128739895 -0.017886762
1.2773701 0.43127897 -0.0014481909 -0.0051653753 0.3598667 0.16823484 -0.7351099 0.04940499
0.11656115 0.027753035 0.30990687 -0.60771036 0.012006304 0.022640977 -0.13177337 -0.12566791
-0.32937995 -0.2024642 0.0656264 -0.111013465 -0.1071181 -0.31682298 0.014764472 0.23257461
0.009542324 0.1909886 -0.060989324 -0.055134963 0.15053794 0.46384716 0.01082932 0.0141930245
-0.012172764 -0.3195445 -0.15433684 -0.022029774 0.104353674 -0.075393595

add_tensors f4 [86, 86]
00000000: 8e11 31bd 2389 1a3d 5ee7 1c3d 2c25 01be
00000010: 92e1 143d 2a08 d13c fd47 82ba c846 763c
00000020: 1db6 473c fff8 96bc 06b7 b4bc 41d3 9ebc
00000030: 5bde 0ebc 8357 aa3d 3209 39bc c4fd 91bd
00000040: e912 0cbc 2c38 a6ba 0f18 bd3c eeb1 4b3c
00000050: 6e72 a23c 6080 753e b4c4 22bd 7bda c3bb
00000060: e4d9 61ba adda c2bb 177b 993b aa17 0d3c
00000070: 5195 67be ee54 16bd 25c8 55bd 100b 5cbd
00000080: a8c0 d6bd 7b0a 2439 2300 063d c44c 13bd
00000090: a893 0d3d 79b8 05ba 3d2f 44bc 81a6 3fbd
000000a0: ea24 29be 0f1f dfbc 92f9 79bd c58e e2bd
000000b0: 58b0 613d 3036 b7bb f7d0 abbe c886 273d
000000c0: e94d 4bbc e167 933d 0a72 59bb 46a7 863c
000000d0: e0f5 31bc 2114 adbe 33d5 983e 21b8 f63a
000000e0: aa87 4c3b 6e6b c2bc 705c 883a 38a9 84be
000000f0: 435a b7bd 603d 6dbc 2208 a13d 0b23 b73c
00000100: 0e0d 7ebb 5a1c 9dbb 3858 9abc 4e3d a0b9
00000110: 51df 93ba 9572 893c 231e 51be 6e85 7a3e
00000120: 843b 26bd 82d8 463c 2c24 5cbc 9c28 19bd
00000130: 0fc3 623b 4afd 043c c7bb 8fba dcf9 cdba
00000140: 5213 8039 97a2 6ebc 7a1e bb39 f345 f3bc
00000150: 06ec 413b 3ffe d3b8 4950 39bd 96d4 573c
00000160: b116 b1ba 8374 c23b 4b51 8e3a 6b2e f9b9
00000170: 5b17 703c 9e40 113e 52a4 923d 8273 8dbc
00000180: 0d59 6cbb 35e3 5338 0ded 12bd 315f 29be
00000190: 11c7 b53c fb4d 03bc fb6f 553d d3b7 60bc
000001a0: 6173 66bd 0ab8 463b 17fc 053d d8d4 23bc
000001b0: 2635 4b3c 28a9 553d 10da 21be e1fc 4dbe
000001c0: a4a9 38bd ce55 87bd bb81 a3bd aad9 203b
000001d0: 4cb5 18be 8bc5 1ebd 6b62 553c 98bd 09be
000001e0: 0e71 073d 65f5 50bd 7850 92bc 98ca 723b
000001f0: 9cc4 8dbd 2fea 35bc 40df 8b3e 5f64 003b
00000200: 831d d338 b298 213d 896d f93a 11bd 2a3d
00000210: 1299 4fbc 6ff7 333a 7575 2d3d d23e ff3b
00000220: 6c4a 233c f2be 0bba bab9 e23c 19e4 81bb
00000230: a786 4cbd a6fe 853b 965d 583b 8484 233e
00000240: d600 c03e 13c7 f73d 2c16 2e3d 11bb 71bc
00000250: 3145 533d a49d 3abb 2add 1abe 6f10 bfbc
00000260: a0d9 043d 5070 d8ba 7f67 9cbc 61fe 4ab7
00000270: 4626 f23c 411c 88ba a2c6 10bd dcf6 32bb
00000280: 9d93 d73c 5b82 74bc 33f1 3a3a 3578 473c
00000290: 02f6 8d3c 18a4 273c d1ce 313c ae58 143d
000002a0: a14c 933d f382 73bd e440 d23c 9dd2 0dbd
000002b0: 26fe 033c c732 e43b 960d 21bc 5782 91bd
000002c0: 468f 67bc e938 9cbb c49d 0a3d 8e63 b73e
000002d0: 2dbd 8b3d c6e6 e9bd b1db 24be 1734 773d
000002e0: 0028 c7bc 5072 54bc 0e57 b23c da79 2a3d
000002f0: 767f f53c 255f 16bb 1b85 4dbd 3c52 11ba
00000300: 6598 613d cb9d c1bd f1e7 b0bd 1eea 16bc
00000310: e110 85bc 4ca6 7a3d 935d cdbc c8c1 593d
00000320: 0dba 063c 7350 523d 6c53 96be ac75 52ba
00000330: f29f f23b 0e99 fbbb 3d5f c9bc cdbb f83c
00000340: 0857 993d 8689 92bc 3985 89bd 67d9 c53d
00000350: 1b21 a03b bd41 fabb 0e2a 2ebd 24f8 003d
00000360: a555 2abc 1ad0 443e d63c b2bd 4ba2 63bd
00000370: 0b67 a4bd 170f 6f3c 3119 96bb c23a c8bb
00000380: 5ad1 1fbe f769 ff3b 99c6 31bd 42b6 3aba
00000390: a66f a43b 78eb 58bd 5bc5 b8bd 9942 1d3b
000003a0: df7d 3c3d 832a e3bd 5715 853c dba8 02be
000003b0: fcbb 743c 16d5 ee3d 66f3 313a 2796 133c
000003c0: 6be1 053d 3881 c3bd 19f8 9bbd cc23 9f3c
000003d0: 77d7 003a 2ff8 57bb 28dd fcbb 9a69 ab3c
000003e0: fd3e a23d 8369 b53b 17a4 413c ad9c a7bc
000003f0: e336 30bd 4095 ad3c 865c 75bb d4d1 41bd
-0.043229632 0.03772844 0.038306586 -0.12611836 0.036347933 0.025516588 -0.0009939667 0.015031524
0.012189415 -0.018429277 -0.022059929 -0.019387843 -0.008720006 0.08317473 -0.011293696 -0.0712848
-0.00854943 -0.0012681535 0.023082761 0.012432558 0.019829955 0.23974752 -0.039738372 -0.0059769726
-0.0008615537 -0.0059464783 0.004683863 0.008611599 -0.22615553 -0.03670209 -0.052192826 -0.053721488
-0.10485965 0.00015644163 0.032714974 -0.03596188 0.034564644 -0.0005101036 -0.011974153 -0.04678965
-0.16517988 -0.02723649 -0.061029024 -0.110623874 0.055099815 -0.0055911765 -0.33557865 0.04090002
-0.012408712 0.07197548 -0.0033179545 0.016437184 -0.010861844 -0.3380442 0.29850158 0.0018823185
0.0031208792 -0.023732867 0.0010403525 -0.25910354 -0.08952763 -0.014479965 0.07862879 0.022355577
-0.0038765105 -0.0047946395 -0.018840894 -0.00030563254 -0.0011281763 0.01677827 -0.20421652 0.24464962
-0.040584102 0.01213658 -0.013436358 -0.037392244 0.0034601127 0.008117029 -0.0010965996 -0.0015714723
0.00024428457 -0.014565132 0.00035690126 -0.02969644 0.0029590144 -0.00010108621 -0.04524258 0.013173243
-0.0013510791 0.0059342994 0.0010857967 -0.00047527565 0.014654006 0.14184806 0.07160248 -0.017266992
-0.003606382 5.0517923e-05 -0.0358706 -0.16540219 0.022189649 -0.008014197 0.052108746 -0.013715702
-0.056262378 0.0030322098 0.032711115 -0.009999476 0.012402808 0.052163273 -0.1580584 -0.20115997
-0.045083657 -0.06608163 -0.079837285 0.00245438 -0.1491291 -0.03876261 0.013023953 -0.1345123
0.0330668 -0.051015276 -0.017860636 0.0037047025 -0.06922266 -0.011103197 0.27318764 0.0019591076
0.00010066761 0.039452262 0.0019029836 0.041684214 -0.012670772 0.00068651786 0.042348344 0.007789471
0.009966474 -0.0005330882 0.027676452 -0.003963959 -0.049933102 0.0040891943 0.0033014766 0.1596852
0.37500638 0.12098517 0.042501613 -0.014754073 0.051579658 -0.0028475309 -0.1512343 -0.023323266
0.032434106 -0.0016512964 -0.01909232 -1.2099365e-05 0.029559266 -0.0010384397 -0.03534568 -0.0027307784
0.026315505 -0.014923657 0.00071312784 0.012174656 0.01732922 0.010231994 0.0108525315 0.036217384
0.0719235 -0.059451055 0.025665708 -0.034624685 0.008056199 0.006964061 -0.009829899 -0.071049385
-0.01413328 -0.0047675264 0.033841863 0.35818142 0.06823192 -0.1142097 -0.1609943 0.06035241
-0.024311066 -0.012966707 0.021770027 0.041620113 0.029968005 -0.0022944894 -0.050175767 -0.0005543565
0.055076975 -0.09453925 -0.08637989 -0.009211091 -0.0162434 0.06119375 -0.025069034 0.05316332
0.008223069 0.051346254 -0.2936052 -0.0008028399 0.007404321 -0.0076781576 -0.024581546 0.030362988
0.07487303 -0.017887842 -0.06714863 0.09660607 0.004886759 -0.007637231 -0.042520575 0.031486645
-0.010396396 0.1922001 -0.0870301 -0.055574697 -0.080274664 0.014591 -0.00458064 -0.00611052
-0.15607205 0.0077946144 -0.043402288 -0.00071224954 0.0050181923 -0.052958935 -0.090220176 0.0023995994
0.046018478 -0.11092093 0.016245527 -0.12759726 0.014937397 0.11661737 0.00067882834 0.009007967
0.03268568 -0.09546131 -0.0761568 0.019426249 0.0004914919 -0.0032954325 -0.0077167936 0.020924378
0.0792217 0.0055362596 0.011818907 -0.020460451 -0.043021094 0.021189332 -0.0037439181 -0.04731925

add_tensors f4 [1, 86]
00000000: d134 403c 260c 4b3e 1eef 483d 7d16 a3bb
00000010: bdc1 b0bc 41ab 9b3d b738 883d 9500 03bd
00000020: c96a 1ebc 5c7d 9c3c ddd4 0fbd a0ff 20bd
00000030: f396 1c3c 3048 8cbd c9e2 983b bfc5 a639
00000040: 4402 123d c25b c9bc 8c2d d13c 24d8 9c3a
00000050: b4aa 6e3b 480d 01bd 835b d7bc 4c06 0f3d
00000060: b967 70bc a15b 853e fbe3 4a3d d457 44be
00000070: eed7 4f3c 2282 5f3b ef43 063c 6b0b 08bc
00000080: c27d f33a a796 8abd 9945 2dbe 342e e53b
00000090: 8a31 683c 9b57 0e3c 5c6c 9eba 06a7 6bbb
000000a0: 8514 ca3c 1895 8dbe 63bb 973c 1e8b b3bd
000000b0: 3b50 34bc 98e3 f3ba 3f9a 54bd 7ac6 c13c
000000c0: 981d c2bc 50d8 893c cf24 5e3d eab9 8bba
000000d0: 9374 8e3c 3ca9 ca3c 9e9c 94bd 44f2 36bc
000000e0: b82f 5ab8 f3f6 863c 269a 9dba 8cb4 6ebd
000000f0: 3dba beba 952f 27be 37cf 8abb dbe0 8ebd
00000100: 3532 c6bb 0a90 8f3d 86b3 973d 7607 043a
00000110: 7227 603d cbfa 4937 28a3 e13d 9d70 f238
00000120: e629 41bb 6165 143b 702d 573c 6aa1 03bd
00000130: 7529 8dbb abdb c03c 9bb6 5abd 5a66 7f3d
00000140: 9826 4b3e 7e38 7d3c 4373 9dba 3553 e6ba
00000150: 9c83 d0bc 496f 033d
0.011731342 0.19828853 0.049056165 -0.004977046 -0.021576757 0.076010235 0.066514425 -0.031982977
-0.009669014 0.019102745 -0.03511511 -0.039306283 0.0095574735 -0.06849706 0.004665707 0.0003180932
0.035646692 -0.024579886 0.025534414 0.001196627 0.0036417665 -0.031506807 -0.026288753 0.034918115
-0.014673167 0.2604647 0.049533825 -0.19174129 0.012685759 0.0034104665 0.008194908 -0.0083035035
0.0018576907 -0.06767016 -0.1692108 0.006994033 0.014171967 0.008687879 -0.0012086737 -0.0035957708
0.024667988 -0.27652812 0.01852197 -0.08766769 -0.011005457 -0.0018607257 -0.051904913 0.023654211
-0.023695752 0.016826779 0.054234322 -0.0010660265 0.017389571 0.0247389 -0.07256435 -0.011166159
-5.201969e-05 0.016475176 -0.0012024089 -0.05827765 -0.0014551353 -0.16326745 -0.0042361277 -0.069764815
-0.0060484656 0.07009895 0.07407288 0.0005036512 0.054725118 1.2038926e-05 0.11017448 0.00011560435
-0.0029474436 0.0022643434 0.013133392 -0.03213636 -0.0043079206 0.023542246 -0.053396802 0.06235347
0.19838941 0.015455363 -0.00120125 -0.0017572405 -0.025453381 0.03208855
