Linear_hardest/TorchSaves/Best_Ball_Gen999.pt (torch_old, 14131 bytes, 17 tensors)

weight f4 [10, 6]
00000000: b83e 1fb8 fc65 173f f9bc 813d 313e d8bc
00000010: 84d0 b630 62d9 41c0 e0f8 9134 3cd6 91b6
00000020: b37e 6936 4091 30bc 232b bb3e afcd 4134
00000030: d692 7a38 23aa 0238 5cb3 6a37 1643 163f
00000040: e09d c4bc 00aa d236 e122 0c35 e8f8 b0b8
00000050: 36ad 82ba 934d e7b9 e2d3 053e 3c99 dcb5
00000060: 062a da33 4386 80b9 5d5d 3939 aa84 98bc
00000070: a485 79b7 508a d3b9 cef2 aebc 2976 b2b0
00000080: e2c9 7d3b 40de c538 67ac 093a 5a27 3e3e
00000090: 9813 e6b0 2f10 d239 a0b0 b938 9450 4fbe
000000a0: 8ae6 3fbb 24df 08b9 8675 10b6 5efa 6bb9
000000b0: 345b 323c 22d3 e7b7 bc3e feba a626 b23c
000000c0: 5294 cc34 4156 b33e fb64 8bb6 dc85 bdb7
000000d0: e872 b73e 3814 d439 e660 2f39 8b8f 1dc2
000000e0: 3d97 0041 3261 31bd 26e3 5cbd 2d0f cd42
-3.7966965e-05 0.5913999 0.06334872 -0.026396843 1.3301507e-09 -3.028893 2.7189435e-07 -4.346277e-06
3.4793454e-06 -0.010776818 0.36556348 1.8049353e-07 5.9741396e-05 3.1152867e-05 1.3989247e-05 0.58696115
-0.024001062 6.2782783e-06 5.220482e-07 -8.4386964e-05 -0.0009969834 -0.0004411755 0.13069108 -1.6435874e-06
1.015906e-07 -0.00024514095 0.00017677755 -0.018617947 -1.4872672e-05 -0.00040348107 -0.021356013 -1.2984788e-09
0.0038725068 9.435089e-05 0.0005251825 0.18569699 -1.6740271e-09 0.0004006638 8.8543864e-05 -0.20245582
-0.00292817 -0.00013053097 -2.152608e-06 -0.00022504615 0.010886002 -2.7635662e-05 -0.0019397358 0.021746945
3.8105878e-07 0.35026744 -4.1542785e-06 -2.2592889e-05 0.35829854 0.00040450855 0.00016725398 -39.39018
8.036923 -0.043305583 -0.053927563 102.52964

bias f4 [10]
00000000: f0f5 b936 60d7 2537 fa59 0439 c33d 163b
00000010: 53a6 34bd c82a 023e caf6 9a3b bea0 92bf
00000020: 1b9a 20bd 247e b9b5
5.5420605e-06 9.884912e-06 0.0001262202 0.0022924996 -0.04410393 0.12711632 0.0047291266 -1.1455305
-0.039209466 -1.3820286e-06

weight f4 [10, 10]
00000000: b28a 2e38 6ade aeb3 7cbf 03b7 727f 193a
00000010: a808 373b 6321 9d3d 7aac 77be c978 02bd
00000020: 9e52 0738 c051 46bb d2cf c63f 7db8 9c38
00000030: bef2 03b4 5af0 0b34 01e3 4bb3 94b0 9138
00000040: 00b0 6e36 23f5 5832 c46d dabf a3ea fa3a
00000050: 30b8 8bb5 35af 08bb 589f 6e38 348f 2d3c
00000060: 9ed8 e4bd 25b7 893f c20e 72bb d400 3535
00000070: f63f b23b b67b 13ba 40e5 6cb7 bbc2 73b5
00000080: f133 b7ba a417 56bd 3e76 2eb3 6cc3 f839
00000090: 5c8b 3333 da91 8b37 3caa fcb5 0f18 04c0
000000a0: a2d8 112a 71e7 2dba cc5d e2bf ffc6 2f3a
000000b0: 007a 99bd dcbd df3c 4031 1db4 83ef 0ebf
000000c0: ca5b 9b3b 7028 ecbc dc4c 66bf 0421 5634
000000d0: 04f1 30c0 0faa 173d 3e0f 5aab 6041 2c35
000000e0: 1832 cec2 4a18 bb34 c0de 8eba efa8 173a
000000f0: 3003 b53a 52d8 4e39 695f 0d38 fa70 8db6
00000100: b9df db37 81d8 5bb7 de20 bfb4 aa0d 2ebf
00000110: 087b a7b9 0030 06b8 2a52 af36 3a43 ca36
00000120: bc39 92be 748d 7a3e 6024 8d35 4381 be35
00000130: 9a5d c5ad 56d6 2b30 a8f1 a5b6 479d 65bc
00000140: f29e 033c fba4 203c 5a7f 5937 dade 3034
00000150: bfea af3f f054 a3bb 00f0 cf32 f055 6fbb
00000160: 5387 8a3c 909a 30be a6dc 03bf b80c 0dc0
00000170: 32be bbb3 ef17 4cc0 be89 57b7 9ec0 07b8
00000180: 0713 b736 70f9 29ba ba46 cb33 8886 24bc
4.1614003e-05 -8.142963e-08 -7.852792e-06 0.00058554776 0.0027928744 0.07672384 -0.24186888 -0.03185347
3.226345e-05 -0.003026113 1.5532172 7.473023e-05 -1.2288635e-07 1.3032823e-07 -4.747108e-08 6.947029e-05
3.556721e-06 1.2628592e-08 -1.7064748 0.0019143414 -1.0409913e-06 -0.0020856385 5.6892022e-05 0.010593224
-0.11174129 1.0759016 -0.0036935066 6.742896e-07 0.0054397536 -0.00056260393 -1.4120073e-05 -9.0807924e-07
-0.0013977272 -0.05226864 -4.0620073e-08 0.00047447847 4.1803432e-08 1.6638009e-05 -1.8825008e-06 -2.0639684
1.2953747e-13 -0.0006633914 -1.7684875 0.0006705373 -0.07493973 0.027312212 -1.4639681e-07 -0.55834216
0.0047411667 -0.028827876 -0.8996103 1.9942314e-07 -2.7647104 0.037027415 -7.747031e-13 6.4170126e-07
-103.09784 3.4849137e-07 -0.0010900125 0.0005785366 0.0013810154 0.00019726277 3.3705877e-05 -4.2152797e-06
2.6211013e-05 -1.3103826e-05 -3.5600436e-07 -0.679896 -0.00031944388 -3.1992793e-05 5.2249716e-06 6.0278953e-06
-0.28559673 0.24468023 1.0515905e-06 1.4193723e-06 -2.2437874e-11 6.251403e-10 -4.9455157e-06 -0.014014549
0.008033501 0.009804959 1.2963859e-05 1.647235e-07 1.3743514 -0.0049844906 2.4207111e-08 -0.0036519729
0.01691023 -0.17246461 -0.5150856 -2.2039013 -8.7424624e-08 -3.1889608 -1.2847069e-05 -3.2365897e-05
5.45604e-06 -0.00064840075 9.465789e-08 -0.01004184

bias f4 [10]
00000000: 0cd2 90bb 3437 0b38 ee5b 9ebd 091c 94bd
00000010: 8b27 65bb 0e06 0235 9eda 213d 2cd6 262f
00000020: edea 48b9 eda0 2d38
-0.004419571 3.3191594e-05 -0.07732378 -0.0723191 -0.0034966196 4.8437585e-07 0.03951513 1.5173701e-10
-0.00019161003 4.1396288e-05

weight f4 [10, 10]
00000000: 7bc4 233b 62c5 cebe dc01 2ba8 10cf 0d41
00000010: 80ba 1cba 1894 56bf 563d 84ba 1ce1 13c0
00000020: de33 65b8 deb7 efb6 0ab1 afb2 eea2 6335
00000030: ab78 9cba ec6a c2b6 6e9d 3a37 007b f5b1
00000040: 7010 a1be fc29 a4b5 c0ed 2b33 e075 27b7
00000050: b080 6bb8 1cbf 893d 086d 52be a92e 5d37
00000060: dd46 1e39 6251 5db4 c4d0 a23b 9836 fb42
00000070: 4723 6bb7 0627 2d3c 00ca e8bb e0b4 d9b7
00000080: 8d67 2f36 cbb5 77bc ed9d 3db5 65c1 72bb
00000090: 1064 6ebc 7098 fc38 dcfe afb6 0bb4 4137
000000a0: 601b 0434 e4b1 23b2 7a36 a7c0 d63e 3a36
000000b0: 74dd bebd 009a 32b6 4a27 8b3b 8a18 c139
000000c0: 7186 193b 706c 7330 85e9 b9bd 7047 0ab7
000000d0: 4390 fb37 89b6 ac3b 6e46 ce39 6c5b cab5
000000e0: bac1 f4ab d986 f738 88d5 c9bb 4426 43bb
000000f0: 5a4c e235 00f2 d92f c611 2b35 0a80 31b3
00000100: d089 f42d 7c77 883b 431c 84b4 8f91 6dc1
00000110: 6ff9 a437 be9d aeb8 e14d 1337 bf7d 55ba
00000120: 6b8f 8532 644b a0bf 17ce d2b5 9638 34b1
00000130: 8367 4e39 fa91 4b3c f003 7232 e246 39c0
00000140: 4c45 4d37 a253 57ba 50b4 5035 02f5 4742
00000150: dc49 b831 8ebd 5840 d635 ebba bb39 b53c
00000160: 00e6 dec1 3e98 4938 8a7f de3e 9aa4 e7b2
00000170: b901 ebb5 5f5f a7b9 af42 20af 3242 fd38
00000180: daa4 ac39 fcaf 21bb af69 68ba a4d1 9cb8
0.0024988938 -0.40384966 -9.49281e-15 8.863052 -0.00059787184 -0.83819723 -0.001008908 -2.3106146
-5.464616e-05 -7.14416e-06 -2.045319e-08 8.4801184e-07 -0.0011937817 -5.794098e-06 1.1123118e-05 -7.144422e-09
-0.31457853 -1.2231171e-06 4.0030272e-08 -9.981421e-06 -5.6148216e-05 0.06725904 -0.20549405 1.318349e-05
0.00015094453 -2.0611836e-07 0.0049687345 125.60663 -1.4015305e-05 0.010568386 -0.0071041584 -2.5952642e-05
2.6137307e-06 -0.015119026 -7.06378e-07 -0.0037041542 -0.014550224 0.0001204469 -5.245076e-06 1.1545616e-05
1.2303417e-07 -9.528296e-09 -5.2254 2.7752735e-06 -0.093195826 -2.6613707e-06 0.004246627 0.00036830112
0.002342608 8.8556984e-10 -0.090777434 -8.242074e-06 2.9988709e-05 0.0052707833 0.00039343856 -1.507678e-06
-1.7391013e-12 0.00011802995 -0.006159488 -0.0029777447 1.6860533e-06 3.9644021e-10 6.372833e-07 -4.1327475e-08
2.780079e-11 0.0041646343 -2.460748e-07 -14.848037 1.9666475e-05 -8.326348e-05 8.780015e-06 -0.0008144043
1.5548457e-08 -1.2523007 -1.5706199e-06 -2.6225613e-09 0.00019684252 0.01242494 1.4087149e-08 -2.8949513
1.2235087e-05 -0.00082140614 7.774843e-07 49.989265 5.3635016e-09 3.3865695 -0.0017945122 0.022122255
-27.862305 4.806392e-05 0.4345668 -2.6966791e-08 -1.7509366e-06 -0.0003192378 -1.4575606e-10 0.0001207631
0.0003292922 -0.0024671545 -0.0008865846 -7.477708e-05

bias f4 [10]
00000000: 94af 45bc 9c87 dd39 506a 2ab2 f412 f238
00000010: 184f 0cb5 77bf f13d 2803 07b6 105d 3fb3
00000020: f092 ecb6 4639 5342
-0.012065787 0.00042253442 -9.919475e-09 0.000115429895 -5.226916e-07 0.11804097 -2.0118405e-06 -4.4555293e-08
-7.050454e-06 52.80593

weight f4 [10, 10]
00000000: 4613 e238 b03d f038 bee4 f038 fb02 982f
00000010: 9787 203f e4d1 213a 54be 2a3e aa15 903c
00000020: 52de adb7 2465 8f39 c0ef 3cb9 6e07 c032
00000030: bd3b 04b8 c9e8 cfba de00 8937 00ac 37ba
00000040: 6a17 b5b4 6769 0eb5 5f0d 3abc 40c9 28b3
00000050: 88ae 10b6 5029 a3b3 449c 5d3f 4ec9 aab6
00000060: acd1 bf2c a4fc 95be 31d2 1e3f 3440 bd38
00000070: 7e0b bbba 5aae 8abc d0d2 5338 d284 ab39
00000080: 5220 f532 478d 7ab9 3353 9bbb e393 f4ba
00000090: ac09 63b4 dbb5 1a42 dbff 9443 100e 14be
000000a0: 308a f0b8 3602 1fbb c868 193a d398 77b5
000000b0: c175 953d 10f5 c3b9 60b5 d234 9370 e932
000000c0: 821b d238 3cd1 eab9 141e 83be 18ee 82b6
000000d0: e8b9 c8b7 ec11 7b38 f6f6 c9b6 fcc8 a737
000000e0: 8cc6 8238 d0c7 e13e 9453 74be 0d84 dcb6
000000f0: 4210 0b36 3cac d8b9 4203 a53a 260e 23c1
00000100: 5dee 77b4 af4b 29bc a298 bfb5 3cc5 cdba
00000110: d056 20b8 e849 523f 3c35 0cc0 b074 c034
00000120: 24cc 88be 046a 74be c499 b533 bd2b c9af
00000130: b85c c8ba b05d beb6 cb3e 0e3e 50fc 4c38
00000140: cdfb 4934 fa5d 0939 6a5e debc 027c a9bb
00000150: 3836 2c36 1ee9 1bbc 1630 3138 d63c a935
00000160: 9078 14bc 2bab db30 c0a0 44b2 c2de 30b6
00000170: 6cd0 d338 23a5 7c3b bbbd d93b 1f2b b3ba
00000180: 9e2e 18b6 a8c9 a03f 0b08 df40 6093 9b3e
0.0001078011 0.00011455582 0.00011486698 2.7650757e-10 0.62706894 0.0006172939 0.16674167 0.017588455
-2.0726733e-05 0.0002735044 -0.00018018391 2.235512e-08 -3.1526888e-05 -0.0015862222 1.6332076e-05 -0.0007006526
-3.3730913e-07 -5.30525e-07 -0.011355727 -3.9298584e-08 -2.1559263e-06 -7.597794e-08 0.8656657 -5.0898298e-06
5.4518248e-12 -0.29294312 0.62039477 9.024181e-05 -0.0014270393 -0.01692884 5.0502655e-05 0.0003271462
2.8536451e-08 -0.00023894488 -0.0047401427 -0.0018659796 -2.1144541e-07 38.677593 297.99887 -0.1445849
-0.00011469831 -0.0024262792 0.00058521004 -9.223706e-07 0.072978504 -0.00037375884 3.9247516e-07 2.7175963e-08
0.00010018704 -0.0004478785 -0.25608885 -3.9020197e-06 -2.3928427e-05 5.9859754e-05 -6.019017e-06 2.0001542e-05
6.235865e-05 0.44097757 -0.23860008 -6.5718837e-06 2.0722077e-06 -0.00041327055 0.0012589472 -10.190954
-2.3090384e-07 -0.010332986 -1.4275031e-06 -0.0015699039 -3.8227823e-05 0.8214402 -2.1907492 3.5847688e-07
-0.26718247 -0.23868567 8.456439e-08 -3.6592765e-10 -0.0015286421 -5.673348e-06 0.13891141 4.8872374e-05
1.8811188e-07 0.00013100347 -0.02714463 -0.0051722536 2.5661557e-06 -0.009516029 4.2244872e-05 1.2609187e-06
-0.009061947 1.5982996e-09 -1.1445252e-08 -2.6355706e-06 0.00010100086 0.0038550578 0.006644932 -0.0013669467
-2.26769e-06 1.2561541 6.969732 0.30385876

bias f4 [10]
00000000: 9d86 52b8 0be4 393d 60cf 503d 0130 3cb8
00000010: 0000 a4b0 c758 bf38 ac73 e6be 9a4f 7aba
00000020: 8498 583c a4ef ff36
-5.019327e-05 0.045383494 0.05097902 -4.48674e-05 -1.193257e-09 9.124126e-05 -0.45010126 -0.0009548605
0.013219956 7.62749e-06

weight f4 [10, 10]
00000000: bc7d b938 1885 6236 72d9 2d36 8c7e 9f3d
00000010: 86e5 4f37 300c 9e2e 046a 74c0 dcce f1b5
00000020: 08ea b140 04a5 f0b7 06fb 0dba c45d 29b8
00000030: 9e36 ffb1 64fb 4e3b 989a bdb3 7098 ad3a
00000040: a0e5 af3d 2f19 08b7 e29c 4b37 9ec2 8f3b
00000050: e657 4ab8 6bfa 35b4 e0df 00c1 0b7f b039
00000060: fd2d e339 7a5d 7fb3 bd20 a8b8 18a0 96b9
00000070: da62 1fc0 c692 0739 a795 0dbe 6395 a339
00000080: e433 8338 1657 83bb fc2d 053b 2d5f 5939
00000090: 4a68 f93a b739 59b9 2813 04b8 4a4e d5b6
000000a0: e431 b43b 8162 adb5 ccac 9639 7452 ab34
000000b0: 07b4 2cc3 eba1 95b7 3049 d5b8 72f4 0540
000000c0: 4028 21b4 8b08 883e 2a79 3a38 c748 3439
000000d0: 5ca7 aab4 7182 d337 c0a9 09bd 9eb3 95c0
000000e0: 806d f134 c3e5 4c3d e6f6 043a d044 a03f
000000f0: f0a4 a4b3 14da 1bb3 04b0 ac38 edb2 8abf
00000100: 054c 49ba 6647 cfc3 c333 bab7 0f3d 8f3c
00000110: 38b2 1dba 5309 a63a 40ca 0235 3494 b133
00000120: a4e1 cd37 78de b536 26fe 2039 90b7 2638
00000130: adec 21ba 8540 1d40 f76f 853a b404 513d
00000140: 2c0d 9637 e240 103d 8453 6ab3 bcf5 5fb7
00000150: d8b9 96c4 00bf a7b2 8834 6ead 405b 0d38
00000160: 9c34 cfb9 0025 2cbb fa53 45c0 e88d 2db4
00000170: 65ab cb38 6835 19b3 1207 60bc be1c 0436
00000180: f023 253a daa4 c136 4b57 b433 40a7 beb5
8.844907e-05 3.3754095e-06 2.5905579e-06 0.07787809 1.2391602e-05 7.187173e-11 -3.8189707 -1.8016103e-06
5.5598183 -2.868707e-05 -0.00054161286 -4.0380066e-05 -7.427686e-09 0.0031582946 -8.829119e-08 0.0013244282
0.08588719 -8.112095e-06 1.213627e-05 0.004387214 -4.8242415e-05 -1.694804e-07 -8.054657 0.0003366399
0.00043331078 -5.945683e-08 -8.016962e-05 -0.0002872951 -2.4904084 0.0001292928 -0.13826619 0.00031201084
6.256232e-05 -0.004008184 0.0020321598 0.00020730188 0.0019028273 -0.00020716233 -3.1489093e-05 -6.3570087e-06
0.0054991115 -1.2918173e-06 0.00028738973 3.1911225e-07 -172.70323 -1.7837583e-05 -0.00010170264 2.0930448
-1.5008936e-07 0.26569018 4.44587e-05 0.0001719325 -3.1786738e-07 2.5213902e-05 -0.03360915 -4.678176
4.496942e-07 0.050023805 0.0005072191 1.2521 -7.666847e-08 -3.628709e-08 8.2343846e-05 -1.0835854
-0.00076788693 -414.5578 -2.2197031e-05 0.01748517 -0.00060156314 0.0012667574 4.8723086e-07 8.269163e-08
2.4542976e-05 5.420119e-06 0.00015353467 3.974844e-05 -0.000617693 2.457063 0.0010180463 0.051029876
1.7887527e-05 0.035218127 -5.4558328e-08 -1.334905e-05 -1205.8076 -1.9528215e-08 -1.3540398e-11 3.3702003e-05
-0.00039521314 -0.002626717 -3.0832505 -1.6163506e-07 9.711719e-05 -3.567166e-08 -0.013673561 1.9686263e-06
0.00062996056 5.7710395e-06 8.397782e-08 -1.4204779e-06

bias f4 [10]
00000000: 2b56 a2bd b0a4 5abb 66db 223c e299 46ba
00000010: 2e13 7b3c acf4 17b7 ab95 5f43 ea0a 4038
00000020: eca3 01b7 a896 64b2
-0.079265915 -0.0033362322 0.009940004 -0.0007576031 0.015324397 -9.0572685e-06 223.58464 4.578653e-05
-7.727165e-06 -1.3305602e-08

weight f4 [10, 10]
00000000: 63aa 8f37 5027 6938 8cb6 81b2 ab01 a937
00000010: 85d9 f3b9 9afc e538 e8ce d933 84a1 29b3
00000020: 0d64 e7bd fcb6 bbbb a08b 95b6 744d 9839
00000030: ce15 b4b7 4e12 6cba 14e6 c03a 00d5 ce30
00000040: ee3c 8e40 8872 1fb9 fc21 6fbb 4c58 b839
00000050: 7ae9 22c1 06c9 66b5 5cc1 8e3b 002b 1f3f
00000060: aa62 3539 2b46 37c0 d333 96bd b416 24ba
00000070: 51be 7ab9 b2a5 58b7 62f8 9e38 3ddd b734
00000080: 76fd 3ab7 c009 4bb7 20a2 a336 a015 46bd
00000090: f969 e4ba 8c22 913c c4e5 812d 690a 3c35
000000a0: 74a7 de2f 14c8 bc38 705d 903b a170 743f
000000b0: 50db 16b6 010b c1bb b4ed 52b2 8a88 35c0
000000c0: e87e 743b 9888 d2b8 45ac 9fb8 bc0e 07be
000000d0: ecb2 0bb8 5fd8 b4b2 1b3d e637 80a9 eaaf
000000e0: c0c6 003f 574f a9b9 08d2 163b 7378 0f41
000000f0: 36c7 f03b 47c6 e53c 4412 1cb3 3116 c037
00000100: 1ef9 a9c0 e218 87b4 c5c4 dab1 30be 2a31
00000110: b894 29bb 6ac1 6f38 6dd1 9fbb 66dc 7e3c
00000120: aee2 0abd 7718 b73c 42da 23bc 971f 4239
00000130: d47d 9a39 68ae 95b9 d816 8e37 f423 1c3b
00000140: 8096 9ab7 909b c3c1 97aa f73b 1014 79be
00000150: 7056 1ab6 7048 1ebb 584c 7a37 3419 4532
00000160: ee58 3b3b 9e36 9038 961c 0fb6 00a2 fa3c
00000170: 2b9b 9b38 4c07 123c a20d 3cb3 7284 82ba
00000180: 845b 2d38 ff63 16ac 5f96 003e b0f9 eeb1
1.712627e-05 5.558814e-05 -1.510059e-08 2.0147147e-05 -0.00046510636 0.000109666216 1.0142486e-07 -3.9495276e-08
-0.1129838 -0.0057286005 -4.4568005e-06 0.00029049406 -2.1467826e-05 -0.0009005413 0.0014717006 1.5049011e-09
4.4449377 -0.00015206088 -0.0036488762 0.00035161 -10.182001 -8.5974204e-07 0.0043565463 0.6217499
0.0001729826 -2.8636577 -0.073341034 -0.00062594865 -0.00023912756 -1.2913182e-05 7.580292e-05 3.4247378e-07
-1.1145477e-05 -1.2102013e-05 4.8766524e-06 -0.048360467 -0.0017426602 0.017716669 1.4767639e-11 7.0050606e-07
4.0500547e-10 9.001806e-05 0.00440567 0.9548436 -2.2479398e-06 -0.0058912043 -1.2277656e-08 -2.8364587
0.0037307087 -0.00010039023 -7.6137985e-05 -0.13189214 -3.3306816e-05 -2.1053152e-08 2.7446591e-05 -4.268479e-10
0.5030327 -0.00032293305 0.0023013372 8.966907 0.0073479665 0.028048648 -3.6338193e-08 2.2898517e-05
-5.31166 -2.5163814e-07 -6.367005e-09 2.4846365e-09 -0.0025875997 5.716217e-05 -0.0048772604 0.015555477
-0.033907585 0.022350533 -0.010000767 0.0001851305 0.00029466918 -0.00028549437 1.6938357e-05 0.002382514
-1.8428313e-05 -24.450958 0.0075581777 -0.2432406 -2.2998101e-06 -0.0024152063 1.4918936e-05 1.147264e-08
0.0028586942 6.876628e-05 -2.13253e-06 0.030594826 7.419878e-05 0.0089128725 -4.378456e-08 -0.0009957685
4.1331645e-05 -2.137179e-12 0.12557362 -6.955098e-09

bias f4 [10]
00000000: 7203 ef3c b233 673d e0e1 f235 9cb1 263a
00000010: 3c9a 0bbc 5052 2db8 36af 57bb a0a9 13b9
00000020: 80f3 9535 8a65 07b5
0.029176448 0.056445785 1.8096143e-06 0.00063588633 -0.008520659 -4.1323074e-05 -0.003291083 -0.00014082203
1.1172233e-06 -5.043918e-07

weight f4 [1, 10]
00000000: 2611 82b6 4d2a 4fb5 4c3b 3db9 d833 3dc0
00000010: 8d22 b8b8 82b1 74c0 7209 073c 2a71 2735
00000020: 0c48 8338 843d 2437
-3.8762983e-06 -7.7175065e-07 -0.00018046534 -2.9562893 -8.780239e-05 -3.8233342 0.008241998 6.2377023e-07
6.2599865e-05 9.7894845e-06

add_tensors f4 [10, 6]
00000000: 117a 82b7 02e3 fabd bdc0 823c 96dd 48bc
00000010: 6c8b 9031 ba14 0cc0 0842 7a35 9b03 5536
00000020: 3f41 3bb6 dc6b aabb d3e9 4e3e 1159 37b4
00000030: 584b c635 5de0 4337 15c0 1db8 91e9 fc3d
00000040: e508 9d3d 6eed 98b9 2b96 33b5 9fad c6b9
00000050: 656b 09ba 1bf5 92b9 0413 923d 711e 8bb4
00000060: b391 12b3 a766 1f38 44cc d338 b17e 7ebd
00000070: 29fb 42b8 48f2 b93b 8f7f 6ebd bab5 562f
00000080: 6786 11ba 08ce b539 ebd9 04b8 5a68 033c
00000090: 9bec 82b1 e793 3ab8 c409 48b9 4717 5dbd
000000a0: 939f f6ba 94db a437 b795 e0b4 b1fd a5b8
000000b0: 52f5 f63c bd29 1a37 47d1 e9bb f288 2f3c
000000c0: 76e5 acb4 0f8c 8cbe 7b94 ba36 10fe 6a37
000000d0: 84cb dabc edfb 2439 9dd1 dc39 b778 64c1
000000e0: 02bd ff3f 3a69 f5bc c2e1 5ebc 2708 a441
-1.555405e-05 -0.122503296 0.015961045 -0.012259861 4.206802e-09 -2.188765 9.3228346e-07 3.1741572e-06
-2.790315e-06 -0.005200846 0.20206384 -1.7075605e-07 1.4774077e-06 1.1675144e-05 -3.7610607e-05 0.12349237
0.07667712 -0.00029168598 -6.690122e-07 -0.0003789486 -0.0005242138 -0.00028029908 0.07132533 -2.5912917e-07
-3.4125787e-08 3.8004157e-05 0.000100993115 -0.06213254 -4.6487115e-05 0.005674634 -0.058227118 1.9527749e-10
-0.00055513385 0.00034676515 -3.1674204e-05 0.008020485 -3.810397e-09 -4.44836e-05 -0.00019077124 -0.053977277
-0.0018815867 1.9652573e-05 -4.1832183e-07 -7.915067e-05 0.030146275 9.188833e-06 -0.0071355435 0.010713803
-3.220445e-07 -0.27450606 5.5605174e-06 1.400664e-05 -0.026708372 0.00015734108 0.00042117844 -14.279471
1.9979556 -0.029957402 -0.01360363 20.50398

add_tensors f4 [10]
00000000: 87fa ac35 727e 1bb6 4a45 4d38 c71a 4a3a
00000010: 1586 093c cdc6 b73d 5484 383b dc9d 36bf
00000020: 33f0 67bc d680 02b5
1.2887912e-06 -2.31704e-06 4.894034e-05 0.00077096786 0.008393784 0.08973465 0.0028155046 -0.71334624
-0.014156389 -4.8616255e-07

add_tensors f4 [10, 10]
00000000: af8d b6b7 ca89 c8b9 7ef0 1ab3 ed77 90b7
00000010: f4ab 8ab8 c1af c2b7 cf47 4d33 e8ae 87b2
00000020: cb22 a9bc d614 03bb bbdc 34b9 1d18 74b8
00000030: 1d64 49b7 d52b 1db9 766e d8ba 794e a134
00000040: a724 5241 4ebb 3a3a 1526 8bbc 61d2 2839
00000050: e9b8 dec0 86b9 1d35 54b1 5f3c 7d1d 973e
00000060: fb1d 0838 909c bdbf ed50 923d 8f78 beb9
00000070: 62fe 8e36 f911 8a37 4ac9 2838 1f7e be33
00000080: f2b1 a2b5 9d9b 14b8 bc46 9bb6 73d5 8e3c
00000090: e75e f63a 5b87 8abd c8e5 172d eaa4 b4b4
000000a0: 2f9b ddb0 43da e537 e3c9 123b f474 2f3d
000000b0: 5b5f e3b6 e925 87ba 9db6 0db3 83ee b3be
000000c0: 7e73 713c 5b97 36ba 9325 8937 a985 abbe
000000d0: 2640 7cb7 123b aab0 2cb3 cf36 652e 4caf
000000e0: c889 103e dfee 4cb8 f20f 3539 9fda 8a40
000000f0: 6929 513b 656b 693a c863 9bb2 852a cc36
00000100: 4d85 06c1 b8aa cf34 3e71 7d31 a3e6 67b3
00000110: a647 1a3b bd45 e4b8 d66e 423b 9383 f9bb
00000120: c9d6 2fbc 1cd4 db39 5cd7 feba b92e aa37
00000130: 9a87 0d3b a8f5 8b3a 6476 e036 819f 81ba
00000140: 7cec d139 fffe edc0 2ef7 3c3b 9579 e5bd
00000150: 1d29 0738 6974 5cbd a9c8 fe34 a779 7cb3
00000160: 4760 44ba fb82 4639 b903 85b5 60cf d33e
00000170: e7e4 f337 1ee6 d3bc 3704 dab0 d683 c8b9
00000180: 81b1 f5b7 960b 132a 2f14 253c 6a54 2533
-2.1762067e-05 -0.00038249634 -3.6074645e-08 -1.7221982e-05 -6.6123815e-05 -2.3208444e-05 4.779559e-08 -1.5795607e-08
-0.020646473 -0.0020001433 -0.00017248366 -5.819659e-05 -1.2003843e-05 -0.00014989015 -0.0016512412 3.0045683e-07
13.133948 0.00071232475 -0.016985932 0.00016100101 -6.960072 5.875703e-07 0.013653118 0.29514685
3.245285e-05 -1.4813404 0.071443416 -0.00036329447 4.261544e-06 1.6459251e-05 4.0241786e-05 8.870506e-08
-1.212173e-06 -3.5430876e-05 -4.6275945e-06 0.017435765 0.0018796594 -0.06764098 8.634378e-12 -3.3647603e-07
-1.6123972e-09 2.7400563e-05 0.0022398166 0.042836145 -6.776228e-06 -0.0010310981 -3.2995207e-08 -0.35142908
0.014737008 -0.0006965303 1.634917e-05 -0.33500412 -1.5035306e-05 -1.2385917e-09 6.189939e-06 -1.8570175e-10
0.1411506 -4.8859856e-05 0.00017267445 4.339187 0.0031915552 0.00089042477 -1.808975e-08 6.0846237e-06
-8.407544 3.868097e-07 3.6880716e-09 -5.399364e-08 0.002354124 -0.00010884877 0.0029668114 -0.007614562
-0.010732361 0.0004192897 -0.0019442844 2.0287336e-05 0.0021595717 0.001067807 6.6895027e-06 -0.0009889455
0.0004003978 -7.4373775 0.0028833854 -0.112048306 3.2224798e-05 -0.053821955 4.7457186e-07 -5.8783964e-08
-0.0007491153 0.00018931545 -9.910356e-07 0.41369152 2.9074448e-05 -0.025866564 -1.5862786e-09 -0.00038245198
-2.9288933e-05 1.3060242e-13 0.010075613 3.849383e-08

add_tensors f4 [1, 10]
00000000: 76f2 9a36 a476 08b5 ad1e 243a f093 6841
00000010: 79ac b2b7 a49e 03c0 4eb2 383b 2db8 ddb2
00000020: 8154 cd37 2856 c537
4.617784e-06 -5.0836593e-07 0.00062606746 14.536118 -2.1299567e-05 -2.0565577 0.002818245 -2.581154e-08
2.4477255e-05 2.352435e-05
