Linear_hardest/TorchSaves/Last_Gen998.pt (torch_old, 14131 bytes, 17 tensors)

weight f4 [10, 6]
0	0x3d6e3404	0.058155075
1	0x3c1b5d28	0.009482659
2	0x39ba8300	0.00035574287
3	0xb8c25d20	-9.267987e-05
4	0xb616b3e8	-2.245646e-06
5	0x3c275297	0.010212562
6	0xb447b1d4	-1.8598013e-07
7	0x3c703d3a	0.014663035
8	0x3708dd08	8.1576945e-06
9	0x3b17f94e	0.0023189369
10	0xc13433a4	-11.262608
11	0x33b9d64c	8.653714e-08
12	0x36485fc5	2.9858068e-06
13	0xb91df6ea	-0.0001506467
14	0x39dfa211	0.00042654623
15	0xb7c25ac0	-2.3168861e-05
16	0x3bf4b9a0	0.0074684173
17	0xbb34d3f7	-0.0027592161
18	0x350b6082	5.192197e-07
19	0xb8d901fa	-0.000103477345
20	0x36951f5c	4.4441967e-06
21	0xbc944480	-0.01809907
22	0xbb4ea428	-0.003153095
23	0xb587a134	-1.01052e-06
24	0xb37afa4c	-5.8435305e-08
25	0x3ea76f92	0.3270231
26	0xbc850020	-0.016235411
27	0x3b27aa10	0.0025583543
28	0x3bbb4e98	0.005716156
29	0x3aed71f4	0.0018115626
30	0xbba67fe7	-0.005081165
31	0x31078998	1.9723299e-09
32	0x42d8336c	108.10043
33	0x36fc3050	7.5158096e-06
34	0xb9515642	-0.00019963927
35	0xb77e3347	-1.5151519e-05
36	0x322d6afe	1.00942525e-08
37	0x3c5c5f90	0.013450518
38	0xbec169c6	-0.3777601
39	0xba8e7c78	-0.0010870835
40	0x3a5eb910	0.00084962044
41	0x3cafdd06	0.021467697
42	0x3a86bcf0	0.0010279696
43	0x385d43c8	5.2753632e-05
44	0x398c16f6	0.00026719988
45	0x3fd63a92	1.6736624
46	0xc0537974	-3.304288
47	0xbae73fe0	-0.0017642938
48	0x3ad1dcb8	0.0016011214
49	0xbecce108	-0.40015435
50	0xb8accd14	-8.239798e-05
51	0xbba5a86f	-0.0050554792
52	0xba478e90	-0.0007612491
53	0xbc0b32a9	-0.008495965
54	0x379649a9	1.7915694e-05
55	0x42864e8b	67.153404
56	0xc1686b7e	-14.526243
57	0xb6aa17c2	-5.0691606e-06
58	0xb6290f73	-2.5191955e-06
59	0xc360b0bc	-224.69037

bias f4 [10]
0	0xb63c6db2	-2.8078034e-06
1	0x3b361384	0.0027782628
2	0x3ef5ba36	0.4799363
3	0x34774fa8	2.3032646e-07
4	0xbd1aa53c	-0.037755236
5	0xbf30e98e	-0.69106376
6	0xb924c726	-0.00015714447
7	0xbd2eeeba	-0.042708136
8	0x369f1b50	4.741749e-06
9	0x3af6f61f	0.001884166

weight f4 [10, 10]
0	0x3a0109c0	0.00049224123
1	0x39193280	0.0001461003
2	0xbe686027	-0.22692929
3	0x359fa36a	1.1893983e-06
4	0xba6ebc00	-0.00091069937
5	0x3692530b	4.3608065e-06
6	0xb9e8eaf4	-0.00044425542
7	0xbd4af634	-0.049551204
8	0xb503e381	-4.9132365e-07
9	0xbf65fb90	-0.8983698
10	0xb8fdf46f	-0.000121095094
11	0xb53b3cf0	-6.9751604e-07
12	0x2ed5a6e0	9.7157615e-11
13	0xbb3e90b6	-0.0029077954
14	0x32daa6a5	2.5454321e-08
15	0xb85bb742	-5.238434e-05
16	0xb5aeb2e2	-1.3016072e-06
17	0x35828796	9.725215e-07
18	0x41d2128c	26.259056
19	0x34286f2c	1.5686663e-07
20	0x3458d04a	2.0192343e-07
21	0xb68a67bf	-4.124798e-06
22	0x3c6a9cb6	0.014319589
23	0xbeb92858	-0.36163592
24	0x4074648d	3.8186371
25	0x3c3e58f8	0.0116178915
26	0xbc82b5c1	-0.015955808
27	0x4231c110	44.438538
28	0x3ab4d4e0	0.0013796352
29	0x3371b772	5.6279028e-08
30	0x3ca45827	0.020061566
31	0xb2b66e40	-2.1237724e-08
32	0xb9afb84e	-0.0003351592
33	0x3b34a66a	0.002756501
34	0xb22f685e	-1.0210071e-08
35	0x3ca1b483	0.019739395
36	0x3a3f0717	0.0007287128
37	0x3cc67324	0.024224825
38	0xb25bf984	-1.2804211e-08
39	0x42403fe4	48.062393
40	0xb32ff722	-4.097013e-08
41	0x3a1775ef	0.00057777663
42	0x3c0769c2	0.008264961
43	0x3f39dd98	0.7260375
44	0x38afd680	8.384604e-05
45	0x3f2b8299	0.6699615
46	0x385235e0	5.0118077e-05
47	0x3cf95756	0.030437153
48	0x37956cfc	1.7812934e-05
49	0xb4d5fd09	-3.985845e-07
50	0xbee64000	-0.44970703
51	0xb6f18aa0	-7.1984978e-06
52	0x3c05bec8	0.008163162
53	0xb79633d9	-1.7905537e-05
54	0x333e338b	4.42847e-08
55	0x3822233f	3.8656635e-05
56	0x3d75cfa9	0.060012493
57	0x35af8f4b	1.308022e-06
58	0x38648000	5.4478645e-05
59	0xb79676d7	-1.7936733e-05
60	0x37caf6ea	2.4195255e-05
61	0x3b945184	0.004526319
62	0xb3976ad8	-7.05092e-08
63	0x31eb3165	6.8450157e-09
64	0x379acdc3	1.8454046e-05
65	0xbc3e946f	-0.011632069
66	0x3887f977	6.483768e-05
67	0x3d57a9c1	0.052652124
68	0xbf800ae2	-1.0003321
69	0xbc8df324	-0.017327853
70	0xb3b9390a	-8.625109e-08
71	0xb509de95	-5.1360377e-07
72	0xbf7351e2	-0.9504682
73	0x3b23bdbe	0.0024984921
74	0x39413926	0.00018427204
75	0xb32799e0	-3.9022666e-08
76	0x36da9e94	6.515367e-06
77	0x35ec6d40	1.7615166e-06
78	0xc15c43b2	-13.766527
79	0xbaa0ad1c	-0.0012258622
80	0xbbfec5c2	-0.0077750394
81	0xba45f876	-0.0007551977
82	0xba004fed	-0.00048947224
83	0x349d3172	2.9279505e-07
84	0xbbf3fb46	-0.0074457256
85	0xb86a094c	-5.5798606e-05
86	0xbb0e1a3e	-0.0021683122
87	0xb6c98d94	-6.0067487e-06
88	0xb6c9cbca	-6.013991e-06
89	0x3c0979eb	0.008390884
90	0xb80ca98d	-3.3536508e-05
91	0xc1a46464	-20.549019
92	0x323390ba	1.0452078e-08
93	0x429afcf2	77.49403
94	0xb8a706d5	-7.964453e-05
95	0x391fca25	0.00015238726
96	0x37a52d25	1.9690555e-05
97	0xb7e7afd2	-2.7619219e-05
98	0x327bbefe	1.46535495e-08
99	0x374df344	1.2275592e-05

bias f4 [10]
0	0x3aefd25e	0.0018296947
1	0x3d437a70	0.047724187
2	0x3ee95874	0.45575297
3	0x373cbdfe	1.1249909e-05
4	0xc183bfd6	-16.46867
5	0xb7f0027e	-2.861139e-05
6	0x39751236	0.00023371805
7	0xb44d6598	-1.9129072e-07
8	0xbcdf514e	-0.027260449
9	0xb3a889ea	-7.848196e-08

weight f4 [10, 10]
0	0xbd59a3f0	-0.05313486
1	0x3215a718	8.710934e-09
2	0x356f422a	8.913072e-07
3	0x3b065376	0.0020496524
4	0xbebd900e	-0.37023968
5	0xbac1f134	-0.0014796616
6	0x3eb1611e	0.34644407
7	0xbdccf0c0	-0.10006857
8	0xb8c5b462	-9.427291e-05
9	0xb7e76082	-2.7582286e-05
10	0xb8f590da	-0.00011709491
11	0x31eaf540	6.838178e-09
12	0xb81eab0c	-3.7829435e-05
13	0x358191fd	9.653737e-07
14	0x348fb14e	2.6764832e-07
15	0xb6c355aa	-5.8214255e-06
16	0xbf90499c	-1.1272464
17	0x3492d434	2.7349017e-07
18	0x3030ccc8	6.431944e-10
19	0xb814e950	-3.550324e-05
20	0x3b2dcdae	0.00265203
21	0x3b08f31b	0.0020896855
22	0xbcc6c6f5	-0.024264792
23	0x376fc7b4	1.4292007e-05
24	0x3861db4c	5.3848416e-05
25	0xb58dfc9e	-1.057884e-06
26	0xba2a6535	-0.00065000664
27	0x3f1c6e42	0.6110574
28	0x392b6026	0.00016343649
29	0x3dab0d76	0.08352177
30	0x40241d4b	2.564288
31	0x39107e4c	0.0001377996
32	0xc084a53c	-4.14517
33	0xbc62cfb4	-0.013843466
34	0xbe43a8a7	-0.19107305
35	0xb5b09928	-1.3157596e-06
36	0x39011c61	0.0001231297
37	0xbe2a1018	-0.16607702
38	0x30afda41	1.2794957e-09
39	0xbc8e4a0c	-0.017369293
40	0xbaca8350	-0.0015450511
41	0xaf697cc4	-2.1235552e-10
42	0xba1db91c	-0.0006016658
43	0xb5ea686c	-1.7464749e-06
44	0x3bcf7afc	0.0063317996
45	0x3b0555a4	0.0020345235
46	0xbd0fd01e	-0.035110585
47	0xb6bf3b9e	-5.699184e-06
48	0x3d8a3462	0.067482725
49	0xb7c08c44	-2.29535e-05
50	0x3ca80f2c	0.020515047
51	0x3591da7a	1.0866927e-06
52	0xbd02c8fa	-0.031929947
53	0x3d835eb0	0.064145446
54	0x34e9a2db	4.3518125e-07
55	0xb7a7a23e	-1.9983501e-05
56	0x2e3810c4	4.1851647e-11
57	0xba12b020	-0.00055957027
58	0xbda5d7da	-0.08097811
59	0xb5aa7990	-1.2701366e-06
60	0xb38b886a	-6.4975055e-08
61	0x36c510e8	5.8730257e-06
62	0xbbba49f6	-0.0056850864
63	0xb05eae80	-8.101111e-10
64	0xbb001b28	-0.0019547436
65	0xba5b40cc	-0.00083638425
66	0xb74fa8c0	-1.2377452e-05
67	0xba72f043	-0.0009267369
68	0xb69681e0	-4.485468e-06
69	0x388ba0fa	6.658021e-05
70	0x320ea5c7	8.303181e-09
71	0xbb8214ec	-0.0039697792
72	0xb6c69cb2	-5.9191016e-06
73	0xbd082190	-0.033235133
74	0xb922f17e	-0.00015539487
75	0xb41ca216	-1.4587599e-07
76	0xb75dde56	-1.3224393e-05
77	0x3d139490	0.036030352
78	0x2c4c1214	2.900018e-12
79	0xbf1a3b5c	-0.60246825
80	0xbb511f16	-0.0031909398
81	0x3c165cc9	0.009177395
82	0xb7c907aa	-2.3964636e-05
83	0x402d8aa1	2.7115862
84	0x37073ea0	8.061208e-06
85	0x3cda45a0	0.026644528
86	0x36a94ae9	5.045313e-06
87	0x3d177141	0.03697324
88	0x36ab04a6	5.0967383e-06
89	0x3ace8df4	0.0015758858
90	0xb58fe594	-1.0721146e-06
91	0xbb7e61f8	-0.0038815718
92	0xbe7f8a00	-0.24954987
93	0x3a262f6f	0.00063394656
94	0x33979f34	7.060444e-08
95	0xb90213c8	-0.00012405135
96	0xbc3fb4fe	-0.011700867
97	0x3522e13b	6.0677456e-07
98	0xbbc96670	-0.0061462447
99	0xb6ea7f28	-6.9885464e-06

bias f4 [10]
0	0xc170dfcf	-15.054641
1	0x3d9624a0	0.073312044
2	0xb8268b0e	-3.970699e-05
3	0xb690500c	-4.300853e-06
4	0xb6ed4455	-7.0711053e-06
5	0xba273680	-0.00063786656
6	0xb9f08c14	-0.00045880734
7	0xbf58a848	-0.84631777
8	0xb39b8526	-7.2419695e-08
9	0x3edca223	0.4309245

weight f4 [10, 10]
0	0xb7c514de	-2.3493947e-05
1	0xb3ac65c8	-8.027888e-08
2	0x3e50df9a	0.20397797
3	0x314dfcc9	2.9975118e-09
4	0xb8b349c8	-8.549128e-05
5	0xb8411300	-4.603248e-05
6	0x43b350a1	358.6299
7	0x3730a724	1.0529333e-05
8	0x3581597c	9.637292e-07
9	0x370efee8	8.5232095e-06
10	0xb42b7ba2	-1.5970593e-07
11	0xb7b227e6	-2.1237833e-05
12	0xbb1b5138	-0.0023699533
13	0xb70928e2	-8.175355e-06
14	0x36486852	2.9863045e-06
15	0x3c76573a	0.015035445
16	0xb50ce41c	-5.2486007e-07
17	0x390c5570	0.00013383268
18	0x37157295	8.90777e-06
19	0xb514bd76	-5.541e-07
20	0x3751f772	1.2514984e-05
21	0x35d124b9	1.5582401e-06
22	0x38f1d8d7	0.00011532165
23	0x3743bb0e	1.1666458e-05
24	0xb0e193e0	-1.6412933e-09
25	0xb6470ef0	-2.9662006e-06
26	0x3ce06a49	0.02739443
27	0x3c60f0c3	0.013729277
28	0xbaac320e	-0.0013137476
29	0x39aec830	0.00033337018
30	0x33920948	6.800343e-08
31	0x3c7fb034	0.015605975
32	0x35474ff0	7.42496e-07
33	0xb449aba6	-1.8782029e-07
34	0xb839316a	-4.4153458e-05
35	0x3e9081f2	0.2822414
36	0xb339364a	-4.3123045e-08
37	0xbb59c098	-0.0033226367
38	0x42a3b11e	81.84593
39	0xbf109f4b	-0.5649306
40	0x31b2faba	5.208986e-09
41	0x3ced69cc	0.028981112
42	0xbd8f9e84	-0.07012656
43	0xb5d2173b	-1.565298e-06
44	0xbfec782a	-1.8474171
45	0xb5fd80da	-1.888747e-06
46	0x3412da7c	1.3676794e-07
47	0xb19d761e	-4.5827298e-09
48	0xbc6fb4c0	-0.0146304965
49	0x361a5803	2.2999018e-06
50	0x3db66e80	0.08907795
51	0x3aa95711	0.0012919625
52	0xbee5dddf	-0.44895837
53	0x3894b34e	7.090588e-05
54	0x3b7abb91	0.003825877
55	0x32a293b5	1.8926452e-08
56	0x3baf1578	0.0053431354
57	0xbd4516c8	-0.04811743
58	0x3e8b56e0	0.27214718
59	0x37806d74	1.5309757e-05
60	0x384dfab2	4.9109287e-05
61	0x3d27837e	0.040896885
62	0xbec09480	-0.37613297
63	0xbf82abe0	-1.0208702
64	0x3982bce4	0.00024936267
65	0xbc1349ba	-0.008989746
66	0x3acff040	0.0015864447
67	0xb40939e6	-1.2780183e-07
68	0x34efcbe0	4.4665558e-07
69	0x3fd975f0	1.6989117
70	0x3de9c175	0.11413852
71	0xb4950127	-2.775425e-07
72	0x3b791a2d	0.0038009987
73	0xba9a88bf	-0.0011790021
74	0xb05476ea	-7.729414e-10
75	0xb29a350f	-1.7952088e-08
76	0xb5e8f3a2	-1.7356253e-06
77	0xb84e0df9	-4.912724e-05
78	0x3a0e8d12	0.0005437891
79	0x3d099ed4	0.033598736
80	0xb62e2762	-2.5950944e-06
81	0xb2d53380	-2.4819883e-08
82	0xba57b45a	-0.00082284736
83	0x3ebfc3d7	0.374541
84	0xbd608f99	-0.054824445
85	0xb91a82d0	-0.00014735316
86	0xb90a5dde	-0.00013195674
87	0x3507fca8	5.065908e-07
88	0xbd1e5f5d	-0.038665164
89	0xb90c5cea	-0.00013386054
90	0x2fb3540a	3.2619624e-10
91	0xb7fb5826	-2.9962579e-05
92	0xba7cd23c	-0.00096443645
93	0xb78ba1b4	-1.664539e-05
94	0xb4984c3e	-2.836768e-07
95	0x39dfde82	0.00042699656
96	0xb39988e4	-7.149518e-08
97	0x3c7490ff	0.014927148
98	0x3c3f800e	0.011688245
99	0x39847d4b	0.00025270352

bias f4 [10]
0	0x3cf8029e	0.030274685
1	0xbc260cae	-0.010134859
2	0xb8c1b1a6	-9.236047e-05
3	0xb8fa78ea	-0.00011943451
4	0xb8112478	-3.4604658e-05
5	0x3b184090	0.0023231842
6	0xb828112c	-4.0070314e-05
7	0xb72fd0d4	-1.0479434e-05
8	0xba13ff0c	-0.000564561
9	0x2dc392be	2.22341e-11

weight f4 [10, 10]
0	0x38078aa8	3.2315642e-05
1	0xba056c8e	-0.0005089723
2	0xbcd4eb46	-0.025991093
3	0x3b56249c	0.003267563
4	0x3a248ed0	0.0006277384
5	0xb5be5276	-1.4180102e-06
6	0xbcf42d4b	-0.029806754
7	0x3e68540d	0.22688313
8	0xb8532e6d	-5.0349558e-05
9	0x39a73864	0.00031894736
10	0xb64fc48f	-3.0959816e-06
11	0x33f9432c	1.16071845e-07
12	0xb5c62614	-1.4763232e-06
13	0x3e88718a	0.26649123
14	0x390f387f	0.00013658589
15	0x3dffb8d1	0.12486423
16	0xbe84aea4	-0.2591449
17	0x3b26f9bb	0.002547844
18	0x39cd6954	0.00039179123
19	0xb8e2bbd1	-0.00010811503
20	0x38e3f7be	0.00010870349
21	0x3ea4a1de	0.32154745
22	0xc479a9a2	-998.6505
23	0xb81b1d0e	-3.698194e-05
24	0x353b0bb8	6.967998e-07
25	0x37fd9a89	3.0231911e-05
26	0x35268c58	6.2044046e-07
27	0x3912a8ed	0.00013986575
28	0x40e6b565	7.209643
29	0x3e00d82a	0.1258246
30	0xb06c10ac	-8.587999e-10
31	0x3a89319c	0.0010467055
32	0x38071d8c	3.2214026e-05
33	0xb61a7bcf	-2.3019854e-06
34	0xbf30d5d8	-0.690763
35	0x35ec66d0	1.7613293e-06
36	0x381cb564	3.736223e-05
37	0x382896ca	4.0194755e-05
38	0x3d247de2	0.040159114
39	0x3b2a26f8	0.0025963169
40	0x386c8d28	5.6398247e-05
41	0xb10017ec	-1.864005e-09
42	0x37c77bda	2.3780321e-05
43	0xb0b361c7	-1.3051754e-09
44	0xc067ae38	-3.6200085
45	0xbcb87a1a	-0.02251916
46	0xbb3b91f8	-0.002862094
47	0x3c15a635	0.009133865
48	0xbe9f72c6	-0.31142253
49	0xbbe6c276	-0.0070422245
50	0x3990abd6	0.00027593848
51	0xbe296f38	-0.16546333
52	0xbb6270f4	-0.0034552189
53	0xba0e5790	-0.0005429918
54	0x3c03efe6	0.008052802
55	0x3f836ab2	1.0266936
56	0xb486d06a	-2.5111086e-07
57	0x3c964cc5	0.018347153
58	0x39325acf	0.00017009232
59	0xb81d5dec	-3.751919e-05
60	0x3505bb7d	4.981919e-07
61	0xb7551008	-1.2699522e-05
62	0xb9fdb1aa	-0.0004838829
63	0xb9450eca	-0.00018792893
64	0xb967d84e	-0.00022110456
65	0xbf7fe8b2	-0.9996444
66	0x3c8bbba2	0.017057244
67	0x3fb0eb76	1.3821857
68	0xb6c46725	-5.853263e-06
69	0x3528c252	6.286765e-07
70	0xae7432f8	-5.5524446e-11
71	0x3531c3e2	6.6222685e-07
72	0xb72f151e	-1.043573e-05
73	0xb70552ce	-7.946697e-06
74	0x38813eec	6.1629195e-05
75	0xbe386030	-0.18005443
76	0x398745c0	0.00025801174
77	0xbf402c37	-0.75067466
78	0x322f4a81	1.0203281e-08
79	0xb7084448	-8.12213e-06
80	0xb7076bd4	-8.071733e-06
81	0x3ca76212	0.020432506
82	0x34bf5598	3.56388e-07
83	0xb80f8820	-3.4220633e-05
84	0x40fbccaa	7.8687334
85	0x3b817ec7	0.0039518806
86	0xbc246a5a	-0.010035122
87	0xbc9dd208	-0.01926519
88	0x3a24e182	0.0006289707
89	0x3c88ac67	0.01668377
90	0xb94803ac	-0.00019074854
91	0xba246ed6	-0.00062726194
92	0xc009691c	-2.1470404
93	0xbabe4faf	-0.0014519597
94	0xbc116fb0	-0.008876726
95	0xbcbd5dba	-0.023115981
96	0x325fcfe6	1.3027579e-08
97	0x36179439	2.258703e-06
98	0x39f868a9	0.00047380224
99	0x34971000	2.8137583e-07

bias f4 [10]
0	0xbf0bb486	-0.5457233
1	0x3d29dffd	0.041473377
2	0x3239e406	1.0820264e-08
3	0x378f85c2	1.7109214e-05
4	0x3a959e2a	0.0011414934
5	0x3c3f1497	0.011662624
6	0x42a08288	80.254944
7	0x3922be70	0.00015520467
8	0xb3bc3780	-8.7645276e-08
9	0xb6883054	-4.058742e-06

weight f4 [10, 10]
0	0x37b124ff	2.1117272e-05
1	0x3308818c	3.178279e-08
2	0x40496e00	3.1473389
3	0xb87abc95	-5.9780275e-05
4	0xbbfb59ad	-0.0076706023
5	0xbb1188d0	-0.002220679
6	0xb888cd08	-6.5231754e-05
7	0xb6670e07	-3.4429847e-06
8	0x3ca8e7be	0.020618316
9	0xb9c003c7	-0.00036623908
10	0xb98f86b0	-0.00027375435
11	0x330f6e21	3.3394944e-08
12	0x324d2224	1.1940333e-08
13	0x3bc752ff	0.006082892
14	0x3f0d142e	0.55108917
15	0xb5354063	-6.752145e-07
16	0xbcd06440	-0.025438428
17	0x375e3340	1.3244164e-05
18	0xb3271494	-3.8901433e-08
19	0xb661d402	-3.3651017e-06
20	0x38ca73b6	9.6536634e-05
21	0x3a5d354a	0.00084384216
22	0x37ad8099	2.068309e-05
23	0x40048f7b	2.0712574
24	0xb64a78f4	-3.017075e-06
25	0xbac6b714	-0.0015160763
26	0xc0b73916	-5.7257185
27	0x4159404c	13.5781975
28	0x36a5d479	4.9421183e-06
29	0xb94cf7e7	-0.00019547307
30	0xb81a9ff2	-3.6865422e-05
31	0x35f0b170	1.7933035e-06
32	0xbe4d91bb	-0.20075123
33	0x37671394	1.3773231e-05
34	0x368f5d2c	4.2725787e-06
35	0xb7b7dd66	-2.1918397e-05
36	0x3d612a80	0.05497217
37	0xc18bc510	-17.471222
38	0xb4f5962e	-4.5744076e-07
39	0xb926d4db	-0.00015910288
40	0xb3b2b76c	-8.322135e-08
41	0x3be3edb4	0.0069558267
42	0xb979b2c0	-0.0002381308
43	0xb8eb967e	-0.000112337046
44	0x37a85040	2.006453e-05
45	0xbd415388	-0.047198802
46	0x3849a3d7	4.8074722e-05
47	0x4029fe7e	2.656158
48	0xbdc87ba5	-0.09789208
49	0x35c0bf70	1.436083e-06
50	0x36dc81dd	6.571629e-06
51	0x3afec668	0.0019437792
52	0xb71eab68	-9.4574425e-06
53	0xba228a0d	-0.0006200381
54	0xb50ac290	-5.169213e-07
55	0xb389df1e	-6.4201444e-08
56	0xb711f780	-8.700299e-06
57	0x405bec7e	3.4363093
58	0xb24f46bc	-1.2065069e-08
59	0xbd92d00d	-0.07168589
60	0x38a2e2a4	7.766977e-05
61	0xbb07e4f1	-0.0020735825
62	0x33f32a9c	1.132332e-07
63	0x39746180	0.00023305975
64	0x3c8d9019	0.017280625
65	0xb4894ddd	-2.5574892e-07
66	0x3a71815c	0.00092126965
67	0xaf4e1121	-1.8741676e-10
68	0xbdd14c80	-0.10219669
69	0x3d93b971	0.072131045
70	0x3b442956	0.0029931865
71	0x3c64970a	0.013952026
72	0xc077652e	-3.8655505
73	0x3a3ec814	0.0007277739
74	0x3add4254	0.0016880729
75	0xbfae5d99	-1.3622314
76	0x3c14e462	0.009087654
77	0xbf32f9e6	-0.69912565
78	0x37351d1b	1.0795217e-05
79	0xb718f770	-9.117517e-06
80	0xbbb3ba4a	-0.005484854
81	0x4229929c	42.393173
82	0x382891fc	4.019028e-05
83	0xb99a6d36	-0.00029454537
84	0xb7324e9c	-1.0627929e-05
85	0x3bca87de	0.0061807474
86	0xb68d6628	-4.21402e-06
87	0x34896161	2.558909e-07
88	0x3acf7b80	0.0015829653
89	0xaf513110	-1.902587e-10
90	0xb7c4d1b4	-2.3462671e-05
91	0x3a2ea861	0.00066626637
92	0xbf4ef441	-0.8084145
93	0x39d305f3	0.0004024949
94	0x37e70c70	2.7543138e-05
95	0xb6db034c	-6.5270924e-06
96	0x37b702bb	2.1816571e-05
97	0x31535aa0	3.0756055e-09
98	0x38d88b67	0.00010325648
99	0xb7a3bb48	-1.9518324e-05

bias f4 [10]
0	0xb7282672	-1.0022532e-05
1	0x3da0e880	0.07856846
2	0x39dfa780	0.00042658672
3	0xb568914a	-8.663816e-07
4	0xb97c900f	-0.00024086259
5	0xbaefbdb6	-0.0018290791
6	0x3bac2349	0.0052532298
7	0x35154ffa	5.5623207e-07
8	0x34324c08	1.6605202e-07
9	0xb6156854	-2.2263457e-06

weight f4 [1, 10]
0	0x340af726	1.2942164e-07
1	0x333d81a6	4.4122906e-08
2	0xbcfce72a	-0.030871946
3	0xb9da46fa	-0.00041633082
4	0xb7c2c5d2	-2.321872e-05
5	0xb98291e8	-0.0002490424
6	0x38272584	3.9850842e-05
7	0xbbfe35d2	-0.0077578807
8	0x3d917119	0.0710165
9	0x3a791c4a	0.00095028116

add_tensors f4 [10, 6]
0	0x3e08d739	0.13363351
1	0x3cb1c231	0.021699043
2	0xbce3ec94	-0.02782277
3	0x3b4e447b	0.0031473923
4	0x37880be5	1.6218002e-05
5	0xbb5a9535	-0.0033353094
6	0xb08cf01c	-1.0254584e-09
7	0x3c16db5a	0.009207571
8	0xb6b47d47	-5.3790022e-06
9	0x391e2fd9	0.00015085879
10	0xc0bcaf6e	-5.8964148
11	0xb3e8200a	-1.080917e-07
12	0xb4549023	-1.9796475e-07
13	0xb7400a45	-1.1446483e-05
14	0xb9f4a6db	-0.00046663624
15	0xb920d90d	-0.00015339647
16	0xbdc2aa20	-0.09505105
17	0xba6dc653	-0.0009070385
18	0x341e5799	1.4746765e-07
19	0xb7a8adc8	-2.0108084e-05
20	0xb748abec	-1.1960958e-05
21	0xc025b2ad	-2.5890305
22	0xbaabc790	-0.0013105739
23	0xb51e8ae0	-5.9061676e-07
24	0x32943689	1.7254267e-08
25	0x3dfcee97	0.12350195
26	0xbc261d3e	-0.010138808
27	0xbc9cb448	-0.019128934
28	0x3d11e6b6	0.035620414
29	0xbb0d95e2	-0.002160423
30	0x39a6dcce	0.000318265
31	0xb1d73762	-6.26362e-09
32	0x427c6cb8	63.10617
33	0x35be557f	1.4180986e-06
34	0x389d8f44	7.513029e-05
35	0xb68bdd6c	-4.1682997e-06
36	0xb1a9bb41	-4.9398357e-09
37	0x3aeed9be	0.0018222851
38	0xbe30c4d0	-0.17262578
39	0xbbe01c3d	-0.0068393038
40	0x3c47d56b	0.012196879
41	0xbc6df68d	-0.014524114
42	0xbb3c0920	-0.0028691962
43	0x39e9e29a	0.00044610054
44	0x3892cdbc	7.0001435e-05
45	0x3f8d6d94	1.1049066
46	0x3f6dc847	0.92883724
47	0xb9c30ba9	-0.00037201986
48	0x3bf303f0	0.007416241
49	0xbe8af07a	-0.27136594
50	0x39b2df2b	0.0003411708
51	0xbb5eaa9b	-0.00339762
52	0x37b27483	2.1273509e-05
53	0xbb6d9a87	-0.0036255436
54	0xb6fa6313	-7.4621144e-06
55	0x4183aa35	16.458109
56	0xc0505202	-3.2550054
57	0x375b1271	1.3057711e-05
58	0xb59f2e6a	-1.1859931e-06
59	0xc2910324	-72.506134

add_tensors f4 [10]
0	0xb710f339	-8.6396985e-06
1	0xbb499cd2	-0.0030763638
2	0x3e283bd6	0.16429076
3	0x35b4e625	1.3478026e-06
4	0x3d3345c2	0.043767698
5	0x3f13ce94	0.5773709
6	0xb869d28a	-5.574761e-05
7	0xbcadd49a	-0.02121954
8	0xb8bb50e5	-8.931923e-05
9	0x3a6846e8	0.00088606635

add_tensors f4 [10, 10]
0	0x374ec4aa	1.2324346e-05
1	0xb2e73755	-2.6917101e-08
2	0x4206e928	33.72769
3	0xb73b0fd4	-1.1149754e-05
4	0xbb22e922	-0.0024858196
5	0x3c119600	0.00888586
6	0x3a18077f	0.0005799457
7	0xb6d88c56	-6.453639e-06
8	0xbb5d6d42	-0.0033787047
9	0x36ac6fe5	5.1390257e-06
10	0x3a285b42	0.000642229
11	0x3212113d	8.502238e-09
12	0x335d80b4	5.1572627e-08
13	0xbb8b65cd	-0.004254079
14	0x3eb0b703	0.34514627
15	0x34466f55	1.848069e-07
16	0x3e240e12	0.16020992
17	0x3909d6af	0.00013145314
18	0x3439a882	1.729077e-07
19	0xb6ea8899	-6.9896455e-06
20	0x382b5ae7	4.0854236e-05
21	0x3883cbdc	6.2845385e-05
22	0x36923794	4.357609e-06
23	0x3f856fc0	1.0424728
24	0xb76c7a17	-1.4095122e-05
25	0x3bb64a31	0.0055630435
26	0x40788294	3.8829699
27	0xc093e198	-4.6212883
28	0x364f892f	3.0925255e-06
29	0xb9188096	-0.00014543752
30	0x377d5821	1.5100494e-05
31	0x373abd46	1.1130533e-05
32	0xbdf35902	-0.11882211
33	0x384a139c	4.8178816e-05
34	0x3792e141	1.7509448e-05
35	0xb7240cdb	-9.778155e-06
36	0x3cb06c19	0.02153592
37	0xc118934a	-9.535959
38	0xb42ee91b	-1.6289816e-07
39	0x38f77c72	0.000118010576
40	0xb377d7a4	-5.7705293e-08
41	0xbc893b8d	-0.016752029
42	0x3ab7babf	0.0014017447
43	0xb84d8457	-4.899906e-05
44	0x36ca4409	6.0279895e-06
45	0xbce2b89c	-0.02767592
46	0x377fe7a5	1.5253118e-05
47	0x3f706a29	0.9391199
48	0xbd3ada56	-0.045618378
49	0x373823d6	1.0975598e-05
50	0x3672a609	3.6157455e-06
51	0xb9af4376	-0.00033428863
52	0x381d0818	3.7439255e-05
53	0xb9b5a05f	-0.00034642496
54	0x32a1d2f9	1.8838806e-08
55	0xb40947f7	-1.27853e-07
56	0x39c12ea0	0.00036846567
57	0x3ff606c1	1.9220811
58	0xb3468fcf	-4.623126e-08
59	0xbd23767a	-0.03990791
60	0xb8964680	-7.165689e-05
61	0xba30a61f	-0.0006738621
62	0x3307b267	3.1594393e-08
63	0x37b6bae7	2.1783124e-05
64	0x39d1b478	0.00039998046
65	0xb5019e7d	-4.8286876e-07
66	0x39fe3693	0.00048487316
67	0xaf098d3b	-1.2510253e-10
68	0x3d30f958	0.043206543
69	0x3d35cc0c	0.044384047
70	0x3a89c183	0.0010509941
71	0x3ba4d726	0.0050305305
72	0xbfd1ecaa	-1.6400349
73	0xbb7633bd	-0.003756746
74	0x3a3213e6	0.0006793126
75	0xc01ab5c2	-2.4173436
76	0x3a8481ce	0.0010109486
77	0x3ef44c95	0.47714677
78	0x36d7b664	6.4287324e-06
79	0x38779fe8	5.9038313e-05
80	0xbb31922f	-0.002709519
81	0xc3610a27	-225.03966
82	0x3790135a	1.7175149e-05
83	0xb8e10af8	-0.00010730879
84	0xb6598c9a	-3.241736e-06
85	0x3a3868bf	0.00070346514
86	0x385f83a1	5.3289932e-05
87	0xb4941f9f	-2.7590156e-07
88	0x3b912657	0.0044296193
89	0x3152cf0d	3.0676717e-09
90	0xb8822895	-6.206442e-05
91	0x3ab76850	0.001399288
92	0xbe446d73	-0.19182377
93	0x37313825	1.0563094e-05
94	0x38b6624f	8.696748e-05
95	0xb81067f1	-3.442908e-05
96	0xb4b2e76a	-3.332346e-07
97	0xb39600cf	-6.9850664e-08
98	0xb7a73245	-1.993136e-05
99	0xb70ac860	-8.272094e-06

add_tensors f4 [1, 10]
0	0x331cec84	3.653669e-08
1	0x32f6b89e	2.8722123e-08
2	0xbd6d5509	-0.057942424
3	0xb9779655	-0.00023611759
4	0xb729f230	-1.0129574e-05
5	0xb8f8d28f	-0.00011864781
6	0xb94d9bd8	-0.0001960838
7	0x3c187737	0.009305767
8	0xbbba2632	-0.005680823
9	0x39eb7f44	0.00044917513
