Random_simple/TorchSaves/Best_Ball.pt (torch_old, 19282 bytes, 9 tensors)

weight f4 [3, 6]
0	0xbd11fd08	-0.0356417
1	0xbb18d9e0	-0.0023323223
2	0x3de46bfc	0.11153409
3	0xbd73cc48	-0.05952099
4	0xb9e0b650	-0.00042860443
5	0xbddbfdb6	-0.10741751
6	0xbe183e2b	-0.14867465
7	0x3ad4c390	0.0016232599
8	0xbe1c6d81	-0.15276147
9	0xbca9dce0	-0.020735204
10	0x3d9a1524	0.075235635
11	0xbe326b09	-0.17423643
12	0xbd6e2de1	-0.058149222
13	0xbed9d5b0	-0.42545843
14	0xbf3964db	-0.7241952
15	0x3e989eb8	0.29808593
16	0xbc71a160	-0.014747947
17	0xbca95d84	-0.020674475

bias f4 [3]
0	0xbd131208	-0.035905868
1	0x3e49c5ff	0.19704436
2	0x3ee3c0b1	0.4448295

weight f4 [3, 3]
0	0xbf9833c0	-1.1890793
1	0xbf033ab0	-0.51261425
2	0x3dce5ff2	0.10076894
3	0xbd84fc34	-0.064934164
4	0xbcf4b250	-0.029870182
5	0x3d9d0ff8	0.076690614
6	0x3f1b05b8	0.605556
7	0xbfae9bf9	-1.3641349
8	0xbea00350	-0.31252527

bias f4 [3]
0	0x3f2af782	0.66783917
1	0xbeb0afac	-0.34509027
2	0xbe1b7b70	-0.15183806

weight f4 [1, 3]
0	0xbda64044	-0.081177264
1	0xbf8ab47f	-1.0836333
2	0x3dc998b3	0.09843578

add_tensors f4 [3, 6]
0	0x3da583f8	0.08081812
1	0x3d883545	0.06650785
2	0xbd93662c	-0.07197222
3	0xbed0fc2f	-0.408174
4	0xbbce8265	-0.0063021653
5	0x3e6b620f	0.22986625
6	0x3e167ff9	0.14697255
7	0xbccfbdc7	-0.025359048
8	0xbde94bda	-0.11391421
9	0x3ebe3553	0.37150058
10	0x3cceca4e	0.02524295
11	0x3e1634b5	0.14668544
12	0xbcbb91e2	-0.02289671
13	0xbd737ef2	-0.059447236
14	0xbeefe6f4	-0.4685589
15	0x3e28d9f8	0.16489398
16	0xbe807cc3	-0.25095186
17	0x3d8c2bc7	0.06844287

add_tensors f4 [3]
0	0x3e81c72f	0.25347278
1	0x3bee8453	0.007278958
2	0x3e4978da	0.19675007

add_tensors f4 [3, 3]
0	0xbf1d6795	-0.6148618
1	0xbd8a7f80	-0.067626
2	0xbe2408bb	-0.16018955
3	0xbecef025	-0.4041759
4	0xbea2d967	-0.3180649
5	0x3d549741	0.05190206
6	0x3ea9a435	0.33133093
7	0xbf5bb9ef	-0.8583059
8	0x3da3813f	0.07983636

add_tensors f4 [1, 3]
0	0x3c341a63	0.010992619
1	0xbf148dff	-0.5802917
2	0x3d01f996	0.031732164
