Random_simple/TorchSaves/Last_Gen998.pt (torch_old, 19282 bytes, 9 tensors)

weight f4 [3, 6]
00000000: c2a6 9dbc feb8 80ba 5774 60be 0c02 b0bd
00000010: 6da4 43ba b495 333d 149a c6bd dbb5 553b
00000020: fb69 8bbe 4e08 d3bd 313f ce3d 2021 2a3e
00000030: 10b1 5a3a e85f 163e 2f5a 01c0 1404 423f
00000040: 1cd5 cabd b69e f4bb
-0.019244555 -0.0009820757 -0.2191938 -0.085941404 -0.0007463161 0.04384394 -0.09697357 0.0032609615
-0.27229294 -0.10304318 0.100706466 0.16614199 0.00083424244 0.14685023 -2.0211294 0.7578747
-0.09903929 -0.007465209

bias f4 [3]
00000000: 66a5 2fbd ac0d 593f 126f 04be
-0.042882346 0.84786487 -0.12932995

weight f4 [3, 3]
00000000: b409 61c0 c64e 943e 3458 b73c c67b ccb9
00000010: 285c 3bbb 1c46 bc3a dc4a 27bd cb55 a6bd
00000020: 48a2 b7bd
-3.5162172 0.2896635 0.022380926 -0.0003900213 -0.0028588865 0.0014364156 -0.040842876 -0.081218325
-0.089664996

bias f4 [3]
00000000: 245e 2d3f d436 d33e 77c9 83bf
0.6772177 0.41252768 -1.0295857

weight f4 [1, 3]
00000000: 567f 873d aa81 ecbe 9992 5e3d
0.06616084 -0.46192676 0.054339025

add_tensors f4 [3, 6]
00000000: fb08 453d a320 32bb e8d6 f8bd 20f7 da3c
00000010: 57e7 0c38 aa07 123e b82d ef3d 8a4c 893a
00000020: cfd9 b03d 1a34 4cbd aa03 163d 25fb a7bb
00000030: 05c8 6d3c ae41 57bd cd0c 77bf 466d 5e3e
00000040: 9335 3bbd edc5 05ba
0.048104268 -0.0027180098 -0.12150365 0.026729167 3.3594053e-05 0.14260736 0.11678642 0.0010475081
0.08635294 -0.049854375 0.036624588 -0.0051263743 0.01451302 -0.05255287 -0.9650391 0.21721372
-0.04570539 -0.00051030406

add_tensors f4 [3]
00000000: d891 f4bc 77cc a93e 24a1 f7bc
-0.0298547 0.33163807 -0.030228205

add_tensors f4 [3, 3]
00000000: c850 58bf 8e39 283d 8bff dbbd 1da3 0e3a
00000010: 9f5f d73c f7a3 893b df8a 31be 256f 623c
00000020: ffdf 2f3f
-0.8449826 0.041070513 -0.107421 0.0005441176 0.026290713 0.0042004543 -0.17338131 0.013820444
0.68701166

add_tensors f4 [1, 3]
00000000: 49f1 693e aff4 1d3f f9af 08bd
0.22845949 0.6170148 -0.033370946
