Relu_fixed_hardest/TorchSaves/Best_Ball.pt (torch_old, 16333 bytes, 17 tensors)

weight f4 [10, 6]
000000 62 0d 3b 34 f8 fd cf 35 83 44 9e b5 96 24 6c 38
       1.7420601e-07 1.5496616e-06 -1.1791857e-06 5.6300858e-05
000010 89 a4 28 38 10 64 5b c6 98 00 59 3d 63 41 b0 b9
       4.0207557e-05 -14041.016 0.052979082 -0.00033618053
000020 31 6c 0b 3d 35 a5 8b bd 4c 21 11 39 2f 04 80 bc
       0.034038726 -0.0681862 0.00013840682 -0.015626995
000030 e3 71 23 bc 7c 25 b6 31 0e 7a ab c0 78 fb b8 ba
       -0.009975883 5.3011586e-09 -5.3586493 -0.001411303
000040 ca 0a ae bd 98 f5 96 33 82 8c b8 39 c8 32 ad 31
       -0.084981516 7.0295926e-08 0.000351999 5.040736e-09
000050 b4 e4 f6 38 f3 20 00 36 26 d6 d7 34 06 20 a9 ba
       0.000117727934 1.9092665e-06 4.0202684e-07 -0.001290322
000060 8c 55 f4 3a c2 bc 81 37 f9 e5 01 42 e0 cd 12 3b
       0.0018641218 1.5465896e-05 32.474583 0.0022400543
000070 67 1f 28 b9 b2 8c d4 36 76 bc 93 b6 00 00 c0 b8
       -0.00016033427 6.3344714e-06 -4.402881e-06 -9.1552734e-05
000080 10 a9 25 37 c9 de e8 b6 88 b6 2b 3a d4 b2 be bf
       9.874129e-06 -6.9400744e-06 0.00065503316 -1.4898324
000090 e0 ae 1c b4 5c f7 31 ba 4a e8 7c 39 45 42 d8 b5
       -1.4592251e-07 -0.00067888736 0.00024119127 -1.6112541e-06
0000a0 38 70 1e b7 8e 0b 11 3b e6 4b bd 3c ae fd 47 47
       -9.443662e-06 0.0022132131 0.02310748 51197.68
0000b0 d3 2e 60 c4 bb ac c9 b5 8b 05 2a af 1e 4d 85 bd
       -896.7316 -1.5025938e-06 -1.5463379e-10 -0.065088496
0000c0 34 9c 4b 3d c5 0e 2e ba 99 9e 45 36 45 a0 74 39
       0.049709514 -0.0006639774 2.9447604e-06 0.00023329358
0000d0 32 88 18 be 19 db e7 33 66 01 5f 3f 60 11 81 b7
       -0.14895704 1.07966294e-07 0.8711151 -1.538609e-05
0000e0 f0 3b 65 3c c4 b2 2e 37 96 31 27 bc f3 80 b0 ba
       0.013991341 1.041283e-05 -0.010204693 -0.0013466164

bias f4 [10]
000000 e8 61 b0 3c 33 25 94 b6 00 22 11 b0 e2 ef cd bc
       0.02153106 -4.4150743e-06 -5.279901e-10 -0.0251388
000010 95 f8 fa 3e eb d2 97 b5 3c e9 a9 b9 9d 0a c2 bb
       0.49017778 -1.1311762e-06 -0.00032407965 -0.0059216754
000020 94 68 b9 39 6e 5b bd 3b
       0.00035363866 0.0057787215

weight f4 [10, 10]
000000 c0 2e f3 37 c1 7f ee 38 2c 5a 26 b9 ac fc 3b bc
       2.8989627e-05 0.000113725204 -0.00015864585 -0.011473816
000010 6a 2e c3 bc 44 28 5b 3b ac 09 d8 bf d6 d9 93 b7
       -0.023825843 0.0033440748 -1.6877952 -1.7625203e-05
000020 ac d7 e1 bd dc 13 7d 36 c2 8b b2 39 bb bd 0e 3d
       -0.11027464 3.7711497e-06 0.00034054933 0.03484891
000030 57 20 72 38 84 a1 51 bf 34 ce 73 b5 0f da 50 3f
       5.7727415e-05 -0.8188708 -9.082462e-07 0.8158273
000040 b6 91 0f 34 e3 d5 9f 35 87 e2 11 3f 74 47 70 2f
       1.3370922e-07 1.1908672e-06 0.5698628 2.1853258e-10
000050 e6 b7 b1 ba 80 0b e5 30 a3 83 07 be a7 5b cd be
       -0.0013558834 1.6665211e-09 -0.13233809 -0.40108988
000060 69 71 32 3a 9a b8 ba bc 70 03 0f 36 80 a8 8e bc
       0.00068070606 -0.022793103 2.1310661e-06 -0.017414331
000070 8c e6 1e 3b c2 87 8d ba 3d 12 10 b6 80 75 75 b5
       0.0024246303 -0.0010797905 -2.1468288e-06 -9.14406e-07
000080 54 e0 3e bd f1 39 8e 37 13 a6 48 3d fc 83 c7 37
       -0.046600655 1.69547e-05 0.048986506 2.3784109e-05
000090 78 85 ee 35 24 fd c6 be 90 63 07 3c 7c b7 53 b7
       1.7771226e-06 -0.38865006 0.008263484 -1.2619301e-05
0000a0 40 c8 91 37 37 d7 e8 b8 ae 0e 15 bd 40 b5 c5 2f
       1.7378596e-05 -0.00011102709 -0.036390953 3.5962877e-10
0000b0 6f dc cb 3d 4d a6 14 c1 e2 fb 8f 3d 0d 19 5c 3f
       0.09954154 -9.290601 0.07030465 0.85975724
0000c0 2e 30 4a 31 75 93 b7 37 db 2f 41 3a 48 91 8d 35
       2.9422256e-09 2.1883965e-05 0.0007369497 1.0547601e-06
0000d0 7e 9c 80 3b 9a ba 88 3b de 18 27 3d 35 16 eb 37
       0.0039249053 0.0041726353 0.0407952 2.8024524e-05
0000e0 60 6f 3b 2e 72 68 36 b1 82 c7 b1 40 fc 33 52 b4
       4.2617798e-11 -2.6543856e-09 5.555604 -1.9576686e-07
0000f0 23 f8 6e 3a 00 10 73 3c a0 0f a1 38 a6 84 90 b2
       0.0009115955 0.014835358 7.6799886e-05 -1.6824128e-08
000100 c7 db 87 b9 7d d4 a0 34 74 df 1c bc 10 83 34 b9
       -0.00025912953 2.9956928e-07 -0.00957476 -0.00017214962
000110 14 00 94 b6 e4 93 88 35 98 43 3a 3b 1f ca 7a bf
       -4.410753e-06 1.0175831e-06 0.0028421637 -0.9796466
000120 c8 f0 12 b8 aa 38 33 39 8c 6d b7 b7 5c a6 d4 b4
       -3.5033358e-05 0.00017091879 -2.1866312e-05 -3.960912e-07
000130 90 23 3d bd 2e 51 58 41 f4 cc 9b 34 66 af 57 b0
       -0.046176493 13.519819 2.9020123e-07 -7.84658e-10
000140 b2 9b 1d 3b fb 38 8f 37 81 3f 96 be f4 ba 97 b5
       0.00240491 1.7073462e-05 -0.29345325 -1.1304787e-06
000150 df 46 ff b7 b5 07 24 39 00 df bf be 00 61 0e ad
       -3.043137e-05 0.0001564313 -0.37474823 -8.093304e-12
000160 d8 df b3 b7 50 6b 8c bd d6 3a 6d b4 e2 be 9a c1
       -2.1442698e-05 -0.06856406 -2.209375e-07 -19.343204
000170 e8 a0 e6 38 e2 0e 10 bb 92 b0 b2 bd 9b e2 9b 2f
       0.00010997226 -0.0021981527 -0.08725084 2.835535e-10
000180 60 6a 02 3b bd 45 40 bb 80 72 41 b5 40 03 21 38
       0.001989983 -0.0029338442 -7.206472e-07 3.8388418e-05

bias f4 [10]
000000 44 87 20 38 3b 39 c6 c0 86 cf a2 c0 ac e0 0c 3a
       3.827295e-05 -6.194486 -5.0878325 0.0005374055
000010 81 9a 00 ba 6c f1 a4 b9 da af a6 b7 50 d9 88 3b
       -0.00049058354 -0.0003146039 -1.987063e-05 0.0041762963
000020 b4 bd 6b b5 cc 1c 41 3a
       -8.7820376e-07 0.0007366657

weight f4 [10, 10]
000000 63 8d 86 c1 03 66 11 3f 6a 01 81 c1 e5 cc ce 40
       -16.819036 0.5679628 -16.12569 6.4625115
000010 31 bd f6 bc 7e 6f 51 bc 31 93 66 ba c0 b6 6e 36
       -0.03011951 -0.012782929 -0.0008795737 3.5571138e-06
000020 31 48 9b 36 28 a3 e7 ba e4 38 6c 39 18 7f 8f 35
       4.627764e-06 -0.0017672526 0.00022527907 1.0691319e-06
000030 d8 12 8d 3c 00 88 4e 36 a0 44 09 b7 d4 1c bd 33
       0.0172209 3.0775554e-06 -8.181814e-06 8.806242e-08
000040 50 39 90 3a a0 db b5 38 2b 28 3e 42 ce 97 9f 37
       0.0011003409 8.671661e-05 47.539227 1.9024967e-05
000050 e5 29 5e b6 e0 5b 5e b6 b4 31 41 3f 7e ff 67 b2
       -3.3104964e-06 -3.3134056e-06 0.75466466 -1.3504062e-08
000060 6e f2 8b b4 03 e6 3f b6 b2 27 db bd 62 a5 80 39
       -2.6067158e-07 -2.8595102e-06 -0.10700931 0.00024537282
000070 db 23 97 bc 50 9b a1 36 3d 5e 06 b9 bf c6 93 b3
       -0.018449714 4.8162547e-06 -0.00012814342 -6.8813726e-08
000080 20 f8 80 38 5c 47 88 40 49 0e 8f b4 7e f6 75 3a
       6.1497325e-05 4.258711 -2.664622e-07 0.00093827385
000090 64 a9 b2 b9 12 9c ce 36 1b cf 10 3d ac e2 32 bb
       -0.00034077012 6.1574474e-06 0.03535376 -0.0027295751
0000a0 10 ac c7 3b 48 60 f1 3d 3b c3 8e bc 12 91 73 b9
       0.0060935095 0.11785942 -0.017427078 -0.00023228329
0000b0 98 9d eb 35 22 76 69 b6 1e 54 fe bc cf d8 b2 b7
       1.755473e-06 -3.4788468e-06 -0.03104597 -2.1320213e-05
0000c0 08 71 85 b3 f8 cf 6d 3b c2 4e 8e 3b 43 dc 82 bf
       -6.2138554e-08 0.003628729 0.0043428848 -1.0223469
0000d0 38 a5 fc 33 b0 0f f8 3b da 10 a0 bc 98 31 d3 2e
       1.17647176e-07 0.0075702295 -0.019539285 9.603979e-11
0000e0 20 37 06 b9 d6 01 99 3d db 09 be b6 30 53 b9 b6
       -0.00012799772 0.07471053 -5.6635886e-06 -5.523114e-06
0000f0 e8 71 d9 b1 60 47 f4 2f 92 ee 24 3a f6 c5 98 39
       -6.328481e-09 4.4434056e-10 0.0006291653 0.00029139192
000100 7c 5f 2e 35 68 91 27 38 6c 27 ee b8 40 ba f9 35
       6.4959e-07 3.9951323e-05 -0.00011356067 1.8606152e-06
000110 4c f1 14 3a b6 c8 bf 3a ee 0b 22 30 34 dd 2c 36
       0.0005681708 0.001463196 5.895221e-10 2.5758754e-06
000120 e0 d7 ea 37 fb f2 33 ba e2 f2 43 bc 38 68 4e 35
       2.7995498e-05 -0.0006864515 -0.011959763 7.689264e-07
000130 00 6c 10 3f f0 e1 52 3f 60 25 e4 ab d0 48 7e ba
       0.56414795 0.82376003 -1.6210748e-12 -0.0009700181
000140 c4 42 ec 3d f8 3a 33 bc 11 b3 6f 3f 88 1c b3 3b
       0.11536172 -0.010939352 0.9363261 0.0054660477
000150 1d e1 80 bd a2 3b fa 38 a1 1f df b9 ec da 51 b6
       -0.06292937 0.000119320364 -0.0004255744 -3.1270856e-06
000160 3b 48 07 b9 d4 14 c2 b2 33 c1 53 bc 34 8e c0 3b
       -0.00012901511 -2.2594044e-08 -0.01292448 0.005876327
000170 9c 30 7d ac f2 db 77 b9 8d c6 58 bc 98 83 47 b0
       -3.5980446e-12 -0.00023637692 -0.013230932 -7.2582784e-10
000180 e0 a1 87 32 c0 db 7b b4 41 ae f5 38 cb 7b b5 3d
       1.578968e-08 -2.3456141e-07 0.00011714968 0.08861502

bias f4 [10]
000000 26 0d 77 bb 10 40 80 be 18 52 33 bd 89 11 ba 3a
       -0.0037697046 -0.25048876 -0.043779463 0.00141959
000010 bc 9f 7f 3d ef ad 87 39 33 19 08 bb d6 1f b0 ba
       0.062408194 0.00025878797 -0.0020766973 -0.0013437222
000020 cc 62 2d 39 d0 97 9d bb
       0.0001653537 -0.004809357

weight f4 [10, 10]
000000 d6 d7 43 36 2d fd e3 3b 3a b8 40 36 b4 f2 6c ba
       2.9182897e-06 0.006957671 2.8717463e-06 -0.0009038851
000010 88 9c 44 bb fc 26 e2 37 03 1f 31 b9 38 41 8a 3b
       -0.0030000526 2.6959453e-05 -0.00016891588 0.0042192005
000020 1c 30 18 b3 09 8b f5 b8 2a ad e5 3f 52 ed ea b6
       -3.5434013e-08 -0.00011708408 1.794347 -7.001371e-06
000030 c4 7e 1a 3a c2 4e 0c 3f c8 47 a1 bb fc a1 c1 33
       0.00058935233 0.54807675 -0.004921887 9.0167276e-08
000040 4c c8 b6 ba 5f 95 77 b5 a0 c9 6b 39 19 37 6e 3e
       -0.0013945191 -9.2232034e-07 0.00022486458 0.23263206
000050 00 64 7b 39 0e 52 38 3a 18 12 59 bb d6 fa cf 37
       0.00023974478 0.000703127 -0.0033122357 2.4793128e-05
000060 42 44 44 38 0a 43 62 bc 8e 74 03 b6 2f a8 9b 3a
       4.679361e-05 -0.013809929 -1.9588365e-06 0.0011875684
000070 f6 22 47 3b d0 6d 4a b6 c8 aa 3c ba 4e 78 11 42
       0.0030385829 -3.0164265e-06 -0.0007197079 36.367485
000080 fd 1b e5 3a 7a af 2a 35 f2 bb 7d 3c ad ab 5c 35
       0.0017479655 6.3585287e-07 0.015486704 8.220621e-07
000090 3b bf b6 32 f8 f1 72 3b 60 8f eb bd d9 62 2c 39
       2.127455e-08 0.0037070494 -0.11501956 0.00016440022
0000a0 60 87 52 39 27 4d 85 3e 91 06 72 36 0e b9 08 38
       0.00020077592 0.26035425 3.6064632e-06 3.2597272e-05
0000b0 22 05 04 3f 35 32 04 32 76 de 7e bd 76 22 11 36
       0.5157033 7.694827e-09 -0.062223874 2.1626743e-06
0000c0 7f ec dd 35 0a 92 d6 ba 66 28 f0 c3 40 11 64 b1
       1.6534613e-06 -0.0016370427 -480.3156 -3.3188172e-09
0000d0 98 01 09 38 ce f1 9f 3e ce 10 82 bc 92 b3 c7 3e
       3.266483e-05 0.3123917 -0.015877154 0.3900419
0000e0 37 6f 5e bb ec f5 ac b4 56 d7 fb af de 6c c0 34
       -0.00339408 -3.2216428e-07 -4.580964e-10 3.5841998e-07
0000f0 d8 5c 3a 3a ac af 0a 3e aa e3 1f 3a bc ce 9e 39
       0.0007109172 0.13543576 0.0006099293 0.00030290138
000100 40 80 04 36 aa 7e 26 32 98 90 27 b6 de 32 07 37
       1.9744184e-06 9.691272e-09 -2.4969104e-06 8.0584705e-06
000110 e6 77 58 40 6c ec 23 bb da 06 57 b7 88 a2 b3 b8
       3.382318 -0.0025012745 -1.2816594e-05 -8.565659e-05
000120 55 0b 3e 38 b9 a6 75 41 06 58 95 b8 2e df 1d 3f
       4.5310084e-05 15.353204 -7.121269e-05 0.6166867
000130 bf d0 05 b8 b0 d4 84 3c 05 7c 45 3a c0 96 eb 36
       -3.190408e-05 0.016214699 0.0007533434 7.0210954e-06
000140 3e 0e d6 be cf ee 26 3d 73 15 5c 39 f0 ff 22 39
       -0.4180774 0.04075509 0.00020988825 0.00015544868
000150 fb c1 08 35 4e 39 d6 b8 60 e2 88 b1 7f 62 23 3b
       5.0946227e-07 -0.00010214989 -3.983857e-09 0.0024930534
000160 9e fe 2f 3b 9c 45 a3 b4 31 d0 4b bf f0 c2 78 37
       0.0026854645 -3.0411763e-07 -0.7961455 1.4827339e-05
000170 e6 40 f9 b7 d5 52 8b 35 ee a5 b8 b8 8d fc f9 39
       -2.9713334e-05 1.0380414e-06 -8.8047105e-05 0.00047681146
000180 c5 2c 10 bc 66 d3 36 bc ee d2 59 38 ea e3 d2 36
       -0.008799736 -0.0111588 5.1933275e-05 6.2850204e-06

bias f4 [10]
000000 98 11 36 3f 20 d7 32 b3 84 c1 2e 33 96 38 dd 36
       0.71120596 -4.163951e-08 4.0688533e-08 6.5929007e-06
000010 bc 65 b8 3b e7 5f d8 3b d4 a1 95 bd d8 70 11 b6
       0.005627362 0.0066032293 -0.07306257 -2.1672367e-06
000020 08 bc 00 bc 98 ff eb b6
       -0.00785733 -7.033301e-06

weight f4 [10, 10]
000000 e0 97 d6 37 04 56 9e bb 20 fa a7 b9 42 ad b9 b8
       2.558151e-05 -0.004832031 -0.0003203908 -8.853759e-05
000010 d5 e4 92 39 cd ce a1 b8 ec c3 b3 37 44 19 b6 bb
       0.00028017783 -7.715598e-05 2.1429696e-05 -0.005557211
000020 42 62 3e b9 6d 29 d6 b8 68 59 49 b5 3d 7e 14 b7
       -0.00018156416 -0.00010212031 -7.500844e-07 -8.85088e-06
000030 98 57 91 38 e4 f9 b7 3f ba 51 bf 3c 60 12 2e ae
       6.9304544e-05 1.4373136 0.0233544 -3.957934e-11
000040 9e 0a 1b b9 2c b2 af b3 a8 6d fc 41 c2 f9 70 3f
       -0.00014785907 -8.181482e-08 31.553543 0.941311
000050 90 71 37 39 08 8d e7 bd 26 ab 8c 32 37 57 33 3a
       0.00017494545 -0.113061965 1.6375974e-08 0.0006841304
000060 14 47 87 b2 da 71 2f bc b8 b0 8b ba 44 4b 7f bd
       -1.5748391e-08 -0.010708297 -0.0010657525 -0.06232764
000070 a6 1f 1c b7 10 c6 6d ae 99 f1 02 be d0 16 47 3a
       -9.305693e-06 -5.4063476e-11 -0.12787475 0.0007594647
000080 94 dd 07 39 8d 72 ef 3e 6c 7f 2d 3b 5a f8 c9 3f
       0.00012957148 0.46767083 0.0026473654 1.5778916
000090 a2 50 45 33 ea e9 f0 32 6d c1 50 ba 00 b0 92 37
       4.5940972e-08 2.8046049e-08 -0.0007963393 1.7486513e-05
0000a0 94 2a b9 be dd 36 0a 3c 00 5d fa b5 a1 1d 69 ba
       -0.36165297 0.008435932 -1.8653518e-06 -0.00088926597
0000b0 0c 50 ba 3a 2c 4f 68 33 70 cf 2b c0 b4 59 f9 3b
       0.001421453 5.4088716e-08 -2.684536 0.0076095704
0000c0 9f e2 a9 39 c0 8f 3d b3 4f 4b 24 39 e6 c8 9a 38
       0.00032403038 -4.413573e-08 0.00015668313 7.3807125e-05
0000d0 80 84 6b b6 50 35 96 b5 ce e0 84 39 e8 16 ac bf
       -3.5094854e-06 -1.1191387e-06 0.00025344494 -1.344449
0000e0 3f 14 11 3b e3 56 18 be d9 a1 02 b5 22 cd 49 b3
       0.0022137312 -0.14876895 -4.8664293e-07 -4.6985527e-08
0000f0 d8 db 08 bb 5c 99 4c 39 94 2e a8 b8 7e 37 9b 28
       -0.002088299 0.00019512087 -8.01954e-05 1.7232523e-14
000100 80 c8 d3 33 09 31 58 3c 20 94 31 b8 db 33 ab 39
       9.861924e-08 0.013195285 -4.233804e-05 0.00032654297
000110 da 57 e5 be 60 2c 1f bd fc 55 c8 33 4e 68 83 b9
       -0.44793588 -0.03886068 9.328866e-08 -0.0002506398
000120 c8 18 12 30 15 c2 1f b8 98 2f a3 32 5c 88 50 b2
       5.3149707e-10 -3.8089307e-05 1.899734e-08 -1.2138198e-08
000130 5f 52 43 b3 00 a0 6b 35 c8 6d 48 35 b0 a2 3d 3a
       -4.547689e-08 8.777715e-07 7.466556e-07 0.000723402
000140 af 22 4b 3f 56 f8 45 ba 34 d0 ef 38 eb 7e a5 3d
       0.793498 -0.00075519586 0.00011435189 0.08080848
000150 4e 91 17 c1 56 14 29 37 5b a3 88 b3 a9 3a 19 b3
       -9.472975 1.007792e-05 -6.362708e-08 -3.567644e-08
000160 c0 32 1f b6 60 9d 85 b7 79 e9 c2 b6 e6 e8 02 35
       -2.3722387e-06 -1.5928119e-05 -5.8088303e-06 4.8767686e-07
000170 0e 54 8e b9 9a 4d 9d 3b 3a 00 2e 39 b4 b9 e2 c1
       -0.00027146976 0.0048005106 0.00016594018 -28.340675
000180 9c f5 2f 3e c2 4b 8e 37 f6 7b e6 b9 bc 99 50 3c
       0.17183536 1.6962997e-05 -0.00043961377 0.012731966

bias f4 [10]
000000 d0 3c 35 3a f2 c3 0e 3d 8f 34 12 c0 3b 22 42 be
       0.0006913664 0.034854837 -2.284458 -0.1895837
000010 da 02 a1 3a 97 eb 1c 3b e4 ca 9b 3e 0d 42 00 b9
       0.0012284175 0.0023944133 0.3042823 -0.00012231637
000020 3a f3 d5 ba 3a 80 d4 b9
       -0.0016323098 -0.00040531327

weight f4 [10, 10]
000000 cc 39 37 36 30 72 c0 c0 f0 a2 9c b4 a0 3f de 39
       2.7302767e-06 -6.013939 -2.9175817e-07 0.00042390544
000010 5a 33 03 3c 1b 7f 04 b5 cd f2 95 b5 e3 83 1e bb
       0.008007849 -4.9358795e-07 -1.1172029e-06 -0.0024187497
000020 80 e9 37 c1 bf e0 ba b5 80 3b 3b 37 96 15 27 36
       -11.494507 -1.392349e-06 1.1159922e-05 2.4897504e-06
000030 ae 27 3f 3b 87 75 01 38 b8 a3 b8 38 00 7e b2 bf
       0.0029167938 3.0865453e-05 8.804299e-05 -1.3944702
000040 79 71 bb 43 70 b6 e6 ba 10 88 d1 35 54 04 1b b8
       374.8865 -0.0017601978 1.5611313e-06 -3.695891e-05
000050 ec 88 be 3d 68 44 0a 3b 0a 67 78 3f 06 5f d6 3e
       0.093034595 0.0021097902 0.97032225 0.41869372
000060 42 73 b9 b7 e0 49 1c 39 44 33 f5 3c 3a bb ab 3b
       -2.210739e-05 0.0001490484 0.029931672 0.005240825
000070 9a 6c bc bc f8 fa 08 3d 40 8b fc b8 84 ae a2 bc
       -0.023001004 0.033442467 -0.00012042234 -0.019858606
000080 ec c1 ad 32 ab 40 f3 3f 9e f8 0c b6 20 0e d5 b2
       2.0228036e-08 1.900411 -2.100634e-06 -2.4802887e-08
000090 30 c5 1d 36 7c 8a 12 3d 05 48 51 3b 1d d9 00 b5
       2.3509601e-06 0.0357766 0.0031933796 -4.799966e-07
0000a0 c0 3a e3 38 bb 46 97 b4 d8 9c ba b7 49 31 0b b6
       0.000108351465 -2.8177405e-07 -2.2245964e-05 -2.0741302e-06
0000b0 f4 2a 88 b8 f0 79 d4 ba d8 dd 41 40 fc 2c e6 39
       -6.492986e-05 -0.0016210657 3.0291653 0.00043902535
0000c0 1c ae 3c 3e c9 85 a5 3b 38 b4 5f 38 9a af b0 bb
       0.18425792 0.005051349 5.3335185e-05 -0.005392027
0000d0 aa 55 0f 39 25 8d 8e 3a 70 4a af 37 5a c7 1d 3b
       0.00013669455 0.0010875805 2.0896288e-05 0.0024075122
0000e0 08 4f 90 bd a4 c1 83 36 5b a7 7f 41 ef 6d 85 bb
       -0.07046324 3.926647e-06 15.978358 -0.004071943
0000f0 6c ef 04 39 f0 26 12 35 60 99 2a 3c f0 21 d1 32
       0.00012677693 5.44459e-07 0.010412544 2.4346235e-08
000100 3f 11 1d ba 3d fe ab bc 75 cf 45 b9 bc 4a 40 b8
       -0.00059916446 -0.020995254 -0.00018864668 -4.584597e-05
000110 b4 13 a9 bd 0f 87 37 3f b0 4c de 3d 52 6c 7e c0
       -0.08255711 0.7169046 0.10854471 -3.9753613
000120 0b 71 c7 ba 7e a6 35 30 44 cb 76 b2 d8 b2 83 b8
       -0.0015216185 6.6084016e-10 -1.4365302e-08 -6.279879e-05
000130 c0 a3 9e b7 0e 65 67 39 58 31 2d b9 68 8a 98 39
       -1.891132e-05 0.00022067523 -0.00016516948 0.0002909482
000140 82 3f 6a 34 b8 16 08 34 86 09 73 39 e8 dd c8 ba
       2.1816052e-07 1.2674252e-07 0.00023177834 -0.0015324922
000150 58 4b 3c 3d 2e b0 60 b6 33 18 0b 38 9c 89 2e b6
       0.04597029 -3.3481151e-06 3.316272e-05 -2.600812e-06
000160 70 f3 69 37 f4 95 e6 34 40 5d 60 b7 2e fc 87 3c
       1.3944562e-05 4.2949944e-07 -1.3373152e-05 0.01659974
000170 80 91 ee 35 e7 32 8f bb 88 a6 ac 40 d8 c3 f3 37
       1.7774728e-06 -0.0043700817 5.3953285 2.9059054e-05
000180 f2 89 b2 38 28 fd c3 bd 82 ec 9b be 2d f2 e4 35
       8.513396e-05 -0.0956977 -0.3045388 1.7057806e-06

bias f4 [10]
000000 77 96 6a b3 97 d1 dd 3b 58 5c 74 be 00 08 88 3c
       -5.4619218e-08 0.00676937 -0.23863351 0.016605377
000010 73 47 9f b6 08 81 16 3b cd a3 36 b1 9c 42 e3 bc
       -4.746887e-06 0.0022965092 -2.6577596e-09 -0.027741723
000020 8c 58 a4 3a 78 f3 bd b5
       0.0012538596 -1.4152456e-06

weight f4 [1, 10]
000000 f7 c5 b2 b8 0c d4 17 bc 0e da 51 39 98 20 72 41
       -8.524575e-05 -0.0092668645 0.00020013025 15.132957
000010 48 1f 49 3b cf 8f 05 3c 98 e5 43 bd f0 89 01 37
       0.003068881 0.008151962 -0.04782638 7.721115e-06
000020 9f f7 66 36 cf 30 9b 3f
       3.4416805e-06 1.212427

add_tensors f4 [10, 6]
000000 b0 fd a9 34 2c 3e 18 b4 f8 66 2e b5 dd 54 dd 37
       3.1663285e-07 -1.4178721e-07 -6.496989e-07 2.638477e-05
000010 a2 10 8d 36 ba de 22 47 33 69 f5 3d cc 70 8d b7
       4.2040638e-06 41694.727 0.11982956 -1.6861035e-05
000020 c2 69 81 3c 55 d4 0a bd 03 46 a6 b8 3b 76 b8 ba
       0.0157975 -0.0338939 -7.9285375e-05 -0.0014073321
000030 e8 37 c4 3a b7 58 d5 32 da 5a 6b c0 af e2 71 b9
       0.0014970275 2.4836806e-08 -3.6774201 -0.00023067997
000040 08 58 4f bd a7 6a bb 32 82 b1 e6 34 57 2f 0f 31
       -0.050621063 2.1818165e-08 4.2969992e-07 2.0836148e-09
000050 68 8c 35 38 97 2f ad 36 9f e8 1c b5 c4 8b 29 3b
       4.3284526e-05 5.161342e-06 -5.8453037e-07 0.002587066
000060 9a ad 7d 3b 95 d9 14 38 fb 72 f5 40 f0 60 bd ba
       0.003870821 3.548859e-05 7.6702857 -0.0014448445
000070 37 2a 49 b8 93 e1 6f 37 80 03 bf b2 08 a8 86 3a
       -4.796145e-05 1.4298031e-05 -2.2236918e-08 0.0010273466
000080 66 d4 e2 36 f7 ad 8d 36 5c c4 a9 b9 6d d3 9b 40
       6.7600513e-06 4.2223796e-06 -0.0003238049 4.869559
000090 07 73 c1 b3 a0 e9 92 39 e5 3d f4 38 0b 3c 83 35
       -9.008186e-08 0.00028021354 0.000116463554 9.777735e-07
0000a0 ed 92 af b7 ad 5d ec ba 09 65 48 bd 45 75 e7 46
       -2.0930043e-05 -0.0018033289 -0.04892448 29626.635
0000b0 e3 0c e8 c3 1b f0 10 b4 af 11 1b ad 61 32 3e bd
       -464.10068 -1.3498395e-07 -8.8146565e-12 -0.046434764
0000c0 df c6 5f bc d2 83 c2 37 54 4c 05 35 da 5f 21 39
       -0.013658254 2.3187986e-05 4.9657433e-07 0.00015389864
0000d0 2c ee 3e bd 9b 62 df b2 af ae 0e 3f 38 eb fe b7
       -0.046613857 -2.6005457e-08 0.55735296 -3.0388692e-05
0000e0 d8 66 47 3d 52 a3 60 35 0c e5 b9 bb 3f 0b 2a ba
       0.048682064 8.3684165e-07 -0.0056730565 -0.0006486661

add_tensors f4 [10]
000000 a7 2b a1 3b f3 1a 96 35 16 a6 c0 33 43 f1 20 3d
       0.004918534 1.1183714e-06 8.9709076e-08 0.039292585
000010 6a a7 76 3e 4b 15 46 32 fd 34 47 ba 5b df cb ba
       0.24087301 1.1529958e-08 -0.00075991434 -0.0015554236
000020 d0 53 0a 38 a1 c4 3c 3b
       3.297982e-05 0.0028803723

add_tensors f4 [10, 10]
000000 ef e9 e0 35 fb 7f 9c bf 03 aa bb b3 15 10 b6 3a
       1.6757384e-06 -1.2226557 -8.738791e-08 0.0013890291
000010 ee d3 5f bc 41 b9 0e b4 8a 99 10 35 bd 7c c9 b9
       -0.013661368 -1.3292176e-07 5.386761e-07 -0.00038430645
000020 52 4a f9 c4 15 d6 0d b6 15 5d f2 38 ae 53 8e b6
       -1994.3225 -2.113525e-06 0.00011556797 -4.2416714e-06
000030 6a bd 7f 3a 7d fd b0 b6 e2 a8 38 35 3f 34 f4 3e
       0.0009755703 -5.2747187e-06 6.87911e-07 0.4769611
000040 71 e3 4f 43 20 b2 4d ba da 67 a9 36 f1 28 02 b9
       207.88844 -0.0007846672 5.0486824e-06 -0.00012413018
000050 f6 0b 74 3d c2 8c 4f 3a 44 35 f3 3e d9 5f 73 3e
       0.05958172 0.0007917398 0.47501576 0.23767032
000060 3d 6e 1a 37 d0 05 be 38 23 3f 8e 3c 92 a2 ed 3a
       9.204782e-06 9.060989e-05 0.01736409 0.0018130115
000070 24 8d 2d 3b 7c b1 ae 3c 82 f8 94 ba 34 26 26 bc
       0.0026481831 0.021324866 -0.0011365565 -0.010140944
000080 cc c6 98 31 a5 40 c1 3e ad 84 a0 b5 a1 8c 71 32
       4.446383e-09 0.37744632 -1.1959543e-06 1.4060022e-08
000090 0c c9 3c 35 cc 2b 00 3c b5 0d 06 3b c4 47 a8 b4
       7.032802e-07 0.007822942 0.0020454947 -3.1344655e-07
0000a0 b9 02 b5 39 31 e5 ed b4 70 bb 47 36 24 da e5 35
       0.0003452504 -4.431145e-07 2.9762414e-06 1.7125317e-06
0000b0 4e 65 3e 39 11 bc e4 b9 b5 7b e1 3f 83 76 52 b9
       0.00018157551 -0.0004362767 1.7615877 -0.0002007131
0000c0 67 7f 22 3d e9 0d b5 3a e0 fb e7 38 fd 2a 4a 3b
       0.03967228 0.001381335 0.00011061854 0.0030848377
0000d0 15 1f 24 38 b6 df 2b ba 1f 92 bb 36 62 d2 9d 3b
       3.9129594e-05 -0.0006556468 5.590045e-06 0.0048163394
0000e0 17 dd fd bc 9f 0c bc 37 60 d5 f1 40 49 9f 62 3a
       -0.030989213 2.2417224e-05 7.5572968 0.0008644951
0000f0 83 56 67 38 c2 fd fc b6 fc e3 d7 bc 6f 0e 0c 34
       5.5155262e-05 -7.5397265e-06 -0.026353829 1.3043767e-07
000100 33 a1 06 39 ed 67 84 bc 7b 82 b0 b7 49 b7 48 37
       0.00012839287 -0.016162837 -2.1041595e-05 1.1963603e-05
000110 8a df 7f bc 0a 78 b3 3e 13 0f fe 3f 61 a6 fc bf
       -0.015617261 0.3505252 1.984835 -1.9738275
000120 ed 25 cc b9 3c ea 2e 2f 60 2f 00 33 57 88 0a 3a
       -0.0003893817 1.5908425e-10 2.984541e-08 0.00052845984
000130 c0 32 1f ba 71 2c da 38 ad ed 48 37 1e 1d 92 38
       -0.0006072931 0.00010403328 1.1976267e-05 6.967246e-05
000140 bc 1c 09 b4 c9 de dd b5 76 43 49 b9 9f 1a 67 bc
       -1.2769573e-07 -1.6530622e-06 -0.00019193985 -0.014105468
000150 94 de c0 3d d6 4e 00 b6 25 4c 34 37 20 07 1f 36
       0.094174534 -1.9119375e-06 1.0746565e-05 2.3696994e-06
000160 06 b4 f4 36 eb 6a 4f 34 46 ac 2a 39 10 68 e6 3b
       7.292724e-06 1.9317274e-07 0.0001627664 0.007031448
000170 63 ce 54 39 1b dc 01 ba 10 0c b2 c1 11 49 62 37
       0.0002029478 -0.0004953758 -22.25589 1.3487662e-05
000180 bb 0e 02 38 97 9a 09 3f e1 db 42 bd 33 3a 48 34
       3.1008134e-05 0.5375151 -0.047572974 1.8647624e-07

add_tensors f4 [1, 10]
000000 8b 2f 53 b8 45 3b b5 3b ed ba 88 b9 a7 66 b0 40
       -5.0350598e-05 0.005530747 -0.00026079212 5.512531
000010 bc dd b3 3a d9 94 54 bc f0 88 ec bc c8 0e 07 b8
       0.0013722698 -0.012974941 -0.02887389 -3.2200274e-05
000020 80 2f e4 35 d2 0a 13 3f
       1.7001148e-06 0.57438385
