Relu_fixed_hardest/TorchSaves/Best_Ball_Gen998.pt (torch_old, 16333 bytes, 17 tensors)

weight f4 [10, 6]
000000 20 ad 8f ba 62 80 d2 40 9c c7 35 bd ef 22 7f 37
       -0.001096163 6.5781717 -0.044379815 1.5207318e-05
000010 30 e0 46 36 56 9d a6 35 32 99 45 3f 17 bb 90 bc
       2.9634793e-06 1.2413755e-06 0.7718688 -0.017667336
000020 ce 12 da 3a 34 9a 6e b6 e5 49 94 37 5f d1 bf b6
       0.0016637684 -3.5554522e-06 1.7677385e-05 -5.7166176e-06
000030 54 85 ee b8 aa ce ff 37 fd 24 79 3a 76 3b 9d bd
       -0.00011373559 3.0494604e-05 0.0009504108 -0.07677357
000040 64 58 11 ba b3 dd ac b8 90 d6 94 bd 9f ff 55 b8
       -0.0005544482 -8.242894e-05 -0.07267487 -5.1021223e-05
000050 e8 f9 72 35 de 85 b3 b6 80 55 07 36 a9 43 e4 34
       9.0515687e-07 -5.3502e-06 2.0166335e-06 4.251754e-07
000060 01 f0 2d b5 eb 0e dd bf 94 cc 0e 3e 34 9b cc bf
       -6.4796774e-07 -1.7270178 0.13945228 -1.5984864
000070 b6 09 89 3a 8c 73 8e 3b 00 da 11 b5 9b e3 d0 b6
       0.0010455165 0.0043472704 -5.433394e-07 -6.22538e-06
000080 d8 17 3b bb 8e af c9 3b ad f7 95 b9 fb e4 81 c2
       -0.0028548148 0.006154961 -0.00028604027 -64.94723
000090 b6 f1 eb 3d b4 0d 6b b7 18 2c 31 b9 fd 51 05 bd
       0.11520712 -1.4010282e-05 -0.00016896462 -0.032548893
0000a0 28 4d 07 b8 48 4b 89 3e da a1 4c 39 a2 11 4a 47
       -3.2258366e-05 0.26815248 0.0001951525 51729.633
0000b0 bf d8 0a c4 36 e0 82 3b 0a 65 60 b4 f8 78 9d 37
       -555.38666 0.003994013 -2.0898383e-07 1.8772189e-05
0000c0 8a 92 0a 39 75 8f 3a 3c e8 d5 ed 36 20 f0 43 34
       0.00013215296 0.011386742 7.0880524e-06 1.8248147e-07
0000d0 28 6f 92 b7 50 b2 62 30 62 1b 10 3e 24 0c db 39
       -1.7456317e-05 8.247172e-10 0.14072946 0.0004177998
0000e0 db f7 e9 b7 90 de b8 37 1e 8a bb 38 38 8b 64 bd
       -2.7891181e-05 2.2038148e-05 8.942581e-05 -0.05579683

bias f4 [10]
000000 d1 95 c9 bb f5 51 58 bc 26 b8 40 3e be dc 57 be
       -0.0061518927 -0.013203134 0.18820247 -0.210803
000010 47 dd 01 39 53 93 cf 38 52 98 8c 3c 82 40 cf bf
       0.00012384831 9.8979704e-05 0.017162476 -1.6191561
000020 3c 5e 3a 39 e6 17 ad 3f
       0.00017773447 1.3522918

weight f4 [10, 10]
000000 68 4b 8e 44 ce c3 d9 3f 15 51 30 bd dc cc dc 3e
       1138.3564 1.701288 -0.043046076 0.43125045
000010 e2 42 52 be f2 d6 2f 3a 52 63 8a be dd b7 17 b8
       -0.20533326 0.00067077496 -0.270289 -3.617244e-05
000020 b0 07 32 bb 94 a5 29 bc d6 18 36 b6 60 93 59 bf
       -0.0027165227 -0.010354418 -2.713457e-06 -0.849905
000030 7e 03 e7 c1 0c a5 c5 40 98 69 bd c0 c0 41 9f bc
       -28.876705 6.1763973 -5.91914 -0.019440532
000040 59 20 5a b5 80 0e 17 39 3c 6f bd 3a d0 9e fc b3
       -8.12584e-07 0.00014405884 0.0014452706 -1.1763552e-07
000050 44 19 2a b9 80 3a c6 37 32 00 c1 bc 98 9f c3 3f
       -0.00016221876 2.363068e-05 -0.023559663 1.5283079
000060 6e 72 32 c0 66 02 83 b9 cc f2 8f c1 b0 8b 07 3f
       -2.7882342 -0.00024988054 -17.993553 0.5294752
000070 6a b8 8a c0 7c a8 b9 b9 c5 74 a6 33 22 dd 85 b6
       -4.3350115 -0.0003541148 7.7512176e-08 -3.989452e-06
000080 70 45 85 39 8a d2 1d b4 d9 0b 33 39 b0 d6 f6 34
       0.00025419472 -1.4698358e-07 0.00017075184 4.5977276e-07
000090 43 3e 49 bc 17 a6 15 c0 2f 67 66 3a df 48 b8 3a
       -0.012282911 -2.3382623 0.0008789179 0.0014059803
0000a0 1f be 3d b9 01 25 ee b9 0e 95 37 bb 96 6c 18 37
       -0.0001809527 -0.00045422468 -0.0028012428 9.085188e-06
0000b0 b4 9d 86 b5 28 f8 e1 45 18 6b 8a b7 77 7c 85 3c
       -1.0029676e-06 7231.0195 -1.6500751e-05 0.016294701
0000c0 15 97 b4 b8 6c e3 57 c1 e1 64 01 3b 64 a5 a6 b5
       -8.61121e-05 -13.493023 0.0019743966 -1.2416099e-06
0000d0 ec dd 7b bf 86 27 5f bb 82 2f 3e bf 08 1c 8e b8
       -0.983855 -0.0034050657 -0.7429124 -6.776309e-05
0000e0 14 fc 2b 3b 1c a1 54 27 ec 52 9d be 43 05 2a 3e
       0.002624278 2.9508248e-15 -0.30727327 0.1660357
0000f0 7b ea 7c c1 66 16 d7 b8 2e 4c 0c 32 a2 eb b2 3d
       -15.807246 -0.00010256171 8.166394e-09 0.0873635
000100 72 23 31 3c 9c 63 e8 3d 93 b4 c1 3b 7e b1 11 3b
       0.0108116735 0.11347124 0.0059114187 0.0022231038
000110 42 5f 8c 38 37 22 13 3a 80 79 21 b6 0e aa 3e 31
       6.6934634e-05 0.00056127034 -2.4061592e-06 2.7745304e-09
000120 34 65 89 ba e5 bf 29 38 d0 1d 50 b4 48 e8 5d b6
       -0.0010482431 4.0471456e-05 -1.9382355e-07 -3.3066772e-06
000130 c0 e3 15 b7 1b 55 00 44 fa 3f e0 36 d8 45 55 3c
       -8.934119e-06 513.3298 6.683168e-06 0.01301714
000140 cc a4 ad ba 1c 91 06 b9 38 e8 8b 38 88 ee 09 b6
       -0.0013247966 -0.00012833293 6.6712906e-05 -2.0553434e-06
000150 1d 71 03 ba ec 61 f7 b8 7a 1c f9 38 98 19 17 35
       -0.00050141086 -0.00011796117 0.000118785494 5.628913e-07
000160 52 bf 84 b9 65 cd 83 b9 5c d6 37 b4 95 25 93 3d
       -0.00025319547 -0.00025139298 -1.7121187e-07 0.071849026
000170 2f 44 c0 b9 c9 40 97 3a fc fb a1 3d 9a 5a 59 3b
       -0.00036671894 0.0011539693 0.0790939 0.0033165575
000180 74 e4 0d b8 64 9b c2 37 c7 0c f8 38 57 a6 59 3a
       -3.3829783e-05 2.3198962e-05 0.000118279415 0.00083026796

bias f4 [10]
000000 bf 78 94 37 d8 84 f6 b8 2b 5a d3 c2 64 e4 1b 3c
       1.7699202e-05 -0.00011754938 -105.67611 0.009514902
000010 58 7f 56 ba 39 ca 73 b8 6c ae d4 b8 66 84 bd bb
       -0.0008182428 -5.812405e-05 -0.00010141436 -0.0057836054
000020 ec 5c 95 39 2d b4 94 39
       0.00028488727 0.00028363

weight f4 [10, 10]
000000 cf 28 54 3a e0 b5 91 bc c6 69 8d b9 fa fd 75 be
       0.0008093239 -0.01778692 -0.00026972423 -0.24022666
000010 69 b9 01 3c 68 92 15 3f 34 7f 01 37 f3 0b fe be
       0.00791774 0.58426523 7.718616e-06 -0.49618492
000020 c8 87 47 3b 6c 25 1f c0 4c 1a 97 b8 a1 df 48 bf
       0.0030445922 -2.486659 -7.205139e-05 -0.7846623
000030 7a ff 9f 3a 9e 16 fc 37 26 a0 e6 39 30 69 58 bd
       0.0012206875 3.0051273e-05 0.00043988338 -0.05283469
000040 0e 71 d7 b8 e2 65 36 be 04 39 9b 3d 2e 74 7c 30
       -0.00010273057 -0.17812303 0.07579234 9.1842167e-10
000050 76 c2 59 ba 00 6e 60 b9 64 ce 1a 3a 08 c7 30 3d
       -0.000830687 -0.00021403283 0.00059053884 0.04315856
000060 ae 22 0b bb 38 00 c5 b3 cb 71 72 b4 20 c6 b8 3c
       -0.0021230388 -9.173567e-08 -2.2579404e-07 0.02255541
000070 de ec 05 bb b2 98 72 bb c7 7a cf b9 9c 91 0b ba
       -0.0020435373 -0.0037017283 -0.00039573593 -0.00053241267
000080 f8 0a 01 b5 2d 16 4d 39 24 f0 9d 3b bc 45 ed 3c
       -4.8072206e-07 0.00019558585 0.0048198868 0.028963916
000090 48 05 84 bb d2 35 a4 33 9e f1 d0 bf 94 c8 e4 3d
       -0.00402895 7.646635e-08 -1.6323736 0.1117107
0000a0 c2 3c db 38 63 ce f0 3b 26 b7 a3 bd 90 53 98 c0
       0.00010454051 0.007348822 -0.07993917 -4.7602005
0000b0 40 12 f2 b5 1e 55 04 34 f6 46 17 c1 2c 23 f4 3c
       -1.8035716e-06 1.2324423e-07 -9.454824 0.029801928
0000c0 86 98 9e b6 64 6f c0 35 da 87 ff b6 d9 42 c0 3e
       -4.726523e-06 1.4337534e-06 -7.6154074e-06 0.37551
0000d0 84 33 35 b5 d8 ca de 3e 38 31 02 3c c2 e0 37 29
       -6.750272e-07 0.43514132 0.007946305 4.082911e-14
0000e0 9c 91 63 bb 20 a4 d8 39 e6 75 ca b6 53 8c 50 b6
       -0.003472424 0.00041321013 -6.0337943e-06 -3.1076095e-06
0000f0 be ee 2a b1 7a de ce b3 4b 2d 34 b7 a2 40 d2 3c
       -2.4873965e-09 -9.633091e-08 -1.0739382e-05 0.025665585
000100 b9 9c 16 3b fe 98 35 3d 41 ca c0 3f 35 16 56 36
       0.0022981598 0.044335358 1.5061723 3.1901411e-06
000110 fc 65 1c b9 75 d7 1c 34 69 99 87 30 46 d1 f0 b9
       -0.00014915311 1.4607015e-07 9.866145e-10 -0.00045932288
000120 1e b5 3d ba 08 61 75 38 ea a3 a9 3d 80 08 65 30
       -0.00072367664 5.850292e-05 0.08283217 8.3321794e-10
000130 2a 4b 6c c0 0c c2 5d 38 74 7e 0a b6 60 63 0a b9
       -3.6920877 5.2871226e-05 -2.0637208e-06 -0.00013197726
000140 62 6e ed b2 80 df 22 b3 14 49 96 b8 c7 27 01 bb
       -2.7640628e-08 -3.7921836e-08 -7.166169e-05 -0.0019707547
000150 31 79 a1 bb f6 07 b8 ba d0 5a 67 af 66 65 5f 42
       -0.004927777 -0.0014040458 -2.104159e-10 55.849022
000160 62 b7 e2 3b 8c 32 9c 3f c0 27 ac b9 a1 ad 8e 3c
       0.0069188336 1.2202926 -0.00032836013 0.017416777
000170 d5 64 0e 32 80 d3 48 b9 02 25 6e 3d 80 9e a2 b7
       8.288414e-09 -0.00019152276 0.058140762 -1.9385712e-05
000180 60 72 09 35 43 c9 63 37 2e 3b 26 3c 3d 95 f3 3b
       5.1202915e-07 1.3577114e-05 0.0101459455 0.007433562

bias f4 [10]
000000 43 73 45 b9 96 09 1e 39 c4 6e 45 39 2e 22 21 37
       -0.00018830322 0.00015071625 0.00018828647 9.604306e-06
000010 02 a8 26 bb 12 b7 0d 38 53 b5 e4 3a b4 02 c6 be
       -0.002542973 3.3787517e-05 0.0017449058 -0.38673937
000020 24 70 13 bb 74 73 ab bc
       -0.002249726 -0.020929076

weight f4 [10, 10]
000000 f4 e7 3c b1 07 00 a5 b7 8c eb e8 ba a6 a1 49 39
       -2.748945e-09 -1.9669546e-05 -0.0017770394 0.00019229072
000010 dc 54 6d 3b 54 58 32 b6 08 20 15 42 0a cd 61 3a
       0.003621391 -2.657548e-06 37.28128 0.0008613622
000020 e7 e4 f3 b9 63 a3 73 39 f5 29 d3 3c 12 3e d5 38
       -0.00046519117 0.00023235152 0.025776843 0.00010168193
000030 2d 5d 1d 3d 19 1c 06 b3 a4 c0 8a ba d8 54 4a 3a
       0.038418937 -3.122486e-08 -0.0010585976 0.0007718331
000040 12 86 17 33 6d d3 96 38 8c 3a d3 39 70 f8 bb 31
       3.5279363e-08 7.1919385e-05 0.00040288677 5.4706604e-09
000050 a4 15 6f b7 e8 d6 f2 3c 9c cd 69 37 6e 8c 24 b9
       -1.4250549e-05 0.02964349 1.3935754e-05 -0.00015692573
000060 40 92 3b b7 62 b3 dd b9 40 4e 4e 38 80 bd c3 ba
       -1.118012e-05 -0.00042286055 4.9187103e-05 -0.0014933795
000070 cf 38 9c 38 16 31 bc 3d c0 8c af b5 c0 75 61 3d
       7.449241e-05 0.0918905 -1.307948e-06 0.055043936
000080 87 23 e6 bb 57 b0 be b3 c7 2b 1f bc 9a 02 e2 3b
       -0.007023278 -8.8796405e-08 -0.009715027 0.006897283
000090 75 5e cd b8 80 fd 9b ad 50 64 d3 b3 40 fa 4c b4
       -9.792756e-05 -1.7734036e-11 -9.8437e-08 -1.9090021e-07
0000a0 37 d5 dc bd 0b 93 84 bf 0e eb a2 35 d2 e8 a4 38
       -0.10782855 -1.0357374 1.213835e-06 7.8634956e-05
0000b0 b2 87 42 3d 72 be 8b 33 06 04 ba ba fc 3d a4 38
       0.04749269 6.507334e-08 -0.0014191873 7.831675e-05
0000c0 74 b3 26 bd 28 82 bc 40 f8 f1 33 b9 50 20 11 38
       -0.040698484 5.890888 -0.0001716091 3.4600787e-05
0000d0 00 76 5b b1 56 dc 01 c2 35 92 9a 40 64 31 2d ba
       -3.193577e-09 -32.46517 4.8303475 -0.0006606786
0000e0 c2 94 72 ba 13 b4 b0 3b c8 27 1e bb 2e b1 6a 3e
       -0.0009253734 0.0053925603 -0.0024132598 0.22919151
0000f0 e0 c9 78 33 de ac 07 39 bf 16 ac 37 3d eb be b1
       5.7925604e-08 0.00012939001 2.051459e-05 -5.5564713e-09
000100 4a 2e cf bb 2c 14 cd bc ae 9d 79 b6 7d a8 e2 c0
       -0.0063226568 -0.025034033 -3.7195673e-06 -7.0830674
000110 9a 8e a6 b6 02 6c 7c bb 1d 4e db 39 cb 95 a0 37
       -4.9637865e-06 -0.0038516526 0.00041829134 1.914324e-05
000120 8f 2e bb 33 b0 aa 63 3c 30 fc 8b b8 2c 45 40 3f
       8.716335e-08 0.013895676 -6.67501e-05 0.7510555
000130 4c b7 0b ae ac b1 9d 39 ab b1 1a b8 60 b7 3c b1
       -3.176774e-11 0.0003007775 -3.6881927e-05 -2.7461837e-09
000140 db 92 b8 3b d0 c2 ab b9 ff 54 50 39 e2 71 89 bb
       0.005632741 -0.00032760808 0.0001986809 -0.004194484
000150 42 2d 4a b8 e4 f3 57 3b e0 87 cf b2 26 80 9c 3a
       -4.8202703e-05 0.0032951767 -2.415976e-08 0.0011940047
000160 08 a6 28 36 80 60 08 ab da 0c 15 bb 79 04 31 bc
       2.5130594e-06 -4.8450827e-13 -0.0022743256 -0.010804289
000170 e0 d6 12 39 e9 24 a5 b7 18 7e 60 b8 d3 b9 5b 3f
       0.00014003692 -1.968672e-05 -5.3523196e-05 0.8583042
000180 a4 24 3b c0 90 24 46 3a 7f 30 cb 37 28 13 fd 37
       -2.9241114 0.0007558549 2.4222069e-05 3.016887e-05

bias f4 [10]
000000 09 36 38 3c d4 31 71 ba ef 41 8c 3c 3e 28 a5 b5
       0.011243352 -0.00092008454 0.017121283 -1.230517e-06
000010 bd 5b 92 30 b2 0f 13 39 16 eb e6 bf c1 b2 53 bb
       1.0648972e-09 0.0001402486 -1.8040493 -0.003230259
000020 c4 80 42 3d ae 43 06 b6
       0.04748608 -2.000695e-06

weight f4 [10, 10]
000000 80 5d 4c 3d 61 dc a4 ba df f6 9d b5 13 7a 09 39
       0.049893856 -0.0012577885 -1.176926e-06 0.00013110814
000010 63 03 9b b8 6d d0 51 bc 91 9c 7d bb a9 d7 d6 38
       -7.391607e-05 -0.01280604 -0.0038698057 0.00010244485
000020 5a c7 57 b8 94 39 ae b3 b8 66 26 b8 35 1a 9d b7
       -5.1445655e-05 -8.11298e-08 -3.967315e-05 -1.8728062e-05
000030 e0 97 db 35 2b 7b af 3f 0b ae ee ba e7 b4 39 33
       1.6360973e-06 1.3709463 -0.0018209828 4.32382e-08
000040 60 64 bd b9 fe 13 26 bb 3d 46 ef 3e bc 3f 59 3b
       -0.00036123674 -0.0025341506 0.46733275 0.003314956
000050 5e b8 b0 39 70 69 ac be 9c 2d 10 bf 4e eb c2 b9
       0.000337067 -0.33674192 -0.56319594 -0.0003717788
000060 54 87 f0 2d 40 46 fc b7 e0 c1 b1 bf 86 fb 2e 40
       2.7344939e-11 -3.0073454e-05 -1.3887291 2.7341018
000070 6e 2a 37 38 38 98 03 b7 ac 03 4e b8 4e 62 dc b7
       4.3670116e-05 -7.84365e-06 -4.9117647e-05 -2.627182e-05
000080 6a 04 b3 c0 36 e8 39 bd 25 69 f8 bf c4 61 d5 3b
       -5.594289 -0.04538747 -1.9407088 0.0065118987
000090 c8 1f 85 31 9d da 30 b9 ce 7a a3 b6 c1 31 29 bd
       3.8744226e-09 -0.00016866108 -4.872075e-06 -0.041307215
0000a0 d5 71 0a c0 47 df 9e b8 75 91 3a bf 5c c6 f5 c1
       -2.1631978 -7.575616e-05 -0.728782 -30.721855
0000b0 9e 96 57 41 3a e2 30 b1 80 13 b1 b7 98 77 50 39
       13.474272 -2.5739966e-09 -2.1109125e-05 0.00019880978
0000c0 16 64 51 38 71 2c b7 be 18 59 09 3b 0e 8e a2 b8
       4.9922695e-05 -0.35776094 0.0020957645 -7.751222e-05
0000d0 f1 ca cc af ca 70 88 b8 a1 1c 8d bb 26 a2 c9 40
       -3.7251582e-10 -6.505994e-05 -0.0043063913 6.3010435
0000e0 ea 72 b3 39 4c b5 6f b9 78 4f f6 b7 78 73 28 38
       0.00034227158 -0.00022860355 -2.936249e-05 4.016186e-05
0000f0 ea 63 23 43 ec 70 a2 31 a8 cb 0b ba 05 2d 49 b7
       163.39029 4.7276583e-09 -0.00053327763 -1.19910155e-05
000100 d8 4d 40 37 fa fe e8 3c ed dd 93 ba 30 87 46 b9
       1.1462216e-05 0.028441895 -0.0011281349 -0.00018933113
000110 28 2a 29 35 dc fb 6c b9 6e 40 17 3d 88 f3 a1 3e
       6.301875e-07 -0.00022600539 0.03692668 0.31631112
000120 f2 75 88 b2 6b 29 a0 ba 89 c2 84 35 2d 38 b8 b0
       -1.5886119e-08 -0.0012219375 9.891384e-07 -1.3403728e-09
000130 70 f2 2d 3d 3e 20 b0 bb 81 47 69 bc b6 93 09 36
       0.042467535 -0.0053749373 -0.014238239 2.050057e-06
000140 0a 94 15 b8 2c a4 68 ba 6b 04 94 b9 00 a3 2b 3f
       -3.566224e-05 -0.0008874561 -0.0002823205 0.67045593
000150 74 9f 1a b8 e8 49 34 be 83 ad 07 38 04 c3 17 b1
       -3.6864963e-05 -0.17606318 3.2348104e-05 -2.2084246e-09
000160 5c 1a a8 ba 1c 2a d5 38 fe 08 b8 be f5 4d 4c bc
       -0.0012825239 0.00010164475 -0.3594436 -0.012469758
000170 0d a2 0f ba a6 f9 63 3e 93 d9 31 3c e1 23 36 36
       -0.00054791645 0.22263202 0.010855096 2.7140998e-06
000180 f2 2f a7 3b a4 8c 92 39 f0 f8 44 37 80 3b 86 b5
       0.005102151 0.00027952075 1.1740471e-05 -1.0001095e-06

bias f4 [10]
000000 56 74 2f 3e c9 5d d3 b9 8b 9e 41 3e 06 f7 44 bf
       0.17134222 -0.00040314932 0.18908136 -0.7693943
000010 48 ae 0e bb 3f 68 cf 39 bb d6 d6 39 06 36 8f b4
       -0.002177136 0.00039559786 0.00040977247 -2.6675133e-07
000020 f8 77 01 ba c9 e1 bb 3e
       -0.0004938836 0.36695698

weight f4 [10, 10]
000000 c8 e1 a4 af b0 3c 6e 41 a7 26 ac 38 38 7e 87 3c
       -2.9991853e-10 14.889816 8.208799e-05 0.016539678
000010 34 5c a0 b6 b6 49 18 b8 21 29 0f 37 44 d9 2b bc
       -4.7791054e-06 -3.6308273e-05 8.53304e-06 -0.010488812
000020 23 dd 30 38 52 4d cf 37 8e ad 2a 3f 68 42 a0 b6
       4.216762e-05 2.4712328e-05 0.66671073 -4.7761023e-06
000030 79 ac bb bb 28 95 87 3a 2f 4e d6 bb 04 6b 8f b9
       -0.0057273475 0.0010344135 -0.006540082 -0.00027354818
000040 79 48 30 3e bc 0c ef 32 20 cb 7f bb cc 03 ce b5
       0.17215146 2.7829053e-08 -0.0039030984 -1.5349301e-06
000050 ac 21 6f b7 1c fe 03 3b 0a 8c e6 3d d8 67 8c 3e
       -1.425335e-05 0.0020140475 0.11257179 0.27422976
000060 48 03 a3 3d 93 41 0a 40 f3 da 02 be c6 e8 33 3a
       0.0795961 2.1602523 -0.12778835 0.0006862994
000070 78 1c 1a bd b4 8f 4f 38 25 fa 36 bd 72 d4 0e ba
       -0.037624806 4.948648e-05 -0.04467215 -0.0005448527
000080 dc ee 93 31 08 1a 44 b5 f0 9c b7 b8 c0 96 37 b8
       4.3054182e-09 -7.305357e-07 -8.755352e-05 -4.3770997e-05
000090 3e 24 ab 3a 00 81 03 3e 1c 9d 1a 3e 81 fc d3 40
       0.0013057066 0.12842178 0.15098995 6.624573
0000a0 d0 3e a2 38 b4 3b a6 3b 87 43 cc c0 3b 1f 74 be
       7.736462e-05 0.005073035 -6.383243 -0.23840038
0000b0 30 d8 b4 bd 4c b7 11 38 ac 1e a8 39 08 40 e6 37
       -0.08830297 3.4741402e-05 0.0003206631 2.7447953e-05
0000c0 40 fb 85 3a eb 10 b1 3a c9 44 4f bb c6 53 ed 31
       0.0010221973 0.001350907 -0.0031626693 6.9071318e-09
0000d0 58 1d 8c 34 dc 7b d0 39 28 f8 95 3a 8b cf 16 be
       2.6098382e-07 0.00039765134 0.0011441754 -0.14727609
0000e0 30 b6 0e b2 dc df 56 b9 20 03 8e 35 1f 50 e1 3e
       -8.3069125e-09 -0.00020492024 1.0580734e-06 0.4400644
0000f0 69 3c f8 39 3a 81 94 b5 3e 0a 8a 3d 23 f4 be 38
       0.00047347255 -1.1064469e-06 0.06740235 9.10538e-05
000100 c5 6a 08 bc c2 4a 20 3e 90 ad 1f 3b ee 22 e8 3e
       -0.008326237 0.15653518 0.0024364926 0.4533915
000110 ce 17 06 3c c7 c4 c4 b9 64 37 1b ba ce 11 88 3e
       0.008184386 -0.00037530644 -0.00059210346 0.26576084
000120 08 99 90 39 ec 2a 03 3e e9 db b0 b5 f6 6b 14 3a
       0.00027579837 0.12809342 -1.3177024e-06 0.00056618394
000130 a9 32 0f b3 6c 62 31 b7 00 f8 90 b5 9e 10 65 b9
       -3.3340857e-08 -1.0572938e-05 -1.0801014e-06 -0.00021845332
000140 53 b4 b7 38 33 e1 7f b5 4e 12 e2 38 02 92 cb bb
       8.759708e-05 -9.532261e-07 0.00010779929 -0.006212474
000150 bc 05 15 36 40 af c1 3a d8 e2 a1 35 40 b7 79 36
       2.2206068e-06 0.001477696 1.2061455e-06 3.7210557e-06
000160 10 11 cb b8 d9 4e 9f be b6 0e 57 b5 6a ad 88 b8
       -9.6829724e-05 -0.31114843 -8.011515e-07 -6.517286e-05
000170 24 1c a2 b9 40 37 2c 3e 93 b0 b5 39 b8 a8 94 37
       -0.00030920014 0.16817951 0.00034654568 1.772154e-05
000180 f6 c1 87 3a 9c 0a 83 3c ef 61 18 36 61 8f ab 3b
       0.0010357487 0.01599627 2.270677e-06 0.005235598

bias f4 [10]
000000 1c 71 21 b3 38 c9 3f 3c bb aa 72 35 25 7f 2a bb
       -3.7588606e-08 0.011705689 9.040047e-07 -0.0026015725
000010 60 f9 da ba c1 b5 0a b8 c9 f3 0a b6 f0 1c 34 37
       -0.00167064 -3.3071035e-05 -2.0705504e-06 1.0735574e-05
000020 7c a2 1e 3a d9 e0 f9 b7
       0.0006051434 -2.9787816e-05

weight f4 [1, 10]
000000 99 ff 08 34 59 2f f1 b9 00 85 28 b9 ee 1f c7 3a
       1.2758973e-07 -0.0004600238 -0.00016071275 0.0015192011
000010 bf 1f 21 3c ae 27 28 bf 4a 17 a2 3d 82 70 14 b7
       0.009834229 -0.65685546 0.07914598 -8.847683e-06
000020 ce bf 8a bf 8a f9 ed ba
       -1.0839784 -0.0018156033

add_tensors f4 [10, 6]
000000 ce ea 09 ba 64 86 9b 3f 18 a4 87 bc fb fe b4 35
       -0.0005261124 1.2150388 -0.016557738 1.3485254e-06
000010 c2 51 80 b7 65 94 55 35 9f 46 eb 3d 6b a5 6d bb
       -1.529686e-05 7.9564626e-07 0.11488079 -0.0036261927
000020 4a 60 3f 3b 3a 51 82 36 f9 b1 b3 b7 f3 87 85 36
       0.002920168 3.883758e-06 -2.1421338e-05 3.9795354e-06
000030 c4 cf 08 38 47 fa d6 36 1c dd 28 b9 45 48 50 3d
       3.2618424e-05 6.406833e-06 -0.00016104098 0.05085017
000040 1f 29 41 bb 32 cb 23 b8 22 39 8b 3e 56 0a 85 b7
       -0.0029473973 -3.905147e-05 0.27192026 -1.5859649e-05
000050 f3 3c 18 36 22 58 65 b7 d6 c3 50 39 a4 c6 f4 33
       2.2685242e-06 -1.3669984e-05 0.0001990938 1.1398268e-07
000060 f3 11 4d b4 51 75 03 bd 2b a5 8b 3d df 38 d4 c0
       -1.9098643e-07 -0.032094304 0.06818613 -6.6319423
000070 18 38 e0 39 34 fc d9 3a 4c 0e 22 39 58 c1 10 b6
       0.00042766402 0.0016630949 0.0001545485 -2.1570213e-06
000080 6d 74 f8 ba 5b e5 16 bc 31 97 af b7 d3 98 f5 41
       -0.0018955596 -0.009209956 -2.093203e-05 30.699621
000090 cb e4 0e bd 06 75 02 37 f2 46 c3 b8 9e 8e ad bb
       -0.034886163 7.7758505e-06 -9.311539e-05 -0.0052965423
0000a0 fd c4 9c b9 13 1c f1 bc af 0b 97 b8 5e 8c c0 46
       -0.00029901406 -0.029432332 -7.202417e-05 24646.184
0000b0 dd 91 49 c3 bd 44 95 b9 86 94 8e 34 bf e1 19 37
       -201.56978 -0.0002847071 2.6557626e-07 9.172071e-06
0000c0 b3 d4 94 38 44 b6 04 3b 78 e5 f2 35 c9 1d c5 32
       7.096808e-05 0.002025024 1.8097189e-06 2.2947363e-08
0000d0 88 20 9d b5 1b 81 59 32 a0 d8 22 3d 47 e2 96 37
       -1.1706879e-06 1.2660418e-08 0.03975737 1.7986762e-05
0000e0 07 19 99 b7 71 13 70 37 a8 45 45 38 61 e7 b8 bc
       -1.8250676e-05 1.4309641e-05 4.7033333e-05 -0.022571268

add_tensors f4 [10]
000000 f5 e0 de 3a 19 31 d7 bb ea c2 78 3d 31 6e 54 bd
       0.0017004298 -0.006567132 0.06073276 -0.0518629
000010 d6 8e 14 b6 8a af 4a b6 94 f5 15 ba f3 db 8a bf
       -2.213686e-06 -3.0202523e-06 -0.0005720493 -1.0848373
000020 62 6d 9d b6 79 5a 78 3f
       -4.6916985e-06 0.9701305

add_tensors f4 [10, 10]
000000 c6 6a 91 ae cc fd 8d 40 d7 e1 a7 b6 7e a4 b2 bd
       -6.6128034e-11 4.437231 -5.003279e-06 -0.08722781
000010 52 51 43 b6 f1 0d bb b6 45 8a bb 36 d7 1d c0 bb
       -2.91046e-06 -5.5746573e-06 5.589131e-06 -0.005862932
000020 48 4d b4 36 50 0e 34 37 e8 64 99 bd 34 6c ee b7
       5.3734148e-06 1.0732168e-05 -0.074899495 -2.8422197e-05
000030 8f dc 75 bb 91 a2 5d 3c 5c 05 c7 ba c0 6d 83 3a
       -0.0037515496 0.013527528 -0.0015184092 0.0010027215
000040 b3 b8 14 b9 8d cf 62 32 b8 85 10 3d a0 3f 26 b5
       -0.00014183186 1.3202123e-08 0.035283774 -6.1932406e-07
000050 c7 0a f2 36 64 81 7a 3a 07 a8 b1 bc 11 4f 1a bf
       7.2134167e-06 0.0009556024 -0.021686567 -0.60276896
000060 d8 b6 be 3c ee 88 f8 3d 4c dd 75 be 6b 6b d3 39
       0.023280546 0.12135492 -0.240102 0.0004032509
000070 29 4a 01 bf ff 2d 11 b9 39 63 13 ba 0c 81 83 b9
       -0.50503784 -0.00013845412 -0.00056223903 -0.00025082415
000080 17 6e 21 31 24 b5 90 35 6e 5c 35 ba 1c bc c2 38
       2.3491162e-09 1.0781555e-06 -0.0006918375 9.285679e-05
000090 d1 b6 2d 3a e4 1b fb be d3 65 06 bf 26 51 6f 40
       0.0006626668 -0.49044716 -0.5249912 3.739328
0000a0 18 52 0d b8 14 56 4c 3a 7a 5e 87 c0 77 4e 1a be
       -3.3693475e-05 0.0007794809 -4.230283 -0.15068994
0000b0 46 76 56 be 81 8e 99 b6 d9 bc 31 39 a1 29 87 37
       -0.20943555 -4.576345e-06 0.00016950387 1.6112639e-05
0000c0 0d 2b e7 b8 f2 e6 af 38 23 92 bc 39 05 71 37 b2
       -0.00011022957 8.387667e-05 0.00035967035 -1.06777e-08
0000d0 73 82 02 36 12 99 3e 39 84 83 16 3a 75 7c 8d bc
       1.944744e-06 0.00018176835 0.0005741643 -0.01727126
0000e0 c8 66 4d 31 27 22 04 3a dc 01 16 b7 d8 90 68 3e
       2.988985e-09 0.00050404895 -8.94113e-06 0.22711504
0000f0 e8 24 37 39 c7 bd 9b b6 30 3a 9c 3c ea 6d c3 b5
       0.00017465989 -4.641453e-06 0.019070715 -1.4560621e-06
000100 4b 56 a5 3a a4 d9 20 3d 18 2a 09 3d 1f c7 c5 bd
       0.0012614218 0.03927006 0.03348741 -0.0965712
000110 7c e1 b3 3b c1 cb a7 39 71 dd e1 38 70 ab 06 3f
       0.0054895263 0.0003200453 0.00010770083 0.5260534
000120 6b 37 12 bb 42 c1 a4 3e 21 7c 81 b5 b8 3e 87 39
       -0.0022310864 0.32178694 -9.647375e-07 0.00025795936
000130 c3 86 74 b2 58 5a 84 37 96 e6 30 b8 bb 3b 90 b8
       -1.42333105e-08 1.5777696e-05 -4.217642e-05 -6.877581e-05
000140 a1 9c bf 37 55 1a 46 b4 bf 61 52 b8 90 c2 dd 3b
       2.284191e-05 -1.8449767e-07 -5.0158935e-05 0.0067675784
000150 6b 36 13 b7 e8 e6 0b 3a f2 62 4f b6 00 2a aa b6
       -8.774553e-06 0.0005336837 -3.0902997e-06 -5.0712842e-06
000160 76 c8 07 b8 fc 88 32 be 62 23 ef b3 fe c1 91 b7
       -3.2373202e-05 -0.17435068 -1.1135741e-07 -1.7375682e-05
000170 55 1d 02 b9 d7 c4 02 bd d2 89 0a 39 6f 24 37 37
       -0.00012408693 -0.031926002 0.00013212048 1.0916133e-05
000180 ae 53 69 b8 d4 66 cc bc b0 e9 0c b5 ec 88 d5 3a
       -5.562946e-05 -0.024951376 -5.2494124e-07 0.0016291416

add_tensors f4 [1, 10]
000000 95 d3 33 b3 da f4 6a b9 49 40 8e ba 03 83 1d ba
       -4.1869118e-08 -0.00022407193 -0.0010852899 -0.0006008597
000010 eb 3f ba 3b 43 ce 85 be 89 65 3d be 5f be b9 37
       0.005683889 -0.26133928 -0.18495764 2.2142367e-05
000020 5d 73 fb be 75 29 19 ba
       -0.49111453 -0.00058426644
