Relu_fixed_hardest/TorchSaves/Last_Gen0.pt (torch_old, 16333 bytes, 17 tensors)

weight f4 [10, 6]
00000000: 08de 213e a418 6f3e ef70 cfbe 006f cf3d
00000010: 002b 8d3e a008 9c3e bfbd b7be 56a7 9f3e
00000020: dc15 3b3e c237 adbe b8c8 a63d 88e0 c6be
00000030: 6684 69be e03b 833c d6f2 6cbe 80ab 393e
00000040: 38ee 7dbe 5b42 8abe 4181 97be 7ae8 0cbe
00000050: 6b67 7ebe 3074 dbbc d8a4 2e3e 9a24 b5be
00000060: ca0d 0abe cb5a bdbe a026 473c afda 5abe
00000070: 567b 1cbe 1c0f c5be c48b 95bd 0063 8e3e
00000080: dc2d 3b3e 44e4 933e 0462 963e 706c 91bd
00000090: e25f 92be 9039 e73c 283c 18bd bc6a 7d3e
000000a0: 72d4 12be d02b 4b3e 3298 be3e a056 c3bc
000000b0: d7af 64be 504c 8abd ae57 41be a1e9 66be
000000c0: 40db a83b 2051 473e 2ac1 ac3e df3f 7dbe
000000d0: 2028 ddbd 6678 83be dcae c0bd 6c63 9c3e
000000e0: 58bb 863d a8a3 0b3e 64eb 3d3e 481f a7be
0.15807354 0.23349243 -0.4051585 0.101285934 0.2757187 0.3047533 -0.35886952 0.31182355
0.18270057 -0.33831602 0.08143753 -0.3884318 -0.22804412 0.016019762 -0.2313951 0.18131828
-0.24797904 -0.2700375 -0.295908 -0.13760558 -0.24844138 -0.026788801 0.1705507 -0.35379487
-0.13481823 -0.36983332 0.012155205 -0.21372484 -0.15281424 -0.3848809 -0.07302049 0.27809906
0.18279213 0.2888509 0.29371655 -0.07100761 -0.28588778 0.02822569 -0.037166744 0.24747747
-0.14338854 0.19840932 0.3722549 -0.023845017 -0.22332703 -0.06752837 -0.18881103 -0.2255006
0.0051530898 0.1946454 0.33741122 -0.24731396 -0.10798669 -0.25677794 -0.09408352 0.30544603
0.06578702 0.13636649 0.18546826 -0.32641053

bias f4 [10]
00000000: 70dc eabc 533a 58be 6d55 82be d41a 733e
00000010: 8801 ce3e 4805 13be 7897 133e 2450 913d
00000020: 8edd 47be 7458 c73e
-0.028669566 -0.21115999 -0.254558 0.23740703 0.40235543 -0.14357483 0.1441325 0.07095364
-0.1951811 0.38934672

weight f4 [10, 10]
00000000: 9823 0d3d b62b 09be a2e7 5d3e f20d 4e3e
00000010: 106b 4f3d fa87 313e 222f a4bd 7e1d 6abe
00000020: d020 59bd a8f6 a53d 17e6 973e 392f 2abe
00000030: d474 8bbe c872 68be 4d04 11be 993e 903e
00000040: b478 303e 803e e4bc 1c33 80be 522d c5bd
00000050: 4a30 42be ad89 94be 84b8 873d 6043 47bc
00000060: aca1 d83d 3421 c8bd da2d 9ebe b5b5 933e
00000070: 1003 aa3d b034 c4bd 8005 70bd d8b0 13be
00000080: 677d 863e 3085 1fbd 1987 11be 576a 803e
00000090: 0cac aebd c0fc 193c 366f 4d3e 507c febc
000000a0: 29d0 9f3e c0a2 de3b 9828 d13d eb32 77be
000000b0: c05e e93c e6bf 92bd 506c abbd 8288 5abe
000000c0: 7ed8 283e 9060 dd3d b6d1 93be de04 18be
000000d0: ca7a 283e 5b9b a0be a8fd 5ebe c0ca 0ebd
000000e0: 2dd9 863e a630 3d3e 6508 6abe 4340 943e
000000f0: 40c3 313e 25b6 903e 40b6 953d 88c0 1cbe
00000100: e771 933e 78fc d5bd 4e27 533e 2043 01bc
00000110: 4b65 a03e bb30 9d3e 7a41 46be 5bff 8c3e
00000120: ec1c 52be e189 1bbe d835 233d a2a1 60be
00000130: 6e54 1f3e 6951 8dbe 6013 ec3c 9560 1dbe
00000140: 88ab 1a3e fe0a f2bd 30e1 75bd cd3a 38be
00000150: 7c27 adbd 7243 5f3e 307f 2fbd 5c49 c0bd
00000160: 3e42 1b3e 5811 663d e4de aa3d 7988 883e
00000170: 5824 02be 90da 043d e5eb 0fbe 3ec8 a0be
00000180: 4e4a 6e3e a02e b53d 21df 94be 30c1 16bd
0.034457773 -0.1339558 0.21670392 0.20122507 0.050639212 0.17337027 -0.08016802 -0.22862813
-0.053009808 0.081036866 0.29667732 -0.16619577 -0.2723757 -0.22700036 -0.14161797 0.28172758
0.17233545 -0.027861834 -0.25038993 -0.09627785 -0.18963733 -0.29011288 0.066269904 -0.01216206
0.105777115 -0.09771958 -0.30894357 0.2884957 0.083013654 -0.09580362 -0.058598995 -0.1442293
0.2626755 -0.038945377 -0.14211692 0.2508113 -0.08528909 0.009398639 0.20061955 -0.031065136
0.312135 0.0067943037 0.10212821 -0.24140517 0.028487563 -0.07165508 -0.08370268 -0.21341136
0.16488835 0.108094335 -0.28870934 -0.14845607 0.1645309 -0.31368527 -0.2177645 -0.034861326
0.26337567 0.18475589 -0.22854765 0.28955278 0.17359638 0.28263965 0.07310152 -0.1530782
0.28797838 -0.10448545 0.20620462 -0.007889539 0.3132728 0.3070124 -0.19360915 0.2753857
-0.20518845 -0.15189315 0.03984627 -0.21936658 0.15559551 -0.27601174 0.028817832 -0.15368874
0.15104496 -0.11818503 -0.06002921 -0.1799118 -0.08454797 0.21803072 -0.042845905 -0.09388992
0.15161988 0.056168884 0.08343294 0.2666662 -0.12709177 0.032435 -0.1405483 -0.31402773
0.23270532 0.08846784 -0.29076484 -0.03680533

bias f4 [10]
00000000: 4871 443d 8282 32be 3ac4 7f3e 1e04 95be
00000010: 0448 05be 38bc c13d 704e b7bd 20db ba3d
00000020: c04b 54bc 4874 dfbd
0.047959596 -0.17432597 0.24977198 -0.29104704 -0.13015753 0.09459728 -0.08950508 0.09123826
-0.012957513 -0.10910851

weight f4 [10, 10]
00000000: 1ffb 85be 600e 23bc 35d1 94be b25b 603e
00000010: 2419 f13d 6de8 9ebe 7070 563d 46b3 52be
00000020: 0060 68b9 2853 1d3d 2ac6 1d3e 981b 57bd
00000030: 6030 f0bc ccd5 92be 685c f03d f20f 83be
00000040: 1164 3bbe 90ed 2bbd ab02 853e 4861 533d
00000050: 0048 013a 38da 45be 01ac 963e 5772 6fbe
00000060: 5461 d33d 708b c8bc e879 b8bd 30d5 4d3d
00000070: f07a 283d 304a 4bbe ba82 503e fe25 623e
00000080: 48f5 193e c8a2 073d 2c48 933d a50f 943e
00000090: 3fe4 31be 5df1 5dbe 9537 953e 77ff 8d3e
000000a0: 9d01 87be 6efa 97be 4018 bb3b f6d2 e4bd
000000b0: 268e 83be dba3 7bbe e42b 68be c83b 6cbd
000000c0: 5c90 01be 9e72 453e e80d a53d 9cba f03d
000000d0: 1e80 3c3e 0839 2d3e 6ebd b3bd a0b4 26bd
000000e0: 666a 603e 3433 c3bd b4d5 c9bd 183b 71be
000000f0: 697b 883e c61a 86be 083c 433d a835 a03d
00000100: 30e0 87be d99d 913e 2b30 913e 8455 803d
00000110: 8071 51bc 2057 323e d485 d03d ed76 913e
00000120: 0072 84bd 6403 45be 40c9 7e3d c357 863e
00000130: ab18 9f3e fae3 7b3e e82e 383d 30dd 023e
00000140: badf 6b3e c689 633e 4a17 7fbe 1593 893e
00000150: a850 a7bd b14f 3ebe 0cda 843d 0863 623d
00000160: 149f f1bd 4467 4ebe 204c 823d 2c9e c03d
00000170: 1adb a0be b4bc 213e 90d5 36be 48f6 44be
00000180: 46a8 1ebe f0a6 39be 191c 81be b464 aebd
-0.26168153 -0.009952158 -0.29065862 0.21909979 0.11772373 -0.31036702 0.052353323 -0.205762
-0.00022161007 0.038409382 0.15407625 -0.05251655 -0.029319942 -0.2867874 0.11736375 -0.25598103
-0.18299891 -0.041974604 0.25978598 0.051606447 0.00049316883 -0.19321525 0.29428104 -0.23383461
0.10321298 -0.024480551 -0.09007627 0.05025214 0.041132867 -0.19852519 0.20362368 0.22084805
0.15034974 0.033114225 0.071915 0.28918186 -0.17372225 -0.21674104 0.29143968 0.27733967
-0.26368418 -0.2968325 0.005709678 -0.1117305 -0.25694388 -0.24574225 -0.22672993 -0.0576742
-0.12652725 0.19282004 0.08059293 0.11754343 0.18408248 0.16916287 -0.08776365 -0.0406996
0.21915588 -0.095312506 -0.09855214 -0.23557699 0.26656654 -0.26192302 0.047664672 0.07822734
-0.2653823 0.2844074 0.28357062 0.06266311 -0.012783408 0.17416048 0.10181776 0.28411046
-0.06467056 -0.19239575 0.062203646 0.26238832 0.31073508 0.24598685 0.04496661 0.12779689
0.23034564 0.22220525 -0.24911228 0.26870027 -0.08169681 -0.18585087 0.06486902 0.055270225
-0.1179792 -0.2015658 0.06362176 0.09405169 -0.3141716 0.15794641 -0.17854905 -0.19234574
-0.15493879 -0.18130088 -0.2521675 -0.08515301

bias f4 [10]
00000000: 00cf cfbb 6045 013e 802c 623b 53fd 8d3e
00000010: 131e 943e c0c1 143c 03cc 85be 3881 093e
00000020: 8f0a 8f3e 58f6 953d
-0.006341815 0.1262412 0.0034511387 0.27732334 0.28929195 0.009079397 -0.2613221 0.134282
0.27937743 0.07322377

weight f4 [10, 10]
00000000: 18c8 2abd c81f 0c3e 691e 893e 46b3 93bd
00000010: 263f 413e c002 eb3d e053 1bbc deee 0a3e
00000020: dad5 063e c8ba 733d 7cec 98be 28f8 1c3d
00000030: 3ae1 a6bd 9ce9 72be 8831 25bd 7564 1dbe
00000040: 76ec 773e 798a 933e 98f2 9bbe 8c5a 51be
00000050: 944c 8cbe b34a 853e 7b07 923e 200d b2bc
00000060: c44f e03d 2bac 9bbe 1076 cf3c b8f3 85bd
00000070: 8053 c33d 247d 8dbd 00ec 823d bf85 04be
00000080: 3c6c 913d f66e 9bbe a02e b13c ac08 9dbd
00000090: b80a 36bd 0066 2f3d 80b6 1dbc c8ff 3f3d
000000a0: ce07 d1bd 2080 d93d 2576 883e 771f 78be
000000b0: 2eda 523e 19be 4abe aa79 7d3e 404b 333c
000000c0: 8025 32bd 202e 343c 1807 1c3e eccf f23d
000000d0: 10ec 793d 6035 7b3d 224a 1abe 4082 92bc
000000e0: 0c3d 8fbe d8d3 333d fad4 4e3e 9611 793e
000000f0: d0b9 23bd b68d cbbd 26df 263e 7005 94be
00000100: 9ecd 6d3e ac25 33be 93d5 48be 409f b6bd
00000110: 1847 48be b6ab 753e 964a 27be 8c92 d63d
00000120: a008 2e3d def8 4d3e 7bff 803e 3428 26be
00000130: 2120 50be 45ec 82be 16bb 003e 1a04 413e
00000140: be58 4d3e 00da 433a 3016 b43c 304b 0ebd
00000150: 0ebf d3bd 80d6 ac3c ec4c 043e 3864 653d
00000160: bec3 623e 76a9 91be e8ae 78bd 00c3 2e3c
00000170: 36b8 483e aa8f fbbd de24 4e3e a5ab 95be
00000180: 5c43 bb3d 80e3 813d 7eae 1d3e a633 6b3e
-0.04169473 0.13683999 0.26781014 -0.07211928 0.18871745 0.11475134 -0.009480447 0.13567683
0.13167515 0.0595043 -0.29867923 0.038322598 -0.08148427 -0.23721927 -0.04033044 -0.15370353
0.24211296 0.28816584 -0.30458522 -0.20444697 -0.27402174 0.26033553 0.28521332 -0.021734774
0.10952714 -0.3040479 0.025324851 -0.06540626 0.09537411 -0.06908634 0.0639267 -0.12941645
0.07100722 -0.30358094 0.021628678 -0.0766767 -0.044443816 0.042821884 -0.009626031 0.04687479
-0.10206567 0.10620141 0.26652637 -0.24230753 0.20591041 -0.19799079 0.24753442 0.010943234
-0.043492794 0.010997325 0.15237081 0.11856064 0.061016142 0.0613302 -0.15067342 -0.017884374
-0.27976263 0.0439032 0.20198432 0.24323115 -0.039972126 -0.099391386 0.16296062 -0.28910398
0.23222968 -0.1749484 -0.19612722 -0.08917093 -0.1955837 0.23991284 -0.16337046 0.1047717
0.042488694 0.20114467 0.25194916 -0.16226274 -0.20324756 -0.25570884 0.12571368 0.18849221
0.20053384 0.0007471144 0.021983236 -0.034739673 -0.10339175 0.021098375 0.12919968 0.05600378
0.22144982 -0.284496 -0.06071368 0.010666609 0.19601521 -0.12283261 0.20131251 -0.29232517
0.09143707 0.0634222 0.15398595 0.22968921

bias f4 [10]
00000000: ada1 88be e810 e03d 7e49 73be 1075 303d
00000010: 083b 393e 2ea4 6bbe 805e 7a3b bc1c 91be
00000020: bd6a 903e be16 4c3e
-0.2668585 0.109407246 -0.23758504 0.04308039 0.18088925 -0.23011848 0.00382033 -0.28342235
0.28206435 0.1993055

weight f4 [10, 10]
00000000: 28f4 ba3d 3de7 833e 3f51 a13e 8407 bc3d
00000010: 30e7 e6bc 6ddd 0abe c466 093e 42ef 793e
00000020: 3bf4 9b3e 4a47 7e3e d0a0 eb3c cf8c 993e
00000030: d5a1 92be ecb9 9e3d 5cc8 ff3d 2a12 2e3e
00000040: 69c8 99be 80cb 563b 72b1 3c3e e21e 043e
00000050: b5e5 9f3e 0a6f 88be 6060 8a3d 7038 8dbe
00000060: 40a7 e43b 1323 833e f648 473e 5c4c e73d
00000070: 3093 6f3d a408 fb3d dad0 45be f010 8b3d
00000080: ce86 653e a0d7 97be d0a1 f23d 60bd 7b3d
00000090: b075 9abe ee65 203e 0a72 3e3e 8d10 76be
000000a0: 6ea8 87bd 4761 953e 542e 23be 02de cebd
000000b0: a041 873c 38bb 363e c852 9abe 62f7 423e
000000c0: b458 2bbe 6214 8cbe c087 42bc c64a b8bd
000000d0: f085 233e 3cba 9b3d 68c3 90bd f98e 883e
000000e0: 9714 1dbe 2a17 313e 46c7 4a3e fc9c 3abe
000000f0: 9019 37be 3b8e 8ebe 36fa 2d3e fe5f 403e
00000100: a27c 14be 30e1 03be 617b 9a3e e706 a13e
00000110: 6a07 87be 486a 8cbd 6fe0 90be 1cf6 9fbd
00000120: 68f0 d3bd 02c7 453e 722e 763e 4082 99bb
00000130: 8004 15bd 6d67 11be 29fa 9f3e d609 99bd
00000140: 92dd 94be 3f17 863e 7892 843d 6093 46bc
00000150: 7067 e73d bcfd 80be 2cd1 1f3e 5188 58be
00000160: 40cf 1abc 7b41 33be 57d6 9d3e 47d7 8b3e
00000170: 8076 0fbb c37f 42be 20ba a2bc b67a 90be
00000180: 5633 4b3e 7e7f e3bd 2b63 58be 0058 e23c
0.091286 0.25762358 0.31507298 0.09181121 -0.02818641 -0.1356103 0.13418108 0.24407676
0.3045977 0.24831882 0.028763205 0.2999024 -0.28639093 0.077503055 0.124893874 0.16999117
-0.30035713 0.0032775104 0.18427065 0.12902406 0.3122994 -0.26647216 0.06756663 -0.2758212
0.0069779456 0.25612697 0.19461426 0.11293861 0.05848998 0.122575074 -0.19317952 0.0679034
0.22414705 -0.29656696 0.118472695 0.0614599 -0.30167913 0.15663883 0.1859819 -0.24029751
-0.06623922 0.2917578 -0.15935642 -0.101009384 0.016510785 0.17844856 -0.30141282 0.19039682
-0.16733056 -0.273593 -0.011873186 -0.08998637 0.15969062 0.07603881 -0.07068521 0.2667158
-0.15339886 0.17293993 0.1980258 -0.18223947 -0.17880845 -0.27842888 0.16989979 0.18786618
-0.14500669 -0.12878871 0.30172256 0.3145058 -0.26372844 -0.06856209 -0.2829623 -0.078106135
-0.10348588 0.19314197 0.24041155 -0.0046847165 -0.036381245 -0.1419961 0.31245545 -0.07472579
-0.29075295 0.2618961 0.06473249 -0.012120098 0.11299026 -0.25193584 0.15607136 -0.2114575
-0.009448826 -0.17505448 0.3082759 0.2731268 -0.00218907 -0.1899405 -0.019864142 -0.2821862
0.19843802 -0.111083016 -0.2113158 0.027629852

bias f4 [10]
00000000: 3092 62bd d44a 2b3e 984b 233e d61d 743e
00000010: cd53 963e f6ff 023e c81e 523d 44df 163e
00000020: d212 563e a04e e73d
-0.055315197 0.16727763 0.15946805 0.23839507 0.2936081 0.12792954 0.051298887 0.14733607
0.20905617 0.112942934

weight f4 [10, 10]
00000000: d0e5 85bd 289a 32be 1e1c 153e ca06 603e
00000010: 020b 4f3e 348c 62be 203a 56bc 801f 473b
00000020: b027 7abe d675 233e 1493 d73d 03c2 0dbe
00000030: 69fa 8c3e ac6a e93d 24a3 343e a456 da3d
00000040: 5879 43be 4b92 71be 008b 05bd 9fc0 59be
00000050: 80ed 3fbd 7a8b cbbd 4013 8a3c 1c76 bebd
00000060: 40f3 dc3d cac0 753e b266 31be e0de f53c
00000070: dead 033e 624e a1bd 11f6 68be c3cf 1ebe
00000080: 1c08 2c3e 4001 fabc a46b 2a3e 247f f8bd
00000090: 2710 9cbe d871 29bd 400f b33d 2ca1 a0be
000000a0: 708e 59bd 2a05 b8bd b164 50be 4537 9dbe
000000b0: 60fe 75bc 609e 483c 00ea 2a3a 953f 24be
000000c0: f224 6ebe f0d7 4e3d 38f5 17bd d000 8ebc
000000d0: 78a3 24be f895 6b3d 7ece 79be f0e4 a83c
000000e0: 99f0 8ebe 04da 85be 2aca 7b3e a9c1 0fbe
000000f0: 3a65 4e3e 11d0 8e3e 007b 0ebd 0e5f 34be
00000100: 8e60 553e 60df a03d 7080 453d 74e9 7bbe
00000110: 2438 4ebe 9401 323e 7b15 973e 90c2 313e
00000120: 68c2 093d e80d 5cbd 06d7 07be aa66 703e
00000130: c4d4 a63d 3808 50bd 1c1e f0bd 9856 2cbd
00000140: 1950 953e 6ddf 88be 86f4 283e 20a0 d03c
00000150: ba33 75be e8ba 583d 8614 73be 9ed1 643e
00000160: 81a8 843e 0635 5d3e 8214 233e 70f6 a73d
00000170: 11f1 13be 1602 193e bca1 f43d a862 dabd
00000180: 660e 09be 3e01 313e 60d1 f83c 68ce 3fbe
-0.06537974 -0.17441618 0.14561507 0.2187759 0.20219043 -0.22123796 -0.0130753815 0.0030383766
-0.24429202 0.1596292 0.105261 -0.13843541 0.27534798 0.11397299 0.17640358 0.10661057
-0.19089258 -0.23590963 -0.032603264 -0.21264885 -0.046857357 -0.099387124 0.016854882 -0.09299871
0.10788584 0.23999324 -0.17324331 0.030013502 0.12859294 -0.078762785 -0.22750117 -0.15508942
0.16799968 -0.030518174 0.16642624 -0.12133625 -0.30481073 -0.041368335 0.08743143 -0.31372964
-0.053114355 -0.0898536 -0.2035091 -0.3070623 -0.015014261 0.012244791 0.0006519854 -0.1603988
-0.23256281 0.050498903 -0.037099093 -0.017334372 -0.16077983 0.05751607 -0.24395177 0.020616978
-0.27917936 -0.26142895 0.24588838 -0.14038719 0.20155802 0.27893117 -0.03478527 -0.17614385
0.20837614 0.078551054 0.04821819 -0.24600774 -0.20138603 0.17383415 0.29508576 0.17359376
0.033632666 -0.0537242 -0.13265619 0.23476663 0.081460506 -0.050789088 -0.11724493 -0.04207477
0.29162672 -0.2673296 0.16499528 0.025466979 -0.23945513 0.052912623 -0.23738298 0.22345588
0.25909808 0.21602258 0.15925792 0.08201301 -0.14447428 0.14942202 0.11944911 -0.106633484
-0.13384399 0.1728563 0.030373275 -0.18731081

bias f4 [10]
00000000: 6077 193d d7d2 62be c089 e7bd 3ccb 173e
00000010: 6027 003d 405d c9bc 909f df3d 50cf f03c
00000020: 708e 243e acc1 4bbe
0.03746736 -0.22150742 -0.113055706 0.14823622 0.03128755 -0.024580598 0.10919106 0.02939573
0.1606996 -0.19898099

weight f4 [1, 10]
00000000: 61cf a03e 047d b53d 4e2a 91be 776c 863e
00000010: 3e21 613e 46bd 13be e628 7f3e f4e2 68be
00000020: c424 273e 6643 aebd
0.31408218 0.088617355 -0.28352588 0.26254627 0.21985337 -0.14427671 0.24917945 -0.22742826
0.16322619 -0.08508949

add_tensors f4 [10, 6]
00000000: 0000 0000 0000 0000 0000 803f 0000 0000
00000010: 0000 803f 0000 0000 0000 0000 0000 803f
00000020: 0000 0000 0000 0000 0000 0000 0000 0000
00000030: 0000 0000 0000 0000 0000 0000 0000 803f
00000040: 0000 803f 0000 0000 0000 803f 0000 0000
00000050: 0000 0000 0000 803f 0000 803f 0000 803f
00000060: 0000 803f 0000 0000 0000 803f 0000 0000
00000070: 0000 803f 0000 803f 0000 0000 0000 0000
00000080: 0000 803f 0000 0000 0000 803f 0000 803f
00000090: 0000 0000 0000 803f 0000 803f 0000 803f
000000a0: 0000 803f 0000 0000 0000 803f 0000 0000
000000b0: 0000 0000 0000 0000 0000 0000 0000 0000
000000c0: 0000 0000 0000 803f 0000 0000 0000 803f
000000d0: 0000 0000 0000 0000 0000 0000 0000 0000
000000e0: 0000 0000 0000 0000 0000 0000 0000 0000
0.0 0.0 1.0 0.0 1.0 0.0 0.0 1.0
0.0 0.0 0.0 0.0 0.0 0.0 0.0 1.0
1.0 0.0 1.0 0.0 0.0 1.0 1.0 1.0
1.0 0.0 1.0 0.0 1.0 1.0 0.0 0.0
1.0 0.0 1.0 1.0 0.0 1.0 1.0 1.0
1.0 0.0 1.0 0.0 0.0 0.0 0.0 0.0
0.0 1.0 0.0 1.0 0.0 0.0 0.0 0.0
0.0 0.0 0.0 0.0

add_tensors f4 [10]
00000000: d0e9 343d f2ad 333e 9ff8 8f3e a82c 11be
00000010: b44a 79be 2b48 933e 6041 bbbc 0845 9abd
00000020: 53ee 9b3e 8831 85bd
0.044168293 0.17546824 0.2811937 -0.14177191 -0.24344903 0.28765997 -0.022858322 -0.07532698
0.30455264 -0.06503588

add_tensors f4 [10, 10]
00000000: ca34 04b4 b00d a039 23d7 b537 6a0e bfbb
00000010: 9637 7abe ff88 eb39 2233 4b3b 989c 68bd
00000020: a4b2 11b0 d054 4e38 7f14 25bc 0952 5539
00000030: 7a59 a33d c831 bc3a 54f9 acbb 1a99 06b7
00000040: dd8b 4ebd 79ce 37b8 8ca8 e0bc 0cd2 853a
00000050: a88d 0bb5 fe08 ccbd 434f f13f f34d b435
00000060: bedf 8bb5 b24a ed3a 5cb0 92b7 b0f8 2e39
00000070: f0b4 af36 36df 4db9 40b8 1ab7 da23 d8c2
00000080: bea1 1dbb 58a5 aa33 202f 08b9 4098 0133
00000090: 80a0 a133 32c1 113b f713 9abd 3c0c 9b37
000000a0: a876 423d ed5e d63e ccd1 62b8 1126 25b8
000000b0: 567b 49c1 e693 3bb1 98f4 b03a 1292 a6b7
000000c0: b8f0 91b7 e8c9 28bb 48b5 04c0 50a6 8a31
000000d0: 4898 37b7 6060 033d da1d b63e b601 0e41
000000e0: 24b0 5d3b 0c82 0b39 1fb0 abb0 f17e a7b5
000000f0: 96a4 c5b7 a757 1cbe 9929 e6b9 d440 00b6
00000100: 82da 89bb d5b4 82b2 dcc0 58ba 807d 7137
00000110: 182c e03d 84c1 3dbc 50d4 0fba d8a8 09b6
00000120: d67a 80b8 b0e2 c8be 7d52 5f3a 3fd0 1e3d
00000130: bc36 dcb7 b2c3 b4bb 96f1 14b9 803c 8839
00000140: 455c 8bbd f136 8a3a 310e 55ba c01f 3437
00000150: 3ec0 09b4 6509 013b 4eac 1133 0f5f 2fbb
00000160: 6c4c cfb9 7688 57b5 1883 35be 20b7 ffbb
00000170: 1837 5f3a 1ffc d0b9 6c41 b4b9 36b2 7ebc
00000180: 308f 153c 3650 b939 d665 2836 c08e e3b8
-1.2312663e-07 0.00030527776 2.1677062e-05 -0.0058305757 -0.24435267 0.00044924763 0.003100582 -0.056789964
-5.3004556e-10 4.9193215e-05 -0.010075687 0.00020343823 0.07976051 0.0014358098 -0.0052787457 -8.022669e-06
-0.050426353 -4.3822893e-05 -0.02742412 0.0010209694 -5.198767e-07 -0.099626526 1.8852314 1.3433731e-06
-1.0421425e-06 0.0018103926 -1.748668e-05 0.00016686576 5.2364703e-06 -0.00019633476 -9.222014e-06 -108.07002
-0.0024052705 7.946318e-08 -0.00012987526 3.0173624e-08 7.5263415e-08 0.0022240398 -0.07523339 1.8483137e-05
0.04747644 0.41869298 -5.4077987e-05 -3.9374518e-05 -12.592611 -2.7296152e-09 0.0013500629 -1.9856761e-05
-1.739744e-05 -0.002575511 -2.0735645 4.035236e-09 -1.0943106e-05 0.032074332 0.3556965 8.875418
0.0033826912 0.00013304519 -1.2491944e-09 -1.2479414e-06 -2.3560871e-05 -0.15267812 -0.0004390001 -1.9111221e-06
-0.0042069564 -1.5216225e-08 -0.00082684844 1.439394e-05 0.1094591 -0.011581782 -0.0005486654 -2.051287e-06
-6.1263956e-05 -0.3923545 0.00085190666 0.038772818 -2.6251531e-05 -0.0055164928 -0.00014204378 0.00025985017
-0.068047084 0.0010544938 -0.000812742 1.0736228e-05 -1.2829057e-07 0.0019689437 3.3917154e-08 -0.002675954
-0.00039539055 -8.029232e-07 -0.1772579 -0.0078038126 0.00085149845 -0.00039860696 -0.00034381018 -0.0155454185
0.009128377 0.00035345712 2.5093227e-06 -0.00010850793

add_tensors f4 [1, 10]
00000000: 3afc a83e 53ab c4be 102e 233e 9c0b e5bd
00000010: 9e05 bb3e 0941 5cbe 4ed4 afbe 5e41 2fbe
00000020: 6cd3 933e ac81 4c3e
0.33004934 -0.3841196 0.1593554 -0.11183855 0.36527723 -0.21509184 -0.34341663 -0.1711478
0.2887224 0.19971341
