Relu_fixed_hardest/TorchSaves/Last_Gen998.pt (torch_old, 16333 bytes, 17 tensors)

weight f4 [10, 6]
00000000: 3068 4938 c00d 3f3a 301e 763d 4515 d3be
00000010: 9464 b6bd 3cd3 7a39 4038 12bc 8ac4 67b8
00000020: e081 bbba 78db fe3b f6a6 fdb8 98cc 51c1
00000030: f692 d6b8 9762 9e39 e2cc 283a 3a9a 003a
00000040: 0854 6db7 c4dc 87b8 9894 2bbb 4ba4 70bd
00000050: f480 edbb 07e0 04bf bc1c 0338 d0e6 46bc
00000060: 59bc e8bd 4ceb 00bc 349c e6bc 47eb 423d
00000070: 222b 8541 2f99 053c 71b2 953b d771 3438
00000080: 62ab 443b 3671 47b9 c4fd b93e eecd 6938
00000090: 20d8 3cb8 b63e 86be 5096 81b9 cfaf a13a
000000a0: 4b09 85bf 093c b9b9 812d b339 e049 8639
000000b0: 801c 04bd 8977 25bc dec8 e837 e053 e0b9
000000c0: 94be 3140 9d71 7cbe 2810 b83c ab41 cf38
000000d0: 7053 5137 beda 7a3c 6301 a13b 0255 0145
000000e0: a0cb 06c2 e402 a02d 7288 1eb8 28bc eab8
4.8019167e-05 0.00072881207 0.060087383 -0.41227165 -0.089059025 0.00023920549 -0.008924544 -5.5257733e-05
-0.0014305674 0.0077776276 -0.00012095079 -13.11245 -0.00010231689 0.00030209564 0.00064392213 0.0004905794
-1.4145866e-05 -6.4784224e-05 -0.0026181098 -0.058750432 -0.0072480384 -0.5190434 3.1259595e-05 -0.012139991
-0.113640495 -0.007868599 -0.028150655 0.04758766 16.64606 0.008154198 0.004568391 4.3021366e-05
0.0030009379 -0.00019020293 0.3632642 5.5743316e-05 -4.5023975e-05 -0.2621972 -0.0002471679 0.001233572
-1.0393461 -0.0003533068 0.00034175444 0.00025613513 -0.032253742 -0.0100993 2.7750091e-05 -0.000427871
2.777257 -0.24652715 0.022468641 9.882761e-05 1.2476798e-05 0.015310941 0.0049134954 2069.313
-33.698853 1.8191178e-11 -3.779721e-05 -0.00011193036

bias f4 [10]
00000000: 2a7f c1bb 5adb 73ba d8a1 9a3b d226 0b36
00000010: 8473 443f d0a6 233d 4db6 c63a c475 7a3c
00000020: e510 1ebd 6521 bf36
-0.0059050517 -0.00093024 0.0047190003 2.073521e-06 0.7673876 0.039954007 0.0015160531 0.015286867
-0.03859033 5.696131e-06

weight f4 [10, 10]
00000000: 2c22 ae3b aa4d 90bc 049d b93e 8885 66bc
00000010: 7814 863e f0d8 a238 5bdb 023b 602f 59bf
00000020: 9e76 9d3c 9f84 de3b 7a03 213d d203 1638
00000030: eafb f4b6 5992 0dc0 cc03 32bb c07b 49b7
00000040: f29c 6b38 3abc 2539 da8f d13b 31ea 223c
00000050: 1616 5cb8 ea08 03bc ed55 2a3d 3c3d 01be
00000060: d864 4939 8ac8 bc39 8242 77ba 3d12 e73f
00000070: 30dc 63ba 51fe 62bb 32b3 8e35 d45b c53f
00000080: 805a cfba 9e90 d4bd bc1b fbb3 5105 71b8
00000090: 5e2b 25be 948f b535 af05 ceb5 e75b c744
000000a0: 26f1 5b3d 4c9b 8b37 60b7 4a3d a726 e43d
000000b0: 3e6e 8ab5 9639 b5bf 6600 20ba 42f7 b5ba
000000c0: 0fd9 4bc0 b418 00c0 aed4 0639 3423 55bf
000000d0: 6bd6 0339 b6a1 bfbb 41dc 563e 7896 2db8
000000e0: e8d6 81b8 5045 1038 b77f 65b7 8c9c ea3b
000000f0: 81cd 1cb9 7c0c f036 44a3 b53c 60de 8734
00000100: d07d 983a 9d49 153b 4829 c33b ba81 1c32
00000110: 9215 14bc 809c c9b6 cd2d 853b 2b66 42bd
00000120: 9e00 bbbe 577c 593b 4626 cdb8 48dd 01bb
00000130: d043 9fba f722 1f3c e11f 1bba 6a73 0d3a
00000140: de50 01b9 ffed f3b9 f214 b4bd 26d1 cebd
00000150: edc0 a841 a816 4838 8fb6 043d c40f 1dc0
00000160: b5ef 3f39 1979 54bc ea3a 2635 acb9 08bb
00000170: 1ace 9fbe 3bf8 2ec1 48d6 2d40 c00e ae35
00000180: aa22 09b4 e6ed d93e 41ac 4c3c 30ef 3635
0.005314132 -0.017615158 0.36252606 -0.014069922 0.2618749 7.76517e-05 0.0019967172 -0.84837914
0.0192216 0.006790712 0.039309956 3.5766345e-05 -7.3010933e-06 -2.2120574 -0.0027162908 -1.2009346e-05
5.6174533e-05 0.00015805746 0.0063953223 0.009943531 -5.2472657e-05 -0.007997731 0.04158585 -0.12621015
0.00019206421 0.00036007568 -0.00094322127 1.8052441 -0.0008692173 -0.0034636448 1.0631977e-06 1.5418649
-0.0015819818 -0.10379146 -1.1693143e-07 -5.746383e-05 -0.16129825 1.3527338e-06 -1.534985e-06 1594.872
0.053696774 1.6642407e-05 0.049491286 0.11140185 -1.0313886e-06 -1.4158199 -0.0006103575 -0.0013882893
-3.1851232 -2.0015078 0.00012858465 -0.8325684 0.0001257301 -0.005848135 0.20982458 -4.138655e-05
-6.191229e-05 3.4396828e-05 -1.36792e-05 0.007159775 -0.00014953876 7.1540107e-06 0.022172578 2.530751e-07
0.0011634175 0.0022779473 0.005955849 9.1098915e-09 -0.009038346 -6.008486e-06 0.004064298 -0.047460716
-0.36523908 0.0033185685 -9.782291e-05 -0.0019815732 -0.0012150947 0.009712926 -0.0005917531 0.0005395921
-0.00012332524 -0.00046525893 -0.087930575 -0.10098486 21.094202 4.7704816e-05 0.032400664 -2.4540873
0.00018304477 -0.012968325 6.192555e-07 -0.0020862622 -0.3121193 -10.935603 2.7162037 1.2968303e-06
-1.277173e-07 0.42564315 0.01249224 6.8148347e-07

bias f4 [10]
00000000: 669b 37ba 6824 413b aa71 013b fa1b be37
00000010: d468 b13a eda5 b63e c6c0 e53b de60 853b
00000020: 96fc c2bc 2fa1 1d37
-0.0007004052 0.0029471163 0.0019751587 2.2662793e-05 0.001353527 0.35673466 0.007011506 0.0040703854
-0.023802083 9.395458e-06

weight f4 [10, 10]
00000000: 1cae 6439 4c5f bbbd d63a cbba 4631 9238
00000010: cbc3 9334 85d1 3dbb cafd a540 8cea ffbb
00000020: 2b4f 45ba 6881 90b9 e161 783f 6c47 023d
00000030: 1a6e 0cb6 427a 793a 2248 d2b5 a2db 5bbe
00000040: 7081 0c3e b47e 2d3c c763 5cb8 1eeb 50b7
00000050: 64ed f7b8 9180 563d 9582 15bb 74d9 5c3d
00000060: 8cc6 1539 f377 9f3a aa2f 823a 8ffb 08b9
00000070: 98a6 2339 df59 0235 0909 9e3b 94df b53d
00000080: 8bc8 41b8 be9b 50bf b0cc bd3a 543d 7b3e
00000090: 3253 49b6 158f 19bb cbd2 103e 6961 5738
000000a0: 5cb5 1abf 01fe 70b7 00d1 98b4 7437 d839
000000b0: 9da6 8a39 cb05 a93c 7008 0a39 90db c741
000000c0: 1785 2841 01ac c639 6074 36c1 dcc9 e837
000000d0: 4634 7ab7 a67a 4e3f b0f0 183a 1a89 8c39
000000e0: 4ed5 f13a 40bd 033a 0c05 af3f d998 0eb6
000000f0: 3ba2 2c3b 7395 b0bc c040 113d c00c 5e3c
00000100: cc79 c4b5 6e85 9e38 94c7 d9b6 1054 ac35
00000110: a23b 8bc1 fa60 c5be d452 fdb6 22ed 7a38
00000120: 00a2 5d3d a8ab 8eb8 b0ed 6db4 8c94 a137
00000130: 3098 a03a 40f3 33bf cd33 a03e f8f6 03b8
00000140: 80dd 92b6 b2f5 03b5 1056 6938 0034 15ba
00000150: 60c8 ea3a 9c0c e532 a7e0 103e 92a5 a93c
00000160: cc00 693d 6183 03b7 d870 c3b4 6890 313b
00000170: f1d8 9bb8 0c7b b642 d017 4f36 4cf5 663d
00000180: a52b 3238 854e bebb 00c0 f7b9 ee17 343d
0.00021808635 -0.09149036 -0.0015505205 6.9710004e-05 2.7523342e-07 -0.0028963995 5.18723 -0.0078099426
-0.00075267506 -0.00027562235 0.9702435 0.031806394 -2.0925713e-06 0.0009516814 -1.5667213e-06 -0.21470502
0.13721251 0.01058929 -5.2545012e-05 -1.2452509e-05 -0.00011822095 0.052368704 -0.0022813429 0.053918317
0.00014283712 0.0012166485 0.0009932418 -0.00013063684 0.00015606952 4.8559554e-07 0.0048228544 0.08880535
-4.6201556e-05 -0.81487644 0.0014480557 0.24535114 -2.999976e-06 -0.002343123 0.14142911 5.1350715e-05
-0.6043298 -1.4364255e-05 -2.8464274e-07 0.00041240046 0.00026445548 0.020632645 0.00013163849 24.982208
10.532493 0.00037893656 -11.403412 2.7750553e-05 -1.4913332e-05 0.80655897 0.0005834205 0.0002680503
0.001845041 0.0005025454 1.3673415 -2.1248618e-06 0.0026341814 -0.021555638 0.03546214 0.0135528445
-1.4638586e-06 7.55888e-05 -6.490338e-06 1.2839464e-06 -17.404118 -0.3855055 -7.54963e-06 5.9825492e-05
0.054109573 -6.803061e-05 -2.2158815e-07 1.9261868e-05 0.0012252387 -0.70293045 0.3128952 -3.146284e-05
-4.376925e-06 -4.9158837e-07 5.563168e-05 -0.00056916475 0.00179125 2.6664843e-08 0.14148198 0.020708833
0.056885526 -7.8387975e-06 -3.6403685e-07 0.002709413 -7.4313844e-05 91.240326 3.0859264e-06 0.056386277
4.2479154e-05 -0.0058077 -0.00047254562 0.043968134

bias f4 [10]
00000000: 8ce5 3339 387e 82b6 4a52 80bb 40cc e542
00000010: a84c 3cbd c474 813a 4980 88bb 00ab 6437
00000020: 3246 023e 3030 8c37
0.00017156283 -3.8889957e-06 -0.0039160596 114.898926 -0.045971543 0.0009876718 -0.0041656834 1.3629673e-05
0.1272209 1.671174e-05

weight f4 [10, 10]
00000000: de60 1cbf cd5f 683e 3005 233c d02c c4be
00000010: d022 1c38 c5f7 55b9 13a4 f53a 984f 2735
00000020: 97ae 91b6 2e36 e440 375c cd35 2c35 fe39
00000030: 2b50 c2b9 e4c7 193c 9dbb 23bc 5207 943b
00000040: aedb 27b7 d053 00bf ce7e 043a f1b5 0dbc
00000050: 6817 8539 5312 a1bb 787f aab8 4c6b 56b8
00000060: 8d54 47bc 47a4 243d 2665 0ab8 386d d2bf
00000070: 9414 fc35 c0d6 783c 00a1 acbd 6697 8fb2
00000080: 0633 1e38 b4d5 f0b4 74a2 e134 7dfd bd3d
00000090: 42be d03d 7abb 3538 863f 083a bed5 babe
000000a0: 3e6d f6be 9e3d 8dbb a98b e539 b15b a636
000000b0: 7635 1f3d feb4 b939 45c6 203f 7dfd 4a41
000000c0: 5228 9b3d 2855 d2b7 ec64 423a a80e 823d
000000d0: d8df 0538 40d1 c7af 059c 4dbf 600a 6738
000000e0: 3be4 d3b5 0137 05be e278 a0bc 3614 4336
000000f0: 4e0e f1b7 678b a4b5 04f8 20bc 823f 9bbd
00000100: eab9 cac0 ce6f 12ba 3db9 9bbd 9a24 c13d
00000110: c6a6 9336 b259 a73d a8f2 f1bb 9ea0 cfb8
00000120: 6164 4338 f205 4cbf 7a3b 16b9 69ce ff39
00000130: b05d 8d3c c045 e936 9ea3 fbbb 223e 8a3a
00000140: 2f70 11b9 ecb7 93b6 bfca e43c 2c50 6736
00000150: 08b9 c1ba 6388 2f36 5a46 cc38 eda6 3b3c
00000160: e204 d7bc b8a3 0ec0 c467 4c3f d360 1737
00000170: 181f c93d 47e5 d43b 003d 8a3c 2c23 b338
00000180: 2490 4e3c fb28 fab9 edc5 053b d939 7d38
-0.6108531 0.22692795 0.009949967 -0.3831544 3.722572e-05 -0.00020405564 0.0018740915 6.232817e-07
-4.3416617e-06 7.1316137 1.5300528e-06 0.0004848627 -0.00037062293 0.009386037 -0.009993461 0.004517474
-1.0005124e-05 -0.5012789 0.0005054296 -0.008649335 0.00025385176 -0.0049155145 -8.1299746e-05 -5.1121504e-05
-0.012166155 0.04019573 -3.2995966e-05 -1.6439581 1.8781452e-06 0.015187919 -0.08429146 -1.6716239e-08
3.7717655e-05 -4.4858973e-07 4.2027716e-07 0.09276865 0.10192539 4.3328364e-05 0.0005197454 -0.36491197
-0.4813022 -0.004310324 0.0004378234 4.95786e-06 0.038869344 0.000354208 0.62802535 12.686887
0.0757605 -2.5073605e-05 0.0007415551 0.06350452 3.191814e-05 -3.634657e-10 -0.8031619 5.5084354e-05
-1.5787149e-06 -0.13009264 -0.019588891 2.9069029e-06 -2.87361e-05 -1.2259524e-06 -0.0098247565 -0.075804725
-6.3351946 -0.0005586118 -0.07603691 0.09430809 4.4003564e-06 0.08171405 -0.007383663 -9.9004465e-05
4.6585108e-05 -0.7969657 -0.00014327271 0.00048791178 0.017256588 6.952061e-06 -0.007679417 0.0010547081
-0.00013870069 -4.4023527e-06 0.027928708 3.4468349e-06 -0.0014779875 2.615642e-06 9.740582e-05 0.011453372
-0.026247445 -2.2287426 0.79845834 9.022845e-06 0.09820384 0.0064970586 0.01687479 8.5419364e-05
0.012607608 -0.0004771425 0.0020412162 6.0373775e-05

bias f4 [10]
00000000: 7000 e1b9 050d 80ba c44c 73bd 7d4d 04c1
00000010: 42fc 6fbe d87e e9b5 dcdd 9a3d cc71 303c
00000020: 56cc 49bb 4cf7 ffba
-0.0004291567 -0.0009769505 -0.05939938 -8.268918 -0.23436072 -1.7396769e-06 0.075618476 0.010769319
-0.003079196 -0.0019528656

weight f4 [10, 10]
00000000: 900d e2b4 02f0 08be 56c4 5abb fc66 c435
00000010: 981b 75b8 8058 da3b e2d6 9c39 9c02 4c3a
00000020: af57 0535 0053 1bbd 9239 fa37 ea66 133c
00000030: a39a 2dbe 9b77 9b3d 55e8 923b 1522 693b
00000040: 41de 31be b398 193a a04d 963b 5c5a babe
00000050: 60df 443b 48ad 6638 dcf5 f1bc 7069 4936
00000060: 971b dfba 4523 dcba f220 da3d d220 b434
00000070: e87f 6ebb b08d d4bd 11aa 9ebc b80e 263f
00000080: b0f2 e2bc 3643 ad38 468c 733b d3d4 05be
00000090: 7a72 0344 6340 c1b7 9ddf 703b b2af f3bd
000000a0: bcb7 0c3d 28af 6fba 10d5 dfba 2f1b 55b6
000000b0: a8e3 1bbd 010d 5238 261f f2b9 9243 a937
000000c0: b54f c43e a091 5cb8 fcdf 593f 9c8f 88b9
000000d0: 7004 4636 d27d 9933 760a 0740 6f95 163d
000000e0: e282 dcbc 8676 a23a d4f8 783c 2044 eebc
000000f0: da51 1b3d 8c02 013f 34b8 3bae 76f9 9fbc
00000100: f9d7 2cbf c594 293d b8fd 67bd bad9 20be
00000110: 8468 8fc1 4f7c bab9 9064 49be 3dc0 563c
00000120: 9050 6141 d4da b038 6e62 2abc 42b1 01ba
00000130: 0444 92bc bc29 d63b 5e3f b2bd f3fb 983d
00000140: e913 c4bb 437b 1b3a 6e58 6fbc 8714 69b5
00000150: 2681 2134 9c1f 2fba e07e 34be 8cff 9a3b
00000160: 8790 313b eac9 6939 8003 50b7 98c7 b03d
00000170: bcee 003f a880 16bc 4018 f93a db3c 78bc
00000180: c1ba e63f f7f3 8c3d 8d8c 73b7 e158 303c
-4.2105648e-07 -0.13372806 -0.0033381185 1.463311e-06 -5.843825e-05 0.006663382 0.0002991474 0.0007782371
4.967396e-07 -0.03792095 2.982913e-05 0.008996705 -0.1695352 0.07591172 0.0044832625 0.0035573293
-0.1736994 0.0005859241 0.0045868903 -0.36397064 0.0030040368 5.4997654e-05 -0.02953618 3.0012707e-06
-0.0017021772 -0.0016795179 0.10650815 3.3551493e-07 -0.0036392156 -0.10378587 -0.019368203 0.6486621
-0.027703613 8.261802e-05 0.0037162467 -0.13069467 525.7887 -2.3037375e-05 0.0036754378 -0.118987456
0.03435491 -0.0009143227 -0.0017077047 -3.1755296e-06 -0.038058907 5.0080012e-05 -0.00046181044 2.0177835e-05
0.38342062 -5.258771e-05 0.851074 -0.0002604694 2.9506882e-06 7.147504e-08 2.1100135 0.036763605
-0.026917879 0.0012394942 0.015196044 -0.029085219 0.037919857 0.5039451 -4.2682483e-11 -0.019528132
-0.6751705 0.041401643 -0.05663845 -0.15708056 -17.926033 -0.00035569302 -0.19667268 0.013107357
14.082169 8.433094e-05 -0.010399444 -0.0004947373 -0.017854698 0.006535737 -0.087034926 0.074699305
-0.005983819 0.0005931148 -0.014608486 -8.6829135e-07 1.5041277e-07 -0.00066804304 -0.17626524 0.0047301706
0.0027094202 0.0002229583 -1.2398581e-05 0.086318195 0.5036428 -0.0091859475 0.001900442 -0.015151228
1.8025743 0.0688247 -1.4516653e-05 0.010763378

bias f4 [10]
00000000: 5579 323b a5c4 bfbb 12e1 2fb6 cc48 983b
00000010: 40fe 8bb7 7311 e0b8 760c 1cb7 bea3 adb8
00000020: 057d 9a2f de6f 9ab9
0.0027232964 -0.0058522993 -2.620804e-06 0.00464735 -1.6688486e-05 -0.000106844025 -9.301226e-06 -8.279782e-05
2.8101269e-10 -0.00029456516

weight f4 [10, 10]
00000000: ed7d 9739 d3ec 4e35 c8cc c937 646c c73a
00000010: 4033 773f d72d f5b9 cc25 f13d f394 87bc
00000020: 0aec 3f3d f41b 9240 1aee 14bb 1c7b 02b9
00000030: ed73 b6c3 a0c0 373b 302a a4b9 687b 20bb
00000040: 6850 8cb8 10a3 5c3d 38a6 e032 a048 1238
00000050: cfe9 9cb9 dacc 61c1 aa44 9b3d d202 32bf
00000060: 0039 dabc 52e0 f7b8 35d8 3d3f 152c 0fbe
00000070: a005 493e 5b00 8539 8c4e d83a d0d0 3aba
00000080: 5870 6fb6 448c 7f3a 6a92 a8be 10bc 5f3d
00000090: 76a8 abbc 2bff 953c c490 a2ba 91d0 abbc
000000a0: 4dc9 293c 045a 5eb3 aeb2 00bc 46bf 0e3a
000000b0: 3dff 1f3a c443 2cb9 56ff 6a3e 78f4 3e3e
000000c0: 7aaa b3ba 7a20 09bd 0098 ef38 3475 9bbe
000000d0: 1452 9a3a fe01 f7be 80fb 4236 92f7 03ba
000000e0: fef1 923c f372 dc3a 0ab5 fe3a abb8 243c
000000f0: 0d30 9f36 3d8a 54b6 8453 2b3e 446d 943c
00000100: f087 34bf 3851 3f3f 9e52 b6b9 de5e c93b
00000110: 434e 0f39 3e02 8b41 f643 3136 54b8 da3c
00000120: e62e 3538 3227 5e39 007c 8830 403c ccba
00000130: e33b 8c41 45f9 86b7 ac2d 1533 a054 58b8
00000140: c691 a4bb 5056 bebe 6752 09ba f244 7ebd
00000150: 86d4 c1bb 7201 d0bd cfae b2b7 8a23 b3be
00000160: a908 f339 8527 0db9 0f25 b6b8 50f7 47b7
00000170: 4344 9fba e261 6eb5 cd72 8e3c 086c efb6
00000180: 3913 973a ff61 3d2d a651 d93f bd0a b1b6
0.00028894786 7.7085605e-07 2.4056426e-05 0.0015214798 0.96562576 -0.00046764195 0.11774787 -0.016550517
0.046855964 4.5659122 -0.0022724927 -0.00012443628 -364.90567 0.0028038397 -0.0003131195 -0.0024487618
-6.690697e-05 0.053866446 2.615262e-08 3.487675e-05 -0.0002992884 -14.112513 0.07581456 -0.69535553
-0.026638508 -0.00011819661 0.7415803 -0.1398166 0.19631052 0.00025368002 0.0016502901 -0.00071264524
-3.5679168e-06 0.0009748379 -0.32924205 0.05462271 -0.020954352 0.01831015 -0.0012402763 -0.020973476
0.010362935 -5.177027e-08 -0.007855101 0.0005445372 0.0006103402 -0.00016428443 0.22948965 0.18647945
-0.0013707422 -0.033478238 0.0001142472 -0.30362856 0.0011773729 -0.48243707 2.9054645e-06 -0.0005034144
0.017937656 0.0016818926 0.0019432616 0.010053794 4.744163e-06 -3.1670927e-06 0.16731077 0.018118508
-0.70519924 0.74733305 -0.000347753 0.0061453423 0.00013666697 17.376095 2.6414614e-06 0.026699223
4.319744e-05 0.00021186171 9.930545e-10 -0.0015581921 17.529242 -1.609012e-05 3.4733304e-08 -5.1577226e-05
-0.0050222604 -0.37175226 -0.0005238414 -0.06207747 -0.0059152273 -0.10156526 -2.1300655e-05 -0.34988052
0.00046355024 -0.0001346153 -8.685339e-05 -1.1918906e-05 -0.0012151081 -8.880435e-07 0.017388726 -7.1353315e-06
0.0011526115 1.0765166e-11 1.6978042 -5.276261e-06

bias f4 [10]
00000000: 0dab 85b0 61f5 9cbf 82c7 8db9 ff25 99be
00000010: 94d8 523a 601f 7eba 22e7 4f39 9c67 063c
00000020: 8060 4337 1bbc fb3d
-9.725639e-10 -1.2262384 -0.0002704226 -0.299118 0.0008043137 -0.00096940063 0.00019827162 0.008203413
1.1645374e-05 0.12291738

weight f4 [1, 10]
00000000: 461f c8b7 e830 f536 6ce5 563e 44d2 4a3a
00000010: f1c0 de3a a4fa d339 6827 cfbb 7510 893f
00000020: 8068 eabc 58be 58bb
-2.385642e-05 7.3072624e-06 0.20985955 0.00077370205 0.0016994757 0.00040431798 -0.0063218363 1.0708147
-0.028614283 -0.0033072438

add_tensors f4 [10, 6]
00000000: 7a82 e339 8b3d 9337 df1c f43c b8bf 49bf
00000010: 6890 013d 008a 24ba a809 74ba a8d9 75b7
00000020: 9962 2639 8251 2b3b eaec b738 92f9 56c0
00000030: 26a5 e9b6 e8aa f938 d7ae 0e3b c037 07b9
00000040: d3b1 d3b4 d3be 7ab9 d005 fdba 0108 05bd
00000050: 42d7 acbc 018c 49be 8971 1f37 6209 db3a
00000060: 036b 5ebc 9de6 a4bb 331e 913d eed7 c83c
00000070: 6d6c 3d40 4989 76b9 81a4 383a c1ba 5d37
00000080: 72ec d33a 0625 1fb8 58e7 593e 3982 d4b8
00000090: dc18 dd38 0186 1ebe 7ecb 513b eaad a4b8
000000a0: b85e 98be 071c 08b8 5a0c c536 166e cf3b
000000b0: 1fdd 78bc 1bc9 3f3c b33c 5737 ce80 aa3a
000000c0: efd9 8a3f aa0c adbd cbc0 523c fce5 f537
000000d0: b01d fbb8 94d5 b53b 9749 083a 5b12 b544
000000e0: 512a 91c1 74d6 0a2d eb44 a8b7 61df 393a
0.00043394027 1.7552424e-05 0.029798923 -0.78808165 0.031631857 -0.0006276667 -0.00093093 -1.4653815e-05
0.00015867724 0.0026141112 8.770249e-05 -3.3589826 -6.963167e-06 0.00011905079 0.0021771693 -0.00012895372
-3.9431197e-07 -0.00023912945 -0.00193041 -0.032478336 -0.021098737 -0.19682314 9.503573e-06 0.001671117
-0.013575318 -0.005032374 0.07085838 0.024517026 2.9597428 -0.00023511531 0.0007043556 1.32161085e-05
0.0016168489 -3.7943035e-05 0.21279657 -0.000101332036 0.000105427316 -0.15480806 0.003201216 -7.8525234e-05
-0.29759765 -3.245103e-05 5.8724954e-06 0.006330262 -0.015189438 0.011705662 1.2829131e-05 0.0013008357
1.0847758 -0.08449681 0.012863348 2.931337e-05 -0.000119741424 0.005549142 0.0005198954 1448.5736
-18.145662 7.89201e-12 -2.0059253e-05 0.0007090476

add_tensors f4 [10]
00000000: c22c 983a 5b32 e3b9 1495 8cbc 93f2 e3b5
00000010: 6c39 4540 ae29 0dbf 8a35 2939 6d09 9cbb
00000020: 3edb b0bc f629 42b6
0.0011610019 -0.00043334332 -0.01716093 -1.6983416e-06 3.0816298 -0.55141723 0.00016137041 -0.004761866
-0.021588918 -2.8932677e-06

add_tensors f4 [10, 10]
00000000: 9b32 e838 d243 0835 3fbe 5637 5d50 963b
00000010: 6f67 0e3f 52b5 8cb9 92cf 973d e1a0 0cbc
00000020: 6570 adbd 1d79 2a40 ab70 873a e04f a3b8
00000030: f805 4ec3 46c4 203d 36f4 6ebb 42c8 c93b
00000040: e08c 7b38 32b3 4ebc a9ea 46b4 615e 9739
00000050: 7d8b 40b9 2bf2 dac0 12b1 4a3d 4cc9 973e
00000060: 68cf 093d e518 83b8 fbc4 eb3d b063 88bd
00000070: acd5 64bf c9e0 8438 1721 2d3a 1e0f 2c3a
00000080: c96f e2b5 7624 e9b7 f5ef debd c1fb e43c
00000090: bc4f 09bc 9663 0d3d c5bc 23ba 0f88 cc3b
000000a0: bf06 10bc 4fb1 0db2 3217 4dbb 1d4c fcb9
000000b0: d582 4339 62db 113a 8b1f b53e 7eae 243c
000000c0: a93a 80bb 77a9 bbbd 948e 393c f649 d5bd
000000d0: 755d 7239 7f69 5abe 65bb b8b9 62a1 6c38
000000e0: 2a23 2a3c 5c9a ee39 f531 4fba cfe2 313b
000000f0: 550f e8b6 1a6f 94b4 9993 2abf 691d 07bd
00000100: c803 43c0 03de f93e 2428 bab8 b143 853b
00000110: f33c 7e38 d790 d940 d626 1c35 c2db 1b3b
00000120: eece 0037 5021 e338 0503 68af 2e0e e6b9
00000130: 118e 2941 ef58 e137 599b b332 c6d3 f0b9
00000140: 41bf 48bb 07ff b1bd 82a8 9bb9 e07c 2ebd
00000150: 15a3 4bbb eecf 8abd 77f9 ea37 851c 1cbe
00000160: fc7c c7b8 6d71 6139 b290 5038 957d 1b39
00000170: 28b0 69b9 5417 efb4 0b63 a5bc 792c 21b8
00000180: f516 533a eb7d 032a 50aa f8bb 785a 12b6
0.00011072048 5.076264e-07 1.2799689e-05 0.004587217 0.5562658 -0.00026837975 0.07412638 -0.008583278
-0.08468703 2.6636422 0.001033326 -7.7873236e-05 -206.02332 0.03924968 -0.003646148 0.006157906
5.9974263e-05 -0.012615966 -1.8525556e-07 0.00028871282 -0.0001836251 -6.8420615 0.049485274 0.29645765
0.033645064 -6.251204e-05 0.115121804 -0.06659639 -0.8938854 6.33612e-05 0.0006604357 0.0006563532
-1.6870846e-06 -2.7792743e-05 -0.10885612 0.027952077 -0.008380827 0.0345188 -0.00062460854 0.0062418054
-0.008790671 -8.2475955e-09 -0.0031294343 -0.00048121894 0.00018645388 0.00055640016 0.35375628 0.010051368
-0.003913243 -0.09163182 0.011325497 -0.104144976 0.00023113734 -0.21329306 -0.00035234835 5.6417084e-05
0.01038436 0.00045509904 -0.00079038675 0.0027143245 -6.9159237e-06 -2.7647985e-07 -0.66631466 -0.032987032
-3.0471058 0.48802194 -8.876648e-05 0.0040669073 6.0615082e-05 6.7989306 5.817104e-07 0.002378211
7.677574e-06 0.000108304084 -2.110135e-10 -0.00043879583 10.597184 2.6863503e-05 2.0908987e-08 -0.0004593415
-0.0030631574 -0.08691221 -0.00029689452 -0.04259956 -0.0031072546 -0.06777941 2.801114e-05 -0.15245254
-9.5123396e-05 0.00021499927 4.9725822e-05 0.00014828735 -0.00022286235 -4.4534193e-07 -0.020188829 -3.842681e-05
0.0008052432 1.1678824e-13 -0.007588662 -2.1808355e-06

add_tensors f4 [1, 10]
00000000: 3af8 80b7 2764 3c38 3beb e63e 8c4c 93ba
00000010: 6625 3a38 79cd af37 4803 4f3c e86c 253d
00000020: 341a ba3e 7e76 5bba
-1.5374379e-05 4.4915967e-05 0.45101342 -0.0011238023 4.4380686e-05 2.0957306e-05 0.01263506 0.040387064
0.36348116 -0.0008371844
