ReLU_hardest/TorchSaves/Best_Ball_Gen999.pt (torch_old, 92843 bytes, 9 tensors)

weight f4 [97, 6]
0	0xbcd9663d	-0.026538009
1	0xbd1bb0bf	-0.038010355
2	0x3604fce7	1.9816741e-06
3	0x3c0c6471	0.008568869
4	0xbc1698f4	-0.00919174
5	0x3d376730	0.04477614
6	0xb87fb626	-6.0966377e-05
7	0xbb37907e	-0.0028009708
8	0xb449e4b2	-1.8802783e-07
9	0xb732da06	-1.0660389e-05
10	0x3ef579e6	0.47944564
11	0xb58fce00	-1.0714284e-06
12	0xb6b195c2	-5.292445e-06
13	0x360298fc	1.9460558e-06
14	0xb23ad886	-1.0875857e-08
15	0xb57f8d24	-9.520029e-07
16	0xb92257fe	-0.00015482304
17	0x40ddfe5f	6.937301
18	0xbc647b67	-0.013945437
19	0xbb213013	-0.0024595305
20	0xc1a24368	-20.282913
21	0x32e2807e	2.6368294e-08
22	0x3eb64589	0.35599926
23	0xb4553905	-1.9857914e-07
24	0x367c1b1f	3.7566713e-06
25	0xb9c69bb8	-0.00037881522
26	0xbe8ef1fe	-0.27919
27	0xbfd22ef8	-1.6420584
28	0x367b8cba	3.7483828e-06
29	0xb722cf1c	-9.704174e-06
30	0x3b9cddd4	0.004787186
31	0xbc07d448	-0.008290358
32	0x390cfe18	0.00013446098
33	0x3b148809	0.002266409
34	0xbd01e4c6	-0.031712316
35	0x37c5c10b	2.3574123e-05
36	0xbc850580	-0.016237974
37	0x3ce6cfe4	0.028175302
38	0xb7178c01	-9.032899e-06
39	0x38610cb4	5.365601e-05
40	0x38343914	4.2968502e-05
41	0xbd53b8c0	-0.051689863
42	0x39b25a44	0.0003401806
43	0x3ecbf678	0.39836478
44	0x36c639b4	5.9075774e-06
45	0x3d0c933f	0.034320112
46	0xbd0bf49b	-0.03416882
47	0x33abd68c	8.001834e-08
48	0xb809a97b	-3.2821186e-05
49	0xbd98c88e	-0.07460128
50	0xb8847034	-6.31515e-05
51	0x39369290	0.00017411471
52	0x3c0b137a	0.00848853
53	0x325c1f88	1.2812855e-08
54	0xb905ccbe	-0.00012760141
55	0xb57a7e00	-9.331561e-07
56	0x34338db8	1.6722231e-07
57	0xb12b3760	-2.4915252e-09
58	0xba9adce8	-0.0011815103
59	0x3556f1f5	8.0073306e-07
60	0x38a103e5	7.677804e-05
61	0xb16f8003	-3.4851844e-09
62	0xb7cb375c	-2.4225264e-05
63	0xb220263c	-9.321919e-09
64	0xb6436f2e	-2.912198e-06
65	0x391dcfc8	0.00015050091
66	0xb75347f2	-1.2593331e-05
67	0x3504d566	4.948437e-07
68	0x4272127a	60.518044
69	0xbe8fd00d	-0.28088418
70	0xbad3a5dc	-0.0016147452
71	0x42918434	72.75821
72	0xbcb05dbb	-0.02152907
73	0xb9afc2c4	-0.00033523713
74	0x402c0008	2.687502
75	0xbe0d1cac	-0.13780469
76	0x3dceece6	0.101037785
77	0xb43e0358	-1.7696345e-07
78	0xb834d045	-4.310931e-05
79	0xb9bc72f8	-0.00035943813
80	0x3bc8707e	0.0061169257
81	0xbd2ab21e	-0.041673772
82	0x3b2df4f6	0.0026543713
83	0xbb87d839	-0.004145649
84	0xbc6f6486	-0.014611369
85	0xb29e1b74	-1.8406105e-08
86	0x359fac14	1.1896504e-06
87	0x337b8990	5.8565604e-08
88	0x3d8f36c0	0.069928646
89	0xbb928fe8	-0.0044727214
90	0x3f0c8326	0.54887617
91	0xbe9648f0	-0.29352522
92	0xb257b548	-1.2555866e-08
93	0x371d445a	9.373844e-06
94	0x39ed9e30	0.00045322021
95	0xbade9b7c	-0.0016983594
96	0xb8dc4aa8	-0.00010504323
97	0xb4b96726	-3.4533986e-07
98	0xb988fd7c	-0.00026128802
99	0xb5e6afac	-1.7187463e-06
100	0x3a484dfa	0.0007641014
101	0xbd80810f	-0.06274616
102	0x37f68904	2.9389288e-05
103	0xb9df602a	-0.00042605522
104	0x3bb4f787	0.0055226716
105	0xbba042a6	-0.0048907576
106	0xb8a2e420	-7.7672536e-05
107	0x3dd28c7c	0.102807015
108	0xbfa2bdaa	-1.2714131
109	0x37756abc	1.4627989e-05
110	0xbd89ae00	-0.06722641
111	0x39ffb43f	0.00048771684
112	0x3a0f1f10	0.0005459646
113	0x34caf7b3	3.7805657e-07
114	0x3ebddf16	0.37084264
115	0x3b843c1d	0.0040354864
116	0x43560664	214.02496
117	0x3381097d	6.0087565e-08
118	0xb79c83dd	-1.8658053e-05
119	0xbaa9e5d0	-0.0012962166
120	0xbbb0e278	-0.005398091
121	0xb434e02e	-1.6845362e-07
122	0x3ff8280d	1.9387223
123	0xbd60d00a	-0.0548859
124	0x391a85d2	0.00014736436
125	0x3d92bb24	0.071646005
126	0xb917d23e	-0.00014478803
127	0x3ad7ace4	0.0016454724
128	0x3e2467a6	0.16055164
129	0x36348741	2.6900818e-06
130	0x3b16bf9c	0.0023002392
131	0xb9e8ba61	-0.0004438935
132	0xb83c191c	-4.4846078e-05
133	0xb8ba8c3a	-8.8952904e-05
134	0xc05bdac8	-3.4352283
135	0xbc895574	-0.01676438
136	0xb4995eb8	-2.8567388e-07
137	0x3fd1fbb8	1.6404943
138	0x3d10f4bc	0.035389647
139	0x3abace20	0.0014252104
140	0xb4f6ab32	-4.5945632e-07
141	0x393c63b0	0.00017966214
142	0x3d8ee260	0.06976771
143	0xb7295e2a	-1.0095109e-05
144	0x3b7b3ab0	0.003833454
145	0xbe363659	-0.1779417
146	0x36588c1e	3.2268067e-06
147	0xbac84612	-0.0015279672
148	0x3d5588f8	0.052132577
149	0xbf794139	-0.97365147
150	0x36295f3e	2.52384e-06
151	0xc19f35a8	-19.9012
152	0xbcbe403c	-0.023223989
153	0x3ef7eef3	0.4842449
154	0x3f382202	0.7192689
155	0x3a0e9297	0.00054387137
156	0xbb2bb72e	-0.0026201713
157	0xb79e7f20	-1.8894265e-05
158	0xbf87048e	-1.0548265
159	0xb65307f6	-3.1446084e-06
160	0xbdcdb494	-0.10044208
161	0x399dd7d5	0.0003010618
162	0xbf1eb810	-0.6199961
163	0xb8da4250	-0.00010407402
164	0x37283a38	1.0027135e-05
165	0x3f921ea4	1.1415601
166	0xb7912b43	-1.7305492e-05
167	0x360265a9	1.9430684e-06
168	0xb8ab6188	-8.172082e-05
169	0x3af463c7	0.0018645459
170	0xb8013b66	-3.0811316e-05
171	0x3679211e	3.7123168e-06
172	0xb7afc934	-2.0955318e-05
173	0xba70df62	-0.000918856
174	0x38825b4a	6.215887e-05
175	0xb7712352	-1.4372943e-05
176	0x3b34f1dc	0.002760998
177	0x310db2a6	2.061975e-09
178	0x3ae07fc1	0.0017127917
179	0xbaf6b586	-0.0018822409
180	0xb971a364	-0.00023044419
181	0x3b31b67c	0.0027116826
182	0x36808c73	3.8310477e-06
183	0xb9820902	-0.00024802244
184	0x3393a19c	6.8746175e-08
185	0x3b2f14ad	0.0026715205
186	0xbcdbca59	-0.026829885
187	0x355fb4fa	8.333733e-07
188	0x33534a5c	4.9194895e-08
189	0xb72a14f5	-1.0137669e-05
190	0xbf4853f6	-0.78253114
191	0x39a7f810	0.00032037543
192	0x35334377	6.678087e-07
193	0x360d91a2	2.1095407e-06
194	0xbe31483a	-0.17312708
195	0x2fc344d0	3.5519188e-10
196	0xbd2ba7ee	-0.041908197
197	0x38e278fa	0.000107990534
198	0xbbf5f8df	-0.0075064744
199	0x3db2cd26	0.08730535
200	0xbd17f2b0	-0.03709668
201	0xb83e9a7b	-4.54434e-05
202	0x365fe701	3.3364051e-06
203	0x3db5a254	0.08868852
204	0xbc13eb69	-0.009028294
205	0x3e966823	0.29376325
206	0xbe494937	-0.19656835
207	0xb89f3594	-7.5916905e-05
208	0xbd573b8c	-0.052547023
209	0x3a3bccf4	0.0007164024
210	0xba3351a6	-0.00068404747
211	0x38047c6a	3.1587122e-05
212	0xb940b268	-0.00018377008
213	0xbd3f29f0	-0.046670854
214	0xb4727128	-2.2579172e-07
215	0x3f8d8330	1.105566
216	0xb91bb48f	-0.00014849215
217	0xb7e4d580	-2.7279137e-05
218	0x32673208	1.34573455e-08
219	0xb8036972	-3.1331037e-05
220	0x3f9247e7	1.1428193
221	0xb82f856c	-4.184751e-05
222	0x3f47cfe7	0.7805161
223	0x36625800	3.3727847e-06
224	0x3b8b331e	0.004248037
225	0xbd751050	-0.05983001
226	0xbdb1487c	-0.086564034
227	0x3c714934	0.014726926
228	0x3f11bb36	0.56926286
229	0x39ae9733	0.00033300518
230	0xbd24bc22	-0.04021848
231	0xb956144f	-0.00020416196
232	0x394110a5	0.00018412115
233	0x3188e90f	3.9846166e-09
234	0xbafe4936	-0.0019400481
235	0xb6186240	-2.2706954e-06
236	0xb896d7a4	-7.1927236e-05
237	0xb83a7388	-4.4453453e-05
238	0xb42ba32b	-1.5984976e-07
239	0xbb0eab5b	-0.0021769616
240	0xbbecc770	-0.0072259232
241	0xbc1ad8b4	-0.00945108
242	0x3991264e	0.00027685094
243	0xb79b13c0	-1.8486637e-05
244	0x4020e0f4	2.51373
245	0x3ace0fbf	0.0015721245
246	0x3fa33b19	1.275241
247	0x3c6c9e90	0.014442101
248	0xbc73c2ef	-0.014878019
249	0xb632612c	-2.6580628e-06
250	0x3a2ad1d0	0.000651625
251	0x3a8c0715	0.0010683263
252	0x394f4864	0.00019768026
253	0xb6ae3e94	-5.192889e-06
254	0x3e5b2e55	0.21404393
255	0xbace2705	-0.0015728181

bias f4 [97]
0	0x38097976	3.2776465e-05
1	0xc02ad3d7	-2.6691797
2	0x354f3400	7.718918e-07
3	0xb67a31f1	-3.7281973e-06
4	0xb5a16dc8	-1.2027385e-06
5	0xb9774d3e	-0.0002358453
6	0xb6114255	-2.1645294e-06
7	0x3d03ddb8	0.03219387
8	0xb61bf5d6	-2.3239895e-06
9	0xbdd1ceb9	-0.10244507
10	0xbbefb7e9	-0.007315625
11	0xbb75097c	-0.0037389686
12	0xb415492f	-1.390333e-07
13	0x3ab85f60	0.001406651
14	0xb5e09394	-1.6732251e-06
15	0xbe25e4c8	-0.16200554
16	0xbee1227a	-0.43971616
17	0xb7d254dc	-2.5073467e-05
18	0xb992b1c8	-0.00027979747
19	0x41611601	14.067872
20	0x379a1562	1.8368188e-05
21	0xbfa51fc0	-1.2900314
22	0xb381532c	-6.0221595e-08
23	0x32c0ff3a	2.2467805e-08
24	0xbb153338	-0.0022766124
25	0x36e55038	6.8340705e-06
26	0x37336ad2	1.06941025e-05
27	0x394aeb2c	0.0001935183
28	0x3f4af4dc	0.79279876
29	0x33818323	6.030884e-08
30	0x3706370a	7.999837e-06
31	0xb74d5838	-1.2239492e-05
32	0xc1c3aa75	-24.458231
33	0x3e9cd2e4	0.30629647
34	0x36f1a912	7.202042e-06
35	0xbc891cd8	-0.016737387
36	0xb34f46fe	-4.826051e-08
37	0xb8a5a328	-7.898203e-05
38	0x34391b30	1.7239358e-07
39	0xbacf0bd5	-0.0015796373
40	0xbc3bf997	-0.011473081
41	0xb52bd920	-6.401842e-07
42	0xc1c58548	-24.690079
43	0x3dbf7dce	0.09350167
44	0xb1d60470	-6.228724e-09
45	0xb536c1ea	-6.8082466e-07
46	0xbadf7ca0	-0.0017050691
47	0xba09d40c	-0.00052577327
48	0xb9a69ae0	-0.00031777378
49	0xb814415e	-3.5346828e-05
50	0xb7fcd07a	-3.013782e-05
51	0xc026f664	-2.6087885
52	0xb6e10ee0	-6.707254e-06
53	0xb7be673a	-2.2697834e-05
54	0xb8232458	-3.8896076e-05
55	0x32cd38aa	2.3890909e-08
56	0xb3b16951	-8.261362e-08
57	0xc088ec49	-4.2788434
58	0xb3132b7b	-3.426565e-08
59	0xb9af6461	-0.0003345339
60	0x4045fe33	3.09364
61	0x3debd280	0.11514759
62	0xb58121d8	-9.621099e-07
63	0xb71b06f4	-9.240339e-06
64	0xb789e9ff	-1.6440636e-05
65	0xbdbead1b	-0.09310361
66	0xc344f584	-196.95905
67	0xb6a51150	-4.9193986e-06
68	0x3c7d3711	0.015455023
69	0x3b3830a3	0.0028105162
70	0x3ea1bbec	0.31588686
71	0xb6660b80	-3.4279365e-06
72	0xc3475360	-199.32568
73	0xb22cbd9e	-1.0054832e-08
74	0x3c9986e4	0.018741079
75	0x3df651f8	0.12027353
76	0xbd7ac42f	-0.06122225
77	0x3a2a9030	0.0006506471
78	0xbeb72c68	-0.35776067
79	0x38669be0	5.4981443e-05
80	0x3b7f8b8c	0.0038993089
81	0x392e105e	0.0001660003
82	0x39de86a4	0.00042443455
83	0x3bf205e0	0.0073859543
84	0x34c29218	3.6241613e-07
85	0xbd234ea1	-0.03986991
86	0xb883dbb4	-6.28749e-05
87	0x3b2dacb8	0.0026500653
88	0xb6d3309b	-6.2939484e-06
89	0x3a6f2476	0.00091225596
90	0xba579b1f	-0.0008224714
91	0x3d10ba44	0.035333887
92	0x3611f5f8	2.1749856e-06
93	0xb24858e6	-1.1661745e-08
94	0x3a5d253b	0.0008436029
95	0x3c8cb840	0.017177701
96	0xbe0ed6e2	-0.13949159

weight f4 [97, 97]
0	0xbaad43db	-0.0013219075
1	0x2fa5424e	3.0060437e-10
2	0x3a0bab2e	0.0005327937
3	0xb8a21a08	-7.729611e-05
4	0x3a7d150d	0.0009654321
5	0x3f9f5683	1.2448276
6	0xb915cd12	-0.00014286142
7	0xb721dfc3	-9.648446e-06
8	0x403023d1	2.752186
9	0xb439e660	-1.7313278e-07
10	0xbd764080	-0.060120106
11	0xba9ab5e1	-0.0011803472
12	0x3457f944	2.0114118e-07
13	0x3885e9ab	6.385458e-05
14	0xb828f4bd	-4.028225e-05
15	0xbaafafcc	-0.0013403832
16	0xba3f671e	-0.00073014374
17	0x39f33910	0.00046391087
18	0xb8c2e5b9	-9.29343e-05
19	0xb782a90c	-1.5575926e-05
20	0x3d6c1a48	0.05764225
21	0xbab070bd	-0.0013461333
22	0xb7181583	-9.064915e-06
23	0xb6be705c	-5.6755216e-06
24	0x34bea800	3.5512494e-07
25	0x37660f00	1.3712561e-05
26	0xbe910e30	-0.28331137
27	0x39b9a6fe	0.0003541037
28	0xbf1055c4	-0.5638087
29	0xb657594a	-3.208947e-06
30	0x37853534	1.587961e-05
31	0xb41a997a	-1.4398202e-07
32	0x35053620	4.9625123e-07
33	0x42414c11	48.324284
34	0xc203f591	-32.98981
35	0xb887d1be	-6.476369e-05
36	0xbb1d49d3	-0.0024000301
37	0x33295a96	3.9430766e-08
38	0xbfe16560	-1.7609062
39	0xbd1cbe2b	-0.038267296
40	0x37069f27	8.024078e-06
41	0x333e80cf	4.4354973e-08
42	0xbe16644b	-0.14686696
43	0xb839d333	-4.430413e-05
44	0x34c69101	3.6985878e-07
45	0x354ea264	7.697729e-07
46	0x3875f018	5.8636157e-05
47	0x40b5a382	5.6762094
48	0x40c7aabe	6.2395926
49	0x381ff500	3.8136728e-05
50	0xbd9fc2c4	-0.078008205
51	0xb36453d0	-5.3161614e-08
52	0xb75fabc4	-1.3331828e-05
53	0xbb538204	-0.003227354
54	0x364ea5b0	3.0792835e-06
55	0x3ad7f456	0.0016476016
56	0xbd76635e	-0.060153358
57	0xb782ab70	-1.557704e-05
58	0x367ea112	3.7942705e-06
59	0xbb224a2c	-0.0024763448
60	0xba85cfed	-0.0010209061
61	0x373205f2	1.0611011e-05
62	0xb88bee7b	-6.672457e-05
63	0x2fd74130	3.915459e-10
64	0x3008ef8c	4.981693e-10
65	0x373a5fe2	1.1108788e-05
66	0x35258dc2	6.1673575e-07
67	0xb73270d0	-1.0635893e-05
68	0xb2032df0	-7.635649e-09
69	0xbf4db968	-0.8036103
70	0xb81e134e	-3.7688114e-05
71	0xb41c20fe	-1.4540635e-07
72	0x31489020	2.9185756e-09
73	0xb9eed6f0	-0.00045555038
74	0x314652a0	2.885976e-09
75	0xb76021d1	-1.3359314e-05
76	0xb632a2c4	-2.661881e-06
77	0xbf9476dc	-1.1598773
78	0x37b1ecd4	2.1210326e-05
79	0x3db9a0d4	0.09063879
80	0xbcf181da	-0.029480863
81	0x3f540d6c	0.8283298
82	0xbcedf978	-0.02904962
83	0x3b8e2978	0.0043384396
84	0xc01bb67a	-2.4330125
85	0x36ec3a10	7.0401074e-06
86	0xb946bdb0	-0.00018953416
87	0x39907f80	0.00027560815
88	0xb9faaf58	-0.00047814357
89	0x3d24688f	0.040138777
90	0xb6a50f97	-4.919198e-06
91	0xbb19936c	-0.0023433818
92	0x369129cc	4.3262025e-06
93	0xb45430ff	-1.9761863e-07
94	0x3d9b17ea	0.075729206
95	0xbd83424c	-0.064091295
96	0x3306d6a6	3.1394528e-08
97	0xb72cce66	-1.0300055e-05
98	0xbc4bee0c	-0.0124468915
99	0xbd3d844c	-0.046268746
100	0x3b5adfc8	0.0033397544
101	0x33175200	3.5232006e-08
102	0xbd7ae548	-0.061253816
103	0xbba60a9c	-0.0050671827
104	0x406d66b0	3.7093925
105	0x32604e82	1.3056367e-08
106	0x36d36bac	6.3008247e-06
107	0x31020268	1.8918858e-09
108	0xbc60c8cb	-0.013719748
109	0xb1a8c2a4	-4.9115716e-09
110	0x329a9e10	1.7999838e-08
111	0x3e214305	0.15748222
112	0xb4b26fdf	-3.323648e-07
113	0x395df77c	0.00021168398
114	0xb8bfe782	-9.1507114e-05
115	0x39513917	0.00019953061
116	0xb9ba7301	-0.0003556237
117	0x3f45f9fc	0.7733457
118	0xb715c1c8	-8.92621e-06
119	0xb611b66e	-2.1712872e-06
120	0x39fe5159	0.00048507264
121	0x402fb829	2.7456152
122	0x3753f85c	1.2634406e-05
123	0x39846f3e	0.00025259884
124	0x37ec7708	2.818882e-05
125	0xb5135966	-5.489186e-07
126	0xb8b6daf7	-8.719222e-05
127	0x3b295900	0.0025840402
128	0xb8b57778	-8.653005e-05
129	0xbbf4a54b	-0.0074659935
130	0x3763aada	1.3570034e-05
131	0x3dc25581	0.09488965
132	0xb88b5dda	-6.645518e-05
133	0xb517b988	-5.6521867e-07
134	0xbcd4e948	-0.025990143
135	0x31ce9d13	6.0132463e-09
136	0x3ab6cae9	0.001394597
137	0x3ec7b310	0.390038
138	0xb7747980	-1.4571822e-05
139	0x3b40d54c	0.002942401
140	0x3682e702	3.9011948e-06
141	0xb32213b4	-3.7736484e-08
142	0x3b15131c	0.0022746986
143	0xb33d5ec0	-4.4091166e-08
144	0x3bcea19b	0.006305886
145	0x376c06ef	1.40683105e-05
146	0x3dea5a94	0.11443058
147	0x3e8f5165	0.27991787
148	0x389fd430	7.621234e-05
149	0xb88ba5cf	-6.658921e-05
150	0x35a1ada8	1.2045975e-06
151	0x39186cc0	0.00014536362
152	0xb875e0f7	-5.8622067e-05
153	0x37bc4e64	2.244785e-05
154	0xbd5105b4	-0.05103083
155	0x32fb10f0	2.9227948e-08
156	0x35666a5f	8.583647e-07
157	0x363e99d4	2.8401746e-06
158	0xb527b440	-6.2474646e-07
159	0x3c387232	0.011257695
160	0xba128d64	-0.0005590527
161	0xbc082118	-0.008308671
162	0xbddcb333	-0.10776367
163	0x398726c8	0.000257781
164	0xc0c0faac	-6.0305996
165	0x3c288e8b	0.010287891
166	0x376680de	1.37390725e-05
167	0xc1d5acbf	-26.709349
168	0x402503c0	2.578354
169	0x39b99c46	0.00035402382
170	0x3dccb940	0.09996271
171	0x3397505d	7.0461034e-08
172	0x3b8492ce	0.004045821
173	0x3c5e45f2	0.013566481
174	0xb0e0e5c6	-1.6363451e-09
175	0xb80ac5a3	-3.3085827e-05
176	0x3524be52	6.1371713e-07
177	0x3003e7c2	4.798687e-10
178	0x34c372ca	3.64051e-07
179	0x3938ef5a	0.00017636773
180	0x3535086e	6.744002e-07
181	0xb933fe4c	-0.00017165503
182	0x3aad0225	0.0013199492
183	0xb58bd77c	-1.0419021e-06
184	0xb7f815ac	-2.9573996e-05
185	0x38a91334	8.062125e-05
186	0xb88ea6e7	-6.8021756e-05
187	0xb6753454	-3.6538304e-06
188	0xbb839ced	-0.0040165097
189	0x3a1c5c8c	0.00059647183
190	0x394f0fee	0.00019746993
191	0x369084e8	4.3070067e-06
192	0x37a74f07	1.9944751e-05
193	0x3b0f5ddb	0.002187601
194	0x39c385fd	0.00037293127
195	0xb4d0d9ab	-3.8901393e-07
196	0x3ad2f9eb	0.001609621
197	0x3863a831	5.4277658e-05
198	0xb6cb76f8	-6.0637212e-06
199	0xb895b24c	-7.138084e-05
200	0x37e3aa9d	2.7139957e-05
201	0x344aed78	1.8899107e-07
202	0xbbfdeda6	-0.007749277
203	0x39441092	0.0001869819
204	0x3444d761	1.8332277e-07
205	0xb9188b53	-0.00014547752
206	0xb844b8d6	-4.6902183e-05
207	0x3b040bf7	0.0020148733
208	0xb96dc2ac	-0.00022674602
209	0xb3511100	-4.8677066e-08
210	0x2a3a6890	1.6556396e-13
211	0x3ccf4ada	0.025304247
212	0xb7c39d76	-2.3319135e-05
213	0xb8d6b0ef	-0.000102372716
214	0x3836cf28	4.358511e-05
215	0x3dde1e3e	0.10845612
216	0x38309848	4.2103493e-05
217	0x38c91230	9.5878146e-05
218	0xb93f7412	-0.00018258419
219	0xb710db95	-8.634194e-06
220	0x3970169e	0.00022896609
221	0x38852657	6.3490756e-05
222	0x3bf3869b	0.0074318177
223	0x3b583bba	0.0032994584
224	0xbbc5f8c0	-0.006041616
225	0xba6b961f	-0.00089869084
226	0x32c01c41	2.236459e-08
227	0x3a17344c	0.0005767986
228	0xbc093db4	-0.008376528
229	0x310b24be	2.0248048e-09
230	0x3775f8dd	1.4661081e-05
231	0x3ac9ec78	0.0015405556
232	0xb89663eb	-7.1711685e-05
233	0x3e81d782	0.25359732
234	0xb822112c	-3.8639802e-05
235	0x3e5d549c	0.21614307
236	0xbd2148b6	-0.039375983
237	0x3d04abc6	0.03239038
238	0x3d8fbf69	0.070189305
239	0x3e7d1496	0.24714884
240	0xbe947551	-0.28995755
241	0x3807231c	3.2219206e-05
242	0x384f7c40	4.9468363e-05
243	0x39519390	0.00019986765
244	0x2bb64042	1.2949713e-12
245	0x380a8d5c	3.3033415e-05
246	0xb82adf69	-4.0739225e-05
247	0xb8022dca	-3.103706e-05
248	0xb7a9a3ea	-2.0222698e-05
249	0xb110fc94	-2.1098332e-09
250	0x319cbda2	4.5617563e-09
251	0xbd4ebc10	-0.05047232
252	0x3a2a3734	0.0006493211
253	0xbdb4d2ae	-0.088292465
254	0x3600b279	1.917737e-06
255	0x35f4f729	1.825135e-06

bias f4 [97]
0	0x310223d3	1.8937854e-09
1	0x36cc7b9d	6.0940642e-06
2	0x3c202659	0.009774768
3	0x38c23fe1	9.262539e-05
4	0xb8d434cc	-0.00010118782
5	0x37b68824	2.1759486e-05
6	0xb91be098	-0.0001486562
7	0x3fa81aa2	1.3133128
8	0xb597b4f8	-1.1303046e-06
9	0xbea5f9e4	-0.32417214
10	0x3a804a5f	0.0009787789
11	0xb9ff5950	-0.00048703933
12	0x3e0882f4	0.13331205
13	0xb33f7a76	-4.458203e-08
14	0x336c9d60	5.5091164e-08
15	0xb92cacb0	-0.0001646753
16	0xbf8b7d98	-1.0897703
17	0xbae53750	-0.0017487798
18	0x3e42a165	0.1900688
19	0x3b109f68	0.002206767
20	0x32bc8000	2.1944288e-08
21	0x38411152	4.6030917e-05
22	0x3683a10d	3.922853e-06
23	0xba3f1749	-0.00072895415
24	0xc0e3a5e4	-7.1140003
25	0x3d416646	0.047216676
26	0x38a2b42e	7.758323e-05
27	0xb57db400	-9.451178e-07
28	0xb69ac57e	-4.6125488e-06
29	0xbb63d080	-0.0034761727
30	0xbb2bbc68	-0.0026204828
31	0xb5802801	-9.548386e-07
32	0xb943f216	-0.00018686833
33	0xb830ca4e	-4.215008e-05
34	0xbb7b2bca	-0.003832566
35	0xb94beb92	-0.00019447345
36	0x3664086c	3.397955e-06
37	0xb03d4f4a	-6.8870476e-10
38	0x34825824	2.4278518e-07
39	0xc0318036	-2.7734504
40	0xaf2eb136	-1.5888166e-10
41	0xb5ae4dbc	-1.2986634e-06
42	0xbbea7a86	-0.007155719
43	0x3eca7d4e	0.39548725
44	0x395387c1	0.000201731
45	0x33bd1838	8.805404e-08
46	0x395ad799	0.00020870416
47	0xb3c9305f	-9.3685905e-08
48	0x39aa7569	0.00032512404
49	0xbacbe788	-0.0015556673
50	0xbb70cf8e	-0.0036744806
51	0x3b004c86	0.0019576862
52	0xbcc9083e	-0.024540063
53	0xb85cf310	-5.2678457e-05
54	0xb53e515d	-7.0898915e-07
55	0x3e4f5d29	0.20250382
56	0x37078a4d	8.078828e-06
57	0xb56fd9fe	-8.935166e-07
58	0x3c13ea8e	0.00902809
59	0x3d9e8880	0.07740879
60	0x3d0b325c	0.033983573
61	0xbdfb6188	-0.12274462
62	0xad0bcbd8	-7.946498e-12
63	0x349e7ccf	2.9520604e-07
64	0x35a3df58	1.2209448e-06
65	0x33f19ac4	1.1250589e-07
66	0x3d4b5d78	0.049649686
67	0x342288f4	1.5137249e-07
68	0x3870acdd	5.738145e-05
69	0xbf8ac08d	-1.0840012
70	0xbe8369fe	-0.25666803
71	0xbd5cd08c	-0.053909823
72	0x385cf493	5.2679865e-05
73	0x38829c44	6.22799e-05
74	0x3f1db48d	0.61603624
75	0x39085853	0.00013002874
76	0xbb81b2f4	-0.0039581005
77	0xb825d39c	-3.9536142e-05
78	0x2e81bb91	5.899559e-11
79	0x35bf8f2c	1.4272277e-06
80	0x35ac5a0a	1.2841203e-06
81	0xbb711909	-0.0036788604
82	0xb0c4490a	-1.4281636e-09
83	0xbc7015b0	-0.014653608
84	0x378e89da	1.6991911e-05
85	0xb317b494	-3.5321662e-08
86	0xbba6a386	-0.0050854115
87	0x3ff2aa17	1.8958157
88	0x339d1998	7.315538e-08
89	0x34200520	1.4903026e-07
90	0xbb82dd97	-0.0039937007
91	0xba3afe90	-0.00071332697
92	0x39e35782	0.00043362012
93	0xb9627354	-0.00021596003
94	0xb445a16f	-1.8405784e-07
95	0x3182f776	3.811631e-09
96	0x389f2942	7.589396e-05

weight f4 [1, 97]
0	0xb717005c	-9.000385e-06
1	0xb3bea360	-8.877282e-08
2	0x3b2a919f	0.0026026738
3	0xbc070d58	-0.0082429275
4	0xb29797cc	-1.7647743e-08
5	0xbdc7c53e	-0.09754418
6	0x38e1a5fe	0.000107597545
7	0xb5092776	-5.10939e-07
8	0x43f1e3d3	483.77988
9	0x3a69af1a	0.0008914337
10	0xbb27c6cc	-0.002560067
11	0xbca124de	-0.0196709
12	0x3b8f3d7a	0.0043713422
13	0xb61b3ab0	-2.313096e-06
14	0x3a86165a	0.001023005
15	0xb8037247	-3.1339263e-05
16	0x3fba3bd8	1.4549513
17	0xbc714cad	-0.014727754
18	0x32f829d0	2.8890014e-08
19	0xb9ac9495	-0.000329171
20	0xbb54ffaa	-0.003250102
21	0xbb72c3aa	-0.0037042894
22	0xb9f89de1	-0.00047419875
23	0xbbab1c0a	-0.0052218484
24	0x3fb1018e	1.38286
25	0x3d1e69ff	0.038675305
26	0xb4d3b9f5	-3.9437114e-07
27	0x422732b6	41.799522
28	0x35756a16	9.142399e-07
29	0x33a69c4a	7.758406e-08
30	0x35f5ef40	1.8323553e-06
31	0x3ab5bd46	0.0013865612
32	0xb81d5ba6	-3.751707e-05
33	0xb04a7dba	-7.366584e-10
34	0xb86bc63d	-5.621299e-05
35	0xc26a065f	-58.50622
36	0xb900bea8	-0.00012278056
37	0x36a4129e	4.889748e-06
38	0x3159dc38	3.1702836e-09
39	0xba5111f0	-0.000797539
40	0xb7001caa	-7.636068e-06
41	0xbe2046be	-0.15651986
42	0xb828071d	-4.0060946e-05
43	0x31a761a6	4.871441e-09
44	0xb020ad58	-5.8453997e-10
45	0xbb7544be	-0.0037425007
46	0xb2302476	-1.0252839e-08
47	0xb96243ca	-0.00021578293
48	0x386d0960	5.6513934e-05
49	0xb9845288	-0.00025238493
50	0x383c092d	4.483124e-05
51	0x3a92dd5a	0.0011204884
52	0xbad531b1	-0.001626542
53	0xb80efc08	-3.409016e-05
54	0xb7a7eff9	-2.0019697e-05
55	0xbc60ff88	-0.013732798
56	0x3c3889c0	0.011263311
57	0xb352edb0	-4.911061e-08
58	0xb8eb48f0	-0.00011219259
59	0xbda5de72	-0.08099069
60	0xb4dd7d4b	-4.125562e-07
61	0x3411a012	1.356241e-07
62	0xb89226ee	-6.969074e-05
63	0xb8ffe640	-0.00012202235
64	0x3ca42fe9	0.020042377
65	0x3b4f83b0	0.0031664185
66	0xbc2f9e28	-0.01071886
67	0x39cc02cc	0.00038911996
68	0x3b8a1581	0.0042139892
69	0xb20dfab8	-8.264287e-09
70	0xb9896ad4	-0.0002621027
71	0xb8827965	-6.2214946e-05
72	0x35403780	7.1606337e-07
73	0xb953fc76	-0.00020216577
74	0xb56af3be	-8.7526485e-07
75	0xb8a7d8da	-8.003572e-05
76	0x3f78e100	0.9721832
77	0x36c9b4dc	6.0113216e-06
78	0xb0829c5c	-9.503185e-10
79	0x3855465f	5.0848696e-05
80	0xb6183a3a	-2.2683657e-06
81	0x3620ae02	2.3943144e-06
82	0xb97afbc8	-0.00023935654
83	0xb6a2977a	-4.8456104e-06
84	0xbb4e2e88	-0.003146084
85	0x3bc34420	0.005959049
86	0xb9980348	-0.00028994144
87	0x3b14f27f	0.0022727547
88	0x3a57358a	0.0008209577
89	0x31dce2e0	6.4286354e-09
90	0xb3487ab8	-4.667774e-08
91	0xb80e367a	-3.3906173e-05
92	0x3acdbb21	0.0015696028
93	0x3b5b104c	0.0033426462
94	0x3cefc790	0.029269964
95	0x3ba4ba19	0.0050270674
96	0x2c27c442	2.3841072e-12

add_tensors f4 [97, 6]
0	0xbbb3526b	-0.0054724715
1	0x3cb57ed2	0.0221552
2	0x357cc296	9.4160475e-07
3	0x3a35b4a5	0.000693152
4	0x3b0f5fd7	0.0021877193
5	0xbea82e14	-0.32847655
6	0xb663c4e7	-3.3940248e-06
7	0x3b037a00	0.0020061731
8	0x33e3cca7	1.0607737e-07
9	0xb6b26459	-5.3164954e-06
10	0x3dc52817	0.09626787
11	0x3796eb94	1.7991093e-05
12	0xb64c5819	-3.0449648e-06
13	0x35c8b307	1.4953265e-06
14	0xb2d2550f	-2.4485898e-08
15	0xb37f26e3	-5.940718e-08
16	0xb9fd9768	-0.00048368727
17	0x40756865	3.8344967
18	0xbb01831c	-0.0019761985
19	0xbad27fce	-0.0016059817
20	0xc169ed7e	-14.6204815
21	0xb1abe161	-5.0023776e-09
22	0xbdfe6fa0	-0.124236345
23	0xb1c20d7e	-5.647677e-09
24	0x348975df	2.5604e-07
25	0xbab5e029	-0.0013876009
26	0xbe110642	-0.14162543
27	0xbf16c7b3	-0.58898467
28	0x35ac8383	1.2853274e-06
29	0xb6bd8e1e	-5.6491835e-06
30	0x3ced64d1	0.028978737
31	0xbb9c1ff3	-0.004764551
32	0x388dc1fd	6.759537e-05
33	0x3a4f1feb	0.00079011795
34	0xbc2e5bd5	-0.010642012
35	0x352a21fb	6.3379383e-07
36	0xbc055c30	-0.008139655
37	0x3c808b1e	0.015691336
38	0x376289ab	1.3502703e-05
39	0x37b24bdf	2.1254584e-05
40	0x37e52ba5	2.731925e-05
41	0xbf00598e	-0.5013665
42	0xba0c46d7	-0.0005351132
43	0x406128eb	3.5181224
44	0xb7a87ef5	-2.008628e-05
45	0x3c981afa	0.01856755
46	0xbc2a7c19	-0.010405564
47	0xb4db8591	-4.088911e-07
48	0xb634ddf3	-2.6951282e-06
49	0xbd3cbb61	-0.046077136
50	0x39991ef3	0.00029205493
51	0x389622b6	7.159023e-05
52	0x3bb919d5	0.0056488314
53	0xb341c6de	-4.5117183e-08
54	0xb779eee7	-1.489718e-05
55	0xb792ecd0	-1.751483e-05
56	0x35837611	9.794622e-07
57	0xb323e752	-3.816178e-08
58	0xbb1718c4	-0.0023055533
59	0x34d4491a	3.9541266e-07
60	0xb8887bb7	-6.508029e-05
61	0xb1277a40	-2.437119e-09
62	0x358a1100	1.0286749e-06
63	0x30570dd8	7.823622e-10
64	0x35db17a4	1.6323652e-06
65	0xbaa16d12	-0.0012315831
66	0xb703848f	-7.839072e-06
67	0x35ed955b	1.7701344e-06
68	0x421b62ad	38.846363
69	0xbdd44e85	-0.10366539
70	0x39689b32	0.00022183059
71	0x43d053cc	416.65466
72	0x3c255582	0.010091187
73	0xb93eec57	-0.00018207855
74	0x3ff26bce	1.8939149
75	0x3d7eab99	0.062175367
76	0x3d366494	0.044529513
77	0xb53081fa	-6.575425e-07
78	0x38717d73	5.757571e-05
79	0xb94b6cca	-0.00019400116
80	0x3b453c45	0.0030095738
81	0xbd8b4639	-0.06800503
82	0x3adeb7ca	0.0016992029
83	0x37883cd4	1.6240789e-05
84	0xbc1a5774	-0.0094202645
85	0x31282133	2.446609e-09
86	0xb6377262	-2.7335705e-06
87	0xb51921ff	-5.704641e-07
88	0x3d2ea649	0.04263905
89	0xba0c8dd3	-0.00053617096
90	0xbe30a78e	-0.17251417
91	0xbe1417d0	-0.14462209
92	0x31485968	2.9154652e-09
93	0x36b040f6	5.252771e-06
94	0xba71fb92	-0.00092309073
95	0x3b37ed06	0.002806486
96	0xb7631c99	-1.3536913e-05
97	0xb3c3c426	-9.116074e-08
98	0xb9233dd6	-0.00015567927
99	0xb6a3ef13	-4.8856105e-06
100	0x39690bda	0.00022225027
101	0x3b152a9a	0.0022760988
102	0xb81cf91c	-3.74253e-05
103	0xb8eabed1	-0.00011193532
104	0x3b275381	0.002553195
105	0xba954d34	-0.0011390806
106	0xb96c1966	-0.00022516176
107	0x3e5958cc	0.2122528
108	0x401a07bf	2.4067228
109	0x3836e085	4.360128e-05
110	0xbcdd951a	-0.027048636
111	0x3961fc32	0.00021551622
112	0x39be894e	0.00036341924
113	0x342be762	1.6009793e-07
114	0x3e464909	0.19363798
115	0x3af3aae0	0.0018590353
116	0x43b6130b	364.14877
117	0x317c9695	3.6756422e-09
118	0xb6f7b515	-7.3822544e-06
119	0xb8f1c033	-0.000115275754
120	0x3b3ec27f	0.0029107628
121	0xb5078cb8	-5.049619e-07
122	0xbe9d8f83	-0.30773553
123	0xbc8a0129	-0.016846256
124	0xb83b9f2f	-4.4732526e-05
125	0x3f010b47	0.5040783
126	0x389ffabf	7.628416e-05
127	0xbb82fd67	-0.003997493
128	0x3d81b9fd	0.063343026
129	0xb4bc46fb	-3.5069374e-07
130	0x3a5d3290	0.00084380154
131	0x391f548e	0.0001519492
132	0x38b68e38	8.7049266e-05
133	0xb95bc7a4	-0.0002095984
134	0xbffd3155	-1.978068
135	0xbc20108d	-0.009769571
136	0xb410278f	-1.3425436e-07
137	0x404c4cf9	3.192198
138	0xbdbc1146	-0.09182982
139	0xb7d151e0	-2.4952868e-05
140	0xb45bc3c0	-2.0467178e-07
141	0x3b36d3e1	0.0027897286
142	0x3d2568a3	0.040382992
143	0xb7b11635	-2.1110385e-05
144	0xbcb3d249	-0.021950858
145	0x3caa804b	0.020813128
146	0x36fd28e5	7.5447483e-06
147	0xba477714	-0.00076089916
148	0x3e6d446c	0.23170632
149	0xbdfd89dd	-0.12379811
150	0xb6a87991	-5.0209424e-06
151	0x402bf4da	2.6868196
152	0xbc4d3993	-0.012525934
153	0xbcaf4815	-0.021396676
154	0xbf3a295e	-0.7271937
155	0x390584ef	0.0001273339
156	0xbaadf31a	-0.0013271302
157	0x399642c9	0.00028659988
158	0xbf029fe4	-0.51025224
159	0xb577ed1f	-9.2359727e-07
160	0xbcb8cfa7	-0.022559954
161	0xb98a1497	-0.00026336752
162	0x4107e081	8.492311
163	0xbaee6689	-0.0018188517
164	0x380badf6	3.3302196e-05
165	0x40a9e662	5.309373
166	0xb6561259	-3.1899165e-06
167	0x33df2590	1.0391079e-07
168	0x38fd0fa8	0.00012066896
169	0x3a80af48	0.0009817863
170	0xb73891f3	-1.1001236e-05
171	0x35c7915b	1.4868959e-06
172	0xb75c1f68	-1.3120334e-05
173	0x3a3ed6ce	0.0007279933
174	0x37c89190	2.390964e-05
175	0xb63cdbf8	-2.8142222e-06
176	0xbb7552b8	-0.0037433337
177	0xb08ef175	-1.0400486e-09
178	0x3a72ed4a	0.0009266926
179	0xb8d12eb9	-9.9745994e-05
180	0xb83f6272	-4.5629633e-05
181	0x3a02b529	0.00049861014
182	0x3519448a	5.709668e-07
183	0x3944a577	0.00018753657
184	0x322c14aa	1.0016416e-08
185	0x3a648be4	0.0008718355
186	0x3c57fd4e	0.013182951
187	0xb5ad7a33	-1.2925069e-06
188	0xb283e5c1	-1.5354887e-08
189	0x35e6b9ed	1.7190447e-06
190	0xbe13eba2	-0.14445356
191	0x393b5f9d	0.00017869328
192	0xb5011c19	-4.809713e-07
193	0x351545c6	5.560836e-07
194	0x3e1ce0f6	0.15320191
195	0x2e09bdb4	3.1318684e-11
196	0xbcac3eb6	-0.021025997
197	0xb94fe393	-0.00019825836
198	0x3bdacaad	0.006676993
199	0x3cd84535	0.026400188
200	0x3b3505bf	0.0027621833
201	0xb707dc25	-8.097883e-06
202	0x35e9ffd1	1.7434305e-06
203	0x3f012a27	0.50454944
204	0xbb836ec8	-0.004011009
205	0x3dddf4aa	0.108376816
206	0x3cd74b49	0.026281016
207	0xb85041de	-4.9652408e-05
208	0x3e02d041	0.12774755
209	0xb8b05cb4	-8.409601e-05
210	0xb8fe99fc	-0.00012140346
211	0x37175faf	9.022579e-06
212	0xb863be92	-5.42985e-05
213	0xbca8c745	-0.020602832
214	0x3576008e	9.164295e-07
215	0x3e335de6	0.17516288
216	0x39255a89	0.00015769353
217	0x39b629b1	0.00034744808
218	0x3389b0ed	6.411742e-08
219	0xb88e6090	-6.789074e-05
220	0x3fe56f03	1.7924503
221	0x376e1386	1.4190451e-05
222	0x3ecfc534	0.40580142
223	0xb8e8d0b6	-0.000111014975
224	0xbba15038	-0.004922893
225	0x3db5e598	0.08881682
226	0x3e00c9c2	0.12576964
227	0xbad37510	-0.001613291
228	0x3ff35760	1.901104
229	0xb9891429	-0.00026145697
230	0xbc445d4d	-0.011985135
231	0xb902d08f	-0.0001247546
232	0x38b5f4de	8.6763626e-05
233	0x309c8acf	1.1389946e-09
234	0x3a166c93	0.0005738225
235	0x38a532a0	7.877243e-05
236	0xb9c36115	-0.0003726563
237	0xb93da004	-0.00018084055
238	0xb3fa4d86	-1.16556336e-07
239	0x3a2c094c	0.00065626646
240	0x3d9c26d9	0.07624597
241	0xbb89ff93	-0.004211375
242	0x392aa7f2	0.00016275028
243	0xb83bff20	-4.4821878e-05
244	0x3f155f0b	0.5834815
245	0x3a80efe8	0.0009837123
246	0xbfa2dd63	-1.2723812
247	0xbe1621b3	-0.14661293
248	0xb8886d98	-6.505399e-05
249	0xb58bff67	-1.0430639e-06
250	0xbb9d6714	-0.0048035476
251	0x39087af6	0.00013015777
252	0x38826d4f	6.2192434e-05
253	0xb733c5b1	-1.071526e-05
254	0x3ed6c89c	0.41949928
255	0x39aa2024	0.00032448873

add_tensors f4 [97]
0	0xb6a44551	-4.8956504e-06
1	0xc0bada6c	-5.839163
2	0xb8168aa4	-3.5891906e-05
3	0xb40aba9e	-1.2920142e-07
4	0xb68d44b2	-4.2101246e-06
5	0xb5530214	-7.860665e-07
6	0xb56a73ad	-8.7340123e-07
7	0x3ca1f63f	0.01977074
8	0x36cf5a67	6.179605e-06
9	0xbd333cae	-0.04375904
10	0x3adcdf2d	0.001685118
11	0x3c177d62	0.009246202
12	0xb2f1a0db	-2.8129241e-08
13	0x3a80c223	0.0009823482
14	0xb58ba36f	-1.0403872e-06
15	0xbda711a2	-0.0815766
16	0xbc060282	-0.008179309
17	0xb73f2f92	-1.1395563e-05
18	0xb93a346e	-0.00017757874
19	0x40d9f144	6.8107014
20	0x35f956a8	1.8577166e-06
21	0x3b6cf4e0	0.00361567
22	0xb4747642	-2.2767293e-07
23	0x3207ca95	7.904096e-09
24	0xba76806f	-0.00094032934
25	0xb771f7c8	-1.44224105e-05
26	0x36834f7f	3.913359e-06
27	0xb6e83a98	-6.92096e-06
28	0x3efef8e3	0.4979926
29	0xb1e7e4c3	-6.748992e-09
30	0x3635d40d	2.7094532e-06
31	0x38efeabd	0.000114401315
32	0xc1585ebe	-13.52313
33	0xbe5db930	-0.21652675
34	0x3769c10e	1.3932831e-05
35	0xbcdd4a63	-0.02701301
36	0x33a85799	7.8390435e-08
37	0xb824d6d8	-3.9300736e-05
38	0x35ee8842	1.7772038e-06
39	0x399dc6b5	0.00030093422
40	0xbb914b03	-0.004433991
41	0xb73b2fe5	-1.115722e-05
42	0xc38a35f6	-276.42157
43	0xbe1857e1	-0.14877273
44	0x3383efe0	6.143796e-08
45	0xb1dcf692	-6.4308745e-09
46	0x3bb4e98c	0.005521005
47	0xbae0cb56	-0.0017150443
48	0x3c03b332	0.008038329
49	0x388199c9	6.179844e-05
50	0x3847715b	4.7550868e-05
51	0xbf4cf897	-0.8006682
52	0x36947b10	4.42507e-06
53	0xb739c25e	-1.1072114e-05
54	0x36675238	3.446954e-06
55	0x33b2c6ef	8.324957e-08
56	0xb260afd8	-1.3078498e-08
57	0xc024c487	-2.574495
58	0xb386a427	-6.2697204e-08
59	0xb9462129	-0.00018895105
60	0x400a031a	2.1564393
61	0x3fb8a061	1.4423944
62	0x37093a02	8.179342e-06
63	0xb6b297e5	-5.3224962e-06
64	0xb662f865	-3.382121e-06
65	0xbd66bcee	-0.05633252
66	0xc2774592	-61.81794
67	0x38d80f79	0.000103025646
68	0x3c22453a	0.0099042
69	0x3abb3abd	0.0014284473
70	0x3c9b7b0d	0.018979574
71	0xb610a2df	-2.1552476e-06
72	0x42fb7880	125.73535
73	0x32db18e1	2.5506269e-08
74	0x3d8e22e9	0.06940252
75	0x3f379a2f	0.7171964
76	0xbcbf29b6	-0.023335319
77	0x3b3a0247	0.0028382705
78	0xbdebcdb0	-0.11513841
79	0x38082351	3.2457818e-05
80	0x3a4148fe	0.00073732424
81	0x38974309	7.212727e-05
82	0x3abe2eb1	0.0014509765
83	0x3c5f6b70	0.013636455
84	0x3461dae7	2.1034394e-07
85	0xbc7daaf3	-0.015482652
86	0x398b73c9	0.00026598413
87	0x3cb3ca97	0.021947188
88	0xb59b96b3	-1.1592259e-06
89	0x3a3500b7	0.00069047086
90	0x3910a86f	0.00013795657
91	0x3c3dad42	0.011576952
92	0x36840ec5	3.935626e-06
93	0x328926b5	1.5966501e-08
94	0x399c35f6	0.00029794843
95	0x3b826b40	0.0039800704
96	0xbd9452cf	-0.07242357

add_tensors f4 [97, 97]
0	0xb9c95b79	-0.0003840586
1	0xb01238c7	-5.3195176e-10
2	0xb99087bf	-0.0002756696
3	0x37fe12e2	3.0287953e-05
4	0x39a88074	0.00032139162
5	0x3ef88b4d	0.48543778
6	0x39cb0e6f	0.0003872993
7	0xb6a008e0	-4.7694048e-06
8	0x3f4e7834	0.80652165
9	0xb3e87165	-1.0823968e-07
10	0x3c0f91a1	0.008762748
11	0x388e2393	6.777714e-05
12	0xb4f2f72e	-4.525586e-07
13	0x381616be	3.5783967e-05
14	0xb753f225	-1.2632959e-05
15	0x3b8f7a37	0.004378583
16	0xb9bf0297	-0.00036432288
17	0x3890bc5f	6.901542e-05
18	0x386bded6	5.62359e-05
19	0xb6ff6b3a	-7.612075e-06
20	0xbc4192de	-0.011814801
21	0x3934ff01	0.00017261134
22	0x37749f31	1.4580598e-05
23	0x34c2859f	3.6232538e-07
24	0xb99ee18b	-0.0003030415
25	0x3ade6338	0.0016966825
26	0x3f11d477	0.5696482
27	0x394d24d2	0.0001956404
28	0xbea75f3e	-0.32689852
29	0xb563a657	-8.4806146e-07
30	0x36a24e04	4.8370584e-06
31	0xb38f8184	-6.682515e-08
32	0xb5314da6	-6.605063e-07
33	0x3fd83d8e	1.6893785
34	0xc183b3d0	-16.4628
35	0xb804c4b5	-3.165445e-05
36	0xba5b4b3c	-0.0008365398
37	0x303b3b87	6.8114797e-10
38	0x41355e30	11.335495
39	0xbd97c965	-0.0741146
40	0x35e786cf	1.7250076e-06
41	0xb36e4009	-5.5471933e-08
42	0xbd08ef19	-0.033431146
43	0xb7494dfb	-1.199869e-05
44	0x353a3be7	6.937757e-07
45	0xb40b108a	-1.29514e-07
46	0x37b62f0a	2.1717995e-05
47	0x4167a591	14.4779215
48	0x403265f3	2.7874725
49	0x39327889	0.00017020306
50	0x3d3bdad9	0.045863006
51	0xb4818fe3	-2.4132814e-07
52	0x384c6a4f	4.8736398e-05
53	0x3c6cf9df	0.014463871
54	0x380aef2d	3.3124514e-05
55	0x3a54492f	0.00080980634
56	0xbc14f54f	-0.009091689
57	0xb84ec070	-4.929345e-05
58	0x35a2f06a	1.213991e-06
59	0xb98ccb01	-0.0002685413
60	0x39d438a7	0.00040478
61	0x359c55ff	1.1647934e-06
62	0x38a18339	7.7015204e-05
63	0x304f99c6	7.5524687e-10
64	0xaf9249a9	-2.6609584e-10
65	0xb6729d59	-3.6152398e-06
66	0xb58a041f	-1.0283001e-06
67	0x3810bb6b	3.4506822e-05
68	0xb12d35e5	-2.5205449e-09
69	0xbe3e0c9b	-0.18559496
70	0xb8fe889a	-0.00012137108
71	0x342dd662	1.6189873e-07
72	0x3234ebe2	1.05310125e-08
73	0x3b437e34	0.0029829862
74	0x325270a1	1.2249218e-08
75	0xb4e19caa	-4.2023504e-07
76	0x3508cbee	5.0960705e-07
77	0xbebf99dc	-0.37422073
78	0x3650090f	3.0999688e-06
79	0x3d51bb03	0.05120374
80	0xbc9a6af0	-0.01884982
81	0xbea59b49	-0.32345036
82	0xb9c8b47f	-0.00038281453
83	0x3c9fcac4	0.019505866
84	0xc08904dd	-4.2818437
85	0xb781d95f	-1.547922e-05
86	0x3a098b83	0.0005246924
87	0x3c85bfe9	0.016326861
88	0xb96d76da	-0.00022646357
89	0xbbeedc5b	-0.007289452
90	0xb621396e	-2.4024298e-06
91	0xb9ea02e8	-0.00044634123
92	0xb42dc5c2	-1.6183824e-07
93	0xb3fcdbda	-1.1774655e-07
94	0xbd2dc86b	-0.04242746
95	0xbc7a8f59	-0.015292966
96	0x32806e90	1.495144e-08
97	0xb7b13853	-2.1126272e-05
98	0xbb15bc2a	-0.002284775
99	0xbd0c8cdf	-0.034314033
100	0x3a869f05	0.001027078
101	0xb7ba5d59	-2.2216396e-05
102	0xbeb18933	-0.34674987
103	0xbb23c0ce	-0.0024986747
104	0xc260e495	-56.223225
105	0x31e27d73	6.5917276e-09
106	0xb796162f	-1.7891723e-05
107	0x322b7064	9.979065e-09
108	0xbc1d4365	-0.009598588
109	0xb2b04fc1	-2.0525365e-08
110	0x34b42741	3.3556174e-07
111	0x3bb1ad15	0.0054222443
112	0x34c61b89	3.6900408e-07
113	0x3a08c7da	0.00052177685
114	0xb859f5d1	-5.1965766e-05
115	0x38d5c0bc	0.00010192531
116	0xb96428f8	-0.00021759036
117	0x3fccd7c0	1.6003342
118	0xb861b622	-5.3813805e-05
119	0xb67b20d1	-3.7421016e-06
120	0x3948f81e	0.00019165917
121	0x3fb88040	1.4414139
122	0x36802b09	3.819707e-06
123	0x38b66481	8.6971566e-05
124	0x378733fb	1.611746e-05
125	0xb5e1ca43	-1.6822672e-06
126	0xb7cf6e17	-2.4727588e-05
127	0x3cf16552	0.029467259
128	0xb849584e	-4.8004375e-05
129	0xbac99bac	-0.0015381477
130	0x36c7b008	5.951155e-06
131	0x3c98ebfc	0.018667214
132	0xb804b8c6	-3.1643336e-05
133	0x350f084e	5.3283736e-07
134	0xbe60ec6b	-0.21965186
135	0xb17cab46	-3.6768184e-09
136	0xba88260f	-0.0010387319
137	0x3e6612e4	0.22468144
138	0xb972784c	-0.00023123733
139	0x3a82f40a	0.0009990942
140	0x3703658e	7.8318535e-06
141	0xb3a0e65e	-7.492484e-08
142	0x3aa30933	0.0012438655
143	0x34f2bae8	4.5212005e-07
144	0x3b70af22	0.003672548
145	0x36f391de	7.2589455e-06
146	0x3d45bc3f	0.04827523
147	0x3da6f163	0.081515096
148	0x3a6d6856	0.000905638
149	0xb9251ff4	-0.0001574753
150	0xb64abab4	-3.020902e-06
151	0xb92a7c7a	-0.00016258835
152	0x36e2f77b	6.7641354e-06
153	0x3726d67d	9.9443105e-06
154	0x3e2ef4bd	0.17085548
155	0x341e7fa5	1.4761333e-07
156	0xb43ffa94	-1.7879421e-07
157	0x3601ad77	1.9323468e-06
158	0xb4d48890	-3.958744e-07
159	0xbc93de99	-0.018050479
160	0xb9a20a30	-0.00030906638
161	0xbc6a466f	-0.014299019
162	0xbcf1c291	-0.029511722
163	0xb8d76552	-0.00010270871
164	0xc038ca85	-2.8873608
165	0x3b4530c7	0.0030088888
166	0x36cd5056	6.1188284e-06
167	0xc240e970	-48.227966
168	0x3f867507	1.0504464
169	0xb9983a46	-0.00029035116
170	0x3ef3ec2f	0.4764113
171	0x3259b71b	1.2672696e-08
172	0x3af14126	0.0018406257
173	0x3c079cd4	0.008277137
174	0xb072730b	-8.8202573e-10
175	0x38626563	5.3977023e-05
176	0x35fa9d39	1.8672209e-06
177	0xae24a435	-3.7435128e-11
178	0x332251f0	3.7793086e-08
179	0x390d5d60	0.00013481593
180	0x34f1120a	4.4902873e-07
181	0x3a382e0c	0.00070259045
182	0x3902d816	0.00012478264
183	0x3585eb0e	9.977682e-07
184	0x38ec2875	0.00011260893
185	0xb5428300	-7.246126e-07
186	0xb82ae187	-4.0741197e-05
187	0xb5fba597	-1.874915e-06
188	0xbb3d9d13	-0.0028932735
189	0x39a3e5d2	0.00031261012
190	0x3912aca6	0.00013987962
191	0x36253e2c	2.4623105e-06
192	0x3723666a	9.739402e-06
193	0x39f467fb	0.00046616778
194	0x384a983f	4.8302343e-05
195	0xb32a555a	-3.9658836e-08
196	0xb9de5113	-0.00042403545
197	0x38ba36db	8.879389e-05
198	0xb7ef8bac	-2.855606e-05
199	0xb94cce7c	-0.00019531877
200	0xb5c36e1d	-1.4560679e-06
201	0xb30c0ecf	-3.260976e-08
202	0xbb425e57	-0.0029658282
203	0x3845797a	4.7081594e-05
204	0x33ba7ce4	8.6840174e-08
205	0xb8479e87	-4.7592937e-05
206	0xb7be0aa3	-2.2654718e-05
207	0xbb2d8f2f	-0.002648305
208	0xb67f6f8d	-3.8062892e-06
209	0xb2992d65	-1.7832187e-08
210	0x2b754406	8.7135887e-13
211	0xbbcb0e58	-0.0061967783
212	0xb719de05	-9.171204e-06
213	0x37ac6e3b	2.0555328e-05
214	0x37a23a99	1.9339192e-05
215	0x3cd9f18d	0.026604438
216	0x37d2a38b	2.5110106e-05
217	0x3628497d	2.5076727e-06
218	0x392c721a	0.00016445704
219	0x3650115f	3.1004527e-06
220	0x3901bfac	0.00012373802
221	0xb8ba5e3f	-8.886726e-05
222	0x3b462fee	0.003024097
223	0x3b04660a	0.0020202422
224	0xbcb5a644	-0.022174008
225	0xba111787	-0.0005534817
226	0xb2c7e50b	-2.3270806e-08
227	0x39a6dd8e	0.00031827058
228	0xbcfb2350	-0.030656487
229	0x30bbe2cd	1.3670501e-09
230	0x32deb5d5	2.5926889e-08
231	0x3a30de59	0.00067469996
232	0xb80a0a5a	-3.2911405e-05
233	0x3e293134	0.16522676
234	0xb981bcb7	-0.000247454
235	0xbcc365c1	-0.023852231
236	0xbb9ec08f	-0.004844732
237	0x3d953312	0.072851315
238	0x3ba9ce41	0.005182058
239	0xbea0a789	-0.3137782
240	0xbc7b2209	-0.015327939
241	0xb6d630be	-6.3833713e-06
242	0x37fa67b3	2.9850611e-05
243	0x3880819f	6.1276594e-05
244	0x2af7b9b6	4.4004877e-13
245	0x392351ad	0.00015575318
246	0xb787f32c	-1.620649e-05
247	0xb8bb0715	-8.918174e-05
248	0xb74b6321	-1.2122823e-05
249	0xb0155880	-5.433165e-10
250	0x31291ebc	2.4610207e-09
251	0xbcc60d44	-0.024176247
252	0xbaf7cb0c	-0.0018905117
253	0x3e152e61	0.14568473
254	0x34950a6b	2.7760993e-07
255	0x3550630c	7.763017e-07

add_tensors f4 [1, 97]
0	0x36c7e719	5.9575655e-06
1	0x350e6ccc	5.305744e-07
2	0xb7ac0760	-2.0507432e-05
3	0xbb93fa6d	-0.004515937
4	0xb1870b8d	-3.9303303e-09
5	0xbd6da96f	-0.058022913
6	0x3846f5e4	4.7435882e-05
7	0x35bd1a1d	1.4089197e-06
8	0x439a6c08	308.844
9	0x39a84667	0.0003209591
10	0x3c5a234d	0.01331408
11	0xbc666819	-0.014062905
12	0xbaaa8a3e	-0.001301117
13	0x372d312c	1.0323052e-05
14	0x39d00aac	0.00039680803
15	0xb72bb6ad	-1.0234927e-05
16	0x3ec373ed	0.38174382
17	0x3b5294ec	0.0032132221
18	0x340d8df4	1.318329e-07
19	0x37821a2c	1.5509395e-05
20	0xbaa97063	-0.0012927171
21	0xbae50e51	-0.001747558
22	0x37d584f7	2.5453495e-05
23	0xbca1298a	-0.019673128
24	0x3de1380c	0.10997018
25	0x3c07dfd9	0.0082931155
26	0x33d4d425	9.910608e-08
27	0xc2caf4bd	-101.478004
28	0x36204059	2.3879313e-06
29	0x340b4a95	1.2972517e-07
30	0xb8e78f4f	-0.00011041632
31	0xba5ddd2c	-0.0008463438
32	0x37de0a81	2.6469354e-05
33	0x2ecd181d	9.326604e-11
34	0xb7c32676	-2.3263721e-05
35	0x40ed24e6	7.410754
36	0x3aff48b9	0.0019476629
37	0x3616608e	2.2407944e-06
38	0x32008eac	7.48302e-09
39	0x3bd63f46	0.0065383045
40	0xb69d8c50	-4.695299e-06
41	0x3dd58d0d	0.10427294
42	0xb786380e	-1.6000147e-05
43	0xb1828ee0	-3.799741e-09
44	0xad8a2e9d	-1.5709484e-11
45	0x3a7d3448	0.00096589746
46	0xb1a05f4a	-4.667446e-09
47	0xb8fa1e69	-0.00011926593
48	0x3a83a24b	0.0010042874
49	0x3807929c	3.232305e-05
50	0xb86168f3	-5.3741922e-05
51	0x39907efb	0.00027560428
52	0x3acdc803	0.0015699867
53	0xb780099d	-1.5263266e-05
54	0xb6aa5a32	-5.076895e-06
55	0xbb8af13f	-0.0042401846
56	0x3e0ea6b5	0.13930781
57	0xb447c69b	-1.8605571e-07
58	0x37fc11a1	3.004895e-05
59	0x3dd5943e	0.104286656
60	0x34d73d9f	4.0091706e-07
61	0xb2a19d15	-1.88143e-08
62	0xb815a462	-3.567746e-05
63	0xbb3f9764	-0.0029234523
64	0x3c435b74	0.01192366
65	0x3c59efb2	0.013301777
66	0x3d43496d	0.047677446
67	0x391a6111	0.00014722745
68	0x3a5840f3	0.0008249424
69	0xb357b507	-5.0223232e-08
70	0xb90aed4f	-0.0001324911
71	0x38ed037d	0.000113016904
72	0xb8b43343	-8.592617e-05
73	0xb8ac0c1a	-8.203853e-05
74	0x33e0e48d	1.0472386e-07
75	0x38af745a	8.3663224e-05
76	0x411dfeda	9.87472
77	0x379f7154	1.900705e-05
78	0xb1f7e017	-7.214122e-09
79	0x36eb2d5f	7.0088277e-06
80	0xb6f4dd07	-7.2974976e-06
81	0x355b18b6	8.1619817e-07
82	0xb8c9bd65	-9.619704e-05
83	0xb75d10f1	-1.3176571e-05
84	0xbc6de05e	-0.014518825
85	0x3ae63fd4	0.001756663
86	0xb949d87a	-0.00019249498
87	0x3a8c7ac2	0.0010717737
88	0x39cb1391	0.00038733755
89	0x33b07ddb	8.2185316e-08
90	0xb273035e	-1.4145227e-08
91	0xb787a3fc	-1.6169615e-05
92	0x39fea5fc	0.00048570323
93	0xbc0c6fbd	-0.008571562
94	0x3c914772	0.017734263
95	0xbaa7af9c	-0.0012793425
96	0xac8eb5df	-4.0560745e-12
