ReLU_hardest/TorchSaves/Last_Gen997.pt (torch_old, 92843 bytes, 9 tensors)

weight f4 [97, 6]
000000 8c d8 f0 3c f0 9f cf 3a 24 74 7a 3a 7c 1b 12 38
       0.029400133 0.0015840512 0.00095540495 3.483471e-05
000010 66 4b a7 3b 30 e4 9c be ee df ee b3 9e 54 63 b9
       0.0051054237 -0.30642843 -1.1123471e-07 -0.0002167993
000020 00 3e d9 b6 37 78 8f ba 8b fa ae 3e 04 13 c5 af
       -6.4743217e-06 -0.0010945861 0.34175524 -3.5847603e-10
000030 3e b1 1c 3c 99 52 c1 35 6b b0 2f b0 44 e0 ff 31
       0.009563742 1.440366e-06 -6.3915334e-10 7.446973e-09
000040 29 8b e7 39 84 2d 1e 3c 46 36 34 3b cc b2 a9 37
       0.00044163436 0.009654406 0.002749817 2.0229629e-05
000050 94 6b f2 b8 90 1f f9 30 54 24 c8 b9 a8 73 2c b4
       -0.00011559497 1.8126105e-09 -0.0003817404 -1.6060824e-07
000060 55 da a0 33 ea 31 c7 39 62 1e b6 39 c6 e7 57 3f
       7.490295e-08 0.00037993427 0.00034736382 0.84338033
000070 f6 eb 85 36 de a6 85 38 c2 b6 33 3d f4 54 3f ba
       3.9911783e-06 6.373016e-05 0.043875463 -0.0007298731
000080 3c 13 24 bb 9c 63 d3 b6 a0 63 ca bd a4 21 03 32
       -0.0025035879 -6.299886e-06 -0.09882283 7.632853e-09
000090 80 2b a1 3c 0e 31 59 35 cd 78 2c ba 0c f9 f2 3c
       0.019674063 8.0910183e-07 -0.000657928 0.02965977
0000a0 e4 b7 f6 33 20 64 d4 39 4c aa 4f 35 80 7a d1 44
       1.1488717e-07 0.0004051039 7.7361324e-07 1675.8281
0000b0 86 cd 9b 30 a8 6c 70 38 4c d7 01 3b 28 33 85 31
       1.1336148e-09 5.7321653e-05 0.0019812165 3.8766252e-09
0000c0 94 b8 9c bf 1f f6 c7 b7 4a d3 7c bc fb 8e 07 39
       -1.2243829 -2.3837258e-05 -0.015431235 0.00012927868
0000d0 b8 57 83 b8 26 35 19 b2 79 81 27 b5 a4 8b e3 33
       -6.262906e-05 -8.917857e-09 -6.2400755e-07 1.0595912e-07
0000e0 e0 47 69 37 10 40 b4 2f e4 99 a0 b8 5a 14 b6 b7
       1.3904617e-05 3.2787328e-10 -7.658059e-05 -2.1705568e-05
0000f0 f0 70 26 b2 16 4f 93 ad d1 21 5b 39 c6 ad 17 31
       -9.688151e-09 -1.6747086e-11 0.00020898065 2.207217e-09
000100 fc 1c ae 3a ca f9 56 bc 54 a7 92 b6 b2 eb 93 33
       0.0013283785 -0.013121078 -4.3706186e-06 6.888094e-08
000110 7e 8a 9f be 7c 26 19 38 98 36 9e 3b fc 15 ae 3d
       -0.3116035 3.6513884e-05 0.0048282854 0.08500287
000120 60 e9 41 39 98 c9 60 39 26 9a c3 38 50 21 08 35
       0.00018492853 0.00021437404 9.327037e-05 5.0712424e-07
000130 c2 cb 86 3b 66 58 12 b1 b6 1b d6 38 60 11 df b5
       0.0041136453 -2.1296045e-09 0.00010209477 -1.6619852e-06
000140 16 e3 22 3c 08 63 16 38 1e 12 d4 b4 5a 76 29 32
       0.009941837 3.5855017e-05 -3.950126e-07 9.864005e-09
000150 a0 3b 5e bb 10 5f 33 b4 cf 69 6f 30 7e d4 ff 34
       -0.003391005 -1.6705258e-07 8.7098057e-10 4.765206e-07
000160 b0 c9 5a bb d0 0c 91 3f 68 e4 72 3b bc 72 2b b6
       -0.0033384375 1.1332035 0.003706241 -2.554777e-06
000170 24 52 7a ae 11 34 3a b4 12 e4 de bc ca fc 61 35
       -5.6916374e-11 -1.7341542e-07 -0.027208362 8.418689e-07
000180 6e c3 79 34 14 c4 d7 ba 7c 3d cd 36 fa 85 fe b5
       2.3261029e-07 -0.0016461634 6.116634e-06 -1.8963467e-06
000190 da f2 81 33 f8 04 57 3f 9c 44 e0 b7 9f f9 68 b4
       6.051205e-08 0.83991957 -2.673483e-05 -2.1697495e-07
0001a0 3e 37 68 b4 14 3d f7 36 3d 42 3a 3a 24 17 98 3b
       -2.1626781e-07 7.368284e-06 0.0007105207 0.0046414305
0001b0 05 01 fc 40 30 e4 5e b2 4a 50 96 40 0c e0 ed 3d
       7.8751245 -1.29739846e-08 4.697301 0.11614999
0001c0 1e 86 9c 36 16 0e 07 34 17 f3 65 b8 7f 3b 30 b3
       4.6647756e-06 1.2577979e-07 -5.482425e-05 -4.1032305e-08
0001d0 f8 2f 0c 3a 7a 74 b6 b3 88 36 08 3b c3 d5 47 37
       0.0005347724 -8.4962224e-08 0.0020784456 1.1911095e-05
0001e0 4f 33 d3 3c 6a cc 63 35 50 aa b7 bc 00 36 28 32
       0.025781302 8.486155e-07 -0.022420079 9.791165e-09
0001f0 fe c2 06 39 60 b8 af 43 c6 fe ef bc eb d9 13 ba
       0.00012851876 351.44043 -0.02929629 -0.0005640077
000200 c0 58 d2 b8 9d 8c f6 34 b2 bd 07 34 30 54 8c 3c
       -0.00010030111 4.592338e-07 1.2641866e-07 0.017129987
000210 ae ed b0 b7 2d 2a af b9 00 14 ea bc 24 53 8a 37
       -2.1091513e-05 -0.00033410024 -0.02857399 1.6489597e-05
000220 90 37 4e b9 30 2b f4 bf 1b 01 6d 44 e6 eb 7e 36
       -0.0001966639 -1.907568 948.0173 3.798626e-06
000230 1c 5a 6a b6 ba bb 41 ba 81 f2 2e bb fe 2b 5d bc
       -3.4921168e-06 -0.0007390339 -0.0026694837 -0.013499258
000240 32 83 35 bf f3 3e 68 bd f4 16 15 b0 32 d7 e8 b5
       -0.70903313 -0.056700658 -5.42385e-10 -1.7347977e-06
000250 7b 62 ab 41 8a b5 b5 b8 b5 56 c7 39 22 cd 3e 3c
       21.423086 -8.664567e-05 0.0003802084 0.011645587
000260 aa 09 8f 39 65 fe 19 3b cc 22 87 bd 72 47 ab 3a
       0.00027282286 0.0023497578 -0.06598434 0.0013067557
000270 61 13 95 b8 0c b7 4f 32 e0 90 32 3b 24 8e 1f b1
       -7.108483e-05 1.2090606e-08 0.0027246997 -2.3218343e-09
000280 66 86 2a bd c2 1b 0a b7 72 0e 85 3a 38 f5 14 3f
       -0.04163208 -8.231904e-06 0.00101514 0.58186674
000290 48 9f 89 bd a6 37 ca be 1b 29 84 b8 eb c1 ac 33
       -0.067198336 -0.3949558 -6.301907e-05 8.0446476e-08
0002a0 00 d8 78 b2 25 99 d9 b9 af 67 f2 b3 46 b4 03 3c
       -1.4484613e-08 -0.00041503567 -1.1287863e-07 0.008038586
0002b0 38 fb f7 b8 6d a8 dc bb 89 d6 a1 b8 d2 bf 5d 39
       -0.00011824671 -0.006733945 -7.7170385e-05 0.00021147661
0002c0 42 3d 77 33 dc 68 c7 a6 38 62 f3 3e 6e 26 ef b4
       5.7564883e-08 -1.3836821e-15 0.47535872 -4.454518e-07
0002d0 c8 bb cf b8 78 48 ae 3d f0 72 bc 36 1d dd 26 bc
       -9.905506e-05 0.08509916 5.616217e-06 -0.010184553
0002e0 18 9b eb ad a0 f4 8a 39 24 f9 62 3e e8 82 c6 36
       -2.6785282e-11 0.0002650367 0.22165352 5.9160993e-06
0002f0 40 e0 13 b7 58 15 65 bd 4e 31 9c b8 88 dc e9 2d
       -8.814095e-06 -0.055928558 -7.4478434e-05 2.6586969e-11
000300 bd 5d 94 36 3d b7 c7 39 d6 2b a5 38 d4 7e 1a b3
       4.4216563e-06 0.0003809276 7.875978e-05 -3.597127e-08
000310 ce 1e 21 36 06 ae ab bb f7 15 25 37 57 3a 33 34
       2.40088e-06 -0.005239251 9.8398805e-06 1.6691898e-07
000320 1f 57 3c b9 24 a8 e4 b7 20 45 c7 34 46 3c 69 b7
       -0.00017961532 -2.7258015e-05 3.7116934e-07 -1.3901916e-05
000330 f9 59 a5 37 f0 e5 05 ba 73 6d 84 37 48 95 ef 37
       1.971143e-05 -0.0005107811 1.5786592e-05 2.8560535e-05
000340 88 1d 3b 39 0f a7 6d 39 c4 cb e2 39 24 5b f0 b8
       0.00017844711 0.00022664315 0.00043257896 -0.00011461068
000350 36 36 8f b9 0d 81 d6 ba 5f 2d f9 b4 90 9b 12 40
       -0.00027315476 -0.0016365364 -4.6412876e-07 2.2907448
000360 90 e2 16 39 ac 94 29 ba 7d ea 5b b3 33 89 c6 30
       0.00014389516 -0.0006468992 -5.1203177e-08 1.444539e-09
000370 46 fd 15 3b 27 3d 16 b9 20 19 0d 36 84 d9 0c ba
       0.0022886558 -0.00014327896 2.1025262e-06 -0.00053729885
000380 18 51 b7 bb dc c7 15 c0 c9 33 24 ba 7b d6 f4 35
       -0.005594384 -2.3403234 -0.000626382 1.8241839e-06
000390 54 5d c9 b8 4e e0 86 34 5a 71 33 33 b4 ea b4 2f
       -9.6018106e-05 2.5122648e-07 4.1779778e-08 3.2908576e-10
0003a0 e8 ae 45 38 e2 9c f0 b1 04 3a 69 39 4e 2f 64 b7
       4.7131354e-05 -7.002755e-09 0.00022242224 -1.3600873e-05
0003b0 9a 03 66 3a 96 7c f1 b9 b4 8e 4c bc a0 e7 3f 35
       0.00087743404 -0.00046059926 -0.012485195 7.1490103e-07
0003c0 6d 6d 15 42 29 f4 f0 bc dd 1d 3c 3a a0 c1 5e bd
       37.35686 -0.0294133 0.0007176081 -0.054383874
0003d0 f2 92 fe bd 56 d9 cf 3a 38 de 84 ba f0 e5 60 3e
       -0.12430371 0.0015857618 -0.0010137027 0.21962714
0003e0 7a cb 92 32 44 c8 00 b3 82 6b 38 b8 28 82 80 b8
       1.7089167e-08 -2.9984463e-08 -4.3969143e-05 -6.127759e-05
0003f0 2e 7c 72 b6 b5 06 7a 33 92 1d 97 bd 13 34 2f 36
       -3.6133092e-06 5.821376e-08 -0.07378687 2.6107343e-06

bias f4 [97]
000000 8e 95 64 39 10 af 19 bc f4 8d 8e 37 53 a3 ee 33
       0.00021799488 -0.009380117 1.6993821e-05 1.1112447e-07
000010 d5 d4 05 31 2b 38 9e ba 81 2e 40 b2 c4 6b ef 3d
       1.9475028e-09 -0.0012071183 -1.1186445e-08 0.116904765
000020 f6 a4 bf 3b fc 8b 64 bc 6e 84 d8 b9 2f 92 98 3c
       0.0058485223 -0.0139493905 -0.00041297398 0.018624393
000030 e6 0c 5e b9 a3 ca 97 3b 9f bd d7 bb 7b 98 86 bf
       -0.00021176375 0.0046323105 -0.006583884 -1.0515283
000040 34 e6 6f bd 65 da 74 bc 08 b0 81 30 bb 3e 12 3f
       -0.05856915 -0.014944647 9.436016e-10 0.5712697
000050 2c 58 f7 37 7e 1a 05 bb e7 29 e7 37 75 80 5b 31
       2.9485753e-05 -0.002030998 2.7556858e-05 3.1941714e-09
000060 af 0e 31 37 cd cd 2c 3c 44 01 09 38 5d 7b 5b 32
       1.0553441e-05 0.010547114 3.2664524e-05 1.2775527e-08
000070 74 43 29 36 e8 3d 2f b0 ed 23 63 2f 38 d4 3f 30
       2.5222225e-06 -6.3752603e-10 2.0658293e-10 6.9786976e-10
000080 c2 81 cc 3c 5b 42 23 40 f3 78 c9 2f ab 84 34 bb
       0.024964217 2.550925 3.6647627e-10 -0.0027544897
000090 d8 1c e9 37 94 f6 67 b7 0b 57 cf b3 fe e3 0a 30
       2.7789196e-05 -1.3826084e-05 -9.655022e-08 5.0528104e-10
0000a0 ee b2 53 3c a6 2f 0e ae 6a 1a 89 c1 80 38 d2 c1
       0.012921078 -3.2329382e-11 -17.137897 -26.277588
0000b0 8e 16 0b b0 5a a4 ec b4 f4 a4 0b ba f8 84 75 35
       -5.059996e-10 -4.4078007e-07 -0.0005327009 9.146311e-07
0000c0 de cf 55 40 48 83 9c b7 b8 fc 38 32 3c fd 6f 40
       3.3408122 -1.8657782e-05 1.0767671e-08 3.7498312
0000d0 12 c3 d4 34 f4 6c 1f ae 06 8d fe 36 bd 15 8c b4
       3.963001e-07 -3.6249184e-11 7.586207e-06 -2.609285e-07
0000e0 34 46 d1 b6 00 e6 34 b9 c3 24 bc 32 10 ca f9 37
       -6.236858e-06 -0.0001725182 2.1902798e-08 2.9777206e-05
0000f0 88 65 86 40 90 66 83 3e d4 a9 37 37 5a 86 a5 b4
       4.199894 0.25664186 1.0947191e-05 -3.08314e-07
000100 76 4f 1e 33 d7 80 49 ba 0e 91 b4 c1 bd 84 08 3a
       3.685951e-08 -0.000768674 -22.570827 0.0005207768
000110 6b 6e f8 b9 ef 5f 5a 36 f8 a8 33 bb 6a 8a 3b 30
       -0.00047384514 3.2540372e-06 -0.0027413946 6.82269e-10
000120 e6 55 02 37 8a da 43 b9 28 d2 d5 32 ab 8b b3 bb
       7.768604e-06 -0.00018678061 2.4892032e-08 -0.005479296
000130 4c 0c 39 ba 7a 9e ee 39 20 f5 8e bb 0d 78 3f bb
       -0.00070590223 0.00045512972 -0.0043627173 -0.0029215843
000140 f8 73 89 ba 70 d7 0a 31 a4 e7 15 36 b8 8e 17 b7
       -0.0010486832 2.0204105e-09 2.2337563e-06 -9.033531e-06
000150 9a bc a6 b6 20 0a d2 32 34 1f 09 b8 3b 6d ee 3c
       -4.9691416e-06 2.4451822e-08 -3.2692406e-05 0.02910482
000160 60 f2 0c b3 05 ed 5b b4 7a be fb 35 ca b5 99 34
       -3.281673e-08 -2.0482192e-07 1.8756393e-06 2.863074e-07
000170 ad 9b 05 38 a0 c5 28 2e ec 6d f1 b6 7c 9d 92 be
       3.1854655e-05 3.8374304e-11 -7.1951563e-06 -0.28635776
000180 60 a6 39 bf
       -0.72519493

weight f4 [97, 97]
000000 9c 20 7f 3d 68 df bf 33 ec 28 96 aa bc d5 03 ba
       0.062286958 8.934768e-08 -2.6673748e-13 -0.00050291023
000010 38 e4 95 b3 d2 db ea be b0 00 14 33 d4 44 ba 35
       -6.979866e-08 -0.45870835 3.445956e-08 1.3878112e-06
000020 20 16 31 3d 1b 85 93 30 90 0c 53 37 24 86 ee 3c
       0.04323399 1.0733489e-09 1.2579505e-05 0.029116698
000030 37 6e a1 32 ba 19 a9 3b 40 bb 56 38 d9 8f 91 b6
       1.8792987e-08 0.0051605375 5.1195966e-05 -4.338083e-06
000040 e1 9f a3 b9 74 57 16 bf c0 25 d7 b2 e0 8b 92 30
       -0.00031208902 -0.5872719 -2.5046461e-08 1.0662653e-09
000050 0a 50 8f 3b 14 f3 ad 37 81 de 0e b2 25 74 0f b5
       0.004373555 2.07364e-05 -8.316079e-09 -5.3440664e-07
000060 dd 7b f9 ba 14 c5 92 ba 17 83 0d bc 5c a7 51 b9
       -0.0019034107 -0.001119765 -0.008637211 -0.0001999414
000070 b4 f6 b2 3b c9 98 98 36 54 8a ce 3a 80 ad f3 31
       0.005461538 4.5477395e-06 0.0015757778 7.0919555e-09
000080 80 cd 56 34 7e 7a bb 3e 38 2d bc 3f 71 c3 df 39
       2.0005064e-07 0.36616892 1.47013 0.0004267949
000090 92 7a aa 3a f5 12 24 b2 10 e3 cc ba 85 93 f2 3f
       0.00130065 -9.550367e-09 -0.0015631635 1.8951269
0000a0 08 39 03 ba d4 59 c4 33 dc ae c5 3f fd df 7b 34
       -0.0005005752 9.143301e-08 1.5443988 2.3457683e-07
0000b0 b7 79 5c b2 a2 04 4f 32 68 cc 24 b2 26 c8 ac ba
       -1.283336e-08 1.2050039e-08 -9.592533e-09 -0.0013182207
0000c0 8e 2a de 42 44 80 52 31 ef 8b 82 bc 62 2f 1c b4
       111.083115 3.0631933e-09 -0.015935866 -1.454587e-07
0000d0 b2 79 11 bd 70 a0 0c 3a 7a 39 9b 38 00 1d 25 39
       -0.03551645 0.0005364483 7.401682e-05 0.0001574643
0000e0 de d9 dc b6 a2 4e 9f 36 2c 94 6b 3a c9 bd 0b c0
       -6.581874e-06 4.7477233e-06 0.0008986618 -2.1834586
0000f0 16 a5 49 3b 12 cc 17 bb 27 60 f9 ba 5f 32 85 2f
       0.0030768565 -0.0023162407 -0.0019025848 2.422835e-10
000100 26 c5 89 31 fc 5d 2e ba 6c 38 80 35 60 f8 02 b6
       4.009638e-09 -0.0006651578 9.553164e-07 -1.9516083e-06
000110 c0 87 25 35 e5 c2 1d b9 a0 39 90 b9 cd 24 49 b7
       6.166483e-07 -0.0001504529 -0.00027508754 -1.1989102e-05
000120 a8 64 3a b6 d2 34 07 b6 e9 7e f7 33 e5 73 42 ba
       -2.777475e-06 -2.0147313e-06 1.15249186e-07 -0.00074177823
000130 02 ec 81 ba a4 e8 ab 40 f0 b6 05 b6 2e 6a 81 bc
       -0.0009912255 5.3721485 -1.9925028e-06 -0.0157977
000140 48 b7 13 3d c4 75 84 3c 4e f4 6e 39 42 18 11 3d
       0.036063462 0.016169436 0.0002278846 0.035423525
000150 a2 32 19 40 f2 e7 60 3b 70 6d 88 35 60 a3 84 b5
       2.3937154 0.0034317938 1.016464e-06 -9.882315e-07
000160 7c df 95 b5 54 6a 1e 3a 44 b9 14 3f 2a 97 d2 3b
       -1.1166408e-06 0.0006043066 0.5809519 0.0064267116
000170 f6 df c3 2e 04 93 30 34 c0 20 af 33 d3 c2 19 bb
       8.907357e-11 1.6444761e-07 8.15503e-08 -0.0023462072
000180 b1 f7 3e 34 90 06 50 b7 6c 07 b4 b9 20 49 6c 3c
       1.7785239e-07 -1.2399294e-05 -0.00034337805 0.014421731
000190 e0 e6 54 38 dc b9 4c 39 0c bf 5f b9 66 f5 af ba
       5.0759758e-05 0.00019524194 -0.00021338108 -0.0013424575
0001a0 82 90 23 bd b0 f5 44 32 4f 95 a0 37 c9 56 96 af
       -0.039932735 1.1464564e-08 1.9143014e-05 -2.7346506e-10
0001b0 ec d9 82 b8 66 77 19 32 e0 7a aa 36 4e 69 eb be
       -6.239474e-05 8.93292e-09 5.0806993e-06 -0.4597878
0001c0 40 12 c4 b0 b4 90 69 b7 45 e3 8f b9 92 6b e8 34
       -1.4266064e-09 -1.3921574e-05 -0.00027444414 4.3291635e-07
0001d0 3e 6d 1d c0 00 52 bd bc ae d1 36 32 a8 14 64 34
       -2.4597926 -0.02311039 1.064147e-08 2.124167e-07
0001e0 14 f6 36 ba a8 ff a7 bb 1e a5 ce ba 54 30 8b b7
       -0.00069794175 -0.005126912 -0.0015765761 -1.6592596e-05
0001f0 92 5a 94 b7 00 a8 9c 34 1c e3 1f b2 e5 b2 df c1
       -1.768515e-05 2.91795e-07 -9.306657e-09 -27.96235
000200 42 53 12 b6 60 23 c4 34 8a f6 e9 b4 f4 f9 a3 3b
       -2.1804158e-06 3.6533584e-07 -4.3579013e-07 0.005004162
000210 3c 47 9f b6 93 78 6b ba f7 39 b1 3f 13 12 27 38
       -4.746862e-06 -0.00089825055 1.3845814 3.9832736e-05
000220 60 da 23 3b 3e 44 69 b4 81 5b ac 37 e8 5f 11 39
       0.0025001988 -2.1724642e-07 2.0546608e-05 0.00013864005
000230 b8 c7 5c 30 3f 35 1e b5 e6 b5 49 ba 1c 8c 1c 33
       8.031935e-10 -5.893707e-07 -0.00076946465 3.644901e-08
000240 ea 64 39 3a 78 f1 28 ba b4 2f 2b be f9 e8 ad 3c
       0.00070722273 -0.0006444673 -0.16717416 0.021229254
000250 b0 2f 9f bb 30 0f c5 af 24 46 15 37 7b fd e9 b4
       -0.0048579797 -3.5844883e-10 8.897423e-06 -4.3584063e-07
000260 e2 85 ff b6 c2 bf 86 36 50 9a 3d 35 35 b9 10 31
       -7.615178e-06 4.0158347e-06 7.063254e-07 2.1060036e-09
000270 7a 47 d8 af 5a ed 74 b7 1a c0 4d 34 a4 2f 94 37
       -3.9340958e-10 -1.4598796e-05 1.9161999e-07 1.766516e-05
000280 46 52 d1 36 e7 78 79 b5 60 37 10 39 d8 a3 d1 39
       6.2382633e-06 -9.2935664e-07 0.00013753539 0.0003998566
000290 5d c4 67 3a 26 07 cb b9 88 2f 34 b6 80 61 f2 bf
       0.0008841211 -0.00038724503 -2.6849757e-06 -1.8936005
0002a0 12 49 e0 38 94 7b 2a ba ab d1 77 bb 46 1f 1c 39
       0.00010694763 -0.00065034 -0.003781418 0.0001488897
0002b0 f6 d4 0f b8 18 ed c0 bb a3 bc 63 af 08 90 ad 37
       -3.4292192e-05 -0.005887639 -2.0712547e-10 2.0690277e-05
0002c0 04 83 33 b7 88 54 e8 b0 fe 3d 8a ba 32 34 08 bc
       -1.0699736e-05 -1.6904247e-09 -0.001054704 -0.008313226
0002d0 a6 3e 0b b8 0c a2 31 b4 b0 53 5d 39 3f 45 55 b5
       -3.319853e-05 -1.6543362e-07 0.00021107378 -7.944945e-07
0002e0 12 34 a3 37 a2 a4 bd 35 48 94 c3 b2 67 68 fa b4
       1.9455361e-05 1.4129512e-06 -2.2768418e-08 -4.6642091e-07
0002f0 38 1b c5 32 ed ab cd bc a4 08 fd b3 53 9c 89 b5
       2.2946196e-08 -0.025106395 -1.1782802e-07 -1.0252792e-06
000300 00 41 89 35 30 82 33 b4 f3 9b 86 ba 40 18 9f 34
       1.0226213e-06 -1.6718036e-07 -0.0010269865 2.9633702e-07
000310 6f a8 19 37 66 0a 58 3c 94 35 1e b4 fd c6 98 35
       9.158727e-06 0.013186073 -1.4734388e-07 1.1382796e-06
000320 7d a0 86 37 e0 ec 3a b6 8c a8 36 bb b0 67 2d b9
       1.6048778e-05 -2.785404e-06 -0.0027871458 -0.00016537192
000330 b6 17 00 34 e0 7e 56 33 26 00 19 3d 94 88 f9 bb
       1.1929555e-07 4.994115e-08 0.037353657 -0.0076151583
000340 5c d0 6c b7 4a 9c c7 37 e3 1a cd aa c0 ba 6e b7
       -1.4115209e-05 2.3795426e-05 -3.6433972e-13 -1.4229387e-05
000350 a0 0b a6 ba 6c 4d ae bc 83 5f 98 36 8b 6b 3e bf
       -0.001266826 -0.021277152 4.541072e-06 -0.7438285
000360 c1 3b 2f 30 d8 02 1c 38 6c 52 ef b4 c0 bb a4 34
       6.3749545e-10 3.7195947e-05 -4.457719e-07 3.0683987e-07
000370 76 af 04 ba 9d 45 11 3d 93 8e c3 b7 d4 d2 82 bd
       -0.0005061546 0.03546678 -2.3312203e-05 -0.063878685
000380 4e 02 22 36 fa d2 3d 44 c8 fe 98 af 68 bd ba ba
       2.4141223e-06 759.2965 -2.7829672e-10 -0.0014247121
000390 67 fc 3c 3a e0 b1 19 ae 83 f3 04 b9 ac 8d ee 37
       0.0007209242 -3.4946157e-11 -0.00012679216 2.8437782e-05
0003a0 08 56 28 34 bc 5d d4 3c 60 4b 2d 36 3a 62 b0 37
       1.5677517e-07 0.025923602 2.5822883e-06 2.1026575e-05
0003b0 2a d7 5c b7 0c 3d 95 ba 7a 13 a6 b7 fe 89 e9 3b
       -1.3163119e-05 -0.0011385991 -1.9797812e-05 0.0071270457
0003c0 1f 5b 2a ba d9 a8 aa ba ea 19 8b b0 b0 8f db 35
       -0.00064985635 -0.0013020291 -1.0120946e-09 1.635859e-06
0003d0 9a 4a 94 b2 80 a3 3f 36 ba 79 57 37 fa ad 5d ba
       -1.7263392e-08 2.8556387e-06 1.284334e-05 -0.00084564055
0003e0 f3 16 38 b9 0c 0d 56 af ac 9a fd 34 a0 bf 49 b0
       -0.00017556157 -1.9467822e-10 4.723746e-07 -7.339569e-10
0003f0 64 e3 b9 3a 14 96 18 b7 78 48 6d 30 64 0c 63 b0
       0.0014182148 -9.094849e-06 8.632308e-10 -8.2599727e-10

bias f4 [97]
000000 80 73 27 32 54 e2 29 35 70 6d 7f b2 ea f7 1a 3e
       9.746941e-09 6.3286757e-07 -1.4867837e-08 0.15133634
000010 05 6f a7 32 21 88 ca 3a d7 c6 40 34 a6 83 24 3d
       1.9491845e-08 0.0015451947 1.7953731e-07 0.040164612
000020 a8 92 dc 33 3e 9b 81 ba a6 37 5f bb 04 73 18 ba
       1.0271225e-07 -0.0009888185 -0.0034060269 -0.00058154785
000030 09 97 5f 3f 01 72 69 b0 ac a9 18 34 42 05 6b 39
       0.87339836 -8.4926916e-10 1.421783e-07 0.00022413305
000040 1c 6f c9 c0 fc 89 b3 3d 7f 7b f2 b1 52 7f 82 3d
       -6.294813 0.08766553 -7.057167e-09 0.06371941
000050 4e 11 c6 35 04 62 9f 35 2a 77 0b b4 66 e8 76 bb
       1.4757186e-06 1.187495e-06 -1.2988735e-07 -0.0037675141
000060 2f e0 25 ba b6 ae d2 3b 14 f4 00 36 58 69 86 3c
       -0.00063276564 0.0064295186 1.9215558e-06 0.016407654
000070 60 91 18 b8 88 51 9c 34 a6 c7 38 b8 0c 94 36 38
       -3.6375015e-05 2.9116586e-07 -4.4054956e-05 4.353006e-05
000080 20 be 1f 3b 1c f4 d6 b2 b0 17 6d bb b0 52 7c b7
       0.0024374798 -2.5023887e-08 -0.003617745 -1.5039623e-05
000090 16 b6 0f b8 04 e0 ab 2c ab aa 01 ba 78 1c 7c ba
       -3.4263438e-05 4.884983e-12 -0.0004946391 -0.0009617279
0000a0 7e ea 74 aa b2 16 16 b4 88 f1 c5 c0 11 0d 88 31
       -2.1752909e-13 -1.3978095e-07 -6.185734 3.9596064e-09
0000b0 fa 25 79 bd 22 a3 06 3b 18 45 1e bb f8 37 a8 b8
       -0.060827233 0.0020544012 -0.002415007 -8.021289e-05
0000c0 ef 6d 04 b9 ca 00 7a 40 50 b8 42 b9 a6 fb b3 bc
       -0.00012629454 3.9062982 -0.00018569943 -0.021970581
0000d0 d6 bf 4a ba 8c 24 81 b4 b7 de 34 38 ee d0 04 bd
       -0.0007734274 -2.4054714e-07 4.3122764e-05 -0.032425813
0000e0 88 fc 04 3b 3e f3 86 2c 0c f7 09 37 70 fc b0 42
       0.0020292122 3.8355144e-12 8.223356e-06 88.49304
0000f0 69 b3 bd bc bd 65 d2 b5 fa 7e 0f b5 48 76 16 b1
       -0.023156838 -1.5675829e-06 -5.3456426e-07 -2.1895108e-09
000100 0f 7a 2a b6 92 04 07 bb b3 19 65 bc ba d7 8e 33
       -2.5403021e-06 -0.002060209 -0.013983178 6.651631e-08
000110 5d ee 95 39 86 63 9c bf ac 60 bb ba 4a 83 eb bd
       0.0002859709 -1.2217872 -0.0014295778 -0.11499651
000120 e4 50 b9 b8 78 67 7c 38 79 81 0f bf 6c ff c5 b7
       -8.8365545e-05 6.0177845e-05 -0.56056935 -2.360317e-05
000130 a5 96 10 3b a0 dc 8d ba d8 d3 41 b0 b0 01 8b 31
       0.0022062447 -0.0010823198 -7.051404e-10 4.0456243e-09
000140 d0 72 8d 30 c9 be ae bd 60 e4 0b 32 8c a5 13 3c
       1.0291732e-09 -0.08532483 8.142791e-09 0.009011637
000150 ac b4 fc b5 4c 99 5c 31 e0 73 d9 b6 0a 60 40 3d
       -1.8828046e-06 3.2101353e-09 -6.4805936e-06 0.04696659
000160 f6 2b 62 b6 36 48 c4 30 a6 72 8a b9 99 83 e1 36
       -3.3702213e-06 1.42814e-09 -0.0002640683 6.7208425e-06
000170 4f a9 17 3e d2 1f 9d 37 a8 35 4c 3c fe 88 fc 28
       0.1481068 1.8730676e-05 0.0124639645 2.8037031e-14
000180 e8 62 2f 3a
       0.00066904584

weight f4 [1, 97]
000000 ef 66 13 b7 1e 08 1e 35 8c c2 11 b6 9f f2 73 3e
       -8.785849e-06 5.88714e-07 -2.1719925e-06 0.23823021
000010 e9 6c af 35 b7 c2 0d bc 80 62 9a b8 65 ca e2 b6
       1.3070213e-06 -0.008652381 -7.361639e-05 -6.7588867e-06
000020 db 98 bd 3a 9c ab bf b0 6f 5e d6 36 44 78 e5 3b
       0.001446511 -1.3945853e-09 6.3886905e-06 0.007002862
000030 70 20 68 ba 9a 02 b3 b2 a8 df 9a 3b 04 d5 f0 af
       -0.0008854931 -2.0839526e-08 0.004726369 -4.3807102e-10
000040 ca f7 8f 40 d4 2c ac 39 0c 20 4d b5 06 84 3b b3
       4.4989977 0.00032839796 -7.6415085e-07 -4.3659405e-08
000050 d4 df 68 3d c5 ff 26 b8 a7 04 8c b7 84 aa 90 bb
       0.056854084 -3.9815688e-05 -1.6691467e-05 -0.0044148583
000060 40 6a 35 3b ae d3 19 37 4d e8 7e b8 a0 af ed 3e
       0.0027681738 9.168796e-06 -6.0774666e-05 0.46423054
000070 3e 6f 1d 39 7b 93 62 b3 20 3d 9a b7 26 25 aa 37
       0.00015014128 -5.2753858e-08 -1.8386694e-05 2.0282878e-05
000080 47 a2 b4 c0 48 ed 30 bc 6c c6 f9 36 7e dc 38 3c
       -5.6448092 -0.01079876 7.4438776e-06 0.011283038
000090 b2 27 8c b6 24 6c f4 32 5e b2 84 35 1e 86 34 b7
       -4.1769463e-06 2.8454515e-08 9.886678e-07 -1.0760063e-05
0000a0 13 62 81 33 02 04 b7 38 dc c8 09 34 90 17 99 b3
       6.02487e-08 8.7268665e-05 1.2832191e-07 -7.128904e-08
0000b0 b6 e6 19 b7 cf 73 2e b8 72 07 b0 b1 a4 fb 49 39
       -9.173227e-06 -4.1592688e-05 -5.1231206e-09 0.00019262597
0000c0 4e 4c 0a 3d af a3 9e c0 02 96 63 3d 40 e5 44 ba
       0.033764176 -4.957481 0.05556298 -0.00075109676
0000d0 ed 05 d7 36 4e 00 3f 37 66 e3 20 b5 07 fa 13 bb
       6.408189e-06 1.1384558e-05 -5.9935553e-07 -0.0022579448
0000e0 e2 59 89 bc 86 d5 b7 b0 a0 03 27 b7 e0 ce 8b 3a
       -0.016766492 -1.337569e-09 -9.95482e-06 0.0010666512
0000f0 a8 f5 3a 2b 15 a3 95 b6 80 c5 78 37 8a 58 05 37
       6.642139e-13 -4.4595313e-06 1.4827936e-05 7.948032e-06
000100 d4 81 23 3b 59 0d 08 bc 82 74 f8 3f 44 0b 57 b9
       0.002494921 -0.008303964 1.9410555 -0.00020508195
000110 14 8e a8 3d 3a e2 bd b5 06 4d e4 35 8c a8 b0 37
       0.08230224 -1.4147438e-06 1.700974e-06 2.105932e-05
000120 9a 58 8c b4 78 61 34 b6 c0 c7 e9 b2 a9 dd 88 3c
       -2.6141498e-07 -2.6878824e-06 -2.7215606e-08 0.016707258
000130 66 17 c6 c0 57 69 60 36 f6 c6 97 36 06 93 5f 37
       -6.1903563 3.3439917e-06 4.523313e-06 1.3326067e-05
000140 68 c3 05 ba 20 81 26 b6 df ce f6 b2 70 cb 22 ba
       -0.0005102665 -2.4811088e-06 -2.8732243e-08 -0.0006210124
000150 fc 94 ad bf 80 a7 4f 35 c2 3c 9d 34 94 20 96 3a
       -1.3561091 7.7357254e-07 2.9287736e-07 0.0011453801
000160 7a 2d 08 38 5b 0e 45 b3 94 19 5c b2 26 51 83 c0
       3.246728e-05 -4.5880693e-08 -1.2811501e-08 -4.103656
000170 bd 04 2f 36 c4 38 15 bb 24 90 6e ba 12 8a 15 35
       2.607979e-06 -0.002276943 -0.0009100458 5.5707744e-07
000180 36 c9 97 b2
       -1.7670214e-08

add_tensors f4 [97, 6]
000000 ef a4 db 3b 1c 65 1a 3c 19 1a fa 39 c9 03 64 b6
       0.006703011 0.00942352 0.0004770316 -3.397685e-06
000010 a9 ea 4f 3b 80 d1 9f 3e 85 cf 5e 33 1f b9 f1 39
       0.0031725562 0.31214523 5.187714e-08 0.00046105028
000020 0a 16 83 ba b5 99 cc b9 a3 3f c6 bd 79 5a f7 b0
       -0.0010001075 -0.00039024433 -0.096801065 -1.7997329e-09
000030 1e 86 af 3b 4a 6c 23 35 91 c6 29 30 63 b3 d6 32
       0.005356564 6.0879813e-07 6.176402e-10 2.4994455e-08
000040 93 c1 53 39 82 bd df bc 44 ae 66 3a ee a7 f6 36
       0.0002019464 -0.027312044 0.00087997713 7.350921e-06
000050 e5 e7 fd 39 bf 2d a5 ae e2 ae 31 38 40 d6 e7 34
       0.00048428695 -7.5114574e-11 4.236296e-05 4.318299e-07
000060 9d a9 a5 b3 fe 76 2c 39 ea 1c 3d 38 d8 68 05 3f
       -7.714264e-08 0.00016447526 4.508804e-05 0.52113104
000070 15 6e 22 b7 b4 1c c9 37 18 98 40 bd 24 80 bf b9
       -9.681583e-06 2.3974433e-05 -0.047020048 -0.0003652583
000080 0e a8 07 38 1d 3c d9 b7 34 ca ce 3e fb 9a a4 31
       3.234302e-05 -2.5896408e-05 0.40388644 4.7906474e-09
000090 79 b5 38 3c 5b 81 a1 b5 91 4e ae ba f4 0a 82 3c
       0.011273735 -1.2033082e-06 -0.0013298561 0.015874363
0000a0 7c 88 59 b4 af 93 2f 39 4c 84 01 35 cf b9 5e c3
       -2.0259353e-07 0.00016744317 4.824876e-07 -222.72581
0000b0 2e c8 c7 2e a6 b0 10 38 59 b4 46 3a 7c bc 2b 30
       9.085031e-11 3.4496792e-05 0.00075799745 6.247729e-10
0000c0 f4 cc 01 40 7e 4c 55 b7 07 9d f5 bb 8b b6 75 b8
       2.0281343 -1.2713599e-05 -0.0074955258 -5.858256e-05
0000d0 af 12 cf b7 7d fb a6 b1 0d a9 7c 34 60 2a b7 32
       -2.4685023e-05 -4.8598268e-09 2.3530829e-07 2.1323274e-08
0000e0 ee 99 a2 38 6d 2e 31 30 a0 4b 9b 39 77 4a 3d b7
       7.7534336e-05 6.44582e-10 0.0002962025 -1.1282616e-05
0000f0 5f 5c 7d b4 d3 37 2a ae 01 5d db 38 c1 81 e4 2e
       -2.3596066e-07 -3.8703107e-11 0.00010460057 1.03912885e-10
000100 2b d5 59 3a a9 14 55 3b b2 4d ec 35 0c 55 57 b2
       0.00083096576 0.0032513535 1.7605983e-06 -1.25339845e-08
000110 09 f5 21 be a0 92 50 37 39 95 30 3b a1 26 d2 3e
       -0.1581613 1.2431905e-05 0.0026944412 0.41045097
000120 60 d5 f9 38 e0 b3 52 3a ea f0 82 b7 9e bd d6 35
       0.000119129894 0.0008037668 -1.5609392e-05 1.5999428e-06
000130 22 00 a6 39 68 0f bf b0 70 04 58 38 82 95 89 b5
       0.00031662086 -1.3901458e-09 5.1502546e-05 -1.0250808e-06
000140 9a a2 60 39 d0 70 1d 37 d9 3c 65 b4 51 aa 7d b0
       0.00021422878 9.384195e-06 -2.1349423e-07 -9.22829e-10
000150 41 52 3c 3a c8 2d 65 33 67 83 12 b0 ab 8f 70 34
       0.00071838876 5.3359855e-08 -5.3301225e-10 2.2404008e-07
000160 b3 7c 5f bd b2 ae 25 3f 21 f6 27 3b 96 76 c4 36
       -0.05456228 0.6471969 0.0025628882 5.8550604e-06
000170 cc 12 ab ad 0f 0d 75 33 66 a7 0d bb db a6 a6 b5
       -1.9448797e-11 5.7055384e-08 -0.002161467 -1.2416525e-06
000180 b6 19 08 34 70 77 38 3a b7 8b 72 37 4c 60 89 b5
       1.267534e-07 0.00070368405 1.4456854e-05 -1.0235321e-06
000190 22 16 a4 b1 bb 8e ca 40 b5 a1 d0 38 42 c1 d7 33
       -4.7755444e-09 6.329923 9.948333e-05 1.0046871e-07
0001a0 7b f2 c8 b3 5f 5e 4a 36 31 d2 9a 39 5f e2 36 3c
       -9.357333e-08 3.0155277e-06 0.00029529774 0.0111623695
0001b0 5b c5 b0 3f 50 74 67 b1 9d 54 45 40 88 eb cd bd
       1.3810228 -3.368104e-09 3.0832894 -0.1005469
0001c0 ed 8b 06 b7 d0 c2 fe 34 80 4f 08 b8 f4 6a f7 b2
       -8.019601e-06 4.7452932e-07 -3.2498967e-05 -2.8803221e-08
0001d0 14 ce fc b9 b6 7f 1d b3 79 f5 84 3a 32 83 b5 b6
       -0.00048218726 -3.6670563e-08 0.0010143957 -5.4094935e-06
0001e0 c5 4b 8a bc 91 60 ff b5 0d 3d 31 bc c1 dc 81 36
       -0.016881833 -1.9027085e-06 -0.010817778 3.8701987e-06
0001f0 df cd 0c 3a 28 92 81 44 b4 d5 d2 3c d9 2d 03 39
       0.00053712534 1036.5674 0.025736667 0.00012510213
000200 8f 49 6f b8 39 f4 52 32 f5 80 c5 33 af 18 62 bc
       -5.7050547e-05 1.2279139e-08 9.1969845e-08 -0.01379983
000210 b7 67 58 b7 a0 dc 76 b8 21 55 a7 c1 f0 03 4f b8
       -1.2898751e-05 -5.8856444e-05 -20.916567 -4.9356313e-05
000220 41 d1 53 ba f2 17 ab 41 d3 3c 5f c3 1f 2f 2a b4
       -0.00080801925 21.386692 -223.2376 -1.5849626e-07
000230 90 c3 04 36 2e c5 be b9 d5 1c 57 ba e5 a5 d2 bb
       1.9783365e-06 -0.00036386534 -0.00082058954 -0.0064284676
000240 2a e6 20 be 1a e3 85 bc 1c 7b 91 30 cb 7a 60 36
       -0.157128 -0.016343642 1.0585128e-09 3.3450076e-06
000250 12 ad 14 41 6f bb 1f b8 a8 48 22 39 7f b9 fd 3b
       9.2922535 -3.8083115e-05 0.0001547659 0.00774306
000260 be 52 af 37 0a 42 f0 37 74 ec 16 bd 1b 49 27 3a
       2.0900156e-05 2.8640981e-05 -0.036846593 0.0006381438
000270 e0 0e c3 b7 19 92 21 b3 ae 5e 84 3a fb 06 25 b2
       -2.3252738e-05 -3.761861e-08 0.0010099018 -9.605851e-09
000280 5c 01 e3 bd 79 48 90 b6 32 2f 1e b8 a0 12 bb 40
       -0.11084244 -4.2999714e-06 -3.771409e-05 5.8460236
000290 8d 40 c3 bc 48 a3 19 3f 33 fa f4 36 d6 17 15 33
       -0.023834491 0.6001477 7.3008937e-06 3.4713445e-08
0002a0 e3 d9 c5 b2 fc 3a 38 b9 72 0c 2c b1 39 f2 b5 bc
       -2.3032902e-08 -0.00017569581 -2.5036369e-09 -0.022210227
0002b0 f0 f7 6d b8 a3 9e 8a bb f3 dc 93 37 a2 40 16 b9
       -5.6736113e-05 -0.0042303368 1.7626653e-05 -0.00014329192
0002c0 6b bf d1 b3 22 26 09 a8 6d e6 8b 3e 39 17 8a b3
       -9.7671396e-08 -7.6132965e-15 0.27324238 -6.43035e-08
0002d0 19 b5 7a 37 d5 88 67 bf c7 ff 96 b5 a4 29 2c 3b
       1.4943326e-05 -0.90443164 -1.1250312e-06 0.0026269937
0002e0 13 2a 71 ad a1 ca 03 39 77 c9 05 bf 29 43 40 36
       -1.3708606e-11 0.00012568619 -0.52260536 2.8649322e-06
0002f0 8f 04 bd 36 6e b5 08 bd c4 2b 1f b8 18 2f 91 2e
       5.6331696e-06 -0.03337615 -3.7949314e-05 6.602202e-11
000300 4d 77 e6 35 23 54 72 39 b8 78 74 b8 ce 9f c4 b1
       1.7171056e-06 0.00023110262 -5.828656e-05 -5.7225185e-09
000310 d4 7b ee 36 ab 0c f8 ba d5 b2 df 35 d7 1d a9 33
       7.107368e-06 -0.0018924674 1.6666842e-06 7.8751036e-08
000320 90 9b 81 b8 6f 50 a9 b6 41 c2 06 34 61 a0 8f 37
       -6.180175e-05 -5.045956e-06 1.2550392e-07 1.712161e-05
000330 fa 12 4d 37 2a 9f c1 ba 93 ce 89 36 69 ab 76 39
       1.22233705e-05 -0.0014772166 4.1069666e-06 0.00023524243
000340 58 42 0d 3a f6 a3 0c 39 e7 78 13 39 93 c0 91 b9
       0.0005388609 0.0001341252 0.00014064052 -0.00027800034
000350 46 7f 13 b9 84 3c d7 b9 18 42 5a 33 82 b5 53 41
       -0.00014066426 -0.00041053083 5.0817192e-08 13.231813
000360 df 3b 88 b7 ea 7c dd ba 6f 5c 07 b2 13 66 51 ae
       -1.6240343e-05 -0.0016898189 -7.879051e-09 -4.761176e-11
000370 ff 8a ba b7 9c 49 1c b8 29 eb 81 35 66 7f 00 3a
       -2.2237653e-05 -3.7261852e-05 9.67969e-07 0.00049017963
000380 40 34 83 ba b2 08 c6 bf 4d 71 14 b9 d8 24 7c b4
       -0.0010010079 -1.5471404 -0.00014156588 -2.3482733e-07
000390 6e 8a 18 39 3f e6 18 34 93 86 a5 32 63 05 ff b0
       0.00014547419 1.4239866e-07 1.9269725e-08 -1.8555223e-09
0003a0 19 56 b5 b9 2f 69 8f 30 c6 60 84 38 f1 76 b9 36
       -0.00034587158 1.0434514e-09 6.312276e-05 5.5272762e-06
0003b0 58 b5 69 b9 ac 52 59 b9 3d aa 97 bb fe 6a d3 33
       -0.00022288167 -0.0002072553 -0.0046284483 9.844915e-08
0003c0 eb 64 cb 41 71 e2 89 bc 17 67 2d ba eb a4 05 bd
       25.424276 -0.016831608 -0.0006614788 -0.03262798
0003d0 f3 a2 01 3d 50 33 20 ba f4 2d b4 3a fb be b3 3d
       0.03164954 -0.0006111162 0.0013746605 0.08776661
0003e0 6c c6 a9 b2 8a e3 ac b3 bb 94 e3 b7 75 8d b6 34
       -1.9764421e-08 -8.050763e-08 -2.7129767e-05 3.4003065e-07
0003f0 8a 26 18 36 95 98 01 33 96 b6 8a 3c 0a 3b 99 b4
       2.2672198e-06 3.0173926e-08 0.016932767 -2.8541427e-07

add_tensors f4 [97]
000000 c6 82 17 39 3e 87 91 3d 96 a0 8a b6 6b f4 6e 33
       0.00014449199 0.071058735 -4.131415e-06 5.563599e-08
000010 9b d3 60 b1 34 91 22 ba fd b0 78 b1 0e 9a 0e 3f
       -3.2716574e-09 -0.00062014465 -3.6189356e-09 0.5570382
000020 d8 94 75 bb 58 c2 2d bb 09 4b e5 38 56 6d 5d 3b
       -0.003747275 -0.0026513543 0.00010933547 0.0033787093
000030 43 f0 05 b9 c6 71 0e 3b f2 d4 78 3b b1 20 9b 3f
       -0.00012773373 0.0021735295 0.0037968722 1.2119352
000040 91 06 26 be ff 60 34 bc 82 ed 83 af bb 8a 44 3e
       -0.16213442 -0.011009454 -2.399752e-10 0.19193546
000050 13 4c 02 b4 83 3a e6 bb 8f 83 81 37 ea f4 f2 30
       -1.2134869e-07 -0.007026018 1.543926e-05 1.7677426e-09
000060 87 7b 21 b7 73 33 db 3b b2 e5 4a 39 0f ff 67 30
       -9.625109e-06 0.006689483 0.0001934979 8.439977e-10
000070 50 27 a5 b6 12 6b 25 af 8d 82 f7 2e 5e 65 0e b1
       -4.9219598e-06 -1.5044702e-10 1.125545e-10 -2.072134e-09
000080 3e 11 9b 3d 7e e5 8f 3f b6 95 36 2f ad fb a8 ba
       0.07571648 1.124191 1.6605992e-10 -0.0012892388
000090 66 0c 90 38 61 18 f8 b5 f5 9f 60 32 05 7e b3 af
       6.8687645e-05 -1.8484535e-06 1.3074886e-08 -3.2649453e-10
0000a0 a1 c9 bf bc c3 bd fa 2d 2c bb 3d 41 5e 50 76 3f
       -0.023411574 2.850598e-11 11.858196 0.9621638
0000b0 72 51 07 30 83 db 71 b4 bd 0a 18 3b aa 1f 07 36
       4.9228455e-10 -2.2524732e-07 0.002319976 2.0134999e-06
0000c0 11 fc 60 3f b0 21 cb b8 ff c6 98 33 e8 1d a3 c0
       0.8788462 -9.686069e-05 7.114249e-08 -5.0974007
0000d0 49 ca 83 34 9d 7a 2e ad 45 a2 61 35 b2 bb ff 32
       2.4547833e-07 -9.9179805e-12 8.4055165e-07 2.9771261e-08
0000e0 08 56 b1 36 67 c6 28 3d 61 4a 4f 32 e8 59 87 b5
       5.2850264e-06 0.041204836 1.2065898e-08 -1.008445e-06
0000f0 38 bc fb 3f 77 da fd 3d f6 4b a8 36 67 37 88 33
       1.9666815 0.123951845 5.015633e-06 6.343071e-08
000100 e4 c4 98 32 b9 e1 66 38 ac 52 74 c1 22 05 2e 39
       1.7784664e-08 5.5046494e-05 -15.270184 0.00016595845
000110 2a 4e 86 b9 82 99 f7 b5 4f 69 83 bc c8 06 ad af
       -0.00025616708 -1.8447611e-06 -0.016041426 -3.1473335e-10
000120 7d 7f f5 b7 bd 7f d7 38 48 ae 58 32 d3 f5 3b 3a
       -2.9265642e-05 0.00010275792 1.2612482e-08 0.00071701145
000130 29 d5 c6 36 c9 df 47 39 69 18 33 be db d8 cb ba
       5.925675e-06 0.00019061485 -0.1748978 -0.0015552299
000140 c5 0e 4a bb 5f fb 92 32 5e f1 5e 35 34 dd 36 38
       -0.0030831557 1.7110947e-08 8.305268e-07 4.3598193e-05
000150 d3 b3 03 b6 1a 5f 95 b3 0b 3a 28 b7 48 1b 3c 3c
       -1.9625193e-06 -6.955652e-08 -1.00270945e-05 0.011481114
000160 0a ab 5d 34 ed db 40 33 45 6f 3d b6 7d 71 1d 34
       2.0644453e-07 4.4903505e-08 -2.8227962e-06 1.4663051e-07
000170 f2 7c b8 38 b5 d9 07 b0 e9 ca f2 b7 bc bc f9 3e
       8.7970766e-05 -4.9422094e-10 -2.8943135e-05 0.48776805
000180 82 d3 9c be
       -0.30630118

add_tensors f4 [97, 97]
000000 19 61 1b 3d bd bb 19 33 2e 82 44 2b 59 33 c2 b8
       0.037934396 3.5793835e-08 6.981385e-13 -9.260205e-05
000010 0d b0 77 32 0f 57 40 3e ec 80 36 34 52 96 b6 36
       1.4417322e-08 0.1878321 1.6996972e-07 5.4415223e-06
000020 bf 18 8d 3d 7a cb 40 31 b7 0b 63 b9 d9 49 e6 3d
       0.068894856 2.805534e-09 -0.00021652771 0.11244554
000030 65 d9 0c 32 f3 0d 1d 3a fa 9f 21 b8 da d1 0b 35
       8.198502e-09 0.00059911533 -3.853438e-05 5.208691e-07
000040 c5 62 d4 38 bd 06 7c c0 ca 14 a7 b5 f2 a5 85 31
       0.00010127345 -3.9379113 -1.244852e-06 3.8896752e-09
000050 e9 5a 41 3c 71 e8 8e 38 dd a2 38 31 4d 2a 4d b4
       0.01180146 6.814383e-05 2.68681e-09 -1.9107502e-07
000060 ed 1e 82 3a eb 1d da b9 55 a2 5e 3c 5e a3 89 b8
       0.000992743 -0.0004160249 0.013588508 -6.5630986e-05
000070 ba d8 2c bc 38 f5 e3 35 3d eb 22 3a b4 f3 27 b2
       -0.0105497185 1.6984186e-06 0.0006214863 -9.776091e-09
000080 88 60 0e 37 91 af a6 3f c4 15 8c 3f 46 43 2a 39
       8.486335e-06 1.3022329 1.0944142 0.00016237525
000090 cc ba e9 39 31 26 7b 32 2d 7b ad bc b4 e8 c4 bb
       0.00044580398 1.4618807e-08 -0.021176899 -0.0060091857
0000a0 25 fd fe bb ae 91 5d b2 51 01 17 3f 95 58 e7 34
       -0.007781642 -1.2897017e-08 0.58986384 4.3091555e-07
0000b0 af 2c 6c 30 b3 6a b3 ae 43 03 82 b0 61 ca a2 39
       8.59198e-10 -8.158931e-11 -9.459672e-10 0.00031049832
0000c0 97 08 16 c0 9c 71 7a 32 3f 5c a1 bb e2 e7 8d b3
       -2.3442743 1.4577747e-08 -0.0049243267 -6.6080034e-08
0000d0 3b ce 22 3b 9e 8c 09 ba a9 05 6f b8 d5 de a8 38
       0.0024842161 -0.0005247089 -5.6987312e-05 8.05237e-05
0000e0 89 8b a9 b5 32 25 79 35 91 4e e0 b9 d8 b7 a6 bd
       -1.2632091e-06 9.2813855e-07 -0.00042783146 -0.08140534
0000f0 ff 47 5f 3a fb cd 38 39 da 46 76 ba b5 f4 a0 2e
       0.0008517503 0.00017624341 -0.0009394713 7.319426e-11
000100 4f 44 fd 31 90 c2 14 b9 65 54 17 36 43 2b eb b8
       7.371035e-09 -0.0001418686 2.2549877e-06 -0.00011213731
000110 8e 28 de 34 fd 1b c6 37 44 cb 36 ba 26 ae 8e b6
       4.138023e-07 2.3616472e-05 -0.0006973038 -4.2522033e-06
000120 a5 f9 c1 b5 8c f4 51 35 1b 3b 96 af de cd cb b9
       -1.4452277e-06 7.821443e-07 -2.7326838e-10 -0.0003887256
000130 21 19 19 ba b2 49 59 41 95 4d e4 35 9d 1d 92 3b
       -0.00058402313 13.580492 1.7009903e-06 0.0044590966
000140 58 72 00 bd 80 8e f3 3b 15 16 e6 38 92 42 f3 3d
       -0.031359047 0.007432759 0.00010971368 0.11877932
000150 87 e9 86 3f bc c7 10 3b 0b 18 aa 37 8a ea 17 b5
       1.0540017 0.0022091707 2.0276775e-05 -5.659318e-07
000160 8c d6 25 b5 1e bb a8 ba 7f 8f ec be 11 48 36 3b
       -6.1779497e-07 -0.0012873148 -0.4620323 0.002781395
000170 19 64 8d ad df db 9d b3 1b 58 b9 b6 f7 cc 91 ba
       -1.6074296e-11 -7.3508765e-08 -5.5236865e-06 -0.0011123706
000180 25 8a 11 33 b4 9c d5 b6 4a 71 30 3a 23 ee 89 be
       3.3886085e-08 -6.3661373e-06 0.00067307486 -0.26939496
000190 dc bc 13 b9 9a 1a e6 38 98 b7 9d 38 aa da ff 3a
       -0.00014089368 0.000109722096 7.5205404e-05 0.0019520123
0001a0 e7 fe 73 bc 82 ff b3 b3 99 df f0 b5 87 1f 42 af
       -0.014892316 -8.3818136e-08 -1.7946469e-06 -1.7655398e-10
0001b0 36 7c 8e 39 47 8a 3f 31 4c b9 34 36 42 87 46 bf
       0.00027176895 2.787276e-09 2.6929947e-06 -0.7755014
0001c0 20 64 27 b2 30 a7 5d 35 35 4c 26 b9 d8 9d 97 35
       -9.743445e-09 8.2572205e-07 -0.00015859383 1.1296315e-06
0001d0 43 e4 af bf 90 8b b0 3c 38 94 6f 31 9b 71 8a 33
       -1.3741535 0.021550924 3.486333e-09 6.4467905e-08
0001e0 86 4d c7 b9 d6 05 d6 bc b9 fa 3a ba d6 6b 48 38
       -0.00038013997 -0.02612583 -0.00071326975 4.7784146e-05
0001f0 79 e7 bf 34 a9 65 12 b4 9e eb 21 b3 7e eb 3d c1
       3.574494e-07 -1.3634293e-07 -3.7700026e-08 -11.869993
000200 72 f4 75 36 30 5a 19 37 3d 25 80 b5 09 05 f8 3c
       3.665013e-06 9.140509e-06 -9.547581e-07 0.030275838
000210 6b ab 80 37 42 97 b1 b9 8b 52 10 3e 11 01 3b 37
       1.5338612e-05 -0.00033872767 0.14093988 1.1146317e-05
000220 f2 b5 18 3a 7d 29 8a b3 73 76 67 36 5d 99 70 b8
       0.0005825452 -6.4336724e-08 3.449063e-06 -5.736329e-05
000230 97 bd dc 31 33 64 97 b5 fd 9c 3d b9 c0 0d db 33
       6.4243966e-09 -1.1279539e-06 -0.00018082927 1.0200483e-07
000240 af c2 ee 38 c3 69 80 38 4a 6c bc bd 11 06 85 bb
       0.00011384987 6.123215e-05 -0.09200342 -0.004059561
000250 55 07 35 bb 0c 50 dc ac b7 c8 3a b8 5d 09 dd b3
       -0.0027622778 -6.261663e-12 -4.4532786e-05 -1.02928176e-07
000260 41 20 ea b5 95 b4 0d 36 2b 52 df b6 23 ae d1 2f
       -1.7443746e-06 2.111575e-06 -6.6554835e-06 3.814061e-10
000270 af 49 ab ae 6d 88 ba 36 e7 f0 04 b2 18 85 4d 38
       -7.7892685e-11 5.559114e-06 -7.738186e-09 4.8999762e-05
000280 e5 28 8b 37 6b b9 75 b4 67 19 71 b8 fc b4 61 3a
       1.6589134e-05 -2.2884858e-07 -5.7482535e-05 0.00086100376
000290 66 8b de b9 1f 05 c0 b8 79 ff 81 35 04 3b cf 40
       -0.00042447 -9.156227e-05 9.685601e-07 6.475954
0002a0 10 43 be b8 0c 74 ee 39 9c ad 8e ba 6c 75 4f 38
       -9.0723974e-05 0.0004548136 -0.001088548 4.9462004e-05
0002b0 2c 08 12 38 35 d9 53 bc 97 e9 15 af 03 6c 3f b9
       3.4816723e-05 -0.012930204 -1.3634459e-10 -0.00018255417
0002c0 42 98 43 b8 82 f3 c9 b1 a0 31 fd 39 10 8c 96 bc
       -4.6633424e-05 -5.8775536e-09 0.00048292894 -0.018377334
0002d0 93 72 b8 37 56 31 58 b5 ff df de 3a 07 ea b6 b4
       2.1987862e-05 -8.0538064e-07 0.0017004012 -3.407042e-07
0002e0 38 24 7b b7 44 b8 58 35 c1 ae 3f b2 05 71 69 33
       -1.4969199e-05 8.073441e-07 -1.1157398e-08 5.435233e-08
0002f0 25 c8 3d b4 02 52 05 bc 19 a8 bb 34 2c 1f 1b b4
       -1.7674809e-07 -0.008137228 3.4953771e-07 -1.444684e-07
000300 65 bc 8a 38 99 4f 24 b6 fb f4 c5 3a 08 30 8d b5
       6.615444e-05 -2.4484236e-06 0.0015102917 -1.0519298e-06
000310 90 01 97 33 d3 b6 d6 3b d3 59 71 b5 38 09 6b b4
       7.03177e-08 0.006552556 -8.991021e-07 -2.1889434e-07
000320 69 c6 21 37 2c 6a b8 b5 e7 6c 99 3a d5 a1 d5 37
       9.642544e-06 -1.3739968e-06 0.0011705429 2.5466938e-05
000330 be 40 41 33 9a 35 36 b5 ce 83 6b bb 72 14 82 3b
       4.4995197e-08 -6.7878284e-07 -0.0035936716 0.0039697224
000340 65 27 0c b8 e0 ce 8b 36 f3 fc bb a9 77 cf 22 ba
       -3.341529e-05 4.1666062e-06 -8.348348e-14 -0.0006210724
000350 7e fa c7 b9 82 d3 c0 3c 5c 13 37 36 2d f6 10 be
       -0.0003814287 0.023538355 2.7280394e-06 -0.14156409
000360 86 5c 8d 2f 21 e4 a9 39 f3 4e 1b b4 fa 5e e0 36
       2.5713492e-10 0.0003240416 -1.4464221e-07 6.686777e-06
000370 e5 b5 c7 ba 15 f5 f3 3b 0a ce 3a 37 57 28 8d 3e
       -0.0015236704 0.0074449875 1.1134436e-05 0.2756984
000380 71 77 0c b5 9f fc be 43 f6 82 9a ae 60 4b 32 3a
       -5.2327874e-07 381.9736 -7.0263725e-11 0.0006801393
000390 3a e2 97 b7 2a 2a 6f 2d 67 d7 98 b8 e9 31 f3 b8
       -1.8105948e-05 1.3594939e-11 -7.2880466e-05 -0.000115964394
0003a0 85 f4 1d b5 79 52 b7 bd 34 1d 8d 35 25 9e 95 38
       -5.884288e-07 -0.08951277 1.0513818e-06 7.1343304e-05
0003b0 c4 f5 d3 b6 70 8d 53 ba 49 41 33 35 67 30 4e 3c
       -6.316901e-06 -0.0008070087 6.67777e-07 0.012584782
0003c0 c0 36 de b9 90 7c b9 38 c5 bb 71 b1 47 f0 8f b7
       -0.00042383932 8.844689e-05 -3.517685e-09 -1.7158816e-05
0003d0 3d 24 01 b2 9d 44 9a 35 f3 ff b1 b7 bb d9 ff b9
       -7.517028e-09 1.1493863e-06 -2.121923e-05 -0.00048799612
0003e0 fd 2f 44 38 37 29 b4 2e 67 8c c0 35 d2 3f 11 af
       4.6774734e-05 8.1927735e-11 1.4345977e-06 -1.3210347e-10
0003f0 44 8b 0a bb c7 5a d7 b6 3c cf fc ae 28 c3 2f 30
       -0.0021140138 -6.418067e-06 -1.14964455e-10 6.3941963e-10

add_tensors f4 [1, 97]
000000 f8 8c 99 b7 b8 5f ae 35 10 3e 8c 36 04 5f f1 3d
       -1.8304665e-05 1.2991868e-06 4.17955e-06 0.11785701
000010 14 81 7a 35 97 88 7c bb 0e 39 2b b8 2e ec 3b b6
       9.332009e-07 -0.0038533562 -4.0822713e-05 -2.8002646e-06
000020 18 6f 43 3a d1 41 49 af da 40 08 b6 5c a4 79 3c
       0.0007455214 -1.8304226e-10 -2.0303328e-06 0.01523694
000030 0d 61 87 b9 98 b2 2d b2 da 97 f0 3a c1 4e 88 b0
       -0.00025821515 -1.0110533e-08 0.0018355802 -9.917686e-10
000040 6e 0d d3 bf 27 d2 d0 38 c9 1f 14 34 96 b9 02 b3
       -1.6488473 9.957357e-05 1.3795137e-07 -3.0436773e-08
000050 dd f3 72 3e 14 6b 17 b6 ec f8 8b 36 ee f4 ec 3a
       0.23725839 -2.256308e-06 4.171501e-06 0.0018078366
000060 15 5b ba 3a 7f 38 a9 36 df eb 0c b7 f0 37 24 3e
       0.0014217818 5.0431695e-06 -8.399568e-06 0.16036963
000070 05 1b d5 b8 45 7c 44 b2 ea e0 dd b8 31 32 17 b8
       -0.00010161664 -1.1436957e-08 -0.00010579995 -3.604795e-05
000080 36 48 5c 40 4e ae a5 bb e9 48 c9 b7 dc ee 5e 3a
       3.4419074 -0.005056179 -2.3995019e-05 0.0008504221
000090 ee f5 93 b5 f4 d1 28 31 6a f8 01 35 05 a3 81 b6
       -1.1023928e-06 2.4566562e-09 4.8417735e-07 -3.8634776e-06
0000a0 a5 3e 10 b1 b3 4f 52 39 f9 ce 13 b5 2e e0 d2 b2
       -2.0990367e-09 0.00020056851 -5.506295e-07 -2.4549163e-08
0000b0 79 d8 bd b7 91 cd 05 38 ec c9 29 b1 bc 9d b1 38
       -2.2631359e-05 3.190112e-05 -2.4707516e-09 8.469398e-05
0000c0 62 18 22 3a a0 d8 2b 3d 18 06 74 bc b0 5a 07 bb
       0.0006183443 0.041954637 -0.014894031 -0.002065342
0000d0 1c dc 12 36 2e de 7a b6 7d 89 a6 b4 e3 58 8d b9
       2.1883816e-06 -3.7382229e-06 -3.1019945e-07 -0.00026959841
0000e0 24 3c 06 bc 36 e5 38 b1 b9 8c 37 b9 80 b1 df 3b
       -0.00819305 -2.6905815e-09 -0.00017504663 0.0068265796
0000f0 11 a2 e6 2b 25 ff d7 b3 42 0f 0b 37 f1 93 e6 37
       1.6387465e-12 -1.0058128e-07 8.288598e-06 2.7487027e-05
000100 ea 2d 7f 3a 95 e2 1b bb 7f 8c 6b 3f 59 3f 99 38
       0.000973432 -0.0023786176 0.92011255 7.307408e-05
000110 19 c1 0d 3d ec f9 60 b6 f3 0d 59 b5 e2 f3 4a 37
       0.03460798 -3.3524075e-06 -8.08591e-07 1.2096922e-05
000120 76 a9 95 b3 20 d2 11 b5 a4 aa 9f 35 2f e5 c4 bb
       -6.969178e-08 -5.432248e-07 1.1896086e-06 -0.006008766
000130 63 a7 20 c0 6c fe 0c 36 08 fd 15 36 c3 58 b3 36
       -2.5102165 2.1009719e-06 2.2350014e-06 5.344949e-06
000140 4e fe c3 b8 4a f6 5f 38 6b 0d 23 31 ff f7 bf 39
       -9.3456925e-05 5.3396718e-05 2.372725e-09 0.0003661513
000150 0f fe 08 bf 35 d9 9d b6 eb 58 01 34 7a 66 f6 39
       -0.5351266 -4.704251e-06 1.204641e-07 0.00046997127
000160 ac c0 64 38 06 ec b4 b1 e9 93 83 b1 55 ac af bf
       5.4538876e-05 -5.2655222e-09 -3.8294172e-09 -1.3724467
000170 d0 a1 83 b5 78 17 17 3a c0 f5 fd b9 0b 73 ac 35
       -9.807354e-07 0.000576369 -0.00048439018 1.284848e-06
000180 35 40 40 b0
       -6.9940437e-10
