ReLU_hardest/TorchSaves/Last_Gen998.pt (torch_old, 92843 bytes, 9 tensors)

weight f4 [97, 6]
000000 98 84 42 3f f2 b4 69 ba 23 35 91 3a 82 8b d8 3e
       0.7598357 -0.00089152076 0.0011078458 0.42293936
000010 fa a5 8c 3b d2 53 ee 3e 36 b4 ff b8 c6 33 7c 39
       0.004292247 0.46548325 -0.000121929144 0.0002405188
000020 68 77 1d b9 24 79 ae 38 ae 88 e5 bb d7 29 5f 36
       -0.00015017169 8.319531e-05 -0.007004819 3.3253943e-06
000030 3a 0c 64 bb e0 0d be b5 20 ad 36 2b f2 63 58 b5
       -0.0034797327 -1.4160141e-06 6.489965e-13 -8.061171e-07
000040 c0 0a 57 b7 44 97 fa 3c 7b 06 09 38 a0 a5 24 35
       -1.2817502e-05 0.030589707 3.266938e-05 6.1335777e-07
000050 64 87 13 3d 30 5f 73 b0 52 cf 6e bc 23 cf 12 b6
       0.03601779 -8.8538155e-10 -0.014575796 -2.1876265e-06
000060 a4 d0 0d b5 b0 bd 6e b6 32 05 02 be 1a fa de 3f
       -5.2830205e-07 -3.5575176e-06 -0.12697294 1.7420075
000070 ef 73 a3 34 44 a7 c4 2e 9e c9 00 bc ea 03 83 36
       3.044547e-07 8.9427604e-11 -0.007860569 3.90456e-06
000080 f8 13 f7 b7 0c 5c 37 b7 8c d8 a4 3b 2b cd 2d b9
       -2.9453993e-05 -1.0929081e-05 0.005030697 -0.00016574997
000090 40 d8 5b 3e 7b 18 33 b8 a5 c5 09 36 c6 aa e6 37
       0.21469212 -4.2699725e-05 2.0529635e-06 2.749766e-05
0000a0 33 9d de b5 1f a2 a6 3b f4 0a 38 b8 7a 42 54 40
       -1.658604e-06 0.0050852443 -4.387922e-05 3.3165574
0000b0 9e 3c 15 b5 14 43 e2 be 16 7d bf 3f 8d b3 a6 b8
       -5.5595035e-07 -0.44191802 1.4960048 -7.948941e-05
0000c0 d8 79 ff 3f dc 69 66 be ba 61 3c 38 7a bf c8 39
       1.9959059 -0.2250132 4.4913708e-05 0.00038289634
0000d0 9d a2 19 39 3e 17 2b b0 d9 8b e8 38 d2 b5 99 35
       0.00014651795 -6.2242467e-10 0.00011088671 1.1452305e-06
0000e0 1d 7f 1d b2 4c 87 91 ae 5e da 64 be 9b f3 21 3c
       -9.167505e-09 -6.61787e-11 -0.22348925 0.00988474
0000f0 8b 6e 7c b8 83 33 53 ac 86 56 47 bc 27 11 0b 37
       -6.0184433e-05 -3.0013498e-12 -0.012166625 8.289039e-06
000100 00 94 f2 b9 c5 a2 0f 37 e8 5a 61 b8 36 ff 94 b4
       -0.00046268106 8.561362e-06 -5.3728843e-05 -2.775284e-07
000110 00 01 bf bd 36 16 0d 39 28 3f 9a 41 92 a3 4c bc
       -0.093263626 0.00013455082 19.280838 -0.01249017
000120 18 4e 20 ba a8 1d b2 36 56 a4 bb 39 a2 7e aa 3c
       -0.00061151525 5.308266e-06 0.0003578986 0.020812336
000130 ea 93 ca 3e ec 7d e8 b6 36 18 56 3d e0 20 84 3a
       0.39565974 -6.928798e-06 0.052269183 0.0010080598
000140 e8 4d 0a 39 71 65 87 39 89 2b 83 37 d0 1b be ba
       0.00013189728 0.00025824786 1.563669e-05 -0.0014504138
000150 d6 3d 92 b9 6a 37 b9 2d 40 ea a0 b4 7e 85 84 b9
       -0.0002789336 2.1056674e-11 -2.9972762e-07 -0.0002527646
000160 28 39 88 c0 d5 02 03 3f a2 b3 5b bb 4a 7d e1 3f
       -4.256977 0.51176196 -0.0033523818 1.761636
000170 12 7b 6d b4 5a 16 17 b2 7c 9b 6c bf 16 0e b2 bd
       -2.2117118e-07 -8.794439e-09 -0.9242475 -0.08694093
000180 a1 30 6e b3 ca 52 5a bb 1c 00 22 38 2d 54 eb b8
       -5.545792e-08 -0.0033313506 3.862391e-05 -0.00011221352
000190 1e 67 98 bf b4 9a 3c bf 22 03 dc 38 f3 e1 26 b8
       -1.1906469 -0.7367356 0.00010491001 -3.9787916e-05
0001a0 b2 88 e9 3e ce 62 8b 37 e2 53 2a 3d e7 a9 cc b6
       0.45612103 1.66161e-05 0.041583903 -6.099453e-06
0001b0 62 8f d8 3c a5 0b 99 33 56 10 f1 3c 4d 3e ce b9
       0.026435558 7.126736e-08 0.029426735 -0.000393378
0001c0 90 3e c9 36 ef 2e f3 36 90 26 65 b6 db 40 8c 39
       5.99755e-06 7.247428e-06 -3.4146105e-06 0.00026751202
0001d0 db 32 4e 3a de e3 c9 2e 20 00 53 34 e9 ae 0e 39
       0.00078658544 9.180899e-11 1.9650952e-07 0.00013607334
0001e0 f4 92 81 bc d0 1e 6e af d8 6a 36 43 86 a5 a6 bd
       -0.015817143 -2.1656921e-10 182.41736 -0.0813704
0001f0 be 9b 02 37 e0 9b 55 42 1a bf ec 38 58 6d 36 bb
       7.784865e-06 53.40222 0.000112889524 -0.002783617
000200 0a 62 58 bf 25 c6 26 b7 7e 40 ec b9 71 d5 0a 3e
       -0.84524596 -9.940505e-06 -0.00045061478 0.13557984
000210 b6 1f c5 bb 0e 11 15 3b c0 b8 84 3c 94 4f 05 38
       -0.006015743 0.002274576 0.016201377 3.1783784e-05
000220 f2 94 14 36 ab e2 67 3e 63 14 02 c2 ac e0 bc b4
       2.2140416e-06 0.2264506 -32.51991 -3.51812e-07
000230 0a 91 ed 2f b3 95 30 37 ad fe 0c 3b ba ec b4 b7
       4.3213105e-10 1.0525272e-05 0.0021514103 -2.1567907e-05
000240 73 d9 16 3b 02 13 2a 3d 0c b7 31 35 28 15 b5 b8
       0.0023017793 0.041522034 6.6204007e-07 -8.634693e-05
000250 b5 83 8e bd 46 6e 77 38 ac 74 8d 3a b3 95 bd bb
       -0.06958715 5.899209e-05 0.0010792217 -0.005785668
000260 ea 3d cf 3c 50 4c 8a 3a 93 85 21 40 4e 67 0d b7
       0.025298078 0.0010551307 2.5237777 -8.428307e-06
000270 e7 07 21 ba 28 cd 76 38 a8 e6 c6 40 a3 c5 6a 37
       -0.000614284 5.8842037e-05 6.2156563 1.3993503e-05
000280 d6 05 5e 3e f2 6e 5d 3c 6c 20 8d c2 b7 f9 b7 bd
       0.21681914 0.013515221 -70.563324 -0.08983176
000290 86 38 a3 38 ea 3f 32 3e 60 dc 0f b2 a8 f7 50 3a
       7.782974e-05 0.17407194 -8.373803e-09 0.0007971474
0002a0 ac ea d1 36 50 f2 ea 33 f8 42 7d 32 f1 af b8 b8
       6.256005e-06 1.09405505e-07 1.4741765e-08 -8.806575e-05
0002b0 8c b7 9c 38 e6 4c 4f 3c b1 95 43 3a e7 67 fa b8
       7.472848e-05 0.012652611 0.00074609654 -0.00011940282
0002c0 72 68 48 b6 3c 36 78 2d 14 fa f2 3a 4b 3a af 38
       -2.9863118e-06 1.410921e-11 0.0018537664 8.355508e-05
0002d0 cb ec 8b b4 91 bb 1e 35 2f b3 1e 35 52 89 8e be
       -2.6063057e-07 5.913253e-07 5.9120333e-07 -0.27839142
0002e0 44 a7 84 ac 0c 95 06 bb 61 88 8f bb f4 39 fd b6
       -3.770236e-12 -0.0020535616 -0.0043802713 -7.546734e-06
0002f0 20 07 2c b8 34 22 07 3c ee 7e b9 3d 0e 82 1e b3
       -4.101463e-05 0.008247901 0.09057413 -3.6905526e-08
000300 2a 40 23 bd e1 a8 be ba c4 01 22 3c 84 ef 5a 32
       -0.039856113 -0.001454618 0.009888116 1.274373e-08
000310 00 fa dc 37 a3 da 56 b7 90 12 05 38 5e 6e 7a b8
       2.6342459e-05 -1.2806299e-05 3.172696e-05 -5.9707432e-05
000320 b3 1c 89 36 58 55 a2 37 aa 0e ba 37 ca fb 72 3f
       4.086259e-06 1.9351646e-05 2.2179756e-05 0.9491545
000330 a2 35 9f 40 c6 5a d4 bd b4 35 f1 b8 2e fc 77 bd
       4.975297 -0.10368876 -0.000115017785 -0.06054323
000340 72 1d 9f 3c c6 b7 de b8 06 d9 5d b6 ca f2 fb b7
       0.01942322 -0.000106200154 -3.305789e-06 -3.003459e-05
000350 c0 6e 45 3c 3e e1 8a bb c0 a2 69 b9 3e c0 f7 3b
       0.012050331 -0.0042382767 -0.0002228124 0.007560759
000360 32 97 4d b3 30 62 b2 ba 73 1b 6c b4 a0 d3 8a 31
       -4.7867793e-08 -0.0013609584 -2.1989199e-07 4.0403876e-09
000370 5e 6c 40 3e d9 35 c8 3a a0 e8 62 b3 f2 e7 bf 3b
       0.18791339 0.0015274837 -5.2831297e-08 0.0058565075
000380 60 29 9e ba 8c e1 3e 44 30 39 a5 be 40 77 a0 bd
       -0.0012066774 763.5242 -0.32270193 -0.07835245
000390 15 15 7c bb e3 a2 5d b8 70 a2 9a 3a 48 3b 5f 37
       -0.0038464714 -5.2842206e-05 0.0011797678 1.3305638e-05
0003a0 c0 89 b0 3a 28 fe f4 b6 09 f6 e0 bc a1 d8 8e b9
       0.0013468787 -7.3013543e-06 -0.027461069 -0.00027245752
0003b0 28 a5 06 b7 f3 c9 08 3a 82 00 6a b3 f8 e6 57 ba
       -8.025476e-06 0.0005218081 -5.4482832e-08 -0.0008236016
0003c0 25 9b 64 3f be 62 97 bc 22 1a 96 3a 48 2a f6 39
       0.8929923 -0.018479701 0.001145188 0.00046952278
0003d0 b4 29 46 be ec 98 04 b9 5c f7 50 3f 54 77 00 c1
       -0.19351846 -0.00012645469 0.8162744 -8.029133
0003e0 14 06 a3 be 57 4f e6 b3 f7 9d 52 34 5c 71 9c bd
       -0.31840575 -1.07246414e-07 1.9615241e-07 -0.07638809
0003f0 4a 8c 99 38 a0 2b d2 b8 48 61 1f 3a 2f b7 9e 3d
       7.3217394e-05 -0.00010021706 0.00060798647 0.07749783

bias f4 [97]
000000 d6 75 32 be db 1a 84 c1 d7 68 62 b8 ab 75 f3 b8
       -0.17427763 -16.513113 -5.398024e-05 -0.0001160906
000010 9c 2f 4c b3 0a 65 a5 3a ac 8e 02 b4 e4 ae 1c c1
       -4.7540752e-08 0.0012618613 -1.2159097e-07 -9.792698
000020 76 b3 05 3f fa 4f 35 bf fe 8f 83 3a 0d 2c 5e 3c
       0.5222696 -0.7082516 0.001003742 0.013560307
000030 e0 ae 9f b6 f0 cb c1 3b e4 39 e4 34 75 24 8c 42
       -4.7589274e-06 0.005914204 4.251043e-07 70.071205
000040 4a b5 3c bb 74 f5 ce 33 6e 14 1f 36 ea 29 98 c2
       -0.002879458 9.63727e-08 2.3704738e-06 -76.08186
000050 31 f6 cf b5 3c d3 a1 3e c8 52 3e 36 64 79 8b 37
       -1.5494353e-06 0.31606472 2.8360391e-06 1.6626618e-05
000060 40 18 17 bc 1b 49 36 b7 5c 23 e9 bb 5e 47 34 3a
       -0.00922209 -1.08650665e-05 -0.007114811 0.00068770896
000070 d6 35 0d 39 a6 df 42 2e c3 b5 b0 38 ba 71 2d 3c
       0.00013466863 4.4309133e-11 8.42619e-05 0.010586197
000080 ea ab fc 3c b8 31 b4 bd 2b 1e 93 b7 cc 0c 30 3f
       0.030843694 -0.087985456 -1.7537814e-05 0.68769526
000090 c2 0b 34 36 14 25 ec 34 52 e2 5c b7 f0 b4 d9 33
       2.6828934e-06 4.3985403e-07 -1.3165716e-05 1.0137762e-07
0000a0 12 a4 a0 ba 76 21 34 b4 a6 f9 d3 be b4 bf e8 40
       -0.0012255928 -1.677598e-07 -0.41401404 7.2734013
0000b0 c2 7b 25 35 b2 f8 b0 36 76 2c d4 38 21 25 2b 3d
       6.164738e-07 5.2741607e-06 0.00010117229 0.041783456
0000c0 6b 8a 68 37 98 29 05 b7 2c aa 86 33 ac de 19 c2
       1.38605055e-05 -7.937102e-06 6.270815e-08 -38.467453
0000d0 50 93 54 39 af 2b ad 37 3e 8c 28 3a de c1 a3 34
       0.00020272774 2.0643549e-05 0.0006429589 3.0502173e-07
0000e0 00 6e f4 b9 e5 99 65 bd a8 d4 09 34 e5 52 e4 bb
       -0.00046621263 -0.05605497 1.2836483e-07 -0.0069678896
0000f0 0c b5 22 3e 10 07 12 3d b9 98 58 b1 17 4a 79 31
       0.15889376 0.035651267 -3.151895e-09 3.6276384e-09
000100 10 a2 65 b7 70 a2 be 3d 3e bd d7 c0 d4 7b b8 38
       -1.3687197e-05 0.09308326 -6.741851 8.7968685e-05
000110 5c 64 92 b8 c4 52 28 b5 60 b9 05 be 8a f7 f3 b3
       -6.980516e-05 -6.2705317e-07 -0.13058996 -1.13605964e-07
000120 a2 15 26 c1 b4 96 0d ba 1e f0 ae 37 18 65 27 b8
       -10.380281 -0.00054011797 2.085423e-05 -3.9910054e-05
000130 00 fa 4e be 09 9d 94 bc 06 9e b4 3c b4 b4 c6 bc
       -0.20212555 -0.018141286 0.022048008 -0.024256088
000140 2c 4f 17 b9 60 68 a7 33 ee 29 a6 33 f5 77 ec b7
       -0.00014429976 7.795529e-08 7.737604e-08 -2.8189252e-05
000150 f1 24 3e b1 0e e4 87 3e ca d2 a1 36 8e 39 e7 bb
       -2.7669638e-09 0.2654118 4.822713e-06 -0.0070564216
000160 08 ea 5b 33 a0 19 f8 b7 a0 0c cd 3a 54 95 74 37
       5.120276e-08 -2.9575836e-05 0.0015644021 1.45783015e-05
000170 b5 1f 26 3e e3 9b 71 2f 70 fe f6 3e a7 a6 a0 c0
       0.16223033 2.1974204e-10 0.48240995 -5.0203433
000180 48 82 bf 3b
       0.005844388

weight f4 [97, 97]
000000 7a 47 7c bb d5 8b 29 b8 16 f8 a2 be 8c 17 b9 bb
       -0.0038494752 -4.042297e-05 -0.318299 -0.005648559
000010 70 d9 41 b1 33 27 cb 3c 15 51 a4 b9 9c c6 df bb
       -2.8208795e-09 0.024798965 -0.00031340928 -0.006829096
000020 4a 08 b9 3b c9 9a 85 35 d8 6d 4b b8 26 6c 91 bd
       0.00564674 9.954321e-07 -4.850127e-05 -0.07100706
000030 64 c5 31 b6 52 e7 f9 b7 eb 28 80 37 68 35 ba bf
       -2.6489952e-06 -2.979083e-05 1.5277843e-05 -1.4547548
000040 84 60 8c 39 14 1b 0b ba 60 71 ee 3a 05 86 c2 b0
       0.0002677479 -0.0005306464 0.0018191747 -1.4153448e-09
000050 10 d0 a6 32 54 34 05 b9 1e ae 51 b5 40 12 83 36
       1.941956e-08 -0.00012703362 -7.811194e-07 3.906229e-06
000060 93 73 4a 3c 56 ed 4c b7 e8 28 3f bc e8 56 b3 3a
       0.012356657 -1.2214607e-05 -0.011667468 0.0013682516
000070 de 1e 67 bb 04 a3 fb 37 ae c5 5e b9 d4 a9 66 34
       -0.00352662 2.9997442e-05 -0.00021245211 2.1482202e-07
000080 f7 65 73 b7 22 51 a9 c1 4c 2c 8c be 16 6b 3f 3c
       -1.4507669e-05 -21.164616 -0.27377546 0.011683246
000090 58 7f 23 b7 15 da 6f 35 7c 25 8b 40 26 de 15 bd
       -9.745207e-06 8.935179e-07 4.3483257 -0.03658881
0000a0 42 7b 6a 3c 26 4e 07 36 9e 0e 47 be 1c f6 11 b6
       0.0143116135 2.0162056e-06 -0.1943917 -2.1749938e-06
0000b0 28 de 7a b5 1c c5 f4 b1 fe 59 ec ba 9a bb ba 3e
       -9.345554e-07 -7.1237434e-09 -0.0018032191 0.36471254
0000c0 69 0f 25 40 e6 6d 3b b4 18 1f c0 ba 1a 6c 45 b5
       2.5790656 -1.7455713e-07 -0.0014657704 -7.354553e-07
0000d0 99 fd 3c be 82 d4 94 33 07 a6 de 36 ba 3c 90 35
       -0.18456115 6.930442e-08 6.6354437e-06 1.074651e-06
0000e0 50 86 80 37 14 e7 d2 ba 34 49 e8 38 3c 98 8d bc
       1.5321333e-05 -0.0016090595 0.00011076257 -0.017284505
0000f0 66 c5 37 b7 7e 4e 11 40 24 f3 af b4 80 b5 03 af
       -1.095361e-05 2.2704158 -3.2773198e-07 -1.1978862e-10
000100 18 d6 19 b3 b0 d8 4b 38 69 77 1b b3 f0 1a 6b ba
       -3.5817806e-08 4.8600778e-05 -3.6197353e-08 -0.00089685526
000110 58 86 20 b2 a6 78 82 bc 46 f8 84 b7 4c 80 d2 38
       -9.343772e-09 -0.01592667 -1.5851238e-05 0.000100374775
000120 86 8e 4e 33 20 61 00 b5 f4 4c 5c 33 8e 56 b5 bc
       4.8092737e-08 -4.782505e-07 5.129273e-08 -0.022135999
000130 ad e5 30 ba e8 29 89 3c b7 31 41 b9 a0 e5 d7 3b
       -0.00067480915 0.016743615 -0.00018424435 0.0065886527
000140 46 1a 6a bc 95 44 f6 3a cf c6 7e 38 6a 57 1c bb
       -0.014288491 0.001878875 6.0743474e-05 -0.0023855814
000150 3f 97 9b 40 50 ba 16 3c 7f 94 b6 be 48 1b 67 ba
       4.8622127 0.009199694 -0.3566017 -0.0008816016
000160 ec da 10 b8 b1 ae 40 b7 8a 39 e0 3f fa b3 ef b7
       -3.4536162e-05 -1.1484765e-05 1.751756 -2.8574828e-05
000170 3c 37 fb af e0 09 44 32 d8 ce 3b b9 61 4e 85 3b
       -4.569588e-10 1.1410947e-08 -0.00017910765 0.0040681814
000180 5a 5d 2e 32 47 81 68 b4 b4 13 c6 3c ce 36 90 34
       1.0149359e-08 -2.1653715e-07 0.024179317 2.6861966e-07
000190 d3 b7 84 3e 74 ec d6 38 f6 6f 1b 35 35 17 1f 3b
       0.25921497 0.00010248358 5.7904924e-07 0.0024275307
0001a0 6a 72 92 40 fd 3c 81 b4 b6 a8 5c b3 0a 38 46 b3
       4.5764666 -2.4072497e-07 -5.1376183e-08 -4.6151435e-08
0001b0 74 d8 8b ba 80 80 d8 32 a5 45 be bc b8 7d 18 be
       -0.0010669366 2.5204145e-08 -0.023226568 -0.14891708
0001c0 e5 ac 8a 3b 07 18 df 33 47 3e 55 38 40 54 0c b8
       0.0042320364 1.0388617e-07 5.0841158e-05 -3.3457065e-05
0001d0 45 fb 96 38 a0 1d 02 3b 56 9b 49 b8 1e 59 16 3e
       7.19936e-05 0.0019854084 -4.8066802e-05 0.14682433
0001e0 00 d2 59 bb 28 ac 15 be 20 bd 08 ba f9 00 e3 b5
       -0.0033236742 -0.14616454 -0.000521617 -1.6913101e-06
0001f0 ac 88 be b1 10 21 51 b3 18 48 93 b3 31 cc b4 bc
       -5.5452656e-09 -4.8691675e-08 -6.858335e-08 -0.022070022
000200 e0 93 bd 34 cf fc 05 3e 44 04 e8 b5 80 4b e3 42
       3.5311587e-07 0.1308472 -1.7286588e-06 113.64746
000210 13 78 19 3a fb ca 1b b5 c9 47 ad c0 36 9a 4f b1
       0.0005854379 -5.8037375e-07 -5.415013 -3.0210123e-09
000220 c0 d0 b5 34 c0 dd 51 bc 88 0f 60 bb 70 1d 8c 35
       3.3865763e-07 -0.012809217 -0.0034188945 1.043938e-06
000230 b6 49 50 b5 70 0c 32 bb c8 06 ac 39 5a 76 8a b3
       -7.75933e-07 -0.0027168058 0.0003281145 -6.447654e-08
000240 ad 4d 0c 3e 92 a7 14 b9 37 3f 14 39 fe 84 a1 ba
       0.13701506 -0.00014176805 0.00014137929 -0.001232296
000250 d9 4c 48 bc 71 51 28 b4 42 b3 3f ba 29 ac c5 35
       -0.012225353 -1.5675847e-07 -0.0007312783 1.4727749e-06
000260 ea 9e 52 3a 9c b8 b3 b1 62 04 99 35 78 e5 97 b4
       0.00080345443 -5.2305733e-09 1.1400664e-06 -2.8292902e-07
000270 12 c7 29 36 44 ee 2b 37 f0 2a ed 38 dc 81 cb 36
       2.5298837e-06 1.024787e-05 0.000113090384 6.064989e-06
000280 00 46 60 b7 e4 d4 d3 34 55 81 b0 b1 10 97 8f ba
       -1.3367739e-05 3.945671e-07 -5.1369775e-09 -0.0010955054
000290 14 3e 73 3e 16 d7 c7 bd ea 4a d1 36 dd d9 16 bf
       0.2375415 -0.09757821 6.2374065e-06 -0.58926183
0002a0 69 8a 6b bf e2 0d 5e bc e4 14 51 3b b8 d2 23 b3
       -0.9200807 -0.013553115 0.003190332 -3.8143043e-08
0002b0 80 02 e0 b7 be d0 52 b6 0e b1 44 2d 00 64 a1 36
       -2.6704045e-05 -3.1413942e-06 1.1180624e-11 4.8098154e-06
0002c0 20 9e 75 bb 40 a6 f3 2f 15 7a 92 b3 ed 14 82 b8
       -0.0037478283 4.431957e-10 -6.8208614e-08 -6.202781e-05
0002d0 0c 83 4a 37 78 7a 7d b3 44 86 0c bd 30 d2 f8 b9
       1.207065e-05 -5.9017538e-08 -0.034307733 -0.00047458848
0002e0 df dd 8e 3b 54 16 ab 3b 40 c2 6a b7 a5 66 4d b4
       0.004359945 0.0052211676 -1.3992714e-05 -1.9129455e-07
0002f0 48 6a aa b3 cb e3 0e c0 d1 f9 83 ba 13 90 2a 38
       -7.935574e-08 -2.2326534 -0.0010068958 4.0665338e-05
000300 f4 a9 05 b0 48 27 62 b9 30 c1 b7 37 9e 6b a7 32
       -4.8626636e-10 -0.00021567673 2.190526e-05 1.9490297e-08
000310 5a b4 50 37 bd fd e2 bb f6 6c 2c bb 34 9c eb b8
       1.24397575e-05 -0.0069272206 -0.0026310063 -0.00011234768
000320 23 cf 9b 35 bd c8 b2 b5 fe a8 91 3a 9f 4a 36 b7
       1.1608685e-06 -1.3320456e-06 0.0011112986 -1.0865419e-05
000330 5e ca 10 b3 c0 7e 56 37 cf b4 ce b8 26 06 8f be
       -3.3711665e-08 1.2784905e-05 -9.856524e-05 -0.27934378
000340 7f a2 91 37 cc 2b 8f 38 84 ba 80 ab 8e ac 02 bc
       1.7361015e-05 6.826929e-05 -9.146716e-13 -0.007975711
000350 46 1b c6 b7 af a2 6d 3d 5e 79 33 38 dc 56 5e 3d
       -2.361614e-05 0.058016475 4.2789958e-05 0.054282054
000360 e8 b5 d4 33 44 95 de 37 2a 62 aa be b3 0f 1a b6
       9.905108e-08 2.653397e-05 -0.33278018 -2.2956926e-06
000370 b8 5f 6a bb 7b 31 a8 3f f2 47 68 33 a8 dd e7 bd
       -0.003576262 1.31401 5.4082143e-08 -0.113215744
000380 b4 d9 fd b9 04 33 d0 41 c8 fd f3 2d 74 da 04 3a
       -0.00048418122 26.02491 2.7738603e-11 0.00050679524
000390 d0 31 04 bc d8 a5 b3 b1 a3 d1 15 35 e6 50 12 b7
       -0.008068517 -5.22844e-09 5.5811887e-07 -8.721114e-06
0003a0 88 f2 99 b9 e5 d2 86 3b b9 c9 7d 39 92 80 8b b9
       -0.00029363134 0.004114496 0.00024203108 -0.00026607938
0003b0 41 96 88 3c b7 b9 f1 bb b3 65 a5 3d 3a f7 18 bd
       0.01667321 -0.0073768753 0.08076038 -0.03734515
0003c0 9a 7e ee 3a 55 60 bc 3c 10 a8 ad b6 6c 9f ef 38
       0.0018195689 0.022995153 -5.175367e-06 0.00011426103
0003d0 d6 38 e5 af 4c d4 cf 39 1d e2 3d b9 34 fe 45 bc
       -4.1695242e-10 0.0003964029 -0.00018108678 -0.0120845325
0003e0 fa 77 50 b5 41 ca 52 2d b8 d3 e5 36 7d 8c 84 33
       -7.7660627e-07 1.1982027e-11 6.849379e-06 6.172284e-08
0003f0 1c 4d 98 36 d2 a2 88 b5 04 9b 1e 37 d0 16 84 30
       4.5389297e-06 -1.0180177e-06 9.453626e-06 9.610748e-10

bias f4 [97]
000000 f8 0e ac 2d ab 73 55 38 b8 08 ca 3c 7c b6 7a bb
       1.9560784e-11 5.089088e-05 0.02466236 -0.0038255742
000010 9b 24 a6 33 76 9b 9c b5 40 a6 d5 b5 5a 2c 05 3e
       7.736636e-08 -1.1668151e-06 -1.5918122e-06 0.130052
000020 de c8 8e 39 a0 f8 16 3c 29 c3 67 38 ec 26 1b 39
       0.00027234008 0.00921455 5.525645e-05 0.00014796451
000030 28 9a 6b bd 20 8d d4 a9 90 cf 7d 36 68 b3 b7 b7
       -0.05752006 -9.4391725e-14 3.7820755e-06 -2.1898843e-05
000040 32 ae f0 39 40 15 4e 3e 07 2f 1f b6 61 e8 38 bd
       0.00045906153 0.20125294 -2.372022e-06 -0.04514349
000050 55 b2 c5 b7 94 48 1f 36 e0 a8 c9 b0 84 6d 85 3e
       -2.3567272e-05 2.3735092e-06 -1.4672672e-09 0.26060116
000060 a0 75 4b 3a 21 d6 9b bd fc 95 e1 b4 26 e4 ba 3a
       0.0007761363 -0.07609201 -4.2018644e-07 0.0014258667
000070 2a 2d 26 35 e8 8d 59 b8 08 b8 08 3a 0f 5b ac b9
       6.190554e-07 -5.1868992e-05 0.0005215411 -0.0003287424
000080 bd 38 0d 3e df 4f 75 3a 74 4e 7c 36 35 20 ae bc
       0.13791175 0.000935791 3.7596592e-06 -0.021255592
000090 80 36 fb 31 ae d5 41 2f a3 60 f3 b9 c8 c4 33 c1
       7.3112574e-09 1.7629162e-10 -0.00046420572 -11.235542
0000a0 88 b7 99 27 ea 40 45 b1 fc b8 13 c3 da 7c 42 3a
       4.2665016e-15 -2.8704172e-09 -147.7226 0.0007419117
0000b0 20 de d8 bc 92 cb 37 3a 10 b9 51 ba 4c f3 94 34
       -0.026473105 0.00070112303 -0.0008000294 2.774417e-07
0000c0 92 f8 29 39 ec 3e b7 3d bb 57 ae b7 00 7b 6e 39
       0.00016209696 0.08947548 -2.0783269e-05 0.0002274327
0000d0 d2 c4 5c 3b 7b 41 21 b9 10 d9 0f b9 75 9a 10 c0
       0.003368665 -0.0001537855 -0.00013718405 -2.2594273
0000e0 5e da 42 b9 65 78 0e b2 e0 7d bb b9 58 70 6c 3f
       -0.0001858263 -8.292862e-09 -0.00035761204 0.9235892
0000f0 c4 e5 30 bd 76 34 06 ba 42 54 11 32 40 b9 32 b4
       -0.04318787 -0.00051195116 8.459269e-09 -1.6644935e-07
000100 e0 70 bd 31 ce 49 3c 39 4c 04 02 3b f9 cd c5 39
       5.5134564e-09 0.00017956572 0.0019838987 0.0003772823
000110 d6 9e 17 b7 ff 91 ca 3b b5 cb 83 35 49 87 41 3c
       -9.037283e-06 0.006181955 9.819547e-07 0.01181204
000120 fa f8 ac b6 25 8a e7 ba 5c 2b 43 be 66 52 cc b7
       -5.154984e-06 -0.0017665072 -0.19059509 -2.4357065e-05
000130 9c 5d 24 39 df 29 5e bc c6 56 77 b4 64 1e 6a b7
       0.00015675131 -0.0135597875 -2.3035236e-07 -1.3954563e-05
000140 2b 0e 6e b4 80 b9 55 3b c0 19 45 37 54 f0 77 3c
       -2.2170632e-07 0.0032611787 1.174811e-05 0.015132982
000150 b8 78 37 b8 42 92 c0 b7 f6 b6 b2 ba c0 77 59 b9
       -4.3743028e-05 -2.295629e-05 -0.0013634849 -0.00020739343
000160 a5 0d 40 30 ef 89 90 ad 5f fc 32 3e 42 ff 15 39
       6.9868583e-10 -1.643216e-11 0.17479084 0.00014304838
000170 50 f5 ec bd a3 6f 4b 38 f8 6d 83 36 a0 2c 89 b7
       -0.11570227 4.850294e-05 3.9169063e-06 -1.6352453e-05
000180 a4 1a be 34
       3.5409641e-07

weight f4 [1, 97]
000000 aa 5f 99 b8 b4 c9 e4 ab 9a f1 b2 34 88 80 7a 3b
       -7.313427e-05 -1.6256358e-12 3.3330872e-07 0.0038223583
000010 c8 02 f4 b0 bd 18 81 b8 61 63 ae b9 07 40 59 32
       -1.7754127e-09 -6.155807e-05 -0.0003326191 1.26456206e-08
000020 44 de 8c 3c bc cb dd 36 d7 e0 b5 bd 52 ff 9e 38
       0.017195828 6.610031e-06 -0.088807754 7.581584e-05
000030 6b 17 82 3a 4e d9 48 34 96 22 92 bf c8 d7 68 b8
       0.0009925192 1.8705506e-07 -1.1416805 -5.5514072e-05
000040 2f 27 17 3f 70 a1 f8 bb 3a d4 96 b5 62 7c 0d bd
       0.59044164 -0.007587604 -1.1237637e-06 -0.03454245
000050 0a 4e 3f bc 58 91 81 3b 41 97 37 b9 37 b1 82 bf
       -0.011676321 0.003954094 -0.00017508586 -1.0210332
000060 b0 6b ab 3c 0e c0 c9 bf ce 2e 48 39 9d 59 b6 41
       0.020925373 -1.5761735 0.00019090922 22.793756
000070 80 c0 54 b1 5e 5f 73 37 d8 c9 bf 34 65 96 15 39
       -3.0959484e-09 1.4506133e-05 3.5723383e-07 0.00014265774
000080 76 b3 23 be bb c4 fe 37 76 04 b5 3a f4 87 22 40
       -0.15986428 3.037077e-05 0.0013810534 2.539548
000090 fa 4e 1c b6 68 c8 05 34 0a b4 ab 35 d4 b1 23 b5
       -2.3291782e-06 1.2459498e-07 1.2792891e-06 -6.0981006e-07
0000a0 28 33 a2 33 4b dc df bd a2 ab 78 35 f0 68 6d b0
       7.553018e-08 -0.109306894 9.263696e-07 -8.6369223e-10
0000b0 01 a8 8b b8 b4 04 90 37 b8 16 8a b3 f8 64 4c be
       -6.65933e-05 1.7168328e-05 -6.430258e-08 -0.19960392
0000c0 a8 44 cd 3a 3c 0b 9a 36 48 41 f3 3c ca 8c c6 39
       0.001566072 4.5908655e-06 0.029694214 0.000378704
0000d0 88 88 17 b6 84 55 45 38 b5 64 3f 37 50 7e 62 b8
       -2.2580225e-06 4.7048103e-05 1.1407935e-05 -5.4000237e-05
0000e0 ea f8 8e 40 ac 1d 35 b4 cb b1 50 3c c0 28 90 3c
       4.467885 -1.6867733e-07 0.012737702 0.017597556
0000f0 b8 75 90 b1 92 b0 ab b5 c1 2d bc b7 ee dc c4 b7
       -4.2043347e-09 -1.2791882e-06 -2.2432652e-05 -2.34679e-05
000100 2c ba fc b7 32 eb 82 3a 41 5b ce 3e c6 c7 a8 ba
       -3.0127434e-05 0.0009988307 0.40303996 -0.001287692
000110 d0 b9 e4 b8 20 a3 6a b1 07 43 3a b9 96 26 9a b5
       -0.000109064975 -3.4144207e-09 -0.00017763312 -1.1485124e-06
000120 f6 4f 86 36 fe 9b 6d 38 b0 be 79 35 a7 e8 0c bb
       4.00282e-06 5.6650482e-05 9.3037215e-07 -0.0021500976
000130 5d fa 0c c0 28 6b 31 bd 6c f0 8c 34 3c ff 2a bd
       -2.202781 -0.043315083 2.6251962e-07 -0.041747317
000140 f3 a5 80 b8 04 bf 07 bc f6 20 0e 3c bc 49 22 3a
       -6.134426e-05 -0.008285288 0.008674851 0.0006190797
000150 98 6e 4a bf 8c f0 eb b9 ca e8 db b1 43 b5 ba be
       -0.79075 -0.00045001914 -6.400204e-09 -0.36466417
000160 d2 d4 e1 35 30 15 11 b4 e9 71 eb 32 f4 ee f7 ba
       1.6825745e-06 -1.3511885e-07 2.7409401e-08 -0.0018915818
000170 94 ef 6d b7 6f f1 30 3c dc 35 f7 ba ea e5 3b 3c
       -1.4182082e-05 0.01079975 -0.0018860656 0.01146839
000180 48 d0 a6 2f
       3.0343217e-10

add_tensors f4 [97, 6]
000000 9f 9a d2 be 2f 2c 96 3a 0c 4a b1 39 0f 0c 9c 3e
       -0.41133592 0.001145726 0.0003381524 0.3047795
000010 11 2e 54 3a af d5 b8 3e c3 dc 0a b8 3b 15 b7 b8
       0.00080940226 0.36100528 -3.3107364e-05 -8.7300745e-05
000020 93 a6 d0 ba b5 0b 14 38 95 37 7e 38 b5 1f b0 b4
       -0.0015918784 3.5296853e-05 6.0610084e-05 -3.2805625e-07
000030 f7 ff ab ba 00 f0 69 35 42 e8 d4 ad 6c 39 4f b4
       -0.0013122548 8.714851e-07 -2.4204753e-11 -1.9299267e-07
000040 54 11 c1 39 40 06 b2 3c 93 e5 5c 37 2e c0 0f 34
       0.0003682474 0.021731496 1.3166474e-05 1.3387827e-07
000050 41 31 0a 3e 18 47 9f b1 18 41 cf 3b b7 db 6d 35
       0.13495351 -4.6355915e-09 0.0063248985 8.860911e-07
000060 d8 f1 35 36 df a3 bb b7 35 bc bb bc 0a 8d 82 3e
       2.7111873e-06 -2.2368446e-05 -0.022916893 0.2549823
000070 44 47 9b b3 b9 83 84 2f dc ad 4f 3a c6 cf f8 36
       -7.230713e-08 2.4104255e-10 0.00079223304 7.415164e-06
000080 9b a2 2c b9 d2 d6 9c 37 95 8e fe 3a 8f a9 d4 b8
       -0.00016463773 1.8696683e-05 0.0019421155 -0.000101405305
000090 8a 45 3f c0 24 85 a1 b7 d7 3a b8 36 ec 9d 45 37
       -2.9886193 -1.9254694e-05 5.490477e-06 1.1778884e-05
0000a0 eb 6b cd b4 83 83 bb ba c4 a1 dc b5 53 10 dc 3f
       -3.8262746e-07 -0.0014306161 -1.6438357e-06 1.7192482
0000b0 36 64 13 35 e8 94 7c be 26 f7 80 3e a2 20 74 38
       5.4907593e-07 -0.24666178 0.2518856 5.8204525e-05
0000c0 b2 81 25 3f 7c fc 0c 3e ed c2 c2 38 de df c6 38
       0.64651024 0.1376819 9.2869486e-05 9.483074e-05
0000d0 2b b7 45 b9 d7 a7 c7 b0 97 2e 4c b6 5f f6 e4 34
       -0.0001885562 -1.4526859e-09 -3.0425488e-06 4.2647568e-07
0000e0 13 62 1e 32 a4 59 c8 2c f0 e1 8b 3d 8e cd e3 3a
       9.21911e-09 5.694294e-12 0.068302035 0.0017379986
0000f0 6c ab 73 b7 b9 7d 6b 2c 83 b6 9c 3a de c5 18 36
       -1.4523841e-05 3.3465299e-12 0.0011956248 2.276494e-06
000100 5a 0e 14 3d e3 1a a6 b4 21 35 85 b9 4b 05 32 b5
       0.0361465 -3.0939472e-07 -0.0002540732 -6.631787e-07
000110 7d 29 0c bf a0 a1 f8 b8 9b dc 0c 41 97 56 a7 bb
       -0.54750806 -0.000118556665 8.803859 -0.005106758
000120 52 2e 86 3b cb de 63 37 44 13 96 b9 8e 88 28 3a
       0.0040948773 1.3582127e-05 -0.00028624584 0.00064290396
000130 07 f3 0a 3e b0 2f 17 b4 03 34 b3 bc 07 e6 6a bc
       0.1356927 -1.408032e-07 -0.021875387 -0.014337069
000140 06 b6 bd 39 1e 9d 23 b9 b0 52 c2 36 62 d4 99 b9
       0.00036184507 -0.00015603422 5.7912766e-06 -0.00029340672
000150 ba 97 57 b7 14 d1 23 2d c7 cf 0b 34 ae 28 ec b8
       -1.2850325e-05 9.311902e-12 1.3020973e-07 -0.00011260934
000160 da a2 c0 bf 9b 7b 09 3e 73 83 58 39 c6 33 e9 bf
       -1.5049698 0.13426058 0.00020648334 -1.8218925
000170 2d 51 96 33 4b 5c 8f 31 a5 1c 8a be 1f 03 25 bd
       6.999685e-08 4.1723403e-09 -0.2697498 -0.04028618
000180 b0 7e d1 b1 bd 7c bb 3a 3c 9c 1b b6 0e 9a 25 38
       -6.0971033e-09 0.0014304143 -2.318774e-06 3.948254e-05
000190 9b 42 4a bf 57 2e e9 3e 42 9d f0 b8 03 86 2e 36
       -0.7900788 0.45543167 -0.00011473383 2.6006026e-06
0001a0 42 96 e0 3d 8b 28 d9 36 b5 d1 f7 3c af bd df 36
       0.109661594 6.471824e-06 0.030251363 6.668e-06
0001b0 80 29 f6 bb a5 8e ca b2 10 1e 5b 3c 03 49 fd 39
       -0.0075122714 -2.3580762e-08 0.013373867 0.00048310318
0001c0 20 02 97 35 28 46 ad 36 2f ef 82 35 2b 71 f5 37
       1.1250995e-06 5.163969e-06 9.755366e-07 2.9258974e-05
0001d0 15 c2 55 39 89 d6 13 af 69 dd b8 36 47 9c 58 b9
       0.00020385564 -1.344579e-10 5.509403e-06 -0.00020657583
0001e0 af f8 b0 3d b4 73 90 2f 5b 60 e9 42 7c 03 31 3d
       0.08641183 2.627566e-10 116.688194 0.043216214
0001f0 f4 31 68 36 09 5f 83 c3 42 ce bc 37 3c cc e5 3b
       3.459977e-06 -262.74246 2.2507393e-05 0.007012872
000200 d5 49 c8 bf 89 cc d3 b6 b3 6f 36 3a 6d e1 7d 3d
       -1.5647532 -6.312101e-06 0.00069593935 0.06198256
000210 9c 0f 45 bb c8 ef b2 3a 88 0d 27 be 82 75 24 39
       -0.0030069118 0.0013651783 -0.16313756 0.00015684034
000220 45 00 a4 35 85 51 6f be b7 9f 2d 42 e9 8c 35 34
       1.2219031e-06 -0.23370941 43.40597 1.6908201e-07
000230 f0 9f c8 ae 36 e4 1d 35 66 d2 d5 ba 34 c6 71 b7
       -9.1233576e-11 5.881915e-07 -0.0016313314 -1.4410867e-05
000240 33 c2 28 ba 24 23 1c bd 73 fe ac 33 c0 08 14 b7
       -0.00064376293 -0.03811945 8.055658e-08 -8.823525e-06
000250 6f ad 7c bc c1 7b 88 b8 be 95 32 3b 52 e9 00 bb
       -0.015422209 -6.508036e-05 0.0027249898 -0.001967032
000260 64 1d 18 bc e1 5a 9e 3c 6e 24 ce 3f 7f f9 91 b6
       -0.009284351 0.019330444 1.6104867 -4.350382e-06
000270 03 7c 38 3a 36 3a 22 39 ec 2a 50 c0 c4 36 58 36
       0.0007037522 0.00015471209 -3.2526197 3.2218386e-06
000280 49 f6 6c 3d 94 b5 a7 bb 03 39 15 c2 da 7d 6f bd
       0.057852063 -0.0051180813 -37.305676 -0.05846963
000290 cd e3 03 38 83 c6 b8 3d c4 d4 bf 33 c9 e4 22 3b
       3.144499e-05 0.09022238 8.9328324e-08 0.0024855605
0002a0 b8 ab 35 b6 82 0f 8e b3 68 68 18 33 5b ec 99 38
       -2.7071055e-06 -6.615211e-08 3.5485215e-08 7.339633e-05
0002b0 e0 06 4b b9 15 3d 8c b8 bc 8a da 39 d0 2c 91 b7
       -0.0001936215 -6.6870976e-05 0.00041683565 -1.7306214e-05
0002c0 5d c3 a8 35 79 b4 b3 2c 95 19 cb bb dc 34 2b 39
       1.2573834e-06 5.1075225e-12 -0.006198118 0.00016327522
0002d0 2b 6e 29 b3 38 a4 86 b3 c5 85 37 b5 6f 11 39 bf
       -3.9448576e-08 -6.2697325e-08 -6.836747e-07 -0.72292227
0002e0 31 83 30 2c 12 ce 07 3a 4b d5 00 ba 43 6c 1a 36
       2.508393e-12 0.0005180548 -0.00049145956 2.3010805e-06
0002f0 ae 83 32 34 63 9f fd 3a 29 c3 4f 3e 49 df 79 b2
       1.6625447e-07 0.0019349869 0.20289291 -1.4544477e-08
000300 b3 7a c5 bc ce 29 6d 3a 07 b1 d5 bb 9b 43 10 32
       -0.02410636 0.0009047062 -0.0065213474 8.397275e-09
000310 de 27 a1 39 a8 4a e8 b6 c5 21 23 39 a0 16 07 b7
       0.00030738016 -6.92283e-06 0.00015557471 -8.051895e-06
000320 83 ff 0a 37 cc d4 75 38 34 01 87 37 12 c5 29 3f
       8.284932e-06 5.8610734e-05 1.6093814e-05 0.6631633
000330 71 86 1e 40 49 d7 69 3e 7a 76 4f 39 c7 24 df bc
       2.4769557 0.22836031 0.00019785194 -0.027239216
000340 98 d2 48 3c d2 8b 80 b7 7d 73 e8 b5 5d 37 2c b7
       0.012257241 -1.5323898e-05 -1.7318958e-06 -1.0264889e-05
000350 2b f5 20 3d 4e 8b 81 3b c2 4d 8f 39 ec f9 3a 3b
       0.03929631 0.003953374 0.0002733302 0.0028530313
000360 3f 92 f5 33 d1 9f 89 3b 28 eb 56 b3 54 f5 dd b2
       1.14353035e-07 0.00419996 -5.003963e-08 -2.5839348e-08
000370 9d 36 c2 3c b9 ce be ba 39 a3 8c b4 97 0e bc 38
       0.023707682 -0.0014557458 -2.6195792e-07 8.967256e-05
000380 53 a7 17 ba bc 1e 82 43 6e 8b c0 3f 2a d7 5d c0
       -0.0005785126 260.2401 1.504255 -3.4662576
000390 bd 38 0a bb bb 8c 9a 36 87 6c ad 3b 80 3b 59 35
       -0.0021090948 4.605941e-06 0.0052924785 8.0925383e-07
0003a0 88 90 4e ba 5a 7a ab b7 dd 02 d4 3c 44 2b b5 b8
       -0.0007879813 -2.0441763e-05 0.025880272 -8.6388114e-05
0003b0 44 91 b8 b5 33 a2 79 b9 af 1f e4 33 46 d0 af b9
       -1.3751346e-06 -0.00023806914 1.06228406e-07 -0.00033533777
0003c0 86 05 0c 3f d5 d1 0f bc b7 10 26 3a 3f 7d ad 38
       0.5469593 -0.008778055 0.0006334888 8.272612e-05
0003d0 a8 89 bd bd 76 00 6f b8 59 32 e1 3e d2 fa 1a c0
       -0.092547715 -5.698247e-05 0.43983725 -2.4215589
0003e0 54 d4 26 3e 9d 11 f0 32 d7 32 04 34 8a 1b 1f 3e
       0.16291934 2.7947687e-08 1.2311953e-07 0.15537849
0003f0 fc 44 4c 37 13 f7 db b7 47 e1 b1 3b 8e e3 1d 3e
       1.2175409e-05 -2.6221887e-05 0.0054284665 0.15418836

add_tensors f4 [97]
000000 27 63 c5 bd ec 92 f4 bf 4e aa b6 37 48 a8 36 37
       -0.096380524 -1.9107337 2.1775395e-05 1.0887226e-05
000010 14 dc 97 33 5d 8b 32 3a 54 57 13 34 29 b9 e7 c0
       7.0715174e-08 0.0006810928 1.3722212e-07 -7.2413526
000020 e6 35 88 be 22 9a 1c be 09 e1 e7 39 48 3c d5 ba
       -0.2660362 -0.15293172 0.00044227418 -0.0016268576
000030 f5 cc 61 33 eb b2 97 bc 52 6a fe 35 35 02 e7 41
       5.2573302e-08 -0.018517932 1.8955418e-06 28.876078
000040 d6 31 63 3a 6a 90 95 b4 0a 31 4d b6 d6 d9 01 c2
       0.0008666789 -2.7858488e-07 -3.0575925e-06 -32.46273
000050 5f c1 82 35 23 95 bf 3d d0 a0 61 37 f9 27 01 37
       9.742033e-07 0.093546174 1.3448487e-05 7.698306e-06
000060 ae 43 89 bb cd 79 1f 37 47 ad a5 ba 77 19 d7 3a
       -0.0041889763 9.5054975e-06 -0.0012640142 0.0016410787
000070 87 fb 7c 39 49 1d c6 ae 1c ce 91 37 7d e1 a8 3b
       0.00024126294 -9.0091996e-11 1.7381324e-05 0.0051538334
000080 b4 eb 17 ba 79 75 2a bc 93 b4 ae 37 09 99 c8 3e
       -0.00057953154 -0.010403984 2.0826503e-05 0.39179257
000090 fb ac 6b 35 aa c8 bb 35 90 e1 c1 b6 36 a5 e3 34
       8.779604e-07 1.3990987e-06 -5.778107e-06 4.2402252e-07
0000a0 50 fa a7 b9 3b 81 ea 34 6e 9a f9 bd 60 8b 87 40
       -0.0003203922 4.3679924e-07 -0.12187658 4.2357635
0000b0 d4 e9 0d 34 76 e5 60 36 4f dc 0b 38 ec b3 a7 3c
       1.3216714e-07 3.3512165e-06 3.334536e-05 0.020471536
0000c0 af 9a 2b b7 0e 4c 5f b6 11 ea 02 b3 3e a0 dd c1
       -1.0228409e-05 -3.327386e-06 -3.0480866e-08 -27.703243
0000d0 77 18 f4 38 49 93 27 37 35 08 96 ba 0f 2f d8 b3
       0.000116393836 9.988268e-06 -0.0011446538 -1.0066844e-07
0000e0 70 50 91 b9 59 c4 0c 3d c0 25 b8 33 2b 5c b0 3a
       -0.00027716486 0.03436694 8.5750344e-08 0.0013455203
0000f0 fe b8 0a 3d 74 27 65 3c 5e 80 dd b0 a1 19 07 b1
       0.03386783 0.013986457 -1.611635e-09 -1.9659654e-09
000100 24 eb 7b 38 07 7d 10 bd 61 84 05 c0 33 38 2b 38
       6.0062055e-05 -0.035275485 -2.0862048 4.0821917e-05
000110 e4 0e 78 b7 7f 55 c4 b3 b9 b3 3b bd 4f 08 4c b3
       -1.4785419e-05 -9.142513e-08 -0.045825694 -4.7505008e-08
000120 34 56 8c c0 fe 03 af b9 bd 5f 7d b7 a8 7a 8e 39
       -4.385523 -0.00033381575 -1.5102266e-05 0.00027175737
000130 7d 13 92 bd 22 69 18 bc b8 76 dd 3b cc eb 32 3c
       -0.07132623 -0.009302409 0.006758537 0.010920476
000140 c3 2f 0f 37 e8 47 22 33 32 47 e4 b3 53 c1 89 b6
       8.534585e-06 3.7783963e-08 -1.0630028e-07 -4.105424e-06
000150 2c 1b f7 b0 00 f1 e1 3d 01 5c 99 35 c5 0b 05 3b
       -1.7979338e-09 0.11032295 1.1426165e-06 0.0020301205
000160 7c 9d 2f 34 fb f4 9e b7 36 f5 84 3b f8 fb 1f b8
       1.6355438e-07 -1.8949146e-05 0.0040575517 -3.814322e-05
000170 12 f7 d2 3b b2 d6 e5 2e bc 05 a9 3e 73 38 92 40
       0.0064381445 1.0451852e-10 0.33012187 4.569391
000180 8b 95 50 3b
       0.0031827416

add_tensors f4 [97, 97]
000000 e5 9f 90 3a 59 96 d3 b7 11 e1 2e be ee 49 d3 3b
       0.001103398 -2.5223171e-05 -0.17078044 0.006448022
000010 60 fa 8e b0 e1 a0 80 3c 8f 92 8b 39 7f 7a 22 ba
       -1.0403021e-09 0.015701713 0.0002662134 -0.0006198063
000020 47 79 66 3b b8 06 be 34 21 a6 74 b7 02 ce e2 bb
       0.0035167502 3.5395146e-07 -1.4582213e-05 -0.0069215307
000030 e1 9b cd b5 be 93 a1 b7 b6 ca 19 36 64 26 92 40
       -1.5319057e-06 -1.9261493e-05 2.291677e-06 4.5671864
000040 f5 ab cf b7 7b 91 83 b9 cf d2 a1 b9 25 85 15 b0
       -2.4756397e-05 -0.00025094658 -0.00030865378 -5.4395094e-10
000050 e8 1a 86 31 90 ca c6 b7 6c 80 82 b3 0f 88 37 39
       3.902972e-09 -2.3697765e-05 -6.0769565e-08 0.00017502926
000060 2a 21 17 ba f9 58 ad 37 e3 0e 8f 3d d0 30 cf 39
       -0.00057651347 2.0664638e-05 0.06985261 0.00039518485
000070 bd 76 bd ba a4 7f 64 38 7f fe de b8 fc 25 35 33
       -0.0014454942 5.447831e-05 -0.000106331885 4.2176893e-08
000080 3a a9 16 b7 14 79 fb c0 69 53 b8 3f f3 04 d2 bb
       -8.980098e-06 -7.85853 1.4400455 -0.0064092814
000090 25 1f 6c b6 00 9d ac 31 df 21 34 40 a1 a1 97 bc
       -3.518487e-06 5.0237077e-09 2.8145673 -0.018509688
0000a0 c2 be 6c 3b 47 d5 b7 b5 1d a1 c2 bd c6 93 10 b5
       0.0036124443 -1.3696634e-06 -0.09503386 -5.385922e-07
0000b0 ab bc e0 b4 e3 84 97 af d8 6a 7e ba 6e 3b 7e 3e
       -4.1860525e-07 -2.7561162e-10 -0.0009705252 0.24827358
0000c0 16 4f ff bf 1f a5 d0 b3 be c4 64 bb 5e 7c 03 b6
       -1.994601 -9.71579e-08 -0.0034907307 -1.9592912e-06
0000d0 eb de 57 bd 79 6c 0d 33 37 9b 8f b6 ff 21 7c 36
       -0.052702826 3.2927776e-08 -4.2798015e-06 3.7570715e-06
0000e0 ca 96 e1 38 0a 8e a8 b9 c0 f8 7c b8 16 15 72 bd
       0.00010756923 -0.00032149284 -6.031315e-05 -0.05910214
0000f0 a7 cd 02 35 5f de d6 3e 1e ed fd 33 48 7b 93 ad
       4.872804e-07 0.4196653 1.1824362e-07 -1.6766713e-11
000100 a2 7a 34 34 d2 a6 39 b9 d7 74 1c 33 55 18 19 bc
       1.680842e-07 -0.0001770512 3.6427846e-08 -0.00934418
000110 5d ce 86 b1 91 4a cc bb 4a d9 28 38 2b e7 8a b9
       -3.923374e-09 -0.006234475 4.0256687e-05 -0.00026493645
000120 63 6c e4 33 ee b2 35 37 f2 91 96 31 af 65 38 bc
       1.0636793e-07 1.0830101e-05 4.3821666e-09 -0.011254712
000130 1d 0f 15 b8 08 c4 ce bd c7 19 db 37 cb 9f 12 3e
       -3.5538444e-05 -0.10095984 2.6118838e-05 0.14318769
000140 41 6c 8b bb 2c 0b d0 b9 07 71 24 38 cd 18 aa 3a
       -0.004254848 -0.00039681175 3.9205912e-05 0.0012977362
000150 d7 6e 11 40 8d 39 f6 3d 22 ec 4a be a0 da 1c 3a
       2.2723901 0.12022696 -0.1981664 0.00059835054
000160 b7 74 ad 37 b0 9f 5e 36 f9 ac 8d 3f b1 bf 94 b6
       2.0677557e-05 3.3173528e-06 1.1068412 -4.4330595e-06
000170 58 b3 c9 b0 bf ad f0 31 f2 f0 8f b8 8f c9 06 3b
       -1.4675647e-09 7.004672e-09 -6.863651e-05 0.0020566916
000180 3d b8 97 b2 8c db 1f b3 cc bf 7f bb fa 38 ef b2
       -1.7662495e-08 -3.721975e-08 -0.0039024232 -2.7849172e-08
000190 3d b9 eb be 55 f8 64 38 1b fb bd 34 5d d7 e2 3a
       -0.46039763 5.4590713e-05 3.5386697e-07 0.0017306615
0001a0 a0 fb dd 3f 13 85 1f b4 5e fd 27 33 79 b0 c8 b2
       1.7342415 -1.4856441e-07 3.9113154e-08 -2.3363315e-08
0001b0 3d 13 07 ba 9d 27 2c 36 d7 e7 e2 3b 4e a5 cf be
       -0.0005152708 2.5653055e-06 0.00692461 -0.40555805
0001c0 63 40 32 3b 12 fd 3e b2 fd bc 95 b6 b1 73 fc 37
       0.0027199022 -1.1116997e-08 -4.462547e-06 3.0094614e-05
0001d0 8b aa 48 38 d4 ea c7 bb 81 7d ec b7 d4 12 8f 3e
       4.7842546e-05 -0.0061009917 -2.8191835e-05 0.27944052
0001e0 91 70 99 ba d4 3a c1 bc e1 68 01 b8 f7 3d 93 33
       -0.0011706521 -0.023587622 -3.0853673e-05 6.856492e-08
0001f0 2f 5f aa 32 07 ac 0f 35 87 16 a5 b2 85 4b 0b bb
       1.983389e-08 5.3521984e-07 -1.9218772e-08 -0.002125473
000200 1e 21 3b 34 57 9e 0f 3d 3c ea 2e 36 4b 97 33 c0
       1.742778e-07 0.035063114 2.6064363e-06 -2.8061092
000210 6f 2f 08 39 59 54 41 35 75 a9 4f c0 16 b1 70 b0
       0.00012987641 7.2020845e-07 -3.2447178 -8.7563146e-10
000220 bf 15 30 34 a8 e7 03 be 25 34 cd ba 06 96 16 b6
       1.6399188e-07 -0.12881339 -0.0015655799 -2.2439067e-06
000230 15 11 12 34 dd ae d3 ba d1 ec 67 b9 f5 a2 33 b3
       1.3603524e-07 -0.0016150136 -0.00022118098 -4.1824894e-08
000240 f3 76 e6 bc 03 ac c9 b8 cd d5 93 37 e7 19 1c ba
       -0.028132891 -9.6164666e-05 1.7623324e-05 -0.00059547875
000250 24 8a 27 bb dc 15 80 b3 52 bb 5a b9 9d a1 96 b5
       -0.0025564516 -5.964441e-08 -0.00020859882 -1.1222907e-06
000260 b3 2e 8e 39 d8 90 b1 af 03 25 ea 33 72 2c 83 b5
       0.00027119144 -3.229903e-10 1.09032065e-07 -9.773196e-07
000270 b9 a3 66 35 e0 cd b3 35 7a 22 27 3a 8e f5 5b 36
       8.5919925e-07 1.3396457e-06 0.0006375682 3.2776475e-06
000280 5d d6 d1 b8 25 ca d9 31 7a 5e 55 b0 e4 44 f1 bb
       -0.00010005825 6.3385124e-09 -7.762321e-10 -0.0073629487
000290 3e b1 0a 3f e7 f0 72 bd aa bb 97 b4 48 88 ac be
       0.541767 -0.059311774 -2.8262485e-07 -0.33697724
0002a0 5b 1a 2c be b4 95 e8 bb e1 7a 9f 3a 33 3a c2 b2
       -0.16806929 -0.007097924 0.0012167358 -2.2611038e-08
0002b0 af 69 af 36 06 fd 35 36 f9 67 b3 ad 7f b3 5c b6
       5.2277096e-06 2.711838e-06 -2.0396117e-11 -3.2887035e-06
0002c0 76 17 33 3d bf 40 3b b2 c2 d9 0b 33 14 85 80 b7
       0.043723546 -1.0899554e-08 3.256151e-08 -1.5320758e-05
0002d0 70 8f 90 36 ad 62 fc b2 be ce 52 bc 3b ba 74 b8
       4.3082327e-06 -2.9381534e-08 -0.012866674 -5.8347574e-05
0002e0 b0 b6 ef ba 8b e4 b0 ba 6b 8e 8d b6 eb f2 5e 34
       -0.0018288698 -0.0013495845 -4.218707e-06 2.0763734e-07
0002f0 a2 a4 c7 b4 ea 5d c3 bf d2 f2 c4 b9 20 ca 15 32
       -3.7186425e-07 -1.5263035 -0.00037564948 8.718899e-09
000300 d9 43 81 b0 be 52 26 39 9c 65 f1 b7 0e 0a 15 b3
       -9.405269e-10 0.00015861818 -2.8776754e-05 -3.470091e-08
000310 bd 94 2c 38 e5 f5 86 ba 58 cb 82 ba 5d 4f fa b9
       4.114652e-05 -0.0010296671 -0.0009978814 -0.00047742846
000320 bc 44 f2 b3 f0 38 6a b5 8c 7c 66 ba db 1f 55 36
       -1.1281506e-07 -8.725465e-07 -0.00087923626 3.1758016e-06
000330 77 33 09 b4 cc c1 39 b8 7d 85 ab b7 fb f2 fc bd
       -1.2777842e-07 -4.4287925e-05 -2.0446949e-05 -0.12351032
000340 95 08 5a 36 4d 51 bb b9 54 73 08 2c 96 9a 7f bb
       3.2489527e-06 -0.00035727993 1.9390782e-12 -0.0039002053
000350 fd 73 66 b7 29 0c bd bb ee 8e 99 36 c7 81 40 3e
       -1.3736074e-05 -0.005769272 4.5763945e-06 0.18799506
000360 81 4d 15 b5 66 3e d8 38 97 eb 5d 3e 66 ba d1 34
       -5.561961e-07 0.00010311305 0.21671902 3.9064906e-07
000370 7b 29 92 3c f7 22 c5 3e d1 d0 8a b3 7e b2 84 3e
       0.017842045 0.3850324 -6.464109e-08 0.2591743
000380 fc bb 14 38 f3 e0 01 43 c9 11 7e 2d f8 dd 8c 3a
       3.5461024e-05 129.87871 1.44421775e-11 0.0010747304
000390 0c 51 9a bb f0 15 4d 30 b1 22 55 b3 f1 6e cd b4
       -0.0047093686 7.460974e-10 -4.962448e-08 -3.8264946e-07
0003a0 40 75 eb ba ec 00 a8 3a 89 ec 94 37 4a 8e a5 b8
       -0.001796402 0.0012817658 1.775312e-05 -7.8943165e-05
0003b0 06 76 91 3a 79 f7 5d b9 11 38 e7 bc 61 9b da 3d
       0.0011097796 -0.00021168393 -0.028224977 0.106741674
0003c0 09 ee 72 3a 8d a4 e1 3b c5 b4 a5 b8 b1 e3 64 39
       0.00092670374 0.006886071 -7.901484e-05 0.00021828596
0003d0 93 78 16 2f 87 9c 76 39 38 41 d1 b8 a3 f8 8c bb
       1.3685257e-10 0.00023518699 -9.9780445e-05 -0.0043021007
0003e0 7b bc 88 35 7e 9d db ac 43 74 74 36 ba d1 66 b3
       1.0187645e-06 -6.2418395e-12 3.6426507e-06 -5.3741793e-08
0003f0 cd f4 65 35 8d bc 63 35 ce 6a 99 b5 da 25 d4 2e
       8.566538e-07 8.483847e-07 -1.1430473e-06 9.6473676e-11

add_tensors f4 [1, 97]
000000 19 58 50 b8 47 9b 05 ab e2 b0 2f 34 2a 48 14 3c
       -4.967311e-05 -4.746658e-13 1.6362495e-07 0.009050408
000010 a4 a8 5d b1 06 a5 26 b8 e7 18 9f 39 4e a2 87 31
       -3.2255594e-09 -3.9731174e-05 0.00030345397 3.947469e-09
000020 ba 22 2d 3d 03 37 1d 36 49 2d 7b bd b7 f8 2d 38
       0.042269446 2.3426844e-06 -0.061322484 4.1478048e-05
000030 c3 cd 8d 39 d4 c5 a3 32 bb be 1d 40 19 6c d6 b7
       0.0002704692 1.906566e-08 2.4647663 -2.5561125e-05
000040 50 16 e7 3d ee ba c2 bc f6 8e 0e b5 fa 44 85 bc
       0.11283553 -0.023770776 -5.310716e-07 -0.016268242
000050 26 05 99 bb cd 76 08 3b 52 c7 89 38 41 0b 33 bf
       -0.004669803 0.0020822764 6.5697954e-05 -0.6993905
000060 9c 06 c1 3d d0 d0 62 bf 5a a4 1d 38 85 b3 14 c0
       0.09425089 -0.8859987 3.758478e-05 -2.323457
000070 3e 3f 33 34 ed c7 c1 36 c5 6c 20 34 0e 8d f5 b8
       1.6693681e-07 5.7751226e-06 1.4940731e-07 -0.00011708784
000080 54 59 af 3d 93 94 80 37 9a d7 1f bb 27 e5 a5 3f
       0.0856196 1.5327974e-05 -0.0024389983 1.2960557
000090 99 a6 3c 35 19 ea f3 b5 9d a9 8e b3 40 13 fb b5
       7.027789e-07 -1.8173042e-06 -6.643243e-08 -1.870656e-06
0000a0 79 05 59 35 ac f3 e1 3c 1e 5c a3 34 d7 eb da 2f
       8.0846763e-07 0.027582012 3.042814e-07 3.9821543e-10
0000b0 0b 32 93 b6 bd f9 12 b7 bb f3 30 b3 94 32 f1 bd
       -4.386767e-06 -8.760425e-06 -4.1199865e-08 -0.11777225
0000c0 e2 3b 83 3b 5c 88 2c 36 21 4d 5c 3e a8 62 a8 38
       0.0040049413 2.5709369e-06 0.21513797 8.0292404e-05
0000d0 ba e4 bc 35 95 9f b4 38 6e 6c ed 36 18 6e 7f b9
       1.407366e-06 8.612793e-05 7.0757733e-06 -0.00024359708
0000e0 64 79 03 3f a7 e3 2e b5 0b 5a 99 b8 21 8c a0 3e
       0.513571 -6.515133e-07 -7.31238e-05 0.3135691
0000f0 dc 20 b7 af 63 e8 07 35 5d 4c aa 35 d4 89 f1 b6
       -3.3310854e-10 5.0629586e-07 1.2688212e-06 -7.198405e-06
000100 fb b3 96 b8 d2 7a a1 ba 6f 2f 5f 3e 28 1c 80 3a
       -7.186081e-05 -0.0012319929 0.21795438 0.0009774016
000110 b3 9b 08 b8 ff a4 9b 30 f1 b8 be b9 87 4f 4d b5
       -3.2569933e-05 1.1324629e-09 -0.00036377416 -7.648418e-07
000120 d8 27 db 36 ec bb 93 37 f4 f9 bc 34 3d 88 d5 b9
       6.531347e-06 1.7611274e-05 3.5199594e-07 -0.0004072803
000130 52 1f 86 be 2c 77 c1 bc 50 77 1c b3 a3 06 83 bc
       -0.2619577 -0.023616396 -3.6430094e-08 -0.015994376
000140 16 e7 27 b8 b6 d7 d1 3c 9e 67 30 3b 4a 31 97 39
       -4.003112e-05 0.025615554 0.002691723 0.00028837688
000150 70 be 17 be 74 d2 85 b9 47 b4 88 b1 51 7e 48 be
       -0.1481874 -0.00025524537 -3.978616e-09 -0.19579436
000160 b1 cc 5f 36 29 91 06 b3 57 95 3f 33 0b 61 20 ba
       3.3348736e-06 -3.133133e-08 4.4606477e-08 -0.0006117976
000170 3a 30 0b b8 36 cc 08 39 9a 8d 34 3b 91 d2 a1 3b
       -3.3185097e-05 0.00013046045 0.0027550221 0.0049384315
000180 02 c0 cd b0
       -1.4970285e-09
