Random_harder/TorchSaves/Best_Ball.pt (torch_old, 46947 bytes, 9 tensors)

weight f4 [55, 6]
0	0xbeb9d701	-0.36296847
1	0x3f1b3380	0.6062546
2	0xbea71fd4	-0.3264147
3	0x3ea4cf5e	0.3218946
4	0x3db2898a	0.0871764
5	0x3e247611	0.16060664
6	0xbeba3bb9	-0.3637369
7	0xbad7dcbb	-0.0016468981
8	0xb88ac972	-6.617875e-05
9	0xbae66b94	-0.0017579668
10	0xc0446075	-3.0683873
11	0x3b62c37d	0.0034601383
12	0x3c60b2b0	0.013714477
13	0x3db5aeb3	0.08871212
14	0xbec070dc	-0.37586105
15	0x3d14a179	0.036286805
16	0x3be72d06	0.0070549278
17	0xbc7bc40c	-0.015366565
18	0xbc8f7646	-0.017512452
19	0xbb93b888	-0.004508082
20	0x3e070614	0.13185912
21	0xbb38e9dc	-0.0028215563
22	0xbd205514	-0.039143637
23	0xbf571014	-0.8400891
24	0x3a89c7c0	0.0010511801
25	0xbf120f88	-0.5705495
26	0xbd89cc71	-0.06728447
27	0xba6bf2f6	-0.00090007426
28	0xbbe38952	-0.00694386
29	0x3e853117	0.26014015
30	0x3cd266f0	0.02568385
31	0xbf4b03b0	-0.793025
32	0xbe847aaf	-0.2587485
33	0xbea8a26f	-0.32936427
34	0xbecd397c	-0.4008292
35	0xbe384572	-0.17995241
36	0xbff37ea0	-1.9023018
37	0x3c857a24	0.016293593
38	0xbecfe42d	-0.40603772
39	0xbef5bc59	-0.4799526
40	0x3e6b2098	0.22961652
41	0xbdf927e8	-0.12165815
42	0xbede4952	-0.43415314
43	0xbe18a31b	-0.1490597
44	0x3e25b088	0.16180623
45	0x3f1726c6	0.5904354
46	0x3c5a450f	0.013322129
47	0xbe099de0	-0.13439131
48	0x3b96a530	0.0045973286
49	0xbdc329e1	-0.09529472
50	0x39e33890	0.00043338956
51	0x3d0ec352	0.03485424
52	0xbd1974c6	-0.03746488
53	0xbd91e649	-0.071240015
54	0xbacdee90	-0.0015711356
55	0x3ee00bc6	0.43758982
56	0x3ee0b45a	0.43887597
57	0xbaf5d9bc	-0.0018756907
58	0x3e18b94e	0.14914438
59	0x39e85812	0.00044316106
60	0xbbbb6251	-0.0057185073
61	0xbd5f9865	-0.054588694
62	0xbda82910	-0.08210957
63	0xbdef9ba0	-0.11699605
64	0xbbcdbfe1	-0.0062789773
65	0xbc939df0	-0.018019646
66	0x3dd4195a	0.10356398
67	0xbd804bbe	-0.06264447
68	0x3e9d2fa6	0.30700415
69	0x3911a614	0.00013890147
70	0x3e7f2e38	0.24919975
71	0xbe1b7646	-0.15181836
72	0x3d592a23	0.0530187
73	0x3b214850	0.0024609752
74	0xc03873b4	-2.882062
75	0xbdf2336e	-0.11826216
76	0x3cc9effc	0.024650566
77	0xbc0d9074	-0.008640397
78	0xbed01b7b	-0.40645966
79	0x3aacc320	0.001318071
80	0x3f973cb2	1.1815398
81	0x3c5bc060	0.013412565
82	0xbebc80c9	-0.36817005
83	0xbf0361b4	-0.5132096
84	0x3e3ca700	0.1842308
85	0x3f79f6ec	0.976424
86	0x3b351340	0.0027629882
87	0x3a341ead	0.0006871026
88	0xbbdf69e0	-0.006818041
89	0xbc20f0ed	-0.009823066
90	0x3c64e059	0.013969504
91	0x3d4d323c	0.050096735
92	0xbe5f114a	-0.21783939
93	0x3c2237e0	0.009901017
94	0xbdd44118	-0.10363978
95	0x3e27b1e4	0.16376454
96	0xbdff3fc8	-0.12463337
97	0xbf3a71c8	-0.72829866
98	0x3e10f52d	0.14156027
99	0x3ce8249e	0.028337773
100	0xbe3c9428	-0.18415892
101	0x3dd2e2ac	0.102971405
102	0x3ecaee67	0.39635012
103	0xb9027f40	-0.0001244517
104	0xbef155c0	-0.47135735
105	0x3e9a7ec9	0.30174854
106	0xbf650875	-0.8946603
107	0xbd8bc032	-0.06823768
108	0x3d92dd50	0.07171118
109	0xbd85d768	-0.06535226
110	0xbc4f7f0a	-0.012664566
111	0x3ee8ada0	0.45444965
112	0x3ed072bc	0.40712535
113	0x3bdfd88e	0.0068312353
114	0xbf911a8c	-1.1336226
115	0x3cc88623	0.024478024
116	0x3ad495a0	0.0016218908
117	0x3eeee147	0.46656248
118	0xbdbbf9c1	-0.09178496
119	0xbc12e9fc	-0.008966919
120	0x3f267752	0.6502582
121	0x3e7c6e6a	0.24651495
122	0x3e9a7b4d	0.30172196
123	0xbb918a22	-0.0044415155
124	0xc0007b10	-2.0075111
125	0x3ec71a31	0.3888717
126	0xbc4eef49	-0.012630292
127	0x3dbb2748	0.09138352
128	0xc00874d4	-2.1321306
129	0x3e5e4d80	0.21709251
130	0xbdfb25f8	-0.12263101
131	0xbee018d2	-0.43768936
132	0xbba605a0	-0.0050665885
133	0x3c4d27c0	0.012521684
134	0xbce8d878	-0.028423533
135	0xbe92a2e0	-0.2863989
136	0x3dac6f5e	0.08419679
137	0x3d677b45	0.056514043
138	0x3daca2a6	0.0842946
139	0xbbead190	-0.007166095
140	0x4021207c	2.5176077
141	0x3eba5760	0.36394787
142	0xbfa73414	-1.3062768
143	0x3c7463fd	0.014916417
144	0xbf4a7116	-0.79078805
145	0xbe6eaf12	-0.23308972
146	0xbc9ee47e	-0.019396063
147	0x3fa925ea	1.3214695
148	0x3d98cd5a	0.07461043
149	0x3d689ad4	0.05678828
150	0xbe424c8b	-0.18974511
151	0xbe039b7a	-0.12852278
152	0x3d05d4b9	0.03267357
153	0xbaebad18	-0.0017980663
154	0xbf26c5f4	-0.651458
155	0x3c5510ac	0.013004463
156	0x3b4e08f3	0.003143844
157	0xbccc8d18	-0.024969622
158	0x3b3416de	0.002747945
159	0x3c334830	0.010942504
160	0xbfc3e22d	-1.5303398
161	0x3ee955d0	0.45573282
162	0x3d3c98f1	0.046044294
163	0x3b3072d4	0.0026923912
164	0x3f7486e7	0.95518345
165	0xbfd199fa	-1.6375115
166	0xbcc4c5b6	-0.024020057
167	0xbb9ca84b	-0.0047808043
168	0x3ee7906d	0.45227376
169	0x3c708489	0.014680036
170	0x4042c6be	3.0433803
171	0xbc4c4112	-0.012466686
172	0x3ea53508	0.32267022
173	0x3c6b17c0	0.014348924
174	0x3e2dc0ac	0.1696803
175	0x3c0ff0d8	0.008785449
176	0xba9bba40	-0.0011881068
177	0xbdc8ab80	-0.09798336
178	0xbea94a59	-0.33064535
179	0xbbe1ffc6	-0.0068969456
180	0x3ee6548f	0.44986388
181	0x3d955206	0.07291035
182	0xbe9c34c1	-0.30508998
183	0x3c50aef4	0.012737025
184	0x3d488c78	0.048962086
185	0x3d034c88	0.032055408
186	0x3ce02a10	0.027363807
187	0x3d61fd10	0.05517298
188	0xbb7085d4	-0.0036700862
189	0xbe4e27c1	-0.20132352
190	0x3c293c60	0.010329336
191	0x3bbea164	0.005817579
192	0xbe58cf69	-0.2117287
193	0xba58f9eb	-0.0008276987
194	0x3bb28a58	0.0054486208
195	0x3ed713ff	0.42007443
196	0xbf1cdbb0	-0.61272717
197	0xbd83adbf	-0.06429624
198	0xbd81a9b2	-0.06331195
199	0x3cb4d5a0	0.02207452
200	0x3f908c4b	1.1292814
201	0x3f12d674	0.5735848
202	0xbdcce716	-0.10005014
203	0xb99f3c20	-0.0003037164
204	0x3f21e14f	0.6323442
205	0xba1fe3ac	-0.00060992944
206	0x40f2aaa0	7.5833282
207	0x3dbf3c2c	0.09337649
208	0xbd51af03	-0.051192295
209	0x3e4cf127	0.20013867
210	0x3ef22436	0.47293252
211	0x3d86f740	0.06590128
212	0xbbeffb64	-0.0073236693
213	0x3d2a14f0	0.041523874
214	0x3edd09b2	0.4317146
215	0x3e9a3353	0.30117282
216	0x41006e4e	8.02693
217	0x3e32e675	0.17470725
218	0xbd81de2e	-0.063412055
219	0xbc381280	-0.0112348795
220	0x4008d805	2.1381848
221	0xbdd041e4	-0.10168818
222	0xb984cbb2	-0.00025328767
223	0xbbead67a	-0.007166681
224	0x3df77964	0.120837
225	0xbd198ef6	-0.037489854
226	0xbcfd084a	-0.030887742
227	0xc1840f5c	-16.5075
228	0xbc0c1b94	-0.008551497
229	0x3f26061c	0.6485307
230	0x3e566d33	0.20940094
231	0x3bae3cb4	0.005317295
232	0xbdd20fd0	-0.10256922
233	0x3f713999	0.9422851
234	0x3bf2edec	0.0074136164
235	0xbc4c4353	-0.012467223
236	0x3e65b078	0.22430599
237	0x3b071714	0.002061312
238	0x3c64b4ab	0.01395909
239	0xbe36f00e	-0.17865011
240	0x3ef4f656	0.4784419
241	0xbeefa0df	-0.46802422
242	0xbf908d0a	-1.1293042
243	0x3cd58c28	0.026067808
244	0x3c244800	0.010026932
245	0xbc238c6b	-0.009982209
246	0xbbaa8421	-0.0052037393
247	0xbcc85d8e	-0.024458673
248	0xbd91f7e2	-0.07127358
249	0xbd926d15	-0.07149712
250	0xbe061e06	-0.1309739
251	0x3e16796a	0.14694753
252	0xbbafefe0	-0.0053691715
253	0xb988a1c0	-0.00026060455
254	0xbd832c04	-0.0640488
255	0x3c12c2f4	0.008957613

bias f4 [55]
0	0xbbba2894	-0.005681107
1	0xbe4dc2e0	-0.2009387
2	0x3ea8e195	0.32984605
3	0x3c4bc902	0.012438061
4	0xbbd3e636	-0.0064666523
5	0x3c6ca178	0.014442794
6	0xbeecd8b7	-0.4625909
7	0x3c495880	0.012289166
8	0xbd917b8b	-0.07103642
9	0x3f4a5d3a	0.790485
10	0x3d7d351f	0.06181824
11	0x3c5a7ea5	0.0133358585
12	0x3e6aea0f	0.22940849
13	0xbb657326	-0.003501126
14	0xbbe82be0	-0.0070853084
15	0xbc438440	-0.011933386
16	0x3e484c10	0.19560266
17	0x3f9345d6	1.1505687
18	0x394dd46a	0.00019629454
19	0x391bc3d0	0.00014854898
20	0x3bab4f4e	0.0052279597
21	0x3f04ad04	0.518265
22	0xc05d420b	-3.457156
23	0xbfb5bc4c	-1.4198089
24	0x3c4f8160	0.012665123
25	0x3e97f95e	0.2968244
26	0xbc64c9e5	-0.013964151
27	0x3c1f72ed	0.00973199
28	0x3bf23b86	0.0073923497
29	0xbd47dd1c	-0.04879485
30	0xbd6c3450	-0.057667077
31	0xbc8fedb0	-0.017569393
32	0xbb69c7e8	-0.0035672132
33	0x3dec6328	0.1154235
34	0xba172bc2	-0.00057667133
35	0x3e23739a	0.15962067
36	0xbf24226b	-0.6411502
37	0x3d72cf3c	0.059279665
38	0x3dd93e0e	0.10607539
39	0x3df8a9f1	0.12141789
40	0x3e063591	0.13106371
41	0xb783323f	-1.5639815e-05
42	0xbd3cb996	-0.046075426
43	0x3e412fb4	0.18865854
44	0x3d725678	0.059164494
45	0x3f53d69e	0.82749355
46	0xbe14c993	-0.1453002
47	0xbf384841	-0.7198525
48	0xbe245b16	-0.16050372
49	0x3d9374bc	0.072
50	0xb8b87c00	-8.7969005e-05
51	0xbdc2e8d7	-0.09517067
52	0x3c0e9a40	0.008703768
53	0xbf1b3d27	-0.60640186
54	0x3a75bf70	0.0009374535

weight f4 [55, 55]
0	0xb91ddf00	-0.00015055761
1	0x3a9c9280	0.0011945516
2	0xbc3194b9	-0.010838681
3	0x3dd22f89	0.10262973
4	0x3de93fcd	0.11389122
5	0xb908348e	-0.00012989549
6	0x3e880032	0.2656265
7	0xbe47c3f6	-0.19508347
8	0x3d7687b6	0.060188018
9	0x3aaad36c	0.0013032979
10	0x3c24ebb0	0.010065958
11	0xbb350350	-0.0027620383
12	0x3cc922b4	0.02455268
13	0x399f1cc0	0.00030348264
14	0xbf16c3ae	-0.58892334
15	0xbc5f2503	-0.013619664
16	0x3d49cc28	0.049266964
17	0xb49831ec	-2.834853e-07
18	0x3bf81798	0.007571172
19	0x3c58fe40	0.013244212
20	0xbc3a472c	-0.011369508
21	0x3966e650	0.00022020307
22	0xb98b80a7	-0.00026608
23	0xb9867e52	-0.00025652588
24	0xbc251f22	-0.010078223
25	0x3c51304b	0.012767862
26	0xbd98cac8	-0.074605525
27	0xbcf622ef	-0.030045955
28	0xbc77cec6	-0.015124982
29	0x39f98647	0.00047593025
30	0x3c588dcb	0.0132174
31	0x3c1bc006	0.009506231
32	0xbc580bbc	-0.013186391
33	0xbb65f280	-0.0035087168
34	0x3cd19b48	0.02558674
35	0x3bccf98c	0.0062553342
36	0x39de01ec	0.00042344572
37	0x3d9b8bf0	0.0759505
38	0xb89a5a76	-7.360142e-05
39	0xbea2b5f0	-0.31779432
40	0xbc172b2d	-0.0092266025
41	0xbcafcd84	-0.021460302
42	0x3e27244e	0.16322443
43	0x3d9534be	0.072854504
44	0xbc2592b0	-0.010105774
45	0xbb4dfb50	-0.0031430312
46	0x3a5b18d6	0.0008357888
47	0x3c8f713a	0.017510045
48	0xbd184e1e	-0.037183873
49	0x3d3996b7	0.04530975
50	0xbd0c4f34	-0.03425522
51	0xbb6c7a05	-0.0036083471
52	0xb9946c5a	-0.00028309488
53	0x39760779	0.00023463172
54	0xbdc29962	-0.09501912
55	0x38d391d4	0.00010088427
56	0x3def11c4	0.116733104
57	0x3b226233	0.002477777
58	0x3db43816	0.0879976
59	0xb9a9d577	-0.00032393236
60	0xbe87604f	-0.26440665
61	0x3cc2991c	0.023754649
62	0x3c16d482	0.009205939
63	0x3c3705ec	0.0111708455
64	0xbdac3124	-0.0840781
65	0x3f8db819	1.1071807
66	0x3c05ad90	0.008159056
67	0x3e055a48	0.13022721
68	0x3c2993d0	0.010350183
69	0xbb06ae24	-0.0020550573
70	0x3e090796	0.133818
71	0x3a2889ed	0.0006429244
72	0x3d211acc	0.039332196
73	0x3aa11633	0.0012289941
74	0x3e5144bb	0.20436375
75	0xbcfcd416	-0.03086285
76	0xbd2fb8c4	-0.042900816
77	0x3d8ce573	0.068797015
78	0x3d4718b0	0.04860753
79	0xbaf1044c	-0.0018388121
80	0x3d2552f8	0.04036233
81	0x3ebce794	0.3689543
82	0xb9268b90	-0.00015882985
83	0x3b173df8	0.0023077708
84	0x3ae062f0	0.001711933
85	0xbd943a2a	-0.072376564
86	0xbc5aa738	-0.013345532
87	0xc060ee5d	-3.5145485
88	0xbd4fc55d	-0.05072533
89	0x3df6f13f	0.12057733
90	0xbcaa5c98	-0.020796105
91	0xbeac5ef2	-0.33666188
92	0xbe96cd35	-0.29453436
93	0xba3d45b5	-0.0007220165
94	0x3b3832a0	0.0028106347
95	0x3ce62bcb	0.028097054
96	0x3f1c427b	0.6103894
97	0xbc696682	-0.014245631
98	0xbf3e0a9d	-0.74234945
99	0xbc21ac5d	-0.009867755
100	0x3808c000	3.260374e-05
101	0x3eb2f8cb	0.3495544
102	0xbcf010c0	-0.029304862
103	0xbc7c3660	-0.015393823
104	0xbd4e0f60	-0.05030763
105	0x3cb55d56	0.022139233
106	0x3e8ec9e1	0.27888396
107	0x3b133bf7	0.0022466162
108	0x3c29bbe0	0.010359734
109	0xbaf80613	-0.0018922709
110	0xbb4ff69c	-0.0031732684
111	0xbe8989be	-0.268629
112	0xbb437072	-0.0029821661
113	0x3bb170a4	0.005415039
114	0xbb16de64	-0.0023020739
115	0xbdbd42c6	-0.09241252
116	0x3c832212	0.016007457
117	0xbaadc2a0	-0.0013256855
118	0xbf626c1c	-0.8844621
119	0x3e2017e8	0.1563412
120	0x3c109a9a	0.008825922
121	0x3aaae4ac	0.001303812
122	0xbccc9a58	-0.02497594
123	0xb9b921c2	-0.000353111
124	0x3a82a772	0.0009968115
125	0x3ef42329	0.47683075
126	0x3acfb9b7	0.0015848194
127	0xbbab73ec	-0.005232325
128	0xbb490a1e	-0.0030676196
129	0x3c71b686	0.01475299
130	0x3972b62c	0.00023146783
131	0xbf3ad1e0	-0.72976494
132	0xbbaf886a	-0.005356838
133	0xbb6ddd7d	-0.0036295347
134	0x3ec1f64b	0.3788322
135	0x3d666ef3	0.056258153
136	0x3d2ced3a	0.042218424
137	0xbd2eb776	-0.04265543
138	0x3aa562d6	0.0012617956
139	0xbbd66c70	-0.0065436885
140	0xbf0cf0e2	-0.5505506
141	0xbc165048	-0.009174414
142	0x3c88cbb4	0.016698696
143	0xbb65f0f3	-0.0035086244
144	0x3f468a26	0.7755455
145	0xbdce94d6	-0.10086982
146	0x3a99ce5b	0.0011734472
147	0x3ec77a2a	0.3896039
148	0x3d8f7240	0.07004213
149	0xb7ca7432	-2.4134384e-05
150	0xbf0fa61f	-0.56112856
151	0xbeb10873	-0.3457676
152	0xbe5381b5	-0.20654948
153	0x3fa65f2b	1.2997793
154	0xbbf8bc5a	-0.0075908126
155	0x3c9ed6a1	0.019389452
156	0x3efb9e6e	0.4914431
157	0xbdfadd1c	-0.122492045
158	0xbdbb39d4	-0.09141889
159	0x3c56c368	0.013108112
160	0xbd9b0108	-0.07568556
161	0xba9e4200	-0.0012074113
162	0xbf381ed0	-0.71922016
163	0xbf3b165c	-0.7308099
164	0xbcc9b672	-0.02462313
165	0x3c1079d8	0.008818112
166	0x3eb019d8	0.34394717
167	0x3d84ddfc	0.06487653
168	0x3f0f53c9	0.5598722
169	0x3dc3f24c	0.09567699
170	0x3c6befb4	0.014400411
171	0x3c9e1bd8	0.019300386
172	0x3c2e804c	0.010650706
173	0xbe0defa2	-0.13860944
174	0x3d01d98b	0.031701606
175	0xbf0e08de	-0.5548228
176	0xbd6909ce	-0.056894116
177	0xbbc5803a	-0.0060272487
178	0xb766ad00	-1.3749348e-05
179	0xbb8421c0	-0.0040323436
180	0x3bc65d6c	0.006053617
181	0x3c4c1b85	0.012457733
182	0x3c59c9ae	0.013292713
183	0x3b99a10c	0.0046883877
184	0x3f47ec5c	0.7809503
185	0x3d2cf2e2	0.04222382
186	0x3b27739c	0.0025551086
187	0x3ca58b3e	0.020207997
188	0x3b138ce1	0.002251439
189	0xbd1a3112	-0.037644453
190	0x3d76a52b	0.06021611
191	0x3b588224	0.0033036554
192	0xbe1a4c2c	-0.1506812
193	0xbc346a7c	-0.011011716
194	0xbc5cca33	-0.013475942
195	0x3e3788c0	0.1792326
196	0xbe52b842	-0.20578101
197	0x3e0400d0	0.12890935
198	0xbd9db642	-0.077007785
199	0x3fee6968	1.8625917
200	0x3d54ab20	0.05192101
201	0xbbe3fe78	-0.0069578253
202	0xbda0ad64	-0.07845572
203	0xbb09332f	-0.0020935049
204	0x3e247971	0.16061951
205	0xbc01f7e0	-0.007932633
206	0x36b54f38	5.4034426e-06
207	0x3dff14df	0.12455153
208	0xbcc3f87a	-0.023922194
209	0x3ac9aaf8	0.0015386036
210	0xbd895f9b	-0.067076884
211	0xb945519a	-0.00018817783
212	0x3e90a1c4	0.28248417
213	0xbc1e2aba	-0.0096537415
214	0x3daa24f0	0.083078265
215	0x3bcd2d7f	0.006261527
216	0x3de0189b	0.10942193
217	0x3e7634b4	0.24043542
218	0xbe875a38	-0.2643602
219	0x3f950a4e	1.164377
220	0x3c151090	0.009098187
221	0x3cd8402d	0.026397789
222	0xbe3bc12e	-0.18335411
223	0xbb95cefa	-0.0045717927
224	0xbb951588	-0.004549686
225	0x3ec79ce7	0.38986894
226	0x3b698e8d	0.0035637945
227	0xbc00a26a	-0.0078512225
228	0xbb83d2a8	-0.004022915
229	0xbbbfa70c	-0.005848771
230	0x39c47e78	0.0003747826
231	0xb8a214f5	-7.7286655e-05
232	0xbeb9db56	-0.36300153
233	0x3e1695ec	0.14705628
234	0x3c261e77	0.010139099
235	0x3d2c8120	0.04211533
236	0xbd20fadc	-0.03930174
237	0xbd8f692b	-0.07002481
238	0xbc210c0d	-0.009829533
239	0x3fa32de3	1.2748379
240	0x3eddf62c	0.43351877
241	0x3c267e06	0.010161882
242	0xbb952209	-0.0045511764
243	0x3cabe0d0	0.020981222
244	0x3dfdd4a8	0.123940766
245	0x3b58fa8a	0.0033108317
246	0x3c3bc246	0.011459893
247	0xbb7531d0	-0.0037413724
248	0x3eaf28d6	0.34210843
249	0x3b2ef820	0.0026698187
250	0x3d90c8d3	0.07069554
251	0x3ecd5e51	0.4011102
252	0xbb691d17	-0.0035570317
253	0x3dd04f12	0.101713315
254	0xba8b4244	-0.0010624607
255	0xbec00075	-0.3750035

bias f4 [55]
0	0xb9f1202b	-0.0004599107
1	0xbf90b12c	-1.1304069
2	0x3a09298a	0.0005232325
3	0x3c478b41	0.012179197
4	0xbe0532e9	-0.13007702
5	0x3ba4c76a	0.005028655
6	0x3f1e8c20	0.61932564
7	0xbd027918	-0.031853765
8	0xbbbffe4a	-0.005859171
9	0xbdbfa134	-0.09356919
10	0xbcfdbdae	-0.030974235
11	0xbc03c62c	-0.008042853
12	0x3dcb0c5b	0.09914466
13	0xbee1e13e	-0.4411716
14	0x3f50fd11	0.8163615
15	0xbc0a6770	-0.008447513
16	0xbc6b46f2	-0.014360176
17	0x3da76f12	0.08175482
18	0x3e0aaaee	0.13541767
19	0x3d17afff	0.037033077
20	0xbe5a4d6a	-0.21318594
21	0x3b6df1f0	0.0036307536
22	0xbd79195c	-0.0608152
23	0x3cafc304	0.021455295
24	0xbabc4738	-0.0014364487
25	0xbddefc78	-0.10887998
26	0x3c61ea4e	0.013788773
27	0xbe9391c4	-0.28822148
28	0xbcabf344	-0.020990022
29	0xbc24e221	-0.010063679
30	0x3d997740	0.07493448
31	0x37a98809	2.0209716e-05
32	0xbf5122ad	-0.81693536
33	0xbb10f911	-0.0022121111
34	0xbf1f987e	-0.6234206
35	0xbb0c65ca	-0.0021422976
36	0x3e54e4fa	0.20790473
37	0xbef99ce0	-0.487525
38	0xbfad8cc1	-1.355858
39	0x3888c03c	6.520792e-05
40	0x3da862ed	0.082219936
41	0xbd17869a	-0.0369936
42	0x3cd502b8	0.026002273
43	0x3e3f8d98	0.18706357
44	0x3c272800	0.010202408
45	0xbcb0652a	-0.021532614
46	0xb6cce955	-6.106837e-06
47	0xbcf59cb0	-0.029981941
48	0x3c789800	0.015172958
49	0x3cd910b8	0.02649723
50	0xbe81d26b	-0.2535585
51	0xbc8ef72e	-0.017451849
52	0x3cd887b8	0.026431903
53	0xbc9cb8af	-0.019131033
54	0x3d9cbce3	0.07653215

weight f4 [1, 55]
0	0x3b578520	0.0032885745
1	0x3b72bc3a	0.0037038461
2	0xbb895050	-0.004190482
3	0x3dbe0371	0.09278
4	0x3cddd9a4	0.027081318
5	0xb9c53916	-0.000376173
6	0xbb0fb8fe	-0.0021930332
7	0x3cefcdc1	0.029272916
8	0x3d223c4e	0.039608292
9	0xbb63f3af	-0.0034782698
10	0x3c941d26	0.018080305
11	0x3c24d631	0.010060833
12	0xbb09875c	-0.0020985221
13	0x3e52477c	0.20535082
14	0x3b97ab28	0.0046285577
15	0x3d53b758	0.051688522
16	0xbb99cd1f	-0.004693642
17	0x3bf3acf8	0.007436391
18	0x40422f28	3.0341282
19	0xbc101c14	-0.008795757
20	0x3d392254	0.045198753
21	0x3f505548	0.8138013
22	0x3e6f71a7	0.23383199
23	0xbde51efe	-0.11187552
24	0xbee19f08	-0.44066644
25	0xbf2fd5b6	-0.6868547
26	0xbceeedc7	-0.029166115
27	0x3dc25727	0.09489279
28	0xbbe0f8e0	-0.0068656057
29	0xb887a8da	-6.468753e-05
30	0x3d5a9bb1	0.053371135
31	0xb9a6cb80	-0.00031813607
32	0x3a6dd6d0	0.0009072842
33	0x3e431272	0.19050005
34	0x3b06a299	0.0020543693
35	0xbf11551e	-0.56770504
36	0x3c6283d3	0.013825375
37	0x3c93487e	0.017978903
38	0x3eefbf88	0.46825814
39	0x3b079b94	0.0020692097
40	0x39aa36e0	0.00032465812
41	0x3efe2b33	0.49642333
42	0xbd28c74a	-0.04120568
43	0xbd858406	-0.06519322
44	0x3be65c40	0.00703004
45	0xbdb9b5f4	-0.09067908
46	0xbcc15d6c	-0.023604117
47	0xbf1966c0	-0.5992241
48	0xbb19cf5f	-0.002346955
49	0x3d1617c0	0.036643744
50	0x37abe91a	2.0493335e-05
51	0x3cd0edf3	0.025504088
52	0x3c3169ba	0.01082843
53	0x3b9e54e6	0.004831898
54	0x3bdc288a	0.0067187

add_tensors f4 [55, 6]
0	0xbe767bb2	-0.24070624
1	0x3e73241e	0.23744246
2	0xbe2caf12	-0.16863659
3	0x3df9d9eb	0.12199768
4	0x3e6ffc49	0.23436083
5	0x3b6f8e92	0.0036553484
6	0xbdf9d395	-0.12198559
7	0x3a812d0b	0.0009855343
8	0xb7b87dc9	-2.1993083e-05
9	0xbbc5090d	-0.006013042
10	0xbff74900	-1.9319153
11	0x3a300133	0.0006714046
12	0x3e4c3e9e	0.19945762
13	0x3be769b9	0.0070621637
14	0xbdb38761	-0.08766056
15	0xbd2ae387	-0.041720893
16	0xbbf0db6a	-0.007350375
17	0x39e2978b	0.00043218987
18	0xbb9ac810	-0.0047235563
19	0xbb38f515	-0.0028222252
20	0xba4d49a1	-0.0007831101
21	0xba363817	-0.0006951107
22	0xbcd0e467	-0.025499536
23	0xbeea7466	-0.4579193
24	0xbbb962c0	-0.005657524
25	0xbe973479	-0.2953222
26	0xbc95d3a9	-0.018289404
27	0xb9d215ec	-0.00040070654
28	0xbb474e67	-0.0030411722
29	0x3f1ec696	0.6202177
30	0x3d4d0c99	0.050060842
31	0x3e3a7061	0.18206932
32	0xbe021c0c	-0.12706012
33	0xbf165b0c	-0.58732677
34	0xbe49691f	-0.19669007
35	0xbd13ad84	-0.03605415
36	0xbeef7e2a	-0.46775943
37	0xbacba2a4	-0.0015536142
38	0xbe420d09	-0.18950285
39	0xbe399d2a	-0.1812636
40	0xbf57f942	-0.8436471
41	0xbeb2a8a6	-0.34894294
42	0xbe5cf3af	-0.21577333
43	0xbd132d21	-0.03593171
44	0x3f183f4d	0.5947159
45	0x3e91ff9d	0.2851533
46	0x3af32fb7	0.0018553649
47	0xbf176c0f	-0.5914926
48	0xbd204508	-0.039128333
49	0xbd1b1c76	-0.03786894
50	0xbbf5d5a7	-0.007502276
51	0x3cac3671	0.021022053
52	0xbca03452	-0.019556198
53	0xbc309fc7	-0.010780281
54	0xbcec8fb1	-0.028877111
55	0xbe3aed89	-0.18254675
56	0xbe05d788	-0.130705
57	0xba5a9240	-0.0008337833
58	0x3dcd25ad	0.10016952
59	0x39946752	0.0002830574
60	0xba41fc18	-0.00073999306
61	0xbcfe0ae9	-0.031011062
62	0x3f102692	0.56308854
63	0x3d05e9a0	0.032693505
64	0xbb849a20	-0.0040466934
65	0xbd9f6faa	-0.0778497
66	0x3ea6d30e	0.32582897
67	0xbd027e3f	-0.03185868
68	0x3dd9a75c	0.106276244
69	0x388ba4d9	6.658742e-05
70	0xbf08be86	-0.53415716
71	0xbd9eed93	-0.077601574
72	0x3b2df256	0.0026542149
73	0xbcb4b53c	-0.022059076
74	0x3dad5578	0.084635675
75	0xbc98def6	-0.018661004
76	0x3baf10f8	0.005342599
77	0x3acc49d8	0.0015585972
78	0xbe7122fe	-0.23548505
79	0x3d0905dc	0.033452854
80	0x3f141875	0.5784982
81	0x3e13c13d	0.14429183
82	0xbdd2e5d3	-0.10297742
83	0xbe5ca07e	-0.21545598
84	0x3dddfc6b	0.108391605
85	0x3f112695	0.56699497
86	0xbd9aada2	-0.07552649
87	0xb8d7051a	-0.00010252949
88	0x3d2243e4	0.039615527
89	0xb9d983bc	-0.00041487615
90	0x3bdada22	0.0066788355
91	0x3dd59ce0	0.10430312
92	0xbc91f960	-0.017819107
93	0x3e0ec6ca	0.1394302
94	0xbd43b36c	-0.047778532
95	0x3d8f89c7	0.07008701
96	0x3d25a98c	0.040444896
97	0xbd24e040	-0.040252924
98	0x3d8a34a7	0.06748324
99	0xbb9d1447	-0.004793677
100	0xbdbf4be7	-0.09340649
101	0xbe3bf40a	-0.18354812
102	0xbe2e777a	-0.17037764
103	0x3c37382b	0.011182825
104	0xbe25a191	-0.16174914
105	0x3dfe78d5	0.12425391
106	0xbf1b6c88	-0.6071248
107	0xbc67dfca	-0.014152477
108	0xbfa6bc7c	-1.3026271
109	0xbe7e0500	-0.24806595
110	0xbcd9c2d4	-0.02658216
111	0x3e0c9fa9	0.1373278
112	0xbdc45c91	-0.09587968
113	0xbb45a313	-0.0030157014
114	0xbf101d6a	-0.5629488
115	0x3b376d78	0.0027988832
116	0x3caca6be	0.021075603
117	0x3c07b6c1	0.008283318
118	0xbe25a46f	-0.16176008
119	0x3ca12578	0.019671187
120	0x3d924f8f	0.07144081
121	0x3d258393	0.040408682
122	0x3da5eb5c	0.08101532
123	0xbc105927	-0.008810318
124	0xbf7f186c	-0.9964664
125	0x3e84d50b	0.2594379
126	0xbbd340b0	-0.0064469203
127	0xbe7b0974	-0.24515325
128	0xbf3eacd0	-0.7448244
129	0xbef2b754	-0.47405493
130	0x3eb9e50e	0.36307567
131	0x3dc77406	0.097389266
132	0xbe40b2cb	-0.18818204
133	0x3f00b7f4	0.5028069
134	0xbe03e1f7	-0.12879167
135	0x3dcab3e2	0.09897591
136	0x3e633c9f	0.22191094
137	0xbc6effe4	-0.014587376
138	0x3d5663f9	0.052341435
139	0xbd1dfbd6	-0.038570248
140	0x3f9fe844	1.2492757
141	0x3fc25967	1.5183533
142	0xbf129b9b	-0.57268685
143	0xba986e18	-0.001162949
144	0x3d543461	0.051807765
145	0x3e4565e6	0.19277152
146	0xbd8d4a03	-0.06898882
147	0xbd613b3a	-0.054988123
148	0x3cff66eb	0.031177005
149	0xbdfc9f36	-0.123350546
150	0x3cb7a7f3	0.022418952
151	0xbca6c23a	-0.020356286
152	0xbd1b390b	-0.037896197
153	0xb9e629db	-0.00043900203
154	0xbebf784d	-0.3739647
155	0x3b8bdc60	0.004268214
156	0x3b044189	0.0020180664
157	0xbdf0ec3c	-0.11763808
158	0xbb497afe	-0.0030743475
159	0xbce2e96e	-0.027699199
160	0xbf8089ec	-1.004209
161	0x3ff66354	1.9249063
162	0x3c077f05	0.00827003
163	0xbc26fc9c	-0.010192063
164	0x3edb27ea	0.4280389
165	0xbf2b1cf6	-0.66841066
166	0xbb80ab58	-0.0039266758
167	0x3bc87e3d	0.0061185644
168	0x3e8c1ea7	0.27367136
169	0xbba6cbf6	-0.005090232
170	0xbec90a3f	-0.3926563
171	0x3bc83599	0.006109905
172	0x3e689c34	0.22715837
173	0xbd9b279e	-0.07575916
174	0x3d9fdd9c	0.078059405
175	0x3b6c52e7	0.0036060156
176	0xba21e2e4	-0.0006175472
177	0xbd375e9e	-0.04476797
178	0xbdf23afd	-0.11827657
179	0x3c7359b5	0.014852931
180	0x3cbd4bb3	0.023107385
181	0xbcd1561b	-0.025553754
182	0xbdb6bd43	-0.089228176
183	0x3cfea9be	0.031086799
184	0xbee37ecf	-0.44432685
185	0x3dd72974	0.105059534
186	0xbbb2881a	-0.0054483535
187	0x3d211662	0.039327987
188	0xba562088	-0.00081682997
189	0xbed13cee	-0.40866798
190	0x3d52f27b	0.05150078
191	0xbbe3633c	-0.00693932
192	0x3e2ad8f7	0.16684328
193	0x3a048443	0.0005055109
194	0x3b305068	0.0026903395
195	0x3e16e55e	0.14735934
196	0xbeb6485d	-0.35602084
197	0x3b4e1106	0.0031443252
198	0x3baf6921	0.0053531085
199	0xbd370a2c	-0.044687435
200	0x3ef26a4d	0.47346726
201	0x3f8046db	1.0021623
202	0xbd04d422	-0.032428868
203	0xbab3d8c8	-0.0013721222
204	0xbf0035f5	-0.5008233
205	0xb8f7f6b6	-0.00011823831
206	0x408b422b	4.351827
207	0x3e19ad34	0.15007478
208	0x3b08bdcc	0.002086508
209	0x3d30a543	0.043126356
210	0xbd756793	-0.05991323
211	0x3f37cec0	0.7179985
212	0xbc99fb4d	-0.018796587
213	0x3e3269a0	0.17423105
214	0x3d9df3c2	0.07712509
215	0x3e45ba42	0.19309333
216	0x40a080d9	5.0157285
217	0xbe6415fd	-0.22274013
218	0xbd109731	-0.035300437
219	0x3e69713f	0.22797106
220	0x3eb0ac93	0.34506664
221	0xbe47665a	-0.19472638
222	0xb7905431	-1.7205342e-05
223	0xbb4512e8	-0.0030071083
224	0x3d8f4a97	0.06996649
225	0x3dc8d2e1	0.09805847
226	0x3c4fcb45	0.012682741
227	0xc1287e1e	-10.53079
228	0xbadbe94a	-0.00167779
229	0x3e2bbeba	0.16771975
230	0x3dcff4ca	0.10154112
231	0xbafdbaaf	-0.0019358004
232	0x3d5295f1	0.051412527
233	0x3f1a8a73	0.60367507
234	0xbcbfde05	-0.023421297
235	0xbbbe0fc6	-0.00580022
236	0xbda37aa1	-0.07982374
237	0x3c29d7a9	0.010366359
238	0xbb8c2082	-0.004276336
239	0xbdbd0639	-0.092297025
240	0x3e6c7f65	0.23095472
241	0xbf5fd1d6	-0.8742956
242	0x3eb8469a	0.35991365
243	0x3e27cbd7	0.16386352
244	0xbfafac89	-1.3724529
245	0x3b951506	0.0045496253
246	0xba7e3107	-0.00096966367
247	0xbaddf380	-0.001693353
248	0xbd18d832	-0.037315555
249	0x3dc669d3	0.09688153
250	0x3c36d764	0.011159752
251	0xbcf5c8d8	-0.030002996
252	0xbb239951	-0.002496321
253	0x3a83693a	0.0010025867
254	0xbc9039ef	-0.01760575
255	0x3bc59a61	0.0060303663

add_tensors f4 [55]
0	0x3a295b6c	0.00064604613
1	0xbdd72445	-0.10504965
2	0x3e08a231	0.13343121
3	0x3be12287	0.006870571
4	0xbb13b7b7	-0.0022539923
5	0x3d16cd7a	0.03681705
6	0xbd82875c	-0.06373474
7	0x3cbcba61	0.023038091
8	0x3c822cf5	0.015890578
9	0x3d0e4ad3	0.034739327
10	0x3c48cd00	0.012255907
11	0xba49ff35	-0.00077055703
12	0x3def33ca	0.116798
13	0x3bddc731	0.00676813
14	0x3d254e23	0.04035772
15	0xb921809b	-0.00015402066
16	0xbf1b34d4	-0.60627484
17	0x3eff4fa8	0.4986546
18	0xb9ae1cff	-0.0003320947
19	0x3ab8cd4f	0.0014099273
20	0x3c3d7c70	0.011565313
21	0x3e6d6db6	0.23186383
22	0xbeb9eeae	-0.3631491
23	0xbe2a6124	-0.16638619
24	0x3cc7af81	0.024375679
25	0x3f0616ef	0.52378744
26	0xbc0bd934	-0.008535672
27	0xbbc0b3ca	-0.0058808075
28	0x3b41cd3d	0.0029571794
29	0xbc5fdc42	-0.013663353
30	0xbc94dc07	-0.018171323
31	0x3e0a4847	0.13504134
32	0x3c10eb56	0.008845171
33	0xbeed8a40	-0.4639454
34	0xb93239e7	-0.00016996973
35	0xbdaa5dae	-0.08318649
36	0xbeb24b4d	-0.34823075
37	0x3cba8f10	0.022773296
38	0x3d7a53ac	0.061114952
39	0x3e6a3745	0.22872646
40	0x3cb748ea	0.022373635
41	0x374da65a	1.2257684e-05
42	0x3d95ff4d	0.073240854
43	0x3f30b0d2	0.69019806
44	0xbee4f54b	-0.44718394
45	0xbd51779d	-0.051139463
46	0xbd96a912	-0.07356466
47	0xbebeadde	-0.37242025
48	0xbcc72961	-0.024311723
49	0x3d128788	0.035773784
50	0xbc84367e	-0.016139265
51	0x3d9867c3	0.07441666
52	0xbd970c09	-0.073753424
53	0x3d2f266b	0.042761248
54	0x39bfe959	0.00036604216

add_tensors f4 [55, 55]
0	0x38a93d00	8.06991e-05
1	0xbde60134	-0.11230698
2	0xbbea7acc	-0.007155752
3	0x3d7da2e1	0.06192291
4	0xba1fa5c3	-0.0006090069
5	0xb9b1733f	-0.00033845936
6	0x3e30a270	0.17249465
7	0xbccf97af	-0.025340883
8	0x3cc60471	0.02417204
9	0x3c1487c4	0.009065572
10	0xbd89fced	-0.06737695
11	0xbcbebe68	-0.023284152
12	0x3c32e9cc	0.010919999
13	0x3b844954	0.0040370617
14	0xbed448b0	-0.41461706
15	0xbc04990a	-0.008093128
16	0x3db28f8c	0.08718786
17	0x34944314	2.7615954e-07
18	0xbb4071b1	-0.002936464
19	0x3d039ace	0.032130055
20	0xbd086353	-0.033297848
21	0xb8986271	-7.266261e-05
22	0x39e0c779	0.00042873228
23	0x38e022b6	0.00010687618
24	0x3a92e305	0.0011206573
25	0xbc6fd931	-0.014639185
26	0xbe42d4d4	-0.190265
27	0x3c95a269	0.01826592
28	0xbbfcf8af	-0.007720075
29	0xb91fca3a	-0.00015238757
30	0x3b4903a5	0.0030672338
31	0x3bb08937	0.005387451
32	0x3c900d42	0.017584447
33	0xbd16d168	-0.0368208
34	0xbe0873a6	-0.13325366
35	0xbc8a4bb5	-0.016881803
36	0xb8b5d689	-8.670713e-05
37	0x3d499a5f	0.049219485
38	0xb81ff034	-3.813226e-05
39	0x3f4b4c60	0.79413414
40	0xba20807d	-0.0006122662
41	0x3d1b75b9	0.037954066
42	0x3dceac19	0.10091419
43	0x3d0bef5a	0.03416381
44	0x3e3be807	0.1835023
45	0xbc3ffad3	-0.011717516
46	0xb9338ce1	-0.00017123252
47	0xbc198d6b	-0.009372096
48	0x3c35a9ea	0.011087874
49	0x3cc1491f	0.023594437
50	0x3d2b0c9a	0.041760065
51	0xbaa3058c	-0.0012437566
52	0x39562dd5	0.00020425704
53	0x388fde22	6.860147e-05
54	0xbd313f17	-0.043273058
55	0x370dcb81	8.451637e-06
56	0xb833fe32	-4.2913663e-05
57	0x3a45134b	0.00075178285
58	0x3ca53a76	0.020169478
59	0xb7d3d84b	-2.525388e-05
60	0x3eaf5f45	0.34252372
61	0xbc64f728	-0.013974942
62	0x3a615aa8	0.00085965777
63	0x3b954cba	0.0045562657
64	0x3e20fd8d	0.15721722
65	0x3f3fe2a3	0.74955195
66	0x3d3c93ae	0.046039276
67	0x3ee089a6	0.43855017
68	0x3d09ba91	0.03362519
69	0x39e9d5de	0.00044600567
70	0x3d3cf1ee	0.04612916
71	0xba3880a5	-0.00070382125
72	0x3ca67459	0.02031915
73	0x3a19a556	0.0005861124
74	0x3dcbd06f	0.09951865
75	0xbc18b5cc	-0.0093206875
76	0x3dd39d72	0.10332765
77	0xbdd09ca5	-0.101861276
78	0xbd0145e4	-0.031560794
79	0xb72b2e3f	-1.0203162e-05
80	0x3baad0a3	0.0052128597
81	0x3e6d13d8	0.23152101
82	0x3a753c1c	0.00093549653
83	0xb88fd581	-6.8585396e-05
84	0x3a2cac34	0.00065869396
85	0x3cdd2eb8	0.026999816
86	0x39cd57a7	0.00039165953
87	0xc00cc787	-2.1996782
88	0x3c211cf7	0.009833566
89	0x3bb67262	0.0055678347
90	0xbe305a00	-0.17221832
91	0xbe2f1062	-0.17096093
92	0xbc943f83	-0.018096691
93	0xbab9ec43	-0.0014184791
94	0xba9e2ea1	-0.001206834
95	0x3b49cf58	0.0030793753
96	0x3e6651e8	0.22492182
97	0xbba5a6e2	-0.0050552944
98	0xbe18c811	-0.1492007
99	0xbb6a7a8b	-0.0035778608
100	0xbd8db297	-0.06918829
101	0x3d0c3e1b	0.034238916
102	0xbc1045ab	-0.008805673
103	0x3ec663cb	0.3874801
104	0xbed5b312	-0.41738182
105	0x3c441904	0.011968855
106	0x3d395765	0.04524936
107	0xba3aef67	-0.00071310106
108	0xbc00faa6	-0.007872259
109	0x3a77a01a	0.0009446159
110	0xba912a20	-0.0011075176
111	0xbdea6d99	-0.11446685
112	0xbae555f4	-0.001749693
113	0x3c9ecbe3	0.01938433
114	0x39c979a2	0.0003842833
115	0x3d370a65	0.044687647
116	0x3d226fba	0.039657332
117	0xbc177aad	-0.009245557
118	0xbed31ca0	-0.41232777
119	0xbdfb5b5b	-0.12273284
120	0x3c820d5f	0.015875516
121	0x3bc6b591	0.006064125
122	0x3b96c8a6	0.004601556
123	0xba58fd29	-0.000827747
124	0xbaed1272	-0.0018087162
125	0xbe80210f	-0.25025222
126	0xbabe6115	-0.0014524782
127	0x3bcd55e2	0.0062663415
128	0xbbe3b1ab	-0.00694867
129	0x3bb4fb1d	0.005523099
130	0x37c0aceb	2.2968705e-05
131	0xbe4ecb5b	-0.20194761
132	0xbb4de91c	-0.0031419462
133	0xba677224	-0.0008828959
134	0x3e850b7f	0.25985333
135	0xbd2c7701	-0.04210568
136	0xbc7c45eb	-0.015397529
137	0xbdc2825c	-0.0949752
138	0xbac4f002	-0.0015025141
139	0xbcbd924c	-0.023141049
140	0xbeb66a1e	-0.35627836
141	0x3bbf98e6	0.0058470843
142	0xbc57e70a	-0.013177643
143	0x3b216d63	0.002463185
144	0x3ed0f3a6	0.4081089
145	0x3cd7bb08	0.0263343
146	0xba31dc2a	-0.0006784821
147	0x3e42bb83	0.19016843
148	0x3cf81bed	0.030286754
149	0xb598efc8	-1.1394668e-06
150	0xbe9e9503	-0.30973062
151	0xbe2ef1b3	-0.17084388
152	0x3c9764e9	0.018480735
153	0x3d462f23	0.048384797
154	0x3c173c17	0.009230635
155	0x3c092563	0.00837073
156	0xbd1be9c4	-0.038064733
157	0xbe8b1aa4	-0.27168763
158	0xbd47b2e4	-0.048754588
159	0x3d132ce8	0.035931498
160	0xbc5b3bc0	-0.013380945
161	0xbcafe5d9	-0.021471905
162	0xbec74264	-0.3891784
163	0xbe5e5fd4	-0.21716243
164	0x3b0bc68f	0.0021328067
165	0x3b8edc61	0.0043597673
166	0x3e69cddf	0.2283244
167	0x3b45a5ce	0.0030158642
168	0x3e529a39	0.20566644
169	0x3d5e3d79	0.054257844
170	0x3d3d9cfc	0.04629229
171	0x3be13a58	0.00687341
172	0x3b649187	0.003487678
173	0xbd99e24e	-0.07513867
174	0xbcf74c36	-0.030187707
175	0x3e9131bc	0.28358257
176	0xbce587f5	-0.02801893
177	0x3c72c663	0.014817807
178	0xba0bb8ff	-0.0005329996
179	0x3a8b1d44	0.001061358
180	0x3b3d3330	0.0028869621
181	0xbb38464d	-0.0028118074
182	0x3a3bb8be	0.00071610126
183	0xbb39937c	-0.0028316667
184	0x3e99d521	0.30045417
185	0x3d9a13f9	0.07523341
186	0x3c3d8393	0.011567014
187	0x3c43ac12	0.01194288
188	0x39e01396	0.00042739202
189	0xbbcfcf87	-0.006341878
190	0xbc37ad14	-0.011210699
191	0xbc26d48f	-0.010182514
192	0xbbd232d9	-0.006414753
193	0xbd0825e5	-0.033239264
194	0x3b16190c	0.0022903113
195	0xbd1d36eb	-0.038382452
196	0xbdef039a	-0.11670609
197	0x3d57e042	0.052704103
198	0xbd262645	-0.04056384
199	0x3f843c16	1.0330837
200	0x3edebd50	0.4350381
201	0xbb19a143	-0.0023442067
202	0xbb80a795	-0.0039262273
203	0xb9fc1df5	-0.00048087505
204	0x3dc3a620	0.0955317
205	0xbea5dfd5	-0.32397333
206	0x3448dd0d	1.870687e-07
207	0xbd47c302	-0.04876996
208	0xbc6462d0	-0.013939574
209	0xbbe11612	-0.006869086
210	0xbc6808f9	-0.0141622955
211	0x39dabc87	0.00041720664
212	0x3df96fae	0.12179504
213	0x3c83fb66	0.016111087
214	0xbece2865	-0.40265194
215	0xbb99a787	-0.0046891603
216	0x3d55cd92	0.052198
217	0x3da4d907	0.08049207
218	0xbe070ba4	-0.13188034
219	0x3f07d132	0.5305358
220	0xbe2314f3	-0.1592596
221	0x3d487b84	0.04894592
222	0x3e8c432c	0.27394998
223	0xba9f8ec9	-0.0012173291
224	0xbceb066a	-0.028689582
225	0xbbf89f59	-0.007587355
226	0xbb108055	-0.0022049148
227	0x3bb28179	0.0054475632
228	0xbaf13d80	-0.0018405169
229	0xbb2719f8	-0.0025497656
230	0x3b04a7eb	0.0020241688
231	0x37ab5135	2.0422603e-05
232	0x3ef66a6e	0.48128074
233	0x3d9a319f	0.07528996
234	0xbc43f74b	-0.011960815
235	0x3e63908d	0.2222311
236	0xbe4c531e	-0.19953582
237	0x3b2ce5a2	0.002638199
238	0x3c1e6d61	0.009669633
239	0x3d41777b	0.047233086
240	0xbff14523	-1.8849224
241	0xbc8d3e95	-0.017241756
242	0xbb1b3c27	-0.0023686977
243	0x3dd56524	0.10419682
244	0x3d76bbe1	0.06023777
245	0x3aa2f2fd	0.0012432035
246	0xbb5377a8	-0.0032267366
247	0xbd1abc36	-0.03777715
248	0x3cfa2c54	0.030538715
249	0xbcf5b318	-0.029992625
250	0x3d0d3c56	0.03448137
251	0xbe77f0fe	-0.24213025
252	0xba36cd7c	-0.00069733686
253	0xbdb3e8f2	-0.08784665
254	0xb9cba917	-0.0003884516
255	0x3eea10d5	0.45715967

add_tensors f4 [1, 55]
0	0xbaf92271	-0.0019007457
1	0x3c0d4f8b	0.008624922
2	0x3dd0eef5	0.102018274
3	0x3cd6859f	0.026186762
4	0x3c5c14df	0.01343271
5	0x39a0b870	0.00030654995
6	0xba17cc0a	-0.0005790597
7	0x3bc147c3	0.0058984472
8	0xbc21319d	-0.009838489
9	0xbbdad511	-0.0066782315
10	0x3d1b21e4	0.037874117
11	0x3b566fc3	0.0032720424
12	0xba6e6a30	-0.00090948027
13	0xbe02344c	-0.12715262
14	0xbc89586e	-0.0167658
15	0x3cd6ca51	0.026219519
16	0xba82752b	-0.0009953132
17	0x3ba3c175	0.004997427
18	0x3f5d2738	0.8638797
19	0x3d50da6b	0.05098955
20	0x3cd1be13	0.02560333
21	0x3ef65fb7	0.481199
22	0x3d3b92ab	0.04579417
23	0x3cd87e5e	0.026427444
24	0x3f7e93ee	0.9944447
25	0xbe9ae8b5	-0.30255666
26	0xbb4a09d9	-0.0030828624
27	0xbd7df932	-0.06200523
28	0x3e7b5641	0.24544622
29	0xb99875d3	-0.00029079485
30	0x3bc2c669	0.0059440625
31	0xbd45306b	-0.048141878
32	0xbb2a0fcc	-0.0025949357
33	0x3dfd0919	0.12355251
34	0x39df7ac9	0.00042625357
35	0xbec330c1	-0.38123134
36	0x3a53508b	0.0008061013
37	0xbd19abd1	-0.037517373
38	0x3e260382	0.16212276
39	0x3bc3ea46	0.0059788553
40	0x3a8c62be	0.001071058
41	0x3e95ee1e	0.29283231
42	0xbc281842	-0.01025969
43	0xbbd16eac	-0.006391367
44	0xbe42f776	-0.19039711
45	0xbef29a25	-0.47383228
46	0x3c1c3160	0.009533256
47	0xbe10bf68	-0.14135516
48	0xb9ca4ff8	-0.00038588024
49	0xbd94669e	-0.07246135
50	0xb6cd7b99	-6.1238648e-06
51	0x3c8d061b	0.017214825
52	0xbb951a71	-0.004550271
53	0x3c44c236	0.012009194
54	0xbc729ae3	-0.014807436
