ReLU_harder/TorchSaves/Best_Ball_Gen118.pt (torch_old, 12230 bytes, 9 tensors)

weight f4 [9, 6]
0	0x3deffa7d	0.11717699
1	0xb64a16b8	-3.011357e-06
2	0xb7a48ff6	-1.961736e-05
3	0x3c9327b0	0.01796326
4	0xb72088f4	-9.56863e-06
5	0x3501e240	4.838548e-07
6	0x39696040	0.00022256467
7	0x3b61e1d9	0.003446689
8	0xbd07fc86	-0.03319981
9	0xb84c98ef	-4.877982e-05
10	0xba7bf520	-0.00096114166
11	0xbd1cb84d	-0.0382617
12	0xbafa2014	-0.0019083046
13	0xc07df533	-3.9680908
14	0xc048f083	-3.1396797
15	0x3fb4f4a8	1.4137163
16	0xbe91eac2	-0.28499418
17	0x3aa03df5	0.0012225496
18	0xbb1efbc0	-0.0024258941
19	0xc1419ef6	-12.101309
20	0x3a70cf20	0.00091861375
21	0x3c015b6a	0.00789533
22	0xba371dde	-0.00069853466
23	0xbded1f52	-0.115782395
24	0x3b2aeec8	0.0026082266
25	0x3c80b50d	0.015711332
26	0xb8b69822	-8.706773e-05
27	0x3af77a25	0.0018881006
28	0xbd8fbf62	-0.07018925
29	0x3acf6655	0.0015823344
30	0x3e11976a	0.14217916
31	0x3b6862e4	0.0035459334
32	0xbc6a3d85	-0.014296894
33	0xc08e85a9	-4.453816
34	0x3af248e8	0.0018484863
35	0x3582c46a	9.742919e-07
36	0x34fd7270	4.7208187e-07
37	0x3ee652c8	0.44985032
38	0x3a54f98b	0.0008124343
39	0xbb406150	-0.0029354878
40	0x3e93af88	0.28844857
41	0x3a76d828	0.0009416365
42	0xbbdd0d66	-0.006745982
43	0x3a515dae	0.00079866766
44	0x3935a9ce	0.00017324762
45	0xbf67f801	-0.906128
46	0xbe4e3c8e	-0.20140287
47	0x3df81cbe	0.12114857
48	0xbd4f7882	-0.050652035
49	0xc21014cd	-36.020313
50	0xbf62bfce	-0.8857392
51	0xbd8ae885	-0.06782631
52	0x3b8d19f8	0.004306074
53	0xbe0dd8f6	-0.13852295

bias f4 [9]
0	0x312d308a	2.5202405e-09
1	0x34fc9416	4.7046404e-07
2	0xbb2976d0	-0.0025858171
3	0x3f15814c	0.58400416
4	0xbe58c73a	-0.21169749
5	0x3c6035b1	0.013684676
6	0xb7a463fc	-1.9596882e-05
7	0x409a8fbc	4.8300457
8	0x3d8d64eb	0.06904014

weight f4 [9, 9]
0	0xb5a08630	-1.1959983e-06
1	0x3b13001e	0.002243049
2	0x3c0ea1d5	0.008705576
3	0x359cbc78	1.1677757e-06
4	0xbeb77e55	-0.3583857
5	0x3ab7fa8b	0.001403646
6	0xba94b14a	-0.001134434
7	0x3d112110	0.03543192
8	0x389a4617	7.3563475e-05
9	0x3f72880e	0.9473885
10	0x4025c6d4	2.5902605
11	0x3d264984	0.040597454
12	0x455fe2bb	3582.1707
13	0xba5aef64	-0.0008351712
14	0xbffacb38	-1.9593267
15	0x33d16b90	9.7518864e-08
16	0x3a523720	0.00080190785
17	0x39c08e4e	0.0003672712
18	0xbe7d0bc1	-0.24711515
19	0xb9eb9070	-0.00044930307
20	0xb4e062c8	-4.1795124e-07
21	0x3cc1cf37	0.023658378
22	0x36c645d6	5.90899e-06
23	0x3b52081a	0.0032048286
24	0x35d55f14	1.5897408e-06
25	0xbe07a753	-0.13247423
26	0xbc97701a	-0.018486071
27	0xb39141b0	-6.764037e-08
28	0x3bfb21b9	0.007663932
29	0xb9a9aae2	-0.0003236151
30	0x3727a88e	9.99322e-06
31	0xbcecefda	-0.028922964
32	0xb96f5e66	-0.00022827982
33	0x3a90aa70	0.0011037122
34	0xb8e48574	-0.00010896745
35	0xbae9de08	-0.001784266
36	0xbd85371f	-0.06504654
37	0x3d14ddaf	0.036344226
38	0xbbced826	-0.006312388
39	0xbb48712e	-0.0030585038
40	0xbbd72210	-0.00656534
41	0x3cc441ca	0.023957152
42	0x3aaa46c8	0.0012991065
43	0xb6bc0924	-5.6039007e-06
44	0xc5be249c	-6084.576
45	0xb59bc92e	-1.1606951e-06
46	0x369329f0	4.3858236e-06
47	0x3622b005	2.4242338e-06
48	0xbc99e65a	-0.018786598
49	0xb68e44c8	-4.239937e-06
50	0xbbe38888	-0.006943766
51	0x3b8b1efa	0.004245636
52	0xbc7ae26b	-0.015312771
53	0xbf1f8c70	-0.62323666
54	0x3b8deb60	0.0043310374
55	0xbda7fdba	-0.082026914
56	0xb803fb42	-3.1466836e-05
57	0xbd0993c3	-0.033588182
58	0x3b56e340	0.003278926
59	0x3d1820b4	0.037140563
60	0x3afd538a	0.0019327265
61	0xb8d9773b	-0.00010369575
62	0x4008f7f6	2.1401343
63	0xb9dd9e06	-0.0004227014
64	0xbbcc86ba	-0.0062416466
65	0x3c89fab4	0.016843177
66	0x406239fc	3.534789
67	0xb9b3a464	-0.0003426402
68	0xbd814800	-0.06312561
69	0x3b1a6894	0.0023560869
70	0xbefcf658	-0.49406695
71	0xbc143c3a	-0.009047562
72	0x3ed57264	0.41688836
73	0xbdf6f626	-0.12058668
74	0xbf85c175	-1.0449663
75	0xb7f9bc80	-2.977089e-05
76	0x3c27d808	0.010244377
77	0xb8953970	-7.115572e-05
78	0x3881ab9e	6.1831655e-05
79	0x386b35af	5.6078363e-05
80	0x38fbdc71	0.00012009673

bias f4 [9]
0	0x3d43c790	0.04779774
1	0xbeb99c36	-0.36251992
2	0xb33bca75	-4.3723464e-08
3	0x398ffb0c	0.0002746213
4	0xbfd283b2	-1.644644
5	0x3f5a843b	0.8535802
6	0xbb79ef25	-0.0038136926
7	0x392a245e	0.00016226011
8	0x3c86ea20	0.016469061

weight f4 [1, 9]
0	0xb8f27210	-0.00011560705
1	0xbcdb1adc	-0.026746206
2	0x3bc9cb26	0.0061582504
3	0x393e74ab	0.00018163274
4	0xb88f08ff	-6.820447e-05
5	0xc0031cb8	-2.0486279
6	0x3ebdfbab	0.3710607
7	0xbaf36bc4	-0.0018571545
8	0xb8c4ca70	-9.383715e-05

add_tensors f4 [9, 6]
0	0x3c50fae8	0.012755133
1	0x350f110f	5.3296475e-07
2	0xb6bb3e7c	-5.5803084e-06
3	0x3d9683f6	0.07349388
4	0x387c76c3	6.0192087e-05
5	0x369d3f52	4.686336e-06
6	0x3b0826f7	0.0020775178
7	0x3ab3be9a	0.001371342
8	0xbc8ecc19	-0.017431306
9	0x381fedf9	3.8130183e-05
10	0x3c5b303e	0.013378201
11	0xbcb092cd	-0.021554375
12	0x3a0d420c	0.0005388565
13	0xbf55c698	-0.83506155
14	0xbfe236b4	-1.7672944
15	0x3eff9474	0.49917948
16	0x3edffed8	0.43749118
17	0x38a6775b	7.9377285e-05
18	0xbc74f945	-0.014952009
19	0xc09b2aff	-4.8489985
20	0x3c8216b1	0.01587996
21	0xbb3a00b9	-0.0028381778
22	0x38f52aee	0.00011690507
23	0xbc8c487d	-0.017124409
24	0xbbd2b964	-0.0064307917
25	0x3c06fcf6	0.0082390215
26	0xb7df8286	-2.6644451e-05
27	0x399cb635	0.00029890393
28	0xbc926ef1	-0.017875167
29	0x3a37e08a	0.0007014355
30	0x3b94c7e8	0.0045404322
31	0xbbd68852	-0.0065470124
32	0xbb8fc50a	-0.0043875026
33	0xc031637d	-2.7716973
34	0xbbcecc0a	-0.0063109444
35	0x3418b46e	1.4221743e-07
36	0xb534ef10	-6.7403107e-07
37	0x3e46defb	0.19420998
38	0x39ae155c	0.0003320378
39	0x3a7cffbe	0.00096511457
40	0x404056f9	3.0053084
41	0x39a179ef	0.0003079916
42	0xbaac771a	-0.0013158054
43	0x39863b89	0.0002560283
44	0xb8cafe4c	-9.679477e-05
45	0xbf12e0f2	-0.5737449
46	0xbee7efed	-0.45300236
47	0x3da49f09	0.08038146
48	0xbce9268f	-0.028460769
49	0xc27538c3	-61.30543
50	0xbecbcb2d	-0.39803448
51	0xbd0146c4	-0.031561628
52	0x3cc15a56	0.023602646
53	0xbd8e91db	-0.069614135

add_tensors f4 [9]
0	0xb05c2aa2	-8.009612e-10
1	0xb55b9ef5	-8.181517e-07
2	0xba8cf238	-0.0010753339
3	0x3ecf9882	0.40546042
4	0xbdfcea0b	-0.12349328
5	0xbc138bf7	-0.009005538
6	0xb72eedf7	-1.0426614e-05
7	0xc113dad3	-9.240924
8	0xbb80c89d	-0.003930165

add_tensors f4 [9, 9]
0	0xb5428260	-7.246035e-07
1	0x3a47d939	0.0007623616
2	0xbb691a83	-0.003556878
3	0xb6b4e04a	-5.3905287e-06
4	0xbdbddebb	-0.09270998
5	0xba0a26fa	-0.000527009
6	0xba228ce4	-0.0006200804
7	0x3caed919	0.021343755
8	0x3815f8f0	3.575621e-05
9	0x3f1f4b6d	0.62224466
10	0x3fba1c99	1.4539977
11	0x3c136801	0.008996964
12	0x44a444c4	1314.1489
13	0x3a5ee1e8	0.00085022906
14	0x3fb2ad58	1.395915
15	0x3485200c	2.4796498e-07
16	0xb9861dc9	-0.00025580663
17	0x38148530	3.540999e-05
18	0xbd2a2f4d	-0.041549016
19	0x3bc47699	0.0059955833
20	0xb609d297	-2.053717e-06
21	0xbc5bac2a	-0.013407746
22	0x36278681	2.496323e-06
23	0x39c1d064	0.00036967092
24	0x336dc282	5.5357766e-08
25	0xbebc2d94	-0.36753523
26	0x3c6eb143	0.01456863
27	0xb52912e6	-6.2984907e-07
28	0x3b5a4e5a	0.0033310861
29	0xb7411c1d	-1.1510242e-05
30	0x35da4c1f	1.626442e-06
31	0xbd43b1dc	-0.04777704
32	0xb909d9e9	-0.00013146516
33	0xba3bb95b	-0.0007161104
34	0xb814a676	-3.544098e-05
35	0xbc106c68	-0.008814909
36	0xbc27702d	-0.010219616
37	0xbc54e964	-0.012995098
38	0x3c131845	0.008977954
39	0x3a2e200a	0.00066423474
40	0x3c8fe60c	0.01756575
41	0x3c145bb5	0.009055068
42	0x3becfa96	0.0072320206
43	0x35d4c449	1.5852357e-06
44	0x452376b7	2615.4197
45	0x354b20b3	7.5670977e-07
46	0xb846f706	-4.7436937e-05
47	0x352d6499	6.459391e-07
48	0xbd3c60a3	-0.045990597
49	0xb790dedc	-1.7269915e-05
50	0x3c06612c	0.0082018785
51	0x3c25fd62	0.010131212
52	0xbc083839	-0.008314186
53	0xc01a35c6	-2.409532
54	0x3ce94ff2	0.028480504
55	0xbcb7c588	-0.022433057
56	0x38c01193	9.158547e-05
57	0xbd78e4e5	-0.060765166
58	0x3bcc1c50	0.006228961
59	0x3c50bdb2	0.012740539
60	0x3a9fc6d6	0.0012189995
61	0x3719655a	9.143108e-06
62	0x3fb5d4af	1.4205531
63	0xba989fb6	-0.0011644277
64	0xbc89f8e9	-0.016842322
65	0x3da7039a	0.08154984
66	0xc05ad24c	-3.4190855
67	0x39a8b8b8	0.00032181083
68	0xbd25a8bd	-0.040444124
69	0x3b9a43ae	0.004707775
70	0x3f260950	0.6485796
71	0x3bad619e	0.005291178
72	0x3df07a30	0.117420554
73	0x3e26f8e1	0.16305877
74	0xc03ea836	-2.9790168
75	0x3b2b700f	0.0026159321
76	0x3d11d7b2	0.035606094
77	0xb739e8f1	-1.1081095e-05
78	0x380463c1	3.1564156e-05
79	0x36e5cc38	6.848506e-06
80	0x38538fae	5.0440132e-05

add_tensors f4 [1, 9]
0	0xbaaa90f7	-0.0013013174
1	0x3ba57d58	0.0050503425
2	0x3b27297b	0.0025506902
3	0x38edc1b6	0.00011337122
4	0x3856b772	5.1192423e-05
5	0xc0530d65	-3.2976925
6	0xbe86c887	-0.26324865
7	0x3a170268	0.00057605514
8	0x3a8e24c1	0.0010844694
