ReLU_harder/TorchSaves/Last_Gen1.pt (torch_old, 330085 bytes, 195 tensors)

weight f4 [26, 6]
000000 81 5d bc be ca a2 83 be f0 ae 65 3e 1c de 5a 3e
       -0.36790088 -0.25710136 0.22430015 0.2137379
000010 f4 90 98 3e dd a1 9e be 2c 66 16 3e 34 bf 97 3d
       0.2979809 -0.30982867 0.14687413 0.07409516
000020 64 2e aa 3e ea 17 b9 be 7e e6 c3 be 38 ea 6c 3e
       0.33238518 -0.36151057 -0.3826179 0.23136222
000030 e4 96 22 be 38 0c ed bd c6 41 cd be 30 f2 db bd
       -0.15877873 -0.11574596 -0.40089244 -0.10739553
000040 3e 9e 07 be e3 5d b6 be ab d6 a4 be 05 04 4d be
       -0.13243958 -0.35618505 -0.3219503 -0.20021065
000050 58 7a c3 be 2f a1 68 be 20 14 a6 bd ce b9 c3 3e
       -0.38179278 -0.22717737 -0.08109307 0.38227695
000060 80 a4 c5 3e 84 d8 60 3e 62 77 a2 3e 00 0e 12 3e
       0.38602066 0.21957594 0.31731707 0.14263153
000070 64 75 de bd a8 3e 8f 3e 20 b1 af bd 98 97 ac bd
       -0.10862234 0.2797749 -0.08578706 -0.08427352
000080 14 2c 34 3e e8 c4 8b 3e d9 6e 7d be c4 21 b4 3e
       0.1759494 0.27298665 -0.24749316 0.3518201
000090 72 66 a1 be fc 68 98 be 6c 2b 8d 3d 12 d5 9b 3e
       -0.31523472 -0.29767597 0.06893048 0.30435997
0000a0 44 df 40 3e a2 4f 0a be c7 8c 8f be 76 42 c9 be
       0.18835169 -0.1350694 -0.28037092 -0.39308518
0000b0 d8 fd 7e 3d e0 d6 f1 3c 39 ff a3 be 86 e2 c8 be
       0.062253803 0.029521406 -0.32030657 -0.39235324
0000c0 c0 45 51 be dc a9 16 be 24 21 30 3e 98 3f 1e 3d
       -0.20436764 -0.14713234 0.17200142 0.038634866
0000d0 78 54 8c 3d 64 d9 3f 3e 20 a7 af bd 8a 3b b7 be
       0.06852049 0.18735272 -0.085767984 -0.35787612
0000e0 38 f2 99 bd 32 03 79 be 04 94 c1 3e 60 18 c5 3d
       -0.07516903 -0.24317625 0.3780824 0.0962379
0000f0 a0 1c 7c bd e0 86 51 bd 19 56 8d be 4b a5 7a be
       -0.061550736 -0.051154017 -0.2760475 -0.24477117
000100 72 70 90 3e 0e 47 79 be d4 3e 64 3e 12 6c 8d 3e
       0.2821079 -0.24343511 0.22289592 0.27621514
000110 d2 86 b6 be 7a 31 a5 be b8 22 0c 3e b8 ee eb 3d
       -0.35649735 -0.3226431 0.13685119 0.11520141
000120 48 97 31 bd 9a b2 95 be c0 bb af 3e 08 20 e5 3d
       -0.043357164 -0.29237825 0.3432293 0.1118775
000130 a4 7a e1 bd 30 b2 5c bd de d7 82 be d0 6f a1 3d
       -0.1100972 -0.05388087 -0.2555532 0.07882655
000140 90 e1 65 3d f4 71 7f be f1 4b bd be 08 96 be 3d
       0.056123316 -0.24945813 -0.36972 0.0930596
000150 0c 2e 49 3e 88 9e 1e 3d 84 d1 a2 3e 00 d4 05 3a
       0.19646472 0.038725406 0.31800473 0.0005105138
000160 f0 eb ee 3d 91 13 46 be d8 43 03 3d ef 87 b6 be
       0.11666095 -0.19343401 0.032047123 -0.35650584
000170 a9 f1 af be 16 53 13 be 68 45 f0 3d 7c 11 8c be
       -0.3436406 -0.14387164 0.11731988 -0.2735709
000180 51 5f b8 be 80 4b 7c bc 10 d2 08 be 48 15 29 bd
       -0.3601022 -0.01539886 -0.13361382 -0.04128006
000190 f0 89 c2 3e 1e f0 15 be 38 da 7b 3e 48 d9 9f bd
       0.37995863 -0.14642379 0.24594963 -0.07805115
0001a0 9a 7f c4 be a4 75 a1 be 9e 2b b3 be 58 50 5d be
       -0.38378602 -0.31535065 -0.34994215 -0.2161268
0001b0 30 cf f2 3c 74 f7 29 3e 62 0f 80 be 60 6a 68 be
       0.02963981 0.16598302 -0.25011736 -0.22696829
0001c0 be 59 1d be 00 21 c4 3d 10 c2 c3 3d d0 a4 93 3e
       -0.15366265 0.09576607 0.09558499 0.2883668
0001d0 ac bb 90 be b9 09 4d be 36 02 bc be 6c b3 96 be
       -0.28268182 -0.2002324 -0.36720437 -0.29433763
0001e0 50 5f 2f 3e 0c eb ad 3d 5d fe b5 be 00 20 65 3e
       0.17126203 0.08492097 -0.35545626 0.22375488
0001f0 62 c0 3c be 90 9a 1f 3e 1a f5 a8 3e 42 73 c8 3e
       -0.18432763 0.15586305 0.32999498 0.39150435
000200 a0 6c f3 bd 70 72 96 3e 98 70 bf 3e 24 eb cf 3e
       -0.11885953 0.29384184 0.3739059 0.40609086
000210 e0 29 84 3e 00 b9 fd 3c 00 27 a4 bb c0 a2 e1 bc
       0.25813198 0.030972004 -0.005009532 -0.027543426
000220 e0 e6 cd 3d 26 f0 38 be 2c 10 15 be ae 93 8a 3e
       0.100538015 -0.1806036 -0.1455695 0.27065796
000230 b4 c3 b9 bd ce 73 ce 3e 70 ed 94 be d6 26 31 be
       -0.090705305 0.40322727 -0.290874 -0.17299971
000240 ec c9 80 be 0c 45 34 3e 92 a7 73 be 68 bb 9d be
       -0.25154054 0.17604464 -0.23794392 -0.30807042
000250 6c 4a c2 be 31 1e ab be 94 eb 6d 3e 1c 69 24 3e
       -0.37947404 -0.33421472 0.23234397 0.16055721
000260 10 66 eb bc c8 e7 2e 3e d8 b9 50 3e 54 87 2f be
       -0.02873519 0.17080605 0.20383394 -0.17141467

bias f4 [26]
000000 18 13 34 be e0 1f 17 3c e0 48 fd 3d 60 a4 05 3d
       -0.17585409 0.009223908 0.123674154 0.032627463
000010 e0 f5 a2 be d8 69 46 3d 00 b8 db bb 96 f9 ce be
       -0.31828213 0.048440784 -0.006705284 -0.40424794
000020 0c 26 c3 be ac ef 40 3e ba 42 84 3e a2 9f 9c 3e
       -0.38114965 0.18841428 0.25832158 0.3059054
000030 40 b0 74 3c e8 0e b7 3d 20 90 1b 3e ba e7 c2 3e
       0.014934599 0.0893839 0.15191698 0.38067418
000040 38 b9 6d 3d 4c 41 75 3e 00 e3 e5 bb b0 fc e4 bd
       0.058037966 0.2395069 -0.007015586 -0.11181009
000050 06 30 12 be 1d 1e 85 be 38 ec 23 3e 80 60 70 bc
       -0.14276132 -0.25999537 0.16008079 -0.014671445
000060 bc a8 0f 3e 0c 80 99 bd
       0.14029211 -0.07495126

weight f4 [26, 26]
000000 6c a3 5d 3d a7 4d 21 3e db 6a 0f 3e 0f be 3e 3e
       0.05411093 0.15752278 0.14005606 0.18627189
000010 ce 19 04 be 73 d1 0d 3e c2 dc 8d bd e0 cb cc bc
       -0.12900469 0.1384943 -0.06926872 -0.024999559
000020 66 73 e6 bd 5c 77 16 be e4 81 c5 bd b3 6a 21 3e
       -0.11252479 -0.1469397 -0.09643915 0.15763359
000030 78 6d 38 be f8 dd e0 bd 77 35 be bd d7 cf 2c 3e
       -0.18010509 -0.10979837 -0.09287541 0.1687616
000040 a4 6a 33 3d fa d7 a5 3d c9 32 12 3e ef 77 ac bd
       0.043802872 0.08097835 0.14277185 -0.08421313
000050 7e 8b 17 be bd 7d 44 3e d4 49 66 3d 20 ff 1e bd
       -0.14799306 0.1918859 0.05622275 -0.038817525
000060 a8 f3 85 3c 9b d7 17 3e 7b 83 15 3e 0a 81 e3 bd
       0.016351536 0.1482834 0.14600937 -0.111085966
000070 37 e9 10 3e 12 1d ff 3d 92 be b7 3d 96 ce b9 3d
       0.14151464 0.124567166 0.08971895 0.09072606
000080 d6 63 8a 3d fb 64 32 3e 80 c3 11 be d8 63 d0 bc
       0.067573234 0.17421333 -0.14234734 -0.025438234
000090 ac 86 ec bd 78 60 54 bd bc ad 79 3d bf 3f 12 be
       -0.11549124 -0.051849812 0.0609567 -0.1428213
0000a0 ea e7 fb bd 4a 77 af 3d 3d 88 95 bd e0 98 a4 3c
       -0.123000935 0.085676745 -0.07301376 0.020092428
0000b0 a6 aa d8 3d d9 1f 42 3e 80 77 ea bb 78 75 1f 3d
       0.105794236 0.18957461 -0.007155359 0.038930386
0000c0 78 a5 40 3d cd 7d f6 bd f4 88 e5 bd 6e ce 90 3d
       0.047032803 -0.12035713 -0.11207762 0.07070623
0000d0 ff 88 28 3e df 10 0b be aa 1c e2 3d ed c0 0a 3e
       0.1645851 -0.13580655 0.110406235 0.13550158
0000e0 89 a9 1f 3e 8d ee 0a be 1f ef ef bd 6a 1e 89 3d
       0.15592016 -0.13567562 -0.117155306 0.06695254
0000f0 ee 9c 83 3d 5e 4d 14 be 6a f0 ef 3d 31 5b 37 3e
       0.06426416 -0.14482638 0.11715777 0.1790588
000100 be 32 bd 3d 15 0e 35 be 9c 4c ee bd aa af 1a be
       0.09238194 -0.17681153 -0.11635706 -0.15106073
000110 de d7 9b bd 80 84 02 bc de f0 ee bd 00 5b 7c 3b
       -0.07609533 -0.007966161 -0.116670355 0.0038506389
000120 4a d6 81 bd bf 70 b3 bd c0 6f 64 bd 59 81 11 3e
       -0.063397005 -0.08761739 -0.055770636 0.14209498
000130 18 ab e1 bd 04 09 32 bd ec a5 4b 3d 98 ce 18 3d
       -0.11018962 -0.04346563 0.049718782 0.0373064
000140 a6 c6 be 3d 06 e4 d9 bd 08 ff 82 bc b9 79 af bd
       0.09315233 -0.10639195 -0.015990749 -0.08568139
000150 0c 2b 70 bd 20 74 bd 3b 2c cc a9 bd ce da be 3d
       -0.058634803 0.0057816654 -0.08290896 0.093190774
000160 48 2f a6 3c 6b bc 9a bd 62 b7 be 3d aa 37 b1 3d
       0.020286217 -0.07555469 0.09312321 0.08653195
000170 6a 74 c0 3d a6 5f ac 3d b0 55 87 3c 1c 10 32 bd
       0.09397204 0.08416681 0.016520351 -0.043472394
000180 78 d5 79 bd 73 6e 0d 3e 6d 87 2f 3e 82 cd c9 3d
       -0.060994595 0.13811664 0.17141505 0.09853651
000190 1a 11 d2 bd bc 8d 35 be 66 72 89 3d b6 91 99 3d
       -0.10257168 -0.17729849 0.06711273 0.07498495
0001a0 88 b7 80 3c fa 58 83 3d c0 4c 16 3b 00 d7 19 3a
       0.015712515 0.06413455 0.002293393 0.00058685243
0001b0 83 c6 31 3e 38 5e c4 3c ea a4 1d be 30 40 ae 3c
       0.17360882 0.023970708 -0.15394941 0.021270841
0001c0 d4 32 f0 bd ed 34 3a be b0 d7 33 bd 77 68 2b be
       -0.11728445 -0.18184252 -0.043906868 -0.16739069
0001d0 36 14 0b be 25 5b 20 be bf c8 e6 bd e0 97 82 3b
       -0.13581929 -0.15659769 -0.11268758 0.00398539
0001e0 d0 21 20 be 00 40 4d 3c 3a 58 16 be d6 6b 42 be
       -0.15637898 0.012527466 -0.14682093 -0.18986449
0001f0 30 b9 93 3c f8 47 32 3d 2c d3 87 bd f5 29 cf bd
       0.01803264 0.043525666 -0.06632075 -0.101154245
000200 3e dc 8e 3d 78 1d ed bc 30 b6 06 bd c4 18 4b 3d
       0.069756016 -0.028944716 -0.03288859 0.049584165
000210 a2 48 94 bd 00 5b e3 bb cb f7 17 3e 47 b7 3e 3e
       -0.07240416 -0.0069383383 0.1484062 0.18624602
000220 27 5b 0b 3e 00 a7 63 ba 62 76 d7 3d 2c 5d 26 3d
       0.1360899 -0.0008684248 0.105206266 0.0406162
000230 18 64 8e bd ee 88 a1 3d bd 4e 3c 3e f8 68 44 bd
       -0.06952685 0.078874454 0.18389411 -0.04795167
000240 20 59 14 bd 20 1f 7d bc a3 fa 30 3e 1c 23 51 bd
       -0.03621781 -0.015449315 0.1728311 -0.051058874
000250 03 18 10 3e 3c b1 49 3d 5a 69 28 be d9 0d 0e 3e
       0.1407166 0.04924129 -0.16446438 0.1387247
000260 a0 12 3f 3d 20 3e 7a 3c 00 1b cb ba c0 0e 40 3b
       0.04664862 0.015273601 -0.0015495718 0.0029305667
000270 f0 0b 4a 3c aa e4 87 3d c8 c8 e0 3c e4 ca f0 bd
       0.012331948 0.06635411 0.02743949 -0.11757448
000280 4d df 05 3e 3c 8a 40 3d 4b ca 2d be c2 a7 46 be
       0.13073464 0.04700683 -0.169717 -0.19399932
000290 6e d4 af 3d e8 92 ab 3c 80 78 0f bd b7 42 03 3e
       0.085854396 0.020944074 -0.035027027 0.12818418
0002a0 6c 0b 7a bd 98 40 a8 bd ee e2 2f be fa 2f b0 3d
       -0.06104605 -0.08215445 -0.1717641 0.08602901
0002b0 30 3f b2 bd fd e0 36 3e 80 6b 72 3b 88 8c 82 3c
       -0.08703458 0.17859264 0.0036990345 0.015936151
0002c0 1e 8a a9 bd 70 5b 3c bc cc 7f a9 bd de f9 47 be
       -0.08278297 -0.01149641 -0.082763284 -0.1952891
0002d0 8e 96 cd 3d c1 b7 91 bd 60 6d 1c 3d 54 32 c0 bd
       0.10038482 -0.071151264 0.038190246 -0.09384599
0002e0 aa 98 9a bd 36 07 f8 3d 3e c7 3a be 73 09 23 3e
       -0.075486496 0.121107504 -0.18240067 0.15921573
0002f0 3c 77 52 bd c5 9c 45 3e 00 c6 48 3d 28 54 f0 bd
       -0.051383242 0.19298084 0.049016953 -0.117348015
000300 96 a5 41 be c4 b5 6d bd 44 30 45 3d df 25 f9 bd
       -0.18910822 -0.058034673 0.048141733 -0.121654265
000310 72 39 2f be ab 25 40 3e 8a 90 0c be aa f8 9b 3d
       -0.17111757 0.18764369 -0.13727012 0.07615788
000320 20 45 6f 3c 20 4c 38 bd 45 6e ea bd 90 20 69 bc
       0.014603883 -0.044994473 -0.114468135 -0.014228955
000330 ba 8c c0 3d ff 3c a9 bd c5 b6 13 be e8 ee a8 bc
       0.094018415 -0.08263587 -0.1442519 -0.020621732
000340 9d 76 c3 bd 74 bd 78 3d 40 65 75 bd 5e c2 40 be
       -0.09544108 0.06072755 -0.059911013 -0.18824145
000350 e0 e5 e5 bb 84 81 0c bd 76 18 cf 3d 74 d8 d4 bd
       -0.0070159286 -0.034303203 0.101120874 -0.10392848
000360 6e 67 df 3d 47 a2 02 3e 21 8c 10 be 76 4b 06 be
       0.109083995 0.12757216 -0.14115955 -0.13114724
000370 8a 19 a7 3d 00 61 b9 3b 30 d3 45 bc 04 8c 39 3d
       0.08159168 0.0056573153 -0.012074277 0.045299545
000380 7a 4e c7 3d 2b 41 2e 3e be 3d b3 3d 4c 81 7b bd
       0.09731765 0.17017047 0.08752011 -0.061402604
000390 99 b3 22 3e 90 c2 85 bd b1 df 33 3e 3a 30 cc 3d
       0.15888824 -0.065312505 0.175658 0.09970136
0003a0 b7 00 f8 bd f2 cd 97 bd 7c f4 42 3d d4 17 45 3d
       -0.12109511 -0.07412328 0.04759644 0.048118427
0003b0 00 74 49 3b 90 e4 c5 bc 94 23 24 bd e1 b9 10 be
       0.0030739307 -0.024156839 -0.040072992 -0.14133407
0003c0 2c c1 18 be d2 99 21 be e9 17 37 be 8b e5 25 3e
       -0.14917439 -0.15781334 -0.17880215 0.16200845
0003d0 2a 8c aa 3d b6 e2 8d 3d 28 e3 90 bc f4 6f 02 3d
       0.083275154 0.06928007 -0.017686442 0.031845048
0003e0 f0 66 e0 3c bb 19 3c 3e 80 e0 63 3c 53 22 0e 3e
       0.027392834 0.1836919 0.013908505 0.13880281
0003f0 27 69 1e be 23 8f 24 3e 90 dd e8 bc c4 02 4e bd
       -0.154698 0.16070227 -0.028425962 -0.050295606

bias f4 [26]
000000 30 4c 2b bd 24 35 d0 bd b4 49 22 bd e0 f9 9c 3c
       -0.041820705 -0.10166386 -0.03962107 0.019162118
000010 3b 82 1d be 3a c9 f0 3d eb 6e 10 3e 0c 36 6a bd
       -0.1538171 0.11757131 0.14104812 -0.05718045
000020 de d9 12 be ae c1 8d 3d 2a fe 40 be e9 65 c6 bd
       -0.14340922 0.06921707 -0.18846956 -0.096874066
000030 ae 20 e6 3d 13 b8 fb bd 3a d0 94 3d 8f 35 33 be
       0.11236702 -0.12290969 0.072662786 -0.175009
000040 a0 6d f7 3b 98 0f 8b bc f6 b6 c7 3d de 8c fe bd
       0.00755091 -0.01697521 0.09751694 -0.12429212
000050 00 a7 0a be 8e 88 de 3d 1c a8 73 3d d3 fb 3c 3e
       -0.13540268 0.108658895 0.059486493 0.18455438
000060 12 ae 34 be 17 55 3e 3e
       -0.17644528 0.18587147

weight f4 [26, 26]
000000 1b f9 0b 3e 12 6a e0 3d d5 a9 18 be a0 ba 25 be
       0.13669245 0.10957731 -0.14908536 -0.16184473
000010 7f b5 35 3e bc c2 4e 3d ae 10 3c be 1f 86 c8 bd
       0.17745017 0.050478682 -0.18365738 -0.097912066
000020 76 0b f9 3d 62 e6 9a 3d bb 0d a4 bd 11 3f 47 3e
       0.12160389 0.07563473 -0.080104314 0.19457652
000030 69 b9 28 3e 6a 00 41 be 8b 7b 46 3e a8 57 31 bd
       0.16476978 -0.18847814 0.19383065 -0.043296486
000040 5b ae a3 bd 10 b1 8f bc 8c ab 1a be 2a 81 f3 3d
       -0.0799224 -0.017540485 -0.15104502 0.118898705
000050 cb 6e 04 be b7 5b 1a be 3c 3b 41 3d 11 84 fe bd
       -0.12932889 -0.15074049 0.04717563 -0.124275334
000060 db 63 12 be 40 47 13 3c e7 f7 ee bd 78 97 f9 bd
       -0.14295904 0.008989155 -0.11668377 -0.121870935
000070 41 e0 42 3e 39 bf c9 bd 1d 92 21 3e b0 b6 8f bd
       0.19030859 -0.09850926 0.15778394 -0.07017267
000080 3e bc 12 be 1e 08 93 3d 53 3a 18 be f5 f9 29 3e
       -0.14329621 0.071792826 -0.14865999 0.16599257
000090 08 55 c3 bd fa 29 43 be 29 1d c3 bd 29 75 40 be
       -0.09537703 -0.19058982 -0.09527046 -0.18794693
0000a0 d4 5a 2b be 7c 54 6f 3d 9e 75 83 3d cb fd 24 3e
       -0.16733867 0.05843018 0.06418918 0.1611244
0000b0 eb 9f 2b 3e 07 45 13 be 8a ad b2 bd 68 84 a6 bc
       0.16760223 -0.143818 -0.08724506 -0.020326808
0000c0 a0 3f 11 3c a4 59 11 be 2c f0 46 3d c0 96 82 bc
       0.008865267 -0.14194351 0.04856889 -0.015941024
0000d0 04 31 16 bd 16 b0 09 be e4 f3 78 bd 12 14 de bd
       -0.03666784 -0.13446078 -0.060779467 -0.10843672
0000e0 b1 66 2c be ec 19 34 bd 98 d9 0b be 89 69 d8 bd
       -0.16836049 -0.043970034 -0.13657224 -0.10567004
0000f0 e0 8b e1 bd 36 5a 39 be 48 a5 91 bd 32 f6 df bd
       -0.11013007 -0.18100819 -0.07111603 -0.1093563
000100 2d 89 1b be e6 8a cc 3d 40 a9 8f 3b 1b 84 28 3e
       -0.15189047 0.0998743 0.00438419 0.16456644
000110 42 54 cc 3d 97 92 2a 3e f0 c8 2c 3c f8 6e 39 3d
       0.099770084 0.16657482 0.010545954 0.045271844
000120 e9 e0 1a 3e 8a 43 c7 3d c0 b0 03 3d 11 dd ef bd
       0.15124859 0.09729679 0.032150984 -0.11712087
000130 40 0f 1b bc 50 d2 fe bc 58 11 39 3d f0 b6 47 bd
       -0.009464085 -0.031106144 0.045182556 -0.048758447
000140 c4 32 1e be 29 46 28 be 98 f8 97 3c 18 81 ff bc
       -0.15449053 -0.16433014 0.018551156 -0.031189486
000150 4a da f7 3d 90 6e 79 bd e6 58 eb 3d ca f3 d4 3d
       0.12102182 -0.060896456 0.114915654 0.103980616
000160 cf 02 10 3e dc 99 2f 3d 3a 48 81 bd 49 f6 d6 bd
       0.14063571 0.04287134 -0.06312604 -0.10496194
000170 be f5 aa 3d 4a 0f bb 3d d0 ab 4e bd 43 b2 07 3e
       0.08347653 0.091337755 -0.050456822 0.13251595
000180 74 0c 27 be 18 41 e1 bd 24 08 36 be 14 97 19 bd
       -0.16313344 -0.10998744 -0.17776543 -0.037497595
000190 4d 13 3c be b7 63 0c 3e 02 bf 8e 3d b2 6b 47 be
       -0.18366738 0.13709913 0.069700256 -0.19474676
0001a0 09 2e 44 3e 32 28 f9 3d 70 a9 b6 bc 32 c2 12 be
       0.19158186 0.1216587 -0.022297591 -0.14331892
0001b0 d0 08 fa bd 26 da fa 3d a1 fd 43 be 10 92 7e bc
       -0.12208712 0.1224864 -0.1913972 -0.015537754
0001c0 ce bc 0e be 45 3f c2 bd 93 c9 0e 3e 16 c1 48 be
       -0.13939211 -0.09484724 0.13944082 -0.19604906
0001d0 14 4b 7a 3d 06 4d d9 3d 20 54 3c be 2f b9 ca bd
       0.061106756 0.10610394 -0.18391466 -0.09898602
0001e0 be 1f c1 3d 12 9a c3 3d 6b 30 36 3e 90 88 19 3d
       0.094298825 0.09550871 0.17791907 0.03748375
0001f0 7d 9f 20 3e 6d c9 08 3e 3c a1 53 bd 7a 58 e6 3d
       0.1568584 0.13358088 -0.051667437 0.11247344
000200 40 06 c6 bc 05 dc 2b be 76 bd c6 3d 51 db 35 3e
       -0.024172902 -0.1678315 0.097041056 0.17759444
000210 d1 c4 fa bd f5 9d 32 3e ad 13 0c be 2a 17 c7 3d
       -0.12244571 0.17443068 -0.1367938 0.09721215
000220 fd ff 11 3e fd 00 e8 bd b8 bb 17 bd 03 e0 43 3e
       0.14257808 -0.113283135 -0.037044257 0.19128422
000230 3e 71 1f be 00 ef 2d bb de 78 1a be 1a 73 d3 3d
       -0.15570542 -0.002654016 -0.1508517 0.10324688
000240 d7 b2 24 3e 86 16 a7 bd 4b 1d 32 3e 1a e5 ee bd
       0.16083847 -0.08158593 0.17393987 -0.116647914
000250 9a 98 ea 3d ea 65 c1 3d f4 ca 31 bd 32 51 b7 bd
       0.11454888 0.09443267 -0.04340644 -0.08951034
000260 84 41 73 bd 38 b7 4a bd 45 38 2e 3e b7 63 e2 bd
       -0.059388652 -0.049491137 0.17013653 -0.11054175
000270 c0 7c 3f bd 7e 92 0b be 35 34 35 be a1 08 e9 bd
       -0.04674983 -0.13630101 -0.17695697 -0.11378599
000280 f4 05 15 bd 4c e0 42 be 7a d0 ae 3d 5a 3f 21 be
       -0.03638263 -0.19030875 0.085358575 -0.15746823
000290 0c 5c 7b 3d 43 b3 0d 3e 90 86 a3 bc 98 a1 2c 3d
       0.06136708 0.13837914 -0.019961625 0.042146295
0002a0 a6 88 83 bd 56 ea 27 be d0 59 47 be 00 2c 17 be
       -0.06422548 -0.16397986 -0.19467854 -0.14762878
0002b0 bc 16 bb bd 77 00 1f 3e 5e 50 91 3d 22 0d 16 be
       -0.091351956 0.15527521 0.07095407 -0.14653447
0002c0 15 62 12 3e 62 7d bb 3d a5 33 0f 3e 64 02 1b be
       0.14295228 0.09154774 0.13984545 -0.1513763
0002d0 0e 33 e0 3d 60 45 89 3c f2 bf 12 be 8d 68 2d 3e
       0.10947238 0.016756713 -0.14331034 0.16934414
0002e0 ff f9 3b be 58 20 0e bd 17 3f b7 bd b6 5c 14 be
       -0.18357085 -0.034698814 -0.0894758 -0.14488491
0002f0 fc 0e a5 bd 70 c3 38 be ee c4 b2 3d 9f 29 2a be
       -0.08059499 -0.18043303 0.087289676 -0.1661744
000300 0c e8 e5 bd 44 31 7d bd e2 1e c2 3d 4c 44 37 bd
       -0.112259 -0.06181456 0.09478547 -0.044742867
000310 18 e0 1f 3d 34 57 c1 bd 1b 67 2c 3e 67 db 31 3e
       0.03903207 -0.09440461 0.16836207 0.17368852
000320 7f 9f 35 be 3e 69 ae 3d 60 9a 03 bd 85 19 9c bd
       -0.17736624 0.08516167 -0.032129645 -0.07622055
000330 50 2e e4 bc 01 52 33 3e 74 c9 40 bd 66 18 39 be
       -0.027854115 0.17511751 -0.04706712 -0.18075714
000340 47 e7 2d 3e 7f 55 cf bd 4a 84 cb 3d f0 7b 79 bd
       0.16982757 -0.10123729 0.099373415 -0.06090921
000350 a6 a3 84 3d 68 5e 08 bd 3e f9 ca 3d 8c cd 2d be
       0.06476526 -0.033293158 0.099108204 -0.16972941
000360 78 ee 10 3d c4 45 71 3d ee 11 c4 3d dd 20 e7 bd
       0.03538367 0.058904424 0.09573732 -0.11285565
000370 40 74 ea bc 57 66 24 be 6e 2b 2a be d9 4e 13 3e
       -0.028619885 -0.16054665 -0.1661813 0.14385547
000380 13 bf 92 bd 59 a0 32 3e bb 95 22 3e 1c 84 36 bd
       -0.07165351 0.1744398 0.1587743 -0.044559583
000390 df 8c 1e 3e 80 51 1f bb 39 db 20 3e 65 89 b0 bd
       0.15483426 -0.0024310052 0.15708627 -0.08619956
0003a0 29 f6 05 3e 28 ef c6 bd 7b 59 1b 3e ea 2f 8e 3d
       0.13082184 -0.09713584 0.15170853 0.06942733
0003b0 58 a9 b6 3c 35 ab 40 be c8 54 59 bd e8 d4 e4 bc
       0.022297546 -0.1881531 -0.05305937 -0.027933553
0003c0 03 de 3e 3e 0b 4b 42 be 3c 0b 6a 3d 74 8f 07 bd
       0.18639378 -0.18973939 0.05713962 -0.033095792
0003d0 02 ac 9b 3d 66 f5 1a be c0 58 01 bb 28 17 ec bd
       0.07601167 -0.15132675 -0.0019736737 -0.11527854
0003e0 00 80 00 b9 dd 20 b7 bd c0 bb 83 3b 70 63 42 bd
       -0.00012254715 -0.08941815 0.0040201843 -0.047458112
0003f0 e2 b2 ea 3d 0f 3d 0b 3e e6 0b bc 3d 24 a6 44 be
       0.114599004 0.13597511 0.09181957 -0.19204003

bias f4 [26]
000000 5f 90 23 be 1c c3 07 be 40 f1 d0 3b 8a 02 b1 3d
       -0.15973042 -0.13258022 0.0063764155 0.086430624
000010 94 3f 28 be c1 5f 18 3e d9 57 30 3e 80 50 ae 3a
       -0.16430503 0.14880277 0.17221011 0.0013299137
000020 10 b3 78 bd d9 59 00 3e 70 23 32 be dd b8 3b 3e
       -0.060717642 0.12534274 -0.17396331 0.18332238
000030 db a3 1a be 51 5a 1f 3e f9 e1 38 3e d8 b6 5a 3d
       -0.15101568 0.15561797 0.18054952 0.05339703
000040 12 96 a7 bd 05 5b 19 be 16 a1 31 be d2 0a b1 3d
       -0.081829205 -0.14976127 -0.17346606 0.08644642
000050 ef 6d bb bd b3 48 3a 3e dd a6 24 3e 28 e4 4f 3d
       -0.091518275 0.18191795 0.16079278 0.050754696
000060 01 7c 11 be 00 ab 14 bb
       -0.1420746 -0.0022684932

weight f4 [26, 26]
000000 0e d9 1c be 52 d8 b5 3d d2 35 8d bd 83 f0 18 3e
       -0.15317175 0.088791505 -0.06895031 0.14935498
000010 d8 ba b6 3c 86 5e e6 bd 30 e3 be bd d2 8d af 3d
       0.02230589 -0.11248498 -0.09320676 0.08571972
000020 2f 0a 13 3e 42 a3 e0 3d 85 0f 44 3e d9 c3 45 be
       0.14359353 0.10968639 0.19146545 -0.19312991
000030 f6 ab 97 3d 6a 49 b3 3d ab 47 2c 3e 66 00 fb 3d
       0.07405846 0.08754237 0.16824214 0.12255935
000040 ed 04 04 be 6a 43 c9 3d b6 3f 19 be e0 d4 7e bd
       -0.12892504 0.09827311 -0.1496571 -0.062214732
000050 06 43 2a be 60 95 dd bc 0a a1 d2 bd 3a c1 9e 3d
       -0.1662713 -0.027048767 -0.10284622 0.07751699
000060 c3 28 c4 bd d0 76 9a 3c b0 4c 38 be 82 9c 24 be
       -0.09578087 0.018855482 -0.17998004 -0.16075328
000070 33 c7 1e 3e ec 81 54 3d cf e9 34 3e 28 30 20 3d
       0.15505676 0.051881716 0.17667316 0.039108425
000080 09 db 9c bd da bd e4 3d 70 48 e4 bd 10 16 fd 3c
       -0.07658965 0.11169024 -0.11146629 0.03089431
000090 7c 6a 0a 3d c3 54 2d 3e 5a 98 c4 bd 69 b9 39 be
       0.033792958 0.16926865 -0.09599371 -0.18137135
0000a0 84 26 41 be 65 76 36 3e d4 c2 52 3d 80 63 f0 3b
       -0.18862349 0.17818601 0.051455334 0.00733608
0000b0 0f ee 11 3e ea 6e 85 3d 62 44 44 be e8 53 1a be
       0.14250968 0.06515296 -0.19166711 -0.1507107
0000c0 0e d4 ba 3d 6d db 24 3e 2c 2e 29 bd a4 5f b4 bd
       0.091224775 0.1609933 -0.0413038 -0.088073045
0000d0 07 88 9e bd cd 6e 3b 3e 83 de 30 3e 7e 95 34 be
       -0.07740789 0.18303986 0.17272381 -0.17635152
0000e0 b9 3f 03 3e 62 e3 97 3d 89 90 02 3e 3e e3 07 be
       0.12817277 0.07416417 0.12750448 -0.1327028
0000f0 f8 76 d6 bd 6e 0b e8 3d 52 c9 bd bd 20 0d 43 bd
       -0.1047191 0.11330305 -0.092669144 -0.04761994
000100 10 f2 1d bc 80 20 f8 3a f4 d0 3f be 06 a7 9b bd
       -0.009640232 0.0018930584 -0.18732053 -0.076002166
000110 ec 6d 6c bd c6 ce f3 3d 11 f3 1c 3e 30 37 45 bc
       -0.057722017 0.11904673 0.15327097 -0.0120370835
000120 df 04 42 3e 9d 82 2e be 8a 32 2b be e5 49 f4 bd
       0.1894717 -0.17042013 -0.16718498 -0.11928157
000130 17 d6 ba bd f0 47 b3 bc 47 25 0c 3e 53 30 02 3e
       -0.09122866 -0.021884888 0.13686095 0.12713747
000140 b0 38 d3 bd 6c 94 3f be 33 62 3f 3e 20 8a 34 be
       -0.10313547 -0.18708962 0.18689804 -0.17630816
000150 20 68 b2 bb 5b 96 2d 3e 20 98 2a bc 44 18 29 be
       -0.0054445416 0.16951887 -0.010412246 -0.16513163
000160 89 df 38 3e e6 04 8f 3d 1e 9e 80 3d bf 48 15 3e
       0.18054022 0.06983356 0.062801585 0.14578532
000170 16 ed a3 3d c3 19 cc bd 62 38 c2 3d b7 76 48 be
       0.08004205 -0.09965851 0.094834104 -0.19576536
000180 8c 99 2f bd 96 8e d8 bd c3 de 05 3e 62 5f 83 3d
       -0.042871043 -0.10574071 0.13073258 0.06414677
000190 a6 98 38 be 08 d2 4e 3d 77 7b b6 bd 60 6c cc 3b
       -0.18026981 0.05049327 -0.08910268 0.0062385052
0001a0 de 50 ab 3d 60 e1 6f 3c d8 02 d7 3c 70 0f e8 bc
       0.083650336 0.014641136 0.026246473 -0.028327674
0001b0 ef 75 38 3e 79 8d 29 3e 48 9f 91 bc 28 48 82 bd
       0.18013738 0.16557874 -0.017776147 -0.06361419
0001c0 fd 4e ab bd 09 12 22 3e c0 30 94 3b 06 6f 8b bd
       -0.08364675 0.15827192 0.004522413 -0.068082854
0001d0 a6 1f 84 3d 20 9e f4 3c 13 b6 de bd 90 71 db bc
       0.06451349 0.029860556 -0.10874572 -0.02678755
0001e0 4e ed 90 3d d1 46 3f 3e bd 15 ba bd 26 8a 18 be
       0.07076512 0.18679358 -0.090861775 -0.1489645
0001f0 1a af dd 3d 56 fb fd 3d 32 c4 87 bd 20 90 2b bc
       0.108244136 0.12401454 -0.06629218 -0.010471374
000200 7c 12 2d 3d 60 97 e2 bb 50 25 8e bd 71 8e 9a bd
       0.042253956 -0.006915018 -0.069407105 -0.075467
000210 08 b3 26 be 9e 9c 8d 3d 30 26 24 bc 1c b3 99 bd
       -0.16279233 0.06914638 -0.01001887 -0.075048655
000220 d8 67 76 bd 50 20 ac 3c 54 2e 45 bd c0 cf b2 bc
       -0.060157627 0.021011502 -0.048139885 -0.021827579
000230 e0 13 ba bc da 5b d4 3d 9b e7 34 3e 91 34 37 3e
       -0.022714555 0.10369082 0.17666475 0.17891146
000240 2c a7 19 be 44 2d 0e 3d cc 77 06 be 78 2d a8 3c
       -0.15005177 0.034711137 -0.13131636 0.020529494
000250 73 d2 08 3e a3 e9 1e 3e f3 12 20 3e 08 20 b0 bc
       0.1336153 0.15518813 0.15632229 -0.021499649
000260 70 d6 96 bc b0 54 19 be 95 62 10 3e 70 36 5e bc
       -0.018412799 -0.14973712 0.14100106 -0.013562784
000270 c6 c5 f2 3d 77 e8 18 3e 32 30 ca bd 84 79 44 bd
       0.118541285 0.14932428 -0.09872474 -0.04796745
000280 d6 43 8b 3d 46 39 d2 3d 27 fb 29 3e 82 1c 3d be
       0.06800048 0.1026483 0.16599713 -0.18467906
000290 40 26 15 3b f0 c7 98 bc 66 23 06 be f8 9d 13 be
       0.0022758394 -0.018650025 -0.13099441 -0.14415729
0002a0 f9 c0 0d 3e e2 61 aa 3d ff 19 95 bd f6 74 3e be
       0.13843144 0.08319451 -0.07280349 -0.18599305
0002b0 9a 0b ea 3d dc 96 7a bd 7e b0 b7 3d be f9 89 3d
       0.11427994 -0.061179027 0.0896921 0.06737088
0002c0 08 81 4d 3d e8 ca c9 3c 8d 52 15 3e 52 b1 ac bd
       0.050171882 0.024632886 0.14582272 -0.08432259
0002d0 a1 86 25 3e b7 e5 a1 bd b6 5e 33 be a9 98 30 be
       0.16164638 -0.07905143 -0.17516598 -0.17245735
0002e0 d6 44 8c bd 6c cc 37 3d e0 81 c2 bb a6 6a b4 3d
       -0.06849067 0.044872686 -0.0059358925 0.08809404
0002f0 9e a1 ca 3d 7d 55 cb bd 73 7f f0 bd 65 6a 45 3e
       0.09894107 -0.09928415 -0.11743059 0.19278868
000300 a1 15 46 3e 81 53 01 be ea 30 8d 3d 9a 88 87 3d
       0.19344188 -0.1262951 0.06894095 0.066178516
000310 11 81 32 3e 80 71 4f 3d d4 80 5a bd d1 7a 3a 3e
       0.17432047 0.05064535 -0.053345516 0.18210913
000320 dc 1d 28 3d 24 c7 24 bd 44 8c 6f bd a0 81 92 3b
       0.0410441 -0.040228978 -0.058483377 0.004471019
000330 1c 82 40 be de 9c e3 3d 18 6c 21 3d 5b 9f 1c 3e
       -0.18799633 0.111139044 0.039409727 0.15295164
000340 00 28 3c be 31 13 ce bd b5 97 3c 3e 78 a7 93 3c
       -0.18374634 -0.10062254 0.18417247 0.018024191
000350 c6 0c f4 3d 23 8f 48 3e 66 58 a7 3d 0d 6d 22 be
       0.11916499 0.19585852 0.081711575 -0.15861912
000360 11 59 32 be 4b 81 2d 3e ae 9b 93 bd e0 61 f9 bb
       -0.17416789 0.16943853 -0.07207428 -0.0076105446
000370 d6 08 8e bd e9 66 19 3e 46 42 81 bd ca 03 bc 3d
       -0.06935279 0.14980663 -0.06311469 0.0918041
000380 ae a7 44 be cf 14 11 3e 2e 06 f5 3d d8 9b c1 bc
       -0.1920459 0.14168094 0.11964069 -0.023633882
000390 88 5d 20 bd 0f 58 10 3e c4 b3 3f 3d 4f 51 3f be
       -0.0391517 0.14096092 0.046802297 -0.1868336
0003a0 8c 64 44 bd ea f5 c9 bd d2 7a 2e be d8 92 d4 bd
       -0.04794745 -0.098613575 -0.1703904 -0.10379571
0003b0 0e 67 ff 3d b8 39 65 bd 78 00 7b bd 08 3b c5 bd
       0.12470828 -0.055963248 -0.061279744 -0.096304
0003c0 44 37 52 3d aa 2a ea 3d 16 bd cc 3d 88 b9 98 bc
       0.051322237 0.11433919 0.09997003 -0.018643156
0003d0 ce 1e 82 bd a1 64 26 3e 8e c1 bf 3d 00 8e 04 ba
       -0.06353532 0.16249324 0.093630895 -0.000505656
0003e0 80 8e 90 3a 32 73 d9 3d ee d5 0d be 42 d2 bb 3d
       0.0011028796 0.10617675 -0.13851139 0.09170963
0003f0 da 4c bc 3d ac a5 31 3d df 92 ba bd 2d eb 0e 3e
       0.09194346 0.043370888 -0.09110045 0.139569

bias f4 [26]
000000 f1 93 1b 3e c4 83 24 3d f4 01 8c bd b2 e2 12 be
       0.15193154 0.040164724 -0.0683631 -0.1434429
000010 96 76 d0 3d 50 82 54 bc 06 35 df 3d 99 9b 39 3e
       0.101788685 -0.012970522 0.10898785 0.18125762
000020 16 ea b9 3d 54 dc 45 3d 6c 3e 8d bd be 16 9c 3d
       0.090778515 0.048305824 -0.06896672 0.07621525
000030 95 9c 2e 3e 68 c6 2b bd 42 46 be bd 88 53 2a be
       0.17051919 -0.04193726 -0.09290744 -0.16633427
000040 a9 ad 02 3e 5f 28 3c 3e 8f 46 2c be 1a f4 f0 3d
       0.12761559 0.18374775 -0.16823791 0.11765309
000050 25 38 1b be fd d0 98 bd d3 68 08 be 80 e4 0c bc
       -0.15158136 -0.07461736 -0.13321237 -0.0085994005
000060 c1 74 11 be 8a e5 f6 3d
       -0.14204694 0.120555

weight f4 [26, 26]
000000 24 9f 39 3d 50 e3 20 3c 06 82 3a be b0 4c 07 bc
       0.045317784 0.0098198205 -0.18213663 -0.00825803
000010 4e 93 ce bd 5f 2d 94 bd fb d1 11 3e 62 49 af bd
       -0.1008669 -0.07235216 0.14240257 -0.085589185
000020 77 ac 24 3e 0f fb 1a 3e 2f 2b 1a 3e a8 99 59 bd
       0.16081415 0.15134834 0.15055536 -0.053125054
000030 1c 08 4f bd 44 a0 6c 3d bb 70 a6 bd c8 21 1c be
       -0.050544843 0.05777003 -0.081269704 -0.15247262
000040 f8 42 df bc 30 ff f0 bc a2 7d 84 bd 1c e2 65 3d
       -0.027253613 -0.029418558 -0.06469275 0.056123838
000050 18 e1 e5 3c 60 f9 bf 3c 72 d2 e8 3d c6 03 27 be
       0.028061435 0.023434341 0.11368264 -0.16310033
000060 2a 92 f0 3d 2d ee 31 3e 4c f0 83 bd a0 b2 a1 3c
       0.117466286 0.17376013 -0.06442317 0.019738495
000070 54 87 68 bd 00 ed b4 ba e0 16 06 bc 0a 3e 8e 3d
       -0.056769684 -0.0013803542 -0.008184165 0.06945427
000080 71 7d 25 3e 2d 47 9e bd 1c eb 2e be 97 6c 24 3e
       0.16161133 -0.077284195 -0.17081875 0.16057049
000090 d2 11 90 3d f4 fa 28 3d d7 d4 98 bd 4c 3a 66 3d
       0.07034649 0.041254953 -0.07462471 0.05620794
0000a0 70 d3 1c be 68 df f9 bc 34 da 2d be 70 96 e2 bc
       -0.15315032 -0.030502036 -0.16977769 -0.027659625
0000b0 b6 1a aa 3d a6 6a 01 be b9 45 1d 3e 00 7c 32 3c
       0.08305876 -0.1263834 0.15358628 0.010893822
0000c0 cb 9a 11 3e b5 d5 30 3e 50 fc 7f 3c ec 16 8c bd
       0.14219205 0.17269023 0.015624121 -0.068403095
0000d0 51 20 34 3e fe 37 d2 3d 20 f8 7d 3c c6 d6 cf 3d
       0.17590453 0.10264586 0.015501052 0.10148387
0000e0 80 e4 34 3c d8 89 ad 3c 0a 37 f7 3d e0 e9 51 bd
       0.011040807 0.021183893 0.12071045 -0.05124843
0000f0 81 9a 23 3e 8f 1d 42 3e cb 10 a8 bd 35 cd 3b 3e
       0.15976907 0.18956588 -0.08206328 0.18339999
000100 a8 d6 2b be d8 64 90 3c 7f 1d 47 be 17 a3 23 3e
       -0.16781104 0.017626211 -0.19444846 0.15980183
000110 c0 cd b9 3b 88 5a aa 3c ed 29 3b 3e 8d 97 cd bd
       0.0056702793 0.020795122 0.18277712 -0.10038672
000120 1a fe 9a 3d 89 26 12 3e c6 2b e0 bd 68 13 35 bd
       0.07567997 0.14272512 -0.10945849 -0.04420796
000130 74 03 30 3d df 1c ef bd 09 d8 42 be 9e 48 8e 3d
       0.042972043 -0.116754286 -0.19027723 0.069474444
000140 00 00 57 3d 40 df b5 bc 82 42 1b be 0b 66 35 3e
       0.052490234 -0.02220118 -0.1516209 0.17714708
000150 49 82 fd bd 94 4a 96 bd 60 30 d0 bc f8 1e a7 bd
       -0.123783655 -0.073384434 -0.025413692 -0.08160204
000160 e0 ea 14 be a1 a1 bf bd e6 53 af 3d 00 e4 0e bc
       -0.14542723 -0.09357 0.08560924 -0.008721352
000170 00 58 f2 bc 40 e6 39 bc 14 27 50 bd 00 4d 0f 3d
       -0.029582977 -0.0113464 -0.050818518 0.034985542
000180 2d 58 fc bd 93 b2 14 3e a6 a5 e6 3d b4 f8 25 3d
       -0.12321506 0.14521246 0.11262064 0.040520385
000190 a6 96 94 bd 15 a6 a3 bd 11 f8 fb bd 26 b8 df bd
       -0.072552964 -0.07990662 -0.12303174 -0.109237954
0001a0 b9 50 fe bd 23 dd 13 3e 1f dc 11 3e 14 3a 11 3d
       -0.124177404 0.14439826 0.14244126 0.03545578
0001b0 ec 21 ef bd 87 37 03 3e fe 11 a3 bd d0 05 3c 3d
       -0.11676392 0.12814151 -0.07962416 0.04590398
0001c0 de 63 98 3d 2b 04 23 3e ca 8c f7 3d f4 2b 29 3d
       0.07440923 0.15919559 0.120874 0.041301683
0001d0 66 da f4 3d f8 92 10 bd 68 86 75 bd d1 0d 2b 3e
       0.11955719 -0.03529641 -0.059942633 0.1670449
0001e0 08 cf 11 be 76 c7 1e be d6 5f c0 3d 8d 99 16 3e
       -0.14239132 -0.15505776 0.09393279 0.14707012
0001f0 ce 0d 8b 3d b8 4a cd bc 5a f2 98 bd 30 6a 58 bd
       0.067897424 -0.025060043 -0.074681 -0.052835643
000200 06 17 d7 bd 13 60 3c 3e 65 80 2b 3e 61 1b 3e 3e
       -0.10502438 0.18396024 0.16748197 0.18565132
000210 96 13 d8 bd 80 a7 fa ba 54 07 01 3d a7 a6 12 3e
       -0.10550611 -0.0019123405 0.03150113 0.14321385
000220 90 cf 3f bd 28 c0 f0 bd 76 cf 2a be 06 d0 2f be
       -0.046828806 -0.11755401 -0.16680703 -0.17169198
000230 6c 56 32 bd f1 31 27 be 44 34 70 bd d4 91 30 bd
       -0.04353945 -0.16327645 -0.058643594 -0.043107823
000240 c0 9e 91 3b c6 d7 f2 bd 0a 5d 46 be c5 8b 0f be
       0.0044439733 -0.11857562 -0.19371429 -0.14018162
000250 30 f1 1c 3d 08 1d 45 bd d6 1a c8 3d 00 18 4e 39
       0.03831595 -0.04812339 0.097707435 0.00019654632
000260 b8 fd 4a bd b5 c2 10 3e 0a ef c8 3d 3c 47 57 3d
       -0.04955837 0.14136775 0.09811218 0.05255817
000270 48 ce 22 be d8 b5 05 be 0f 85 20 3e 47 3c 01 3e
       -0.15899003 -0.13057649 0.15675758 0.1262065
000280 04 b5 19 3d a8 e6 7b bd 16 a4 dd 3d 1a 6f ea 3d
       0.037526146 -0.061499268 0.108223125 0.11446972
000290 ab ab a9 bd e8 42 02 3d e2 55 07 be 6e d5 cb bd
       -0.08284696 0.031802088 -0.13216355 -0.09952818
0002a0 20 02 39 bc df a7 43 be c0 d4 59 bc 9c 53 e7 bd
       -0.011292011 -0.19107006 -0.013295352 -0.11295244
0002b0 fc 7c 05 3d a7 bd 12 be 82 68 8a bd cd 9c 04 3e
       0.032589898 -0.14330159 -0.067582145 0.1295044
0002c0 2c a0 5f 3d 42 08 d4 3d cc d4 57 3d 33 f8 01 3e
       0.05459611 0.103531376 0.052693173 0.12692337
0002d0 44 f0 62 bd b4 89 6d bd 08 64 e8 bc 5f 7d 1d 3e
       -0.055404916 -0.057992652 -0.028368011 0.15379857
0002e0 d3 54 2e 3e 4c 8e 19 be 2b 56 1e 3e 45 6a 36 3e
       0.17024545 -0.14995688 0.15462558 0.17813976
0002f0 e9 5f 0e 3e 09 50 bf bd 26 27 ee 3d ce 9f 96 bd
       0.13903774 -0.09341437 0.11628561 -0.07354699
000300 28 f7 42 3d 9a 40 c8 3d 90 78 46 bc 7c c9 58 bd
       0.047598988 0.09777947 -0.012113705 -0.052926525
000310 25 92 45 be 10 e5 23 bd 6b 09 42 3e 73 67 46 3e
       -0.19294031 -0.040013373 0.18948905 0.193754
000320 bc 0c 55 3d 58 8b 11 be 16 7a ec bd 2b 50 2a 3e
       0.052014098 -0.14213312 -0.115467235 0.16632144
000330 ef 27 45 be cb 42 30 3e 80 06 a0 3a 9e de e6 3d
       -0.19253515 0.1721298 0.0012208968 0.112729296
000340 32 87 ab 3d b6 eb d1 3d 24 19 68 3d 01 ca 0d 3e
       0.08375396 0.102500364 0.0566646 0.1384659
000350 5e 02 41 be 62 59 96 3d ca 6e 23 be 00 5d 9d bb
       -0.1884856 0.07341267 -0.15960231 -0.004802346
000360 de 4f 16 be 38 e3 91 3c 20 3f 1c be a3 19 00 3e
       -0.14678904 0.017808542 -0.15258455 0.1250978
000370 28 a7 85 bc 11 78 13 3e 07 ab 33 3e bb da ee bd
       -0.016315058 0.1440127 0.1754571 -0.11662813
000380 ea 41 f5 3d f0 ac 1d 3d 6f 55 17 3e e1 9e 0f 3e
       0.11975463 0.038495004 0.14778684 0.14025451
000390 57 a6 3c 3e 00 92 5c 3d a5 0c 22 3e 5f 4a 96 bd
       0.18422829 0.053850174 0.15825136 -0.07338404
0003a0 de 6f 8c 3d d6 56 97 3d aa 25 33 be 98 e0 28 be
       0.068572745 0.073896095 -0.17494836 -0.16491926
0003b0 f4 97 08 be b8 51 73 bd 16 21 2a be bc e9 2f 3d
       -0.13339216 -0.059404105 -0.16614184 0.042947516
0003c0 64 b0 94 bd 77 69 16 3e cd 3e ce bd 18 62 1c be
       -0.07260206 0.14688669 -0.10070572 -0.15271795
0003d0 55 c5 16 3e ab 19 33 3e b4 ff 81 bd 50 70 2f be
       0.14723714 0.1749026 -0.063475996 -0.17132688
0003e0 3e 8a b5 3d b8 0d 80 bd 1d f7 13 be c0 80 83 bb
       0.08864258 -0.06252617 -0.14449735 -0.004013151
0003f0 05 25 15 3e 5a 9d f4 bd 96 31 bd 3d d0 d6 6b bd
       0.14564903 -0.11944075 0.092379734 -0.057577908

bias f4 [26]
000000 ce 90 28 be 14 82 33 be b3 db 33 be 9f 01 0b be
       -0.16461489 -0.1753009 -0.17564277 -0.13574837
000010 2c 28 26 be ef 38 0d 3e 1e 1f bb 3d 08 73 04 3d
       -0.16226262 0.1379125 0.091367945 0.032336265
000020 7c 9c 2a 3d fb 76 1c be 7a 08 01 be 68 bd 21 bd
       0.04165314 -0.15279762 -0.1260089 -0.039487273
000030 8e 99 fd 3d e0 55 1f 3d 64 d2 13 3d 20 14 92 3c
       0.12382804 0.038900256 0.036089316 0.017831862
000040 38 b4 39 be d0 42 e4 bd b6 cf d0 3d dc 57 33 3d
       -0.18135154 -0.11145556 0.10195868 0.04378496
000050 b2 d6 9f 3d 72 dd f2 3d c1 9c 43 3e 98 67 fb 3c
       0.07804622 0.118586436 0.19102766 0.030689046
000060 60 62 ec 3c 63 49 1b 3e
       0.028855503 0.15164714

weight f4 [26, 26]
000000 fe 41 fe 3d b7 5b 0e be 68 76 44 be 35 dd ab bd
       0.12414931 -0.13902174 -0.19185793 -0.08391801
000010 90 e3 4c 3c 14 a7 0e be 2e 07 ce bd 44 0b 17 3d
       0.012505427 -0.13930923 -0.10059963 0.036875978
000020 80 52 52 bc 8b 93 1f be c2 08 b1 3d 80 cb 85 bb
       -0.012837052 -0.15583627 0.086442485 -0.004083097
000030 54 b9 44 3d c8 fb ea 3c 2c db 07 be c0 93 cb 3c
       0.048028305 0.028684512 -0.13267201 0.024850726
000040 3a 6a f5 3d 97 79 05 be 38 00 8b bd 21 b7 30 3e
       0.11983152 -0.13034664 -0.06787151 0.17257358
000050 a5 78 3e 3e da 46 8d bd 3b 2c 24 3e 28 ce cf bd
       0.1860071 -0.068982795 0.16032498 -0.10146743
000060 d0 7f 0a be f9 72 dd bd b7 db 10 3e c0 ac 4e 3d
       -0.13525319 -0.10812945 0.14146315 0.050457716
000070 62 43 b9 3d 76 b2 d8 3d b6 a5 fa 3d bf d4 9e bd
       0.090460554 0.10580914 0.12238638 -0.07755422
000080 6d 11 10 3e 52 86 e9 3d 0e 7e e8 3d cd 5a 29 3e
       0.14069147 0.11402573 0.11352168 0.16538544
000090 82 b8 8a 3d a8 9a f6 3c 0c 6c 00 3d 64 63 30 3d
       0.06773473 0.030103043 0.03135304 0.043063536
0000a0 07 90 45 3e 88 e7 cb 3c 42 c8 a1 bd eb 00 fc bd
       0.19293223 0.024890676 -0.07899524 -0.123048626
0000b0 68 69 e1 3c a9 0f e6 bd f8 c5 c8 3c 48 cf 3a be
       0.027516082 -0.11233456 0.024508461 -0.18243134
0000c0 40 89 48 3b cd b8 23 3e e2 b3 e0 3d d6 77 82 3d
       0.0030599385 0.15988465 0.1097181 0.06370513
0000d0 71 b2 2b be 24 24 7a 3d ce 1e 9f 3d fc 96 15 bd
       -0.16767289 0.061069623 0.077695474 -0.036520943
0000e0 60 28 d1 3b 1e 1c c6 3d e6 47 a4 3d 42 20 11 be
       0.006382987 0.09673332 0.08021526 -0.14172462
0000f0 ac b2 29 bd a8 63 96 3c 68 84 42 bd b0 7a 39 bc
       -0.04143016 0.018358067 -0.047489554 -0.011320755
000100 1e fb 03 be b4 f2 6e bd a0 4e b5 bb 06 9c 0f be
       -0.12888762 -0.05833693 -0.0055330545 -0.14024362
000110 99 e6 29 3e 24 70 63 bd 7c 4c 2d 3d ba e9 40 be
       0.16591872 -0.055526868 0.04230927 -0.1883916
000120 ea 4d 8a 3d 50 d3 b8 bc 56 d9 b2 3d a6 10 24 be
       0.06753142 -0.0225617 0.0873286 -0.16021976
000130 b6 14 9b 3d 90 91 b8 3c 0c 46 6e 3d a8 4b bd 3c
       0.0757231 0.022530347 0.05817227 0.023107365
000140 0e 6e 16 be b7 b7 e5 bd a2 db 85 3d 2e 07 c8 3d
       -0.1469042 -0.112166815 0.06536032 0.097669944
000150 a3 fd 1b 3e f6 1f 43 be 44 f4 00 be 14 e7 28 be
       0.15233473 -0.19055161 -0.1259318 -0.164944
000160 66 86 97 3d 88 e8 be 3c b4 b6 24 bd b7 cb 2d be
       0.07398681 0.023304239 -0.0402133 -0.16972242
000170 37 77 06 3e 31 3c 33 3e a4 61 37 bd ba 19 fd 3d
       0.13131414 0.1750343 -0.04477085 0.123584226
000180 58 cb 88 bd 72 1e 8f 3d 38 d4 b9 3c 80 58 28 bb
       -0.0667941 0.06988229 0.022684202 -0.0025687516
000190 41 ac 08 3e 1e 8f 80 bd c5 fa 03 3e 92 17 a6 bd
       0.1334696 -0.062772974 0.1288863 -0.081099644
0001a0 ba 3f 89 bd 8c b1 2a bd b1 29 27 3e 90 ba e8 bd
       -0.06701608 -0.04167323 0.16324498 -0.11363709
0001b0 8c 51 14 bd 88 6c 0d 3d 12 fa df bd 0a b0 c9 3d
       -0.03621058 0.03452733 -0.10936369 0.0984803
0001c0 00 dd 8f 3b 18 2e 81 bd ac 75 70 bd 1c 12 62 3d
       0.004390359 -0.0630762 -0.05870597 0.05519305
0001d0 4b b5 e8 bd 04 60 f1 bd b0 7b 6d bd a6 e2 8d 3d
       -0.11362704 -0.11785892 -0.057979286 0.069279954
0001e0 07 c1 10 3e a2 8d f0 3d 88 5b 40 be df eb 01 3e
       0.14136134 0.11745764 -0.18784916 0.12687634
0001f0 3d 84 12 3e be e9 df 3d 66 80 88 3d 7e fb d3 3d
       0.14308257 0.10933255 0.06665115 0.10350703
000200 e8 8c 9b bc c0 57 6b 3c 44 df d1 bd fc a0 72 3d
       -0.018988088 0.014364183 -0.10247663 0.059235558
000210 a8 f7 4c bd 3b 12 48 be ea e8 b6 3d 77 e4 20 3e
       -0.05004087 -0.19538204 0.089311436 0.15712152
000220 bc 3e 7d 3d 5a 5d 2c be b2 7e 3a be a0 08 25 bc
       0.061827406 -0.16832486 -0.18212393 -0.010072857
000230 00 69 62 bb a0 af 1e be 18 d8 19 3d 66 11 f4 bd
       -0.0034547448 -0.15496683 0.0375596 -0.11917381
000240 28 c4 2b 3d f5 d8 47 3e 58 03 97 3c 66 8c 1b be
       0.041935116 0.19516356 0.018434212 -0.15190277
000250 08 6e 11 be 5a 08 cf 3d a0 b2 32 bc 26 c8 83 3d
       -0.1420213 0.10109015 -0.010906845 0.0643466
000260 08 97 5c 3d 80 3a 11 3c cc 51 0f bd 16 dc b3 3d
       0.053854972 0.008864045 -0.034990117 0.087822124
000270 ec 9e 73 3d 46 b1 aa 3d d7 9e 3d 3e 32 73 f6 3d
       0.05947773 0.083345935 0.18517624 0.120336905
000280 d6 f0 8f 3d 60 de ea bd c6 aa 46 be 30 53 84 bd
       0.07028358 -0.11468196 -0.19401082 -0.06461179
000290 ff e0 19 3e c0 ef f3 bc b4 d7 0f be 60 92 17 bc
       0.15027235 -0.029777408 -0.14047128 -0.009251207
0002a0 b3 5d 2f 3e 4d 39 12 be f4 ca 76 bd c0 27 43 bd
       0.17125587 -0.14279671 -0.060252145 -0.04764533
0002b0 91 26 05 3e d8 17 5c 3d ce 1f 1a be 7b 45 10 3e
       0.13002993 0.053733677 -0.15051195 0.14089005
0002c0 37 47 21 3e 88 e6 59 bd c9 1c 30 3e 9a 80 b9 3d
       0.15749823 -0.053198367 0.1719848 0.09057732
0002d0 78 df 8c bd a0 15 76 3c f2 ff 09 be 00 a6 7b bd
       -0.06878561 0.015019804 -0.13476542 -0.061437607
0002e0 40 16 88 3b 40 f2 00 3c f0 ae ba 3c 78 f2 41 be
       0.004153043 0.007870257 0.022788495 -0.1894015
0002f0 bc 06 0e be c4 9d 3d 3d c6 1c ee 3d 80 e3 9f bc
       -0.13869756 0.046293035 0.11626582 -0.01951766
000300 3d a8 09 be 13 e8 3e be e8 c8 a8 3c 27 a8 1c 3e
       -0.13443084 -0.18643217 0.020603612 0.1529852
000310 60 eb 56 bd d1 32 a1 bd e9 c0 0d 3e 60 3a 4b 3c
       -0.052470565 -0.078710206 0.1384312 0.012404054
000320 a8 e7 34 bd 75 45 33 3e 47 91 cd bd 2f c4 c4 bd
       -0.044166237 0.17506965 -0.10037475 -0.096077316
000330 02 f6 a6 3d e5 26 0e 3e 2f 20 b1 bd a8 e6 1f 3d
       0.08152391 0.13882025 -0.08648717 0.03903833
000340 a8 99 15 be 07 3f 39 be 10 75 93 bc e8 b2 f8 bc
       -0.14609396 -0.1809045 -0.018000156 -0.030358747
000350 4e 8f ba 3d 9a 3b f5 3d bb cb 33 3e 14 86 16 3d
       0.091093644 0.11974259 0.17558186 0.03674896
000360 26 f2 40 be 39 a4 40 3e 43 6b 43 3e b6 24 d9 3d
       -0.18842372 0.18812646 0.19083886 0.10602705
000370 bb 37 30 3e 59 3a db bd 88 55 dd 3c 3e 58 1e be
       0.1720876 -0.10704488 0.027018324 -0.15463349
000380 96 a4 dc 3d f4 93 8d bd 00 64 02 be d0 a3 76 3c
       0.1077358 -0.069129854 -0.1273346 0.015053704
000390 83 02 16 be 64 7a 43 bd d6 33 b7 bd ac 5d 14 bd
       -0.14649396 -0.047724143 -0.08945434 -0.036222145
0003a0 d9 a1 0d be 02 a0 1f be fa 32 24 be ab d4 34 be
       -0.13831271 -0.15588382 -0.16035071 -0.17659251
0003b0 09 18 07 3e 88 85 ee 3c 26 9d 04 be fe 3f c7 3d
       0.13192762 0.029116407 -0.12950572 0.097290024
0003c0 1a ed d8 3d 00 48 f4 bc de 0d f6 bd 1b cf 1f 3e
       0.105920985 -0.029819489 -0.12014364 0.15606348
0003d0 a8 ad 2c bd 56 ed ef 3d fa 0e ee bd 14 b1 c2 bd
       -0.0421578 0.1171519 -0.1162395 -0.09506431
0003e0 59 52 07 3e a2 f6 29 be 1f 5d 2b be 09 e3 0e be
       0.13215007 -0.16597989 -0.16734742 -0.13953795
0003f0 25 45 d6 bd c1 fa 1c 3e b2 c3 b0 3d 80 1a df 3c
       -0.10462407 0.1533003 0.08631076 0.027234316

bias f4 [26]
000000 50 c6 86 bc e2 f8 dc 3d c0 6a ea bb b8 2f ad bd
       -0.016451985 0.10789658 -0.007153839 -0.08456367
000010 c0 66 c4 3c 73 d6 42 be 00 d1 00 bc 97 c9 39 3e
       0.023974776 -0.19027118 -0.0078623295 0.18143307
000020 a4 d6 77 3d 92 14 86 3d 5a 04 e4 3d 0f 00 05 3e
       0.06050743 0.06546892 0.111336425 0.12988304
000030 a5 f1 30 3e f0 4e 61 bc ae e0 1c be d4 81 10 be
       0.1727968 -0.01375173 -0.15320083 -0.14112025
000040 1b 9d 1f 3e 2b 88 14 3e e8 a9 75 bd 58 74 18 be
       0.15587275 0.14505069 -0.05997649 -0.14888132
000050 f8 9a 3f be 32 85 3d be 4c 44 41 bd db db 09 3e
       -0.1871146 -0.18507841 -0.047184274 0.13462774
000060 32 fc da 3d 37 b3 a1 bd
       0.10692634 -0.07895511
