ReLU_harder/TorchSaves/Last_Gen0.pt (torch_old, 100885 bytes, 99 tensors)

weight f4 [18, 6]
0	0xbcf91e70	-0.030410022
1	0xbd920a88	-0.07130915
2	0xbecc7ef1	-0.399406
3	0x3d81986c	0.063279
4	0x3eb71272	0.3575626
5	0xbe8c38da	-0.27387124
6	0xbe2472f6	-0.16059479
7	0xbe4cd8a8	-0.20004523
8	0xbe726123	-0.23669867
9	0x3ec90b38	0.39266372
10	0x3da11880	0.07866001
11	0xbe88223b	-0.26588616
12	0x3eb06198	0.34449458
13	0x3ea7e5d2	0.32792526
14	0x3e8d90bc	0.27649486
15	0xbe4743af	-0.19459413
16	0x3eae5c6a	0.3405488
17	0x3d10cd78	0.0353522
18	0x3eb3f1b2	0.35145336
19	0xbe9e24be	-0.30887407
20	0x3e8c9dde	0.27464193
21	0xbe4dfe50	-0.20116544
22	0x3e84a8ac	0.25909936
23	0x3e0df584	0.13863188
24	0x3c1c6f20	0.009547979
25	0xbe54be7e	-0.20775792
26	0x3e3eb9c8	0.18625557
27	0x3ec173d6	0.37783688
28	0x3eadc8e8	0.33942342
29	0xbe19b498	-0.15010297
30	0xbe9d9f1f	-0.30785462
31	0xbe695c30	-0.22789073
32	0xbe8f9a0a	-0.2804721
33	0xbe5befe2	-0.21478227
34	0x3e2779e8	0.16355097
35	0x3e42d0d0	0.19024968
36	0xbdfd04f0	-0.123544574
37	0xbc1de780	-0.009637713
38	0x3d199130	0.037491977
39	0xbe119de4	-0.14220387
40	0x3e19055c	0.1494345
41	0xbdb9ca20	-0.090717554
42	0x3ea78e42	0.32725722
43	0x3eafa910	0.34308672
44	0x3e157fcc	0.14599532
45	0x3e2c2618	0.16811407
46	0xbe309310	-0.172436
47	0x3e7603f0	0.2402494
48	0x3e41ff50	0.1894505
49	0xbe9c2844	-0.3049947
50	0xbe13061e	-0.14357802
51	0x3bba3f00	0.0056837797
52	0xbe2539d7	-0.16135345
53	0x3ea8d94a	0.32978278
54	0x3e9184c0	0.28421593
55	0xbd4b9c78	-0.049709767
56	0x3ecc637e	0.39919657
57	0xbea8d01a	-0.3297127
58	0x3cf99580	0.030466795
59	0xbcb6ad90	-0.022299558
60	0xbea3b951	-0.31977323
61	0x3e9a2278	0.30104423
62	0x3da3c77c	0.07997033
63	0xbece582b	-0.40301642
64	0x3eaeb256	0.34120435
65	0xbe6630c8	-0.22479546
66	0x3e66e634	0.22548753
67	0xbd4f59e0	-0.05062282
68	0xbd5e9240	-0.054338694
69	0xbe3cfde0	-0.1845622
70	0x3c81ad00	0.015829563
71	0xbeb79df2	-0.3586269
72	0xbcc82530	-0.024431795
73	0xbd2ceac8	-0.042216092
74	0xbe267ef9	-0.16259374
75	0xbe8ed542	-0.27897078
76	0xbed04e9b	-0.4068497
77	0xbe8503b8	-0.259794
78	0xbecbf385	-0.39834228
79	0xbcd464f0	-0.025927037
80	0xbe4ebe24	-0.2018972
81	0x3c84eeb0	0.016227096
82	0xbe7669bd	-0.24063773
83	0xbd02cd00	-0.031933784
84	0xbe975033	-0.29553375
85	0x3d873428	0.06601745
86	0x3e0a8210	0.13526177
87	0x3e9997da	0.29998666
88	0x3e735830	0.2376411
89	0xbe86aaba	-0.2630213
90	0xbdf04b58	-0.11733121
91	0xbe54cae1	-0.20780517
92	0x3df5f0d0	0.12008822
93	0xbe8361e8	-0.25660634
94	0x3e4d89fc	0.20072168
95	0xbe1359fe	-0.14389798
96	0xbd3904d0	-0.045170605
97	0xbd9c77ac	-0.07640013
98	0x3ebcc6fe	0.3687057
99	0xbe1da37c	-0.15394396
100	0xbdd9ecbc	-0.106408566
101	0xbe32d3fc	-0.17463678
102	0xbe9ce41e	-0.3064279
103	0xbe6055ec	-0.21907777
104	0x3e83b9c4	0.25727665
105	0x3e778030	0.24169993
106	0xbe9252bc	-0.28578746
107	0xbe35aa5c	-0.17740768

bias f4 [18]
0	0x3ebf0c5e	0.37314123
1	0x3e667038	0.22503746
2	0x3e367058	0.17816293
3	0x3d944eb4	0.07241574
4	0x3e62ad0c	0.22136325
5	0x3ea9c4fe	0.33158106
6	0xbe07d6e6	-0.13265571
7	0xbe12b512	-0.14326885
8	0x3e869c86	0.26291293
9	0xbeb66421	-0.35623267
10	0x3e670830	0.22561717
11	0x3dad2444	0.08454183
12	0xbde8b72c	-0.11363062
13	0xbeb057a7	-0.34441873
14	0x3d4f6de0	0.050641894
15	0x3e8046f2	0.25054127
16	0xbd2da410	-0.04239279
17	0x3ec5f182	0.38660818

weight f4 [18, 18]
0	0x3d1edf44	0.03878714
1	0xbc984518	-0.018587634
2	0x3dccd77e	0.100020394
3	0x3e2ee337	0.17078863
4	0x3ddd260a	0.10798271
5	0xbe03433d	-0.12818618
6	0xbe2efdde	-0.1708903
7	0xbe1182c6	-0.14210042
8	0xbdb89b92	-0.09014048
9	0x3da4b09e	0.080414996
10	0xbd5c3e30	-0.053770244
11	0x3e14877d	0.1450481
12	0x3e2e86dd	0.17043634
13	0xbd9cbcda	-0.07653208
14	0x3e10e8b1	0.14151265
15	0x3e6e414f	0.23267101
16	0xbe670f88	-0.22564518
17	0x3e21f9d3	0.15817957
18	0xbe5a1f13	-0.21300916
19	0xbe134766	-0.14382705
20	0x3e30c5f3	0.17263012
21	0xbc48c630	-0.012254283
22	0x3bc7cc60	0.0060973614
23	0xbd9c6690	-0.0763675
24	0xbe5e8659	-0.21730937
25	0x3dbe68fa	0.092973664
26	0xbe201639	-0.15633477
27	0x3e58d007	0.21173106
28	0x3d10353c	0.03520702
29	0x3df54b3e	0.11977242
30	0x3e40b749	0.18819918
31	0xbcf0d510	-0.029398471
32	0x3e4fad8d	0.20281048
33	0xbe4b652a	-0.1986281
34	0xbcafeb80	-0.0214746
35	0xbe43fe34	-0.1913994
36	0xbd01f2fc	-0.03172587
37	0x3e3648f7	0.17801271
38	0x3d8b9406	0.068153426
39	0x3d105ec4	0.035246626
40	0x3d069a2c	0.032861874
41	0xbc973780	-0.018459082
42	0xbe04354a	-0.12910953
43	0x3dfa78ca	0.1223007
44	0xbd4769e0	-0.048684955
45	0x3d2cdb3c	0.042201266
46	0x3e141edb	0.14464895
47	0xbe0b934e	-0.13630411
48	0x3e36d3f7	0.17854296
49	0x3e26ebe3	0.16300921
50	0xbe34844b	-0.17628591
51	0x3dc2a4be	0.09504078
52	0xbe2b05b8	-0.167014
53	0x3e0a1629	0.13485016
54	0xbd889086	-0.06668191
55	0xbbf8cd60	-0.007592842
56	0x3d733374	0.05937524
57	0xbe61ee58	-0.22063577
58	0x3e11fffb	0.14257805
59	0xbe3b8345	-0.18311794
60	0x3dcb106e	0.09915243
61	0x3e14202d	0.14465399
62	0x3e25ae91	0.16179873
63	0x3e37987d	0.17929263
64	0xbe297ff4	-0.16552716
65	0x3dced356	0.10098903
66	0x3d9dd062	0.077057615
67	0xbe074fe0	-0.13214064
68	0x3b1e46c0	0.0024151057
69	0xbdfb7f5b	-0.122801505
70	0xbe458c87	-0.19291888
71	0xbe52916b	-0.20563285
72	0xbda666fc	-0.081251115
73	0x3e620fd7	0.22076355
74	0x3c922d78	0.017843947
75	0xbe4bb9ec	-0.19895142
76	0xbe271e20	-0.16320086
77	0xbe02724e	-0.12738916
78	0xbe0aff05	-0.13573845
79	0x3d508174	0.050904706
80	0x3e403db9	0.18773545
81	0x3c012e50	0.007884577
82	0xbdd072dc	-0.10178158
83	0xbdef5284	-0.116856605
84	0x3d3883f4	0.045047715
85	0x3dd6799e	0.104724154
86	0xbd8ae1d4	-0.067813545
87	0xbe1a5791	-0.15072466
88	0x3e0664f7	0.13124453
89	0xbd7072e4	-0.05870332
90	0xbca91700	-0.02064085
91	0xbac62600	-0.0015117526
92	0x3dcf07ce	0.101089105
93	0x3e2411e7	0.16022454
94	0x3e2cddff	0.1688156
95	0x3e006db9	0.12541856
96	0xbe57fcee	-0.21092579
97	0x3dae413e	0.08508538
98	0x3dafd456	0.08585422
99	0xbde65d84	-0.112483054
100	0x3df1e026	0.11810331
101	0xbcde9970	-0.027172774
102	0x3e1fe6b3	0.15615349
103	0x39384c00	0.0001757592
104	0x3d0d5d64	0.034512892
105	0xbe1c3a21	-0.1525655
106	0xbe5e2e67	-0.21697389
107	0xbe5dd0fa	-0.2166175
108	0x3e6abf13	0.22924452
109	0xbde4aec9	-0.1116615
110	0x3e5cd60d	0.21566029
111	0x3e5c5fb7	0.21520887
112	0xbe0e6a42	-0.13907722
113	0x3df109d6	0.11769454
114	0xbe3c251e	-0.18373534
115	0x3e6984a7	0.22804509
116	0x3e2cb63f	0.16866396
117	0xbe235f0a	-0.15954223
118	0x3e4a8e5f	0.19780873
119	0xbe688ccd	-0.22709961
120	0x3d4c4f6c	0.04988043
121	0xbd8849e2	-0.06654717
122	0x3e184e03	0.14873509
123	0xbd145808	-0.036216766
124	0x3d741a1c	0.059595212
125	0xbd3b108c	-0.045670077
126	0x3b82e600	0.0039947033
127	0xbdcd6cd4	-0.10030523
128	0x3e14f2d9	0.14545764
129	0xbdc0a456	-0.094063446
130	0x3d47054c	0.048589036
131	0xbe49e2f9	-0.1971549
132	0xbc9d2010	-0.019180328
133	0x3df620aa	0.12017949
134	0x3e10cee7	0.14141427
135	0x3d4c61f4	0.049898103
136	0xbc895c98	-0.016767785
137	0x3dc18dde	0.09450887
138	0x3deda77a	0.11604209
139	0x3ddd47aa	0.108046845
140	0xbe6a7dbc	-0.22899526
141	0xbe4b035e	-0.19825503
142	0x3d2421e4	0.040071383
143	0x3e636afd	0.22208782
144	0x3dc21bb2	0.09477939
145	0x3d9a7fd6	0.07543914
146	0x3cd97038	0.026542768
147	0x3c0efc30	0.008727118
148	0x3d9824a2	0.07428862
149	0xbe633834	-0.22189409
150	0x3c6c9050	0.014438704
151	0xbe0320db	-0.12805502
152	0xbe1f7544	-0.15572077
153	0x3e6206bf	0.22072886
154	0x3d37961c	0.04482089
155	0x3e6f8fb5	0.23394664
156	0xbe5a872c	-0.21340626
157	0xbe13eb32	-0.14445189
158	0xbe22722e	-0.15863869
159	0xbc9b1280	-0.01892972
160	0x3c7b96b0	0.015355751
161	0x3d3e343c	0.046436533
162	0xbe065950	-0.13120008
163	0x3e5220cd	0.20520325
164	0xbe17a582	-0.1480923
165	0xbdea8e8d	-0.11452971
166	0xbd20caec	-0.03925602
167	0x3e284103	0.1643105
168	0xbd9246ee	-0.07142435
169	0xbc91dec8	-0.017806426
170	0xbe066ed8	-0.13128221
171	0x3d575f24	0.052580968
172	0xbdd0fff8	-0.10205072
173	0xbd00d230	-0.03145045
174	0xbdf868c8	-0.121293604
175	0xbde744ae	-0.112923965
176	0x3e6442f7	0.2229117
177	0xbdcd9170	-0.100375056
178	0xbdbcd348	-0.09219986
179	0x3e3a49c3	0.181922
180	0x3e226615	0.15859254
181	0x3e4bd14f	0.19904064
182	0xbda2018a	-0.0791045
183	0xbe64b8b3	-0.22336082
184	0x3e43913d	0.19098373
185	0x3cf3c078	0.029754862
186	0x3e57273b	0.21011059
187	0xbe24fafb	-0.16111366
188	0x3e444e7d	0.19170566
189	0xbdcf2b9e	-0.10115741
190	0x3cc9e158	0.024643585
191	0x3e16d275	0.1472872
192	0xbe080128	-0.13281691
193	0x3e495c3b	0.1966409
194	0x3bfce420	0.0077176243
195	0x3e093981	0.13400842
196	0xbd8734f0	-0.06601894
197	0x3e3c0825	0.18362482
198	0x3e375339	0.1790284
199	0xbde3ff56	-0.11132686
200	0x3e65b7d3	0.22433405
201	0xbc1d9c20	-0.009619743
202	0x3e6e6c05	0.23283394
203	0xbe51d696	-0.20492014
204	0x3d62e8c4	0.055397764
205	0x3e0a2ed7	0.1349443
206	0x3e12b443	0.14326577
207	0xbcf2c470	-0.029634684
208	0xbe3c4f4d	-0.18389626
209	0xbe2f9d5b	-0.1714987
210	0x3e42fc4f	0.1904156
211	0xbdff6ec3	-0.12472298
212	0x3e5013a1	0.20319988
213	0xbe5a0825	-0.2129217
214	0xbe3a1abe	-0.18174264
215	0xbdda728a	-0.10666378
216	0x3e45f5d5	0.19332059
217	0x3bb57ce0	0.005538568
218	0x3dfd1f22	0.12359454
219	0xbdaafd58	-0.08349103
220	0xbd9361f8	-0.071964204
221	0x3db2bea2	0.087277666
222	0x3ae56680	0.0017501861
223	0xbd74b590	-0.059743464
224	0x3e503fdb	0.20336859
225	0x3daccb8a	0.084372595
226	0x3e695c37	0.22789083
227	0x3d25a82c	0.040443584
228	0x3dccb5d2	0.09995617
229	0xbe640c16	-0.22270235
230	0x3de90b1e	0.113790736
231	0xbe68690a	-0.22696319
232	0x3e69fe71	0.22850968
233	0x3e02653d	0.12733932
234	0xbd0834c4	-0.033253446
235	0xbe0cc658	-0.13747537
236	0xbe1e1b3e	-0.1544008
237	0xbde74275	-0.112919725
238	0xbdb612d4	-0.0889031
239	0xbd922864	-0.0713661
240	0xbe5fb564	-0.21846539
241	0x3dd51206	0.10403828
242	0xbe3619fb	-0.17783348
243	0x3d0e4d44	0.034741655
244	0x3e36a8a7	0.17837773
245	0x3dcbabee	0.09944902
246	0x3e4a32c9	0.19745935
247	0xbd838e3a	-0.06423612
248	0x3e0de5d9	0.13857211
249	0x3da25ed6	0.07928245
250	0xbcb08bf8	-0.021551117
251	0xbe1b5925	-0.15170725
252	0x3d51948c	0.051167056
253	0x3e30adbf	0.17253779
254	0x3e27bc8f	0.16380523
255	0x3e5c9783	0.21542172

bias f4 [18]
0	0xbda19c42	-0.07891132
1	0x3e651b45	0.22373684
2	0xbe207560	-0.15669775
3	0x3d786b84	0.06064941
4	0x3e4ad81b	0.19809
5	0xbdc7d18c	-0.09756765
6	0x3e48a3cd	0.19593735
7	0x3e02a1fb	0.12757103
8	0xbe32fdcd	-0.1747963
9	0x3e24dd2b	0.16099994
10	0xbe25b410	-0.1618197
11	0x3d225bc4	0.039638296
12	0xbd255ed8	-0.040373653
13	0x3e588dd1	0.21147849
14	0xbd372130	-0.044709384
15	0x3d634e74	0.05549474
16	0x3d31bc3c	0.043392405
17	0x3de5b7d2	0.112167016

weight f4 [18, 18]
0	0x3d9380d2	0.07202305
1	0xbd9968a6	-0.07490663
2	0x3e41853d	0.18898483
3	0xbe0d6678	-0.1380862
4	0x3e485a17	0.19565617
5	0xbe14b440	-0.14521885
6	0xbdd2849a	-0.10279198
7	0xbe4294ad	-0.19002028
8	0x3d86308a	0.06552227
9	0xbe09fa0e	-0.13474295
10	0x3d8acd12	0.06777395
11	0x3d240924	0.04004778
12	0xbe0f52c8	-0.13996422
13	0xbdd9bc7e	-0.10631655
14	0x3c5237c0	0.012830675
15	0x3e395663	0.1809936
16	0xbd11e0b4	-0.035614684
17	0x3c51c7f0	0.0128040165
18	0xbe047ac0	-0.1293745
19	0xbe5f1805	-0.21786506
20	0xbe2de1b2	-0.16980627
21	0x3c871448	0.016489163
22	0x3d8463ce	0.06464349
23	0xbda3cff4	-0.07998648
24	0x3d9ca0d6	0.076478645
25	0x3dfc9fb2	0.12335147
26	0xbd80bdc0	-0.06286192
27	0x3d548f94	0.05189474
28	0xbe46d2ba	-0.19416323
29	0x3d7e96ec	0.06215565
30	0x3d8f893a	0.07008596
31	0xbe59c870	-0.21267867
32	0xbd2618fc	-0.04055117
33	0x3deff326	0.11716299
34	0x3daccc9e	0.08437465
35	0x3dc886ce	0.09791337
36	0x3de9e40e	0.11420451
37	0xbe405cac	-0.18785352
38	0xbccb21d0	-0.024796396
39	0x3e1f6f1b	0.15569727
40	0xbe3bd96a	-0.18344656
41	0x3c3dc1c0	0.011581838
42	0xbe184c47	-0.14872847
43	0x3d7d837c	0.06189297
44	0x3e457b35	0.19285281
45	0x3e1a7199	0.15082397
46	0x3db9274a	0.09040697
47	0x3d59da0c	0.05318646
48	0x3e317429	0.17329468
49	0x3e3bb0ff	0.18329237
50	0xbd08a3fc	-0.033359513
51	0x3e5f93ff	0.218338
52	0xbd6c3dd0	-0.057676136
53	0x3dd7d3ca	0.105384424
54	0xbdd041ca	-0.10168798
55	0xbd80f444	-0.0629659
56	0xbd7bb680	-0.061453342
57	0x3dd88ed6	0.10574119
58	0x3da88eaa	0.08230336
59	0xbe1d2aa6	-0.153483
60	0xbe208866	-0.15677032
61	0xbcb7a800	-0.022418976
62	0xbe714b02	-0.2356377
63	0x3e13ab81	0.14420892
64	0xbe3086dd	-0.17238946
65	0x3e34fb65	0.17674024
66	0xbbb6b440	-0.0055756867
67	0xbcef6698	-0.029223725
68	0x3e4f4f5f	0.20245121
69	0x3e500213	0.20313291
70	0x3e0618bb	0.13095371
71	0xbdab127c	-0.08353135
72	0x3cbfc158	0.023407623
73	0x3d824e9a	0.06362648
74	0x3e398e93	0.18120794
75	0xbdc79b4a	-0.09746416
76	0x3e4953a3	0.19660811
77	0x3d7ab124	0.06120409
78	0x3e290471	0.165056
79	0xbe54b9e7	-0.20774041
80	0x3e6f4ff3	0.23370342
81	0xbd79fdd8	-0.0610331
82	0x3daf5002	0.08560182
83	0xbe088d16	-0.1333507
84	0x3d628e04	0.055311218
85	0xbdaba3da	-0.083808616
86	0xbe0a8b16	-0.1352962
87	0x3d18a214	0.037263945
88	0x3e404621	0.18776752
89	0x3e3ac3d3	0.18238764
90	0xbd77da24	-0.06051077
91	0xbd9dc7c8	-0.07704121
92	0x3be2c6a0	0.0069206506
93	0x3e4b7471	0.19868638
94	0xbe48292c	-0.19546956
95	0x3d99062e	0.07471882
96	0x3d792e5c	0.060835227
97	0x3e0ecc57	0.13945137
98	0xbda561aa	-0.080752686
99	0xbdf9c7e7	-0.121963315
100	0x3ddae926	0.10689001
101	0x3cdb95c8	0.02680482
102	0x3d686b14	0.056742743
103	0xbdfbf0d1	-0.123017915
104	0x3de733e6	0.11289196
105	0x3de82ada	0.11336298
106	0x3dd3eaa2	0.10347487
107	0xbe2782a2	-0.16358426
108	0xbda65fc0	-0.081237316
109	0x3d81375e	0.063093886
110	0xbdfc5c84	-0.123223335
111	0xbe3f2b8a	-0.18668953
112	0x3e63330f	0.22187446
113	0x3d9cb266	0.07651214
114	0xbe32481b	-0.17410319
115	0x3e34ae13	0.17644529
116	0x3d40657c	0.046971783
117	0x3d18d6a4	0.037314072
118	0x3e147dd3	0.14501123
119	0x3dd79a1e	0.105274424
120	0x3d5d73f4	0.05406566
121	0xbe160d90	-0.14653611
122	0x3e05d5bb	0.13069813
123	0xbe093fda	-0.13403264
124	0xbe2b2d52	-0.16716507
125	0x3e65e965	0.22452314
126	0x3e60f375	0.21967871
127	0xbe62a04b	-0.2213146
128	0xbda1d42a	-0.07901795
129	0x3e448f85	0.19195373
130	0xbd48f1fc	-0.0490589
131	0x3d790ef4	0.060805276
132	0x3e085379	0.13313092
133	0xbd86034a	-0.06543596
134	0x3e6dd063	0.23224024
135	0x3e2de583	0.16982083
136	0xbe2714b6	-0.16316494
137	0x3e03f8c5	0.12887867
138	0xbd723f00	-0.059142113
139	0x3e130ef3	0.14361171
140	0x3e68abf7	0.2272185
141	0xbd0a2618	-0.033727735
142	0xbd05e1a4	-0.03268589
143	0xbd1d4de8	-0.038404375
144	0x3e02decb	0.12780301
145	0x3e4307df	0.19045971
146	0xbe679d36	-0.22618565
147	0xbe0736dc	-0.13204521
148	0x3e310ef5	0.17290862
149	0x3cbd6d68	0.023123458
150	0x3d1bcbf4	0.0380363
151	0x3e107d71	0.14110352
152	0x3cbeb948	0.023281708
153	0xbe297e4e	-0.16552088
154	0xbe53e0c1	-0.20691206
155	0xbd9e6ac4	-0.07735208
156	0xbdf5c81a	-0.12001057
157	0x3e623d6d	0.22093745
158	0x3e0040dd	0.12524743
159	0x3df9840e	0.121833906
160	0x3e259de1	0.16173507
161	0xbd6918ec	-0.056908533
162	0x3e438c99	0.19096602
163	0xbb846760	-0.0040406436
164	0x3d1dbb4c	0.0385087
165	0xbe4d6b75	-0.20060523
166	0xbe649e87	-0.22326098
167	0x3e27be57	0.16381203
168	0x3e448a29	0.19193329
169	0xbe463853	-0.19357423
170	0x3e41c4b3	0.18922691
171	0x3dfb8b4a	0.12282427
172	0xbe2c4140	-0.16821766
173	0xbdd470de	-0.1037309
174	0xbdd434be	-0.10361622
175	0x3aaa6500	0.0013000071
176	0x3e44eef5	0.1923178
177	0x3c8424b8	0.01613079
178	0xbda883be	-0.08228253
179	0xbc99a4c0	-0.018755317
180	0x3c934db8	0.017981395
181	0x3e5a5a7d	0.21323581
182	0xbe292e96	-0.16521677
183	0xbe5641ad	-0.20923491
184	0xbd927af2	-0.07152356
185	0x3d67db14	0.056605414
186	0xbcb65148	-0.022255555
187	0xbe6e09ab	-0.23245876
188	0x3ca982d8	0.020692274
189	0x3de58592	0.11207117
190	0xbb7c9880	-0.0038543046
191	0xbcb4a970	-0.02205345
192	0xbd529f50	-0.051421463
193	0x3df29a4a	0.118458346
194	0x3e1c2aa7	0.15250646
195	0x3caca3c8	0.02107419
196	0x3da5258a	0.08063801
197	0xbb403700	-0.0029329658
198	0x3dc17d82	0.09447767
199	0xbdbca7a4	-0.092116624
200	0xbe178ad8	-0.14799058
201	0xbca1f308	-0.019769207
202	0xbd547e0c	-0.05187802
203	0xbdfe3908	-0.124132216
204	0xbe64c70c	-0.22341555
205	0x3dd6b23e	0.10483216
206	0x3d9821c2	0.07428314
207	0xbda84d14	-0.082178265
208	0xbe4051c1	-0.18781187
209	0x3dad2092	0.08453478
210	0xbd620c3c	-0.05518745
211	0xbd7cebb4	-0.06174822
212	0x3da843d2	0.08216061
213	0xbe0c9840	-0.13729954
214	0x3da0ac4e	0.078453645
215	0x3cff65e8	0.031176522
216	0xbe223642	-0.1584101
217	0xbdbe1cca	-0.09282835
218	0xbdcc6782	-0.0998068
219	0xbe54fb33	-0.2079895
220	0x3be20300	0.0068973303
221	0x3e6f3a61	0.23362114
222	0x3e289ae9	0.16465344
223	0x3e41b943	0.18918328
224	0xbc0b29d0	-0.008493856
225	0xbe1d5bc2	-0.15367034
226	0xbe1c4b4a	-0.15263095
227	0xbcc01cd0	-0.023451239
228	0x3e49c4fb	0.19704048
229	0xbd6c4998	-0.057687372
230	0x3cca6408	0.024705902
231	0xbe16daf6	-0.14731964
232	0xbe3cf058	-0.18451059
233	0xbe29bdc8	-0.16576302
234	0xbe5dc611	-0.21657588
235	0xbda0e492	-0.07856096
236	0x3cad2ed8	0.0211405
237	0xbdd13b4c	-0.10216388
238	0xbdeee207	-0.11664205
239	0xbe6496b7	-0.22323118
240	0x3e3a576f	0.18197416
241	0xbe42de40	-0.19030094
242	0x3e23e6e9	0.16006054
243	0xbdb15116	-0.08658044
244	0x3e2553e9	0.1614529
245	0xbdd1e868	-0.10249406
246	0xbe70a6d0	-0.23501134
247	0x3d14a814	0.036293104
248	0x3dd99776	0.10624592
249	0xbdc41810	-0.09574902
250	0x3e000ae9	0.12504162
251	0x3e1dfe83	0.1542912
252	0x3ded9fca	0.11602743
253	0xbdda10d4	-0.10647741
254	0xbd93c956	-0.07216136
255	0x3e32a925	0.17447336

bias f4 [18]
0	0x3e0fae35	0.14031298
1	0xbe23137f	-0.15925406
2	0x3e566b5b	0.2093939
3	0x3e42211f	0.18957947
4	0xbe2551cc	-0.16144484
5	0x3dff18b6	0.12455885
6	0x3dda292e	0.10652386
7	0xbd923fa8	-0.07141048
8	0x3d746754	0.059668854
9	0x3defb1d6	0.117038414
10	0x3b8ccaa0	0.0042966157
11	0xbe1579f4	-0.14597303
12	0x3e2cf517	0.1689037
13	0x3e4c6ae5	0.19962652
14	0xbdfef94b	-0.124498926
15	0xbdf57c71	-0.11986626
16	0x3e21a945	0.15787227
17	0x3e435917	0.19076954

weight f4 [18, 18]
0	0x3d8f6bb2	0.07002963
1	0x3e46e333	0.19422607
2	0x3dc36762	0.09541203
3	0x3e291d45	0.16515072
4	0xbdcf1da6	-0.10113077
5	0xbe2fac30	-0.17155528
6	0xbe505308	-0.20344174
7	0x3cb857a8	0.022502735
8	0xbc5380b0	-0.012909099
9	0x3e54255d	0.20717378
10	0xbe44f6ff	-0.19234847
11	0x3e27f6c5	0.16402729
12	0xbcea27b0	-0.028583378
13	0x3af78180	0.0018883198
14	0xbdb589d4	-0.08864179
15	0xbe067bbe	-0.13133141
16	0xbe62923d	-0.22126098
17	0xbd46d1b8	-0.048539847
18	0x3d3b7314	0.045764044
19	0xbe4c513c	-0.19952863
20	0xbda73ad2	-0.08165516
21	0x3e029363	0.12751536
22	0xbe41320a	-0.18866745
23	0x3e0261e5	0.12732656
24	0xbbff6cc0	-0.0077949464
25	0x3df60dd2	0.12014355
26	0x3dd355ae	0.103190765
27	0xbe467906	-0.19382104
28	0xbe5e8adb	-0.21732657
29	0x3d07547c	0.033039555
30	0xbe336c91	-0.17521884
31	0xbe2ba5e8	-0.16762507
32	0xbe69b6a9	-0.22823586
33	0xbe3da05c	-0.18518203
34	0x3e40a523	0.18812995
35	0x3dc8fd46	0.09813933
36	0xbdbcd0e0	-0.09219527
37	0x3e48b14b	0.19598882
38	0xbe598c37	-0.21244894
39	0xbe1149f1	-0.14188363
40	0xbdd5866e	-0.10426031
41	0xbe211722	-0.1573148
42	0x3e4d76cf	0.20064853
43	0xbe3b6c74	-0.1830309
44	0x3d918b42	0.071066394
45	0x3de41dfe	0.11138533
46	0x3db5e746	0.088820025
47	0xbe20bfd0	-0.1569817
48	0xbc65d950	-0.014028862
49	0xbd7e6754	-0.06211026
50	0x3d44659c	0.047948465
51	0x3e08e165	0.13367231
52	0x3ddb7b66	0.10716896
53	0x3e39716f	0.18109678
54	0x3e485891	0.19565035
55	0x3e4976b5	0.1967419
56	0x3bbe3880	0.005805075
57	0x3df752c6	0.12076335
58	0xbe4e1f52	-0.20129135
59	0xbd602cbc	-0.054730162
60	0x3e1d5f8b	0.15368478
61	0xbd8a0b1e	-0.06740402
62	0x3c572100	0.013130426
63	0xbdf4445f	-0.11927103
64	0xbdc2ee6e	-0.09518133
65	0xbe0510ca	-0.12994686
66	0x3d68088c	0.056648776
67	0x3d9c4e26	0.07632093
68	0xbdaf2c36	-0.085533544
69	0xbd707af4	-0.058711007
70	0x3e1c51b5	0.15265544
71	0xbdf57c12	-0.11986555
72	0x3c8e9c58	0.017408535
73	0xbe5cf128	-0.21576369
74	0xbdbc2f18	-0.0918867
75	0x3e4deb7b	0.2010936
76	0x3d0837d4	0.033256367
77	0xbd3a9b30	-0.045558155
78	0x3d37a034	0.044830516
79	0x3e2a3a73	0.16623859
80	0xbe5127ea	-0.20425382
81	0xbe3f0389	-0.18653692
82	0x3e4e6923	0.20157294
83	0xbd407350	-0.04698497
84	0x3e5d2461	0.21595909
85	0x3dd97e0a	0.10619743
86	0x3dda9dbe	0.10674618
87	0xbde325df	-0.11091208
88	0xbd8779ac	-0.06615004
89	0x3de248f2	0.110490695
90	0xbc269d80	-0.010169387
91	0xbdbe103a	-0.09280439
92	0x3e13ce7f	0.14434241
93	0xbe17e607	-0.14833842
94	0x3e13feed	0.14452715
95	0x3e0ca3bd	0.13734336
96	0x3dca9e72	0.09893502
97	0x3e65359d	0.22383733
98	0x3e39396d	0.18088312
99	0xbe2a8da0	-0.16655588
100	0x3d6f8794	0.058478907
101	0x3e1c375f	0.15255497
102	0x3e165067	0.14679109
103	0x3deaa0b2	0.114564314
104	0xbe042458	-0.12904489
105	0xbb358080	-0.0027695
106	0x3d5d24b4	0.05399008
107	0xbcff7478	-0.031183466
108	0x3e118f1f	0.14214753
109	0xbca1e148	-0.019760743
110	0xbe3294ac	-0.17439526
111	0xbe30f130	-0.17279506
112	0x3e30a345	0.17249782
113	0x3e6c0013	0.23046903
114	0x3e63ba81	0.22239114
115	0xbcfee358	-0.031114265
116	0x3bc885e0	0.006119475
117	0x3e382f87	0.1798688
118	0xbdba67ae	-0.091018066
119	0x3e01dd53	0.12682085
120	0xbe283734	-0.16427308
121	0xbded2d45	-0.115809
122	0x3d0fac04	0.035076156
123	0xbd9c3428	-0.076271355
124	0x3bf66a00	0.0075199604
125	0x3d964e82	0.07339193
126	0x3e6170bf	0.22015665
127	0x3e4582d1	0.19288184
128	0x3e379ef7	0.17931734
129	0xbda03ffe	-0.078247055
130	0xbde1ed66	-0.11031608
131	0x3e3e7449	0.18599047
132	0xbe12ea82	-0.1434727
133	0xbdd09a08	-0.10185629
134	0xbdba0c66	-0.09084396
135	0x3d74b934	0.059746936
136	0x3c1e6250	0.009666994
137	0x3daf4cce	0.08559571
138	0xbe704539	-0.23463906
139	0xbe032064	-0.12805325
140	0xbd8b2a6a	-0.06795199
141	0x3e2af1d5	0.16693814
142	0xbd8dc8b4	-0.06923047
143	0x3d94ba46	0.07262091
144	0xbe438322	-0.19092992
145	0x3e2486cf	0.1606705
146	0x3e483b7d	0.19553943
147	0x3dedb4f6	0.11606781
148	0x3e440fd3	0.19146661
149	0x3dd17076	0.10226528
150	0x3cdd9618	0.02704911
151	0x3de7ed86	0.11324601
152	0xbe3c4879	-0.18387021
153	0x3e457af1	0.1928518
154	0xbe095a6e	-0.13413402
155	0xbe6001c7	-0.21875678
156	0x3e58ea35	0.21183093
157	0xbe58e182	-0.21179774
158	0xbdb3151c	-0.08744261
159	0xbdc3ad0c	-0.095544904
160	0x3e51fe13	0.20507078
161	0x3e215877	0.15756403
162	0x3e40bafb	0.18821327
163	0x3d8451ca	0.064609125
164	0x3e39044f	0.1806805
165	0x3e5908fb	0.21194832
166	0x3e37b80d	0.17941304
167	0x3d8ca21e	0.06866859
168	0x3e29db21	0.16587497
169	0xbe1f8787	-0.15579043
170	0xbde95e2f	-0.11394917
171	0x3dffd2ee	0.124914035
172	0xbe2a8137	-0.16650854
173	0x3ddeee8a	0.108853415
174	0xbe663bdb	-0.2248377
175	0xbe051d7a	-0.12999526
176	0xbe5d98ea	-0.21640363
177	0x3da8cd72	0.082423106
178	0x3e37cfff	0.17950438
179	0xbe4a2922	-0.19742253
180	0xbdc4a0ae	-0.0960096
181	0x3e248c81	0.16069223
182	0xbdf2067b	-0.11817642
183	0x3d74c24c	0.05975561
184	0x3d90d616	0.07072084
185	0xbe341d56	-0.17589316
186	0xbd8c69f8	-0.068561494
187	0xbe58d25e	-0.21173999
188	0x3e4afb9f	0.19822548
189	0xbd325b90	-0.043544352
190	0xbe308146	-0.17236814
191	0xbe166f6c	-0.14690942
192	0xbc2c5f40	-0.010520756
193	0xbe26d608	-0.16292584
194	0xbc138c60	-0.009005636
195	0x3dc29b12	0.095022336
196	0x3d8cdafe	0.06877707
197	0xbe3c4059	-0.18383922
198	0x3e298229	0.16553558
199	0xbde23c02	-0.11046602
200	0x3d45432c	0.048159763
201	0x3d9e5b06	0.07732205
202	0xbe3149f7	-0.17313372
203	0x3d105d6c	0.035245344
204	0xbd6fc868	-0.05854073
205	0xbd897630	-0.067119956
206	0x3e343043	0.17596535
207	0xbdc41390	-0.09574044
208	0xbdfa4ec5	-0.12222055
209	0xbded947b	-0.11600586
210	0x3d8b57da	0.06803866
211	0xbda2b248	-0.07944161
212	0xbd44928c	-0.04799132
213	0xbe1e2434	-0.15443498
214	0xbdae8ef8	-0.08523363
215	0x3d78f0cc	0.060776517
216	0xbe189526	-0.14900646
217	0xbd17bc78	-0.037044972
218	0x3de51e2a	0.11187394
219	0x3dd602c2	0.10449745
220	0x3e174cfb	0.1477546
221	0x3c1c3300	0.009533644
222	0x3e1a8aa1	0.15091945
223	0x3e264bb7	0.1623982
224	0xbe6dd327	-0.2322508
225	0x3d95962e	0.07304035
226	0xbbeaf9c0	-0.007170886
227	0xbd9957e6	-0.074874684
228	0x3d5a559c	0.0533043
229	0x3d243bcc	0.04009609
230	0x3d382d7c	0.044965252
231	0xbd928202	-0.07153703
232	0xbe5eb55a	-0.21748868
233	0xbc6f80e0	-0.014618129
234	0x3de5dea6	0.112241074
235	0x3e55725b	0.20844404
236	0x3e199f65	0.1500221
237	0x3d6bfb4c	0.057612702
238	0x3e2efeaf	0.17089342
239	0xbd5d873c	-0.054084048
240	0x3e096d77	0.13420664
241	0x3bdab520	0.006674424
242	0xbde97cc1	-0.11400748
243	0x3dec66f6	0.11543076
244	0x3e5785df	0.21047162
245	0x3d00092c	0.031258747
246	0xbd9bb7bc	-0.07603404
247	0xbddf34ea	-0.108987644
248	0x3e6cdfd5	0.2313226
249	0x39c5b600	0.0003771037
250	0xbe17ffc0	-0.14843655
251	0xbd320698	-0.04346332
252	0x3d3903bc	0.045169577
253	0xbe0df50c	-0.13863009
254	0xbd1b8334	-0.037966922
255	0x3e491287	0.19635974

bias f4 [18]
0	0x3df5a6be	0.11994694
1	0xbe6e002a	-0.2324225
2	0x3cb95d78	0.022627577
3	0xbe4c3272	-0.19941118
4	0xbe667d4e	-0.22508737
5	0x3e14a3fb	0.14515679
6	0x3dfd679e	0.12373279
7	0xb947ac00	-0.00019042194
8	0xbe3230d4	-0.17401439
9	0x3e58c2e1	0.2116809
10	0xbddfd80e	-0.10929881
11	0xbe4703cf	-0.19435047
12	0x3d31cae4	0.043406382
13	0x3e0e71f9	0.13910665
14	0xbe389774	-0.18026525
15	0x3e244ccd	0.16044922
16	0x3e1bf959	0.15231837
17	0x3d869102	0.06570627

weight f4 [18, 18]
0	0xbbea92a0	-0.0071585923
1	0x3e6c61f1	0.23084237
2	0xbe4ef867	-0.20211945
3	0x3e421c87	0.18956195
4	0x3d931e16	0.07183473
5	0xbe1e58ff	-0.15463637
6	0xbda244b6	-0.07923262
7	0x3deffbb2	0.11717929
8	0x3d7631fc	0.060106263
9	0xbe3eb1a3	-0.1862245
10	0xbe6b0b0c	-0.22953433
11	0x3d74d5c4	0.059774175
12	0x3bd5af40	0.0065211356
13	0x3e0af8c7	0.13571464
14	0x3d62bd1c	0.05535613
15	0x3e1f2b9f	0.15543984
16	0xbe4cfe4a	-0.20018879
17	0x3e3f40cf	0.18677066
18	0xbd955926	-0.07292394
19	0xbcd733f0	-0.026269883
20	0x3e537ecf	0.20653842
21	0xbe1145b1	-0.14186741
22	0xbe5a3884	-0.21310622
23	0x3e217497	0.15767132
24	0xbe26c73a	-0.16286936
25	0x3e3d6bcb	0.18498151
26	0xbde34521	-0.1109717
27	0x3e58652b	0.21132343
28	0xbcd8f920	-0.02648598
29	0x3d09059c	0.033452615
30	0xbe106ec1	-0.1410475
31	0x3c963068	0.018333629
32	0x3e33f1e5	0.17572744
33	0xbd8c16a8	-0.06840259
34	0x3e416adb	0.18888418
35	0x3e41d821	0.18930103
36	0x3d8e2872	0.06941308
37	0x3d841bd2	0.06450619
38	0x3d855bde	0.06511663
39	0x3e402193	0.18762808
40	0x3e3961e5	0.1810375
41	0x3d2e92cc	0.042620465
42	0x3d6d171c	0.057883367
43	0x3e5113c1	0.20417692
44	0x3e453343	0.19257836
45	0x3d8d15c6	0.068889186
46	0xbdd6dfa2	-0.10491873
47	0x3e24f78d	0.16110058
48	0x3dc0116a	0.093783215
49	0x3dc08ff2	0.094024554
50	0x3d883ef2	0.06652631
51	0x3ddd677e	0.10810755
52	0x3db38f56	0.087675735
53	0x3de3e61e	0.11127876
54	0xbe6119bc	-0.21982473
55	0xbe6433ef	-0.22285436
56	0x3e3f4137	0.18677221
57	0x3dec0d8a	0.1152602
58	0x3dca425a	0.09875937
59	0xbe2b132e	-0.16706535
60	0xbd0ad538	-0.033894747
61	0xbe478d87	-0.19487582
62	0x3e493d33	0.19652252
63	0x3e5550eb	0.20831649
64	0xbe283b5e	-0.16428897
65	0xbe449518	-0.191975
66	0x3d523d8c	0.051328227
67	0x3e31581d	0.17318769
68	0xbe2f81b8	-0.17139328
69	0x3d4e0f2c	0.050307438
70	0xbe5ff770	-0.21871734
71	0xbe1b7aa1	-0.15183498
72	0x3e1f4c8d	0.15556546
73	0x3dad03de	0.08448003
74	0xbe2b4242	-0.16724494
75	0x3c2cef20	0.010555059
76	0xbbf16c00	-0.007367611
77	0xbe0ad5fe	-0.13558194
78	0xbd90c928	-0.070696175
79	0xbcf7d460	-0.030252635
80	0x3c869be8	0.016431764
81	0x3cd66a98	0.026173875
82	0x3a2ff400	0.0006712079
83	0x3e270c81	0.16313364
84	0xbe28f946	-0.1650134
85	0x3e6df977	0.23239695
86	0x3d948c26	0.07253294
87	0xbe313583	-0.1730557
88	0xbe50ab53	-0.20377855
89	0x3e2853dd	0.16438241
90	0x3e324469	0.17408909
91	0xbb961800	-0.0045804977
92	0x3e4653ed	0.19367953
93	0xbe459494	-0.1929496
94	0x3ddfa362	0.10919835
95	0x3cc5dc58	0.02415292
96	0x3e6a1d93	0.22862844
97	0x3b3cac80	0.0028789341
98	0x3dc90d6e	0.09817015
99	0xbd81a9ca	-0.06331213
100	0xbd0a1400	-0.03371048
101	0x3e47a2f1	0.19495751
102	0x3e534eb9	0.20635499
103	0xbe1c1719	-0.15243186
104	0x3e4ea8b1	0.20181538
105	0x3d176894	0.036964968
106	0x3dc09ec2	0.09405281
107	0xbd8aa8de	-0.0677049
108	0x3d349324	0.044085637
109	0xbda45346	-0.08023696
110	0x3df42232	0.11920585
111	0xbe33f80b	-0.1757509
112	0xbca2b5c8	-0.01986207
113	0xbca3bca8	-0.01998742
114	0xbe0b593a	-0.13608256
115	0xbdadbbaa	-0.0848306
116	0xbde2873e	-0.11060952
117	0x3cdcb038	0.026939496
118	0x3e3f13eb	0.18659942
119	0x3e0eb59b	0.13936464
120	0x3e4a2ec9	0.1974441
121	0xbc904d18	-0.017614886
122	0xbd90c07e	-0.07067965
123	0x3e071359	0.13190974
124	0x3d0f1bc4	0.03493859
125	0xbcf0da68	-0.02940102
126	0xbe17514c	-0.14777106
127	0x3d86796a	0.06566127
128	0x3cdf9248	0.027291432
129	0xbbec30e0	-0.007207975
130	0xbe0e9fa2	-0.13928083
131	0x3dc9c88e	0.09852706
132	0xbdd5d92e	-0.10441814
133	0x3e3c3879	0.18380918
134	0x3e447cd3	0.19188242
135	0x3e4b283d	0.19839568
136	0xbe25dd43	-0.16197686
137	0xbe50d80b	-0.20394914
138	0x3daa9a1a	0.08330174
139	0xbe12a14d	-0.14319344
140	0xbdd68148	-0.10473877
141	0x3dee012e	0.11621319
142	0xbd937428	-0.071998894
143	0x3d88f5fe	0.06687544
144	0x3d536e34	0.05161877
145	0xbe4f0377	-0.20216165
146	0xbcd0b858	-0.025478527
147	0xbd3ac33c	-0.045596346
148	0x3d9bb902	0.07603647
149	0x3d95ca5e	0.07313989
150	0x3d5f5d9c	0.054532632
151	0x3dc81da2	0.09771277
152	0x3c4d0e30	0.01251559
153	0x3d1fa0d4	0.038971737
154	0xbe06dfb7	-0.13171278
155	0xbc496890	-0.012292996
156	0x3d9ef3ca	0.07761343
157	0xbc5454d0	-0.012959674
158	0x3dda97be	0.10673474
159	0xbccb8d10	-0.024847537
160	0xbe46d973	-0.19418888
161	0xbd758b9c	-0.059947595
162	0x3e478f71	0.19488312
163	0x3de9dd8e	0.11419211
164	0xbe1c6253	-0.15271883
165	0xbe4c1240	-0.19928837
166	0x3c05c070	0.008163556
167	0x3e3d8289	0.18506826
168	0xbe2abf0b	-0.1667444
169	0xbe702d09	-0.2345468
170	0x3e1ac557	0.15114342
171	0xbd586da4	-0.052838936
172	0x3e10f357	0.14155327
173	0x3bfcfc20	0.0077204853
174	0xbe46b8b6	-0.19406399
175	0xbe0ea570	-0.13930297
176	0x3d05ef0c	0.032698676
177	0xbc804f10	-0.0156627
178	0xbd0f3e80	-0.034971714
179	0xbe0df546	-0.13863096
180	0x3e00bb57	0.12571464
181	0x3e1b1f2d	0.15148611
182	0xbe254f31	-0.1614349
183	0x3d1b0cac	0.03785388
184	0x3b25b780	0.0025286376
185	0xbde28584	-0.11060622
186	0xbdca650c	-0.098825544
187	0xbe59c0bc	-0.21264929
188	0xbdecb5f6	-0.11558144
189	0x3dc9d9be	0.09855984
190	0xbcd00728	-0.025394037
191	0xbd0aa07c	-0.033844456
192	0xbe7000db	-0.23437826
193	0x3db09992	0.08623041
194	0x3e2f889f	0.1714196
195	0x3dbba486	0.0916224
196	0xbdce548a	-0.10074718
197	0xbca9f1d0	-0.020745188
198	0xbe2ee0c4	-0.17077929
199	0xbdcd60a8	-0.10028201
200	0x3cad0e08	0.021124855
201	0xbe5577c1	-0.20846464
202	0x3d4a087c	0.049324498
203	0x3e5a3d5b	0.21312468
204	0x3e6c74f1	0.23091485
205	0xbd6b9f98	-0.057525247
206	0x3de53fae	0.111937866
207	0x3cc7e528	0.024401262
208	0xbe2e2b8e	-0.17008802
209	0xbe5664b2	-0.2093685
210	0x3e6b87d5	0.23001035
211	0xbda851da	-0.08218737
212	0xbddfbc94	-0.1092464
213	0xbd7a10bc	-0.061051115
214	0xbe69ed09	-0.22844328
215	0xbe5c6ff0	-0.21527076
216	0x3c986678	0.018603548
217	0xbc9e8c48	-0.019354
218	0x3e2ac3b1	0.16676213
219	0xbe0593ec	-0.13044709
220	0xbe22f446	-0.15913495
221	0x3e3347ab	0.17507808
222	0xbe009ec0	-0.12560558
223	0x3ddfbba6	0.10924463
224	0xbe27cbac	-0.16386288
225	0xbdc93f54	-0.09826532
226	0xbb4e92c0	-0.0031520575
227	0x3c98ac28	0.018636778
228	0xbe5014cb	-0.20320432
229	0xbc3b0250	-0.011414126
230	0x3e59e0ef	0.21277212
231	0x3e495081	0.19659616
232	0x3d9cf352	0.07663597
233	0xbe2e2b70	-0.17008758
234	0x3cf23af8	0.029569134
235	0x3d973e5e	0.073849425
236	0xbe3f06b8	-0.18654907
237	0xbe3aa556	-0.18227133
238	0xbd45e104	-0.048310295
239	0xbd9e9a2c	-0.0774425
240	0x3d15c294	0.036562517
241	0x3e6b8b93	0.23002462
242	0xbdf830eb	-0.12118705
243	0xbe24750b	-0.16060273
244	0x3de9b4f6	0.11411469
245	0xbe0f72d5	-0.14008649
246	0x3d072bf4	0.0330009
247	0x3d979482	0.074013725
248	0x3d8bb69e	0.06821941
249	0x3e5c740b	0.21528642
250	0xbc985b30	-0.01859817
251	0x3daa18e6	0.0830553
252	0xbe5ce639	-0.21572198
253	0xbd71c74c	-0.059027955
254	0x3e201873	0.15634327
255	0x3db1043a	0.08643384

bias f4 [18]
0	0x3d74a1fc	0.059724793
1	0xbe4344bf	-0.19069193
2	0xbe6b48a9	-0.22976936
3	0x3e68a26f	0.22718213
4	0x3be1edc0	0.006894797
5	0xbdcebf04	-0.10095027
6	0x3e42b2cf	0.19013523
7	0xbe11eb46	-0.14249906
8	0x3da58d3a	0.080835775
9	0xbd87e29e	-0.06635021
10	0xbc886e98	-0.016654298
11	0x3df7b7e6	0.12095623
12	0xbe34f53f	-0.17671679
13	0x3e200347	0.1562625
14	0x3e55d923	0.20883612
15	0xbe22f53f	-0.15913866
16	0x3d97fdfa	0.07421489
17	0xbe2f5227	-0.17121182

weight f4 [18, 18]
0	0x3d70db14	0.05880268
1	0xbca81b48	-0.020520821
2	0x3d50a94c	0.050942704
3	0xbddb6bd4	-0.10713926
4	0x3e2dc371	0.16969086
5	0xbb320500	-0.0027163625
6	0xbe598c26	-0.21244869
7	0x3cb24658	0.021762058
8	0x3e5bdb01	0.21470262
9	0xbcca4430	-0.024690717
10	0x3e078dd3	0.13237695
11	0xbd8e9622	-0.06962229
12	0xbe0a957a	-0.13533583
13	0x3d10180c	0.035179183
14	0x3dde38ce	0.108506784
15	0x3df3c74e	0.11903249
16	0x3db52cfe	0.08846472
17	0xbe517b24	-0.2045713
18	0xbe0175f6	-0.12642655
19	0x3e42513b	0.189763
20	0xbd171c30	-0.036892116
21	0x3e47ea7f	0.19523047
22	0x3accfb00	0.0015638769
23	0x3dd1e506	0.10248761
24	0x3e023627	0.1271597
25	0xbd0bcad4	-0.03412898
26	0x3da8b9d2	0.082385674
27	0x3e0f5eff	0.14001082
28	0xbc85eda8	-0.016348675
29	0x3e6cfcb7	0.23143278
30	0x3debb62a	0.115093544
31	0x3e62b54f	0.22139476
32	0x3e28baff	0.16477583
33	0x3d7746bc	0.060370192
34	0x3e38890b	0.18021028
35	0x3ccf9eb8	0.025344238
36	0x3d7c1eb4	0.06155272
37	0x3bff1a80	0.0077851415
38	0xbe01e420	-0.12684679
39	0x3e359dd7	0.17735992
40	0xbe33773d	-0.17525955
41	0xbe13039c	-0.14356846
42	0xbe4817f7	-0.19540392
43	0xb9110400	-0.00013829768
44	0xbdc21da0	-0.09478307
45	0x3e49acbf	0.19694804
46	0xbe01547c	-0.12629884
47	0x3e50a9f1	0.20377328
48	0xbda19e16	-0.078914806
49	0x3e69706d	0.22796793
50	0x3dfc013e	0.123049244
51	0xbe3769fd	-0.17911525
52	0x3dabae8e	0.08382903
53	0x3e0b9315	0.13630326
54	0xbc8c35d0	-0.017115504
55	0x3e59546f	0.21223615
56	0xbe257f10	-0.16161752
57	0xbe21db6a	-0.15806356
58	0xbe39fbf6	-0.18162522
59	0x3e308dc9	0.17241587
60	0xbd440c08	-0.047863036
61	0x3d2b806c	0.04187052
62	0x3cdad788	0.026714101
63	0xbd12a3c4	-0.03580071
64	0x3e11c6f7	0.14236055
65	0xbd14d098	-0.036331743
66	0xbdde4f0c	-0.10854921
67	0xbdc3e456	-0.09565036
68	0x3df8906a	0.1213692
69	0xbce4b548	-0.027918473
70	0xbe4141ab	-0.18872707
71	0x3e372499	0.17885055
72	0xbe25c946	-0.16190061
73	0x3dd08d26	0.10183172
74	0xbc406a60	-0.011744112
75	0xbd7f0a60	-0.062265754
76	0xbe6773cb	-0.22602765
77	0x3e692d4f	0.2277119
78	0xbd53e860	-0.051735282
79	0x3e15cbbf	0.14628504
80	0xbd79e288	-0.061007053
81	0x3e68adbd	0.22722526
82	0xbcf73f60	-0.030181587
83	0xbd7d23a8	-0.061801583
84	0xbd74ecb8	-0.059796065
85	0x3e59e60b	0.2127916
86	0xbe24e560	-0.16103125
87	0xbc2c35a0	-0.010510832
88	0x3e5663ad	0.20936461
89	0x3d872c06	0.06600194
90	0xbd8d2fa2	-0.06893851
91	0xbe68badc	-0.22727531
92	0xbdc5e764	-0.09663275
93	0x3e17c06b	0.14819495
94	0xbe59db0b	-0.21274965
95	0x3e67dee5	0.22643621
96	0x3e6e26b9	0.23256959
97	0x3d96708a	0.07345684
98	0x3df48222	0.11938883
99	0x3e55653f	0.20839404
100	0xbc0be040	-0.008537352
101	0xbe3e3433	-0.185746
102	0xbe43651a	-0.19081536
103	0xbe22d191	-0.15900256
104	0x3e436a9b	0.19083636
105	0xbe494126	-0.19653758
106	0xbe486117	-0.19568287
107	0x3cb0ec08	0.021596923
108	0x3ddcc82a	0.10780366
109	0x3e27a5ff	0.16371916
110	0x3db14502	0.0865574
111	0xbe057779	-0.13033856
112	0xbe3badc0	-0.18327999
113	0xbe6d6fca	-0.23187175
114	0x3db6112e	0.088899955
115	0x3e3379fd	0.17527004
116	0x3d47f354	0.04881604
117	0x3d6e1e64	0.05813445
118	0xbce91428	-0.028451994
119	0x3e217917	0.15768848
120	0xbdabf6a0	-0.08396649
121	0x3ce69218	0.028145835
122	0xbcb26b28	-0.021779612
123	0xbe1b9f15	-0.15197404
124	0x3dfb1cc2	0.122613445
125	0x3dc52b1a	0.096273616
126	0xbda7e006	-0.08197026
127	0x3e204c6d	0.15654154
128	0xbe484a68	-0.19559634
129	0xbe625f06	-0.22106561
130	0xbe26b488	-0.16279805
131	0x3e69b3a1	0.22822429
132	0xbd92de3c	-0.07171294
133	0x3d9f32f6	0.07773392
134	0xbce75eb0	-0.028243393
135	0x3e2a2a73	0.16617756
136	0xbe2c24ec	-0.1681096
137	0x3e426e7f	0.18987463
138	0xbe308c20	-0.17240953
139	0xbe048e02	-0.12944797
140	0xbe1ac0d8	-0.15112627
141	0x3db9e072	0.09076013
142	0xbe1e5072	-0.15460375
143	0x3e5e7dad	0.21727629
144	0x3d555104	0.052079216
145	0x3e6b8c75	0.23002799
146	0x3ca57bc8	0.020200625
147	0x3b333800	0.002734661
148	0x3e691a85	0.22764023
149	0xbd81a9d2	-0.06331219
150	0x3e3032b7	0.17206846
151	0x3dc1521a	0.09439488
152	0x3e4fe653	0.20302705
153	0x3d56fe9c	0.05248891
154	0xbe4c5130	-0.19952846
155	0x3d77b984	0.060479656
156	0xbba5d500	-0.005060792
157	0xbe38cd30	-0.18047023
158	0xbe1a89c4	-0.15091616
159	0xbcf32030	-0.029678434
160	0xbd97edb8	-0.07418388
161	0xbe21fe52	-0.15819672
162	0x3d2fb22c	0.042894527
163	0xbe2ac234	-0.16675645
164	0xbe4cf928	-0.2001692
165	0xbc96a2b8	-0.018388137
166	0xbcaf4538	-0.02139531
167	0xbe3650cc	-0.17804259
168	0xbe62a799	-0.22134246
169	0x3e6d7d77	0.23192392
170	0x3e121457	0.14265572
171	0xbe631e03	-0.22179417
172	0xbdf77877	-0.12083524
173	0xbdd1fd7c	-0.102534264
174	0xbe41210a	-0.1886026
175	0xbd204f08	-0.03913787
176	0xbe469222	-0.19391683
177	0xbe62b149	-0.22137941
178	0xbd8a23e2	-0.06745125
179	0x3e0be879	0.136629
180	0xbcc61858	-0.02418153
181	0x3e1a53cb	0.15071027
182	0xbdf67698	-0.12034339
183	0xbe4765fd	-0.19472499
184	0x3d9c8d46	0.07644133
185	0x3e561981	0.20908166
186	0x3e391daf	0.1807773
187	0xbde3780e	-0.11106883
188	0x3dd077b2	0.1017908
189	0x3e36e045	0.1785899
190	0xbde42f10	-0.11141789
191	0xbe5a4a40	-0.21317387
192	0xbe23cdc2	-0.15996459
193	0xbd6fef28	-0.058577687
194	0xbe4f6ebe	-0.20257089
195	0xbdd22e4a	-0.10262735
196	0x3e19ec29	0.15031494
197	0x3e576705	0.21035393
198	0xbde489e6	-0.111591145
199	0xbc81f7b0	-0.015865177
200	0x3e2d7187	0.16937838
201	0x3d6259b4	0.05526133
202	0x3dab4ce6	0.083642766
203	0xbe199460	-0.14998007
204	0xbdb9904e	-0.09060727
205	0xbda11850	-0.07865965
206	0x3df60882	0.120133415
207	0xbd87eee4	-0.06637362
208	0xbd869d0a	-0.065729216
209	0x3dfb5b3a	0.122732595
210	0xbe1bca6a	-0.15213934
211	0xbe268c3a	-0.1626443
212	0x3e3c96af	0.18416856
213	0xbcdec080	-0.0271914
214	0x3c3e6ce0	0.0116226375
215	0xbe36fc67	-0.17869721
216	0x3d216434	0.0394022
217	0x3db2643e	0.08710526
218	0xbde78fc8	-0.11306721
219	0xbc7c8670	-0.015412912
220	0x3e643f33	0.22289734
221	0x3e0e8e87	0.13921557
222	0x36cf8000	6.183982e-06
223	0x3ddd27f6	0.107986376
224	0x3e43dc97	0.19127117
225	0x3e07e2f7	0.13270174
226	0x3e65e74d	0.22451515
227	0x3e279ad7	0.1636766
228	0x3e4b5133	0.19855194
229	0x3db0b9d6	0.086291954
230	0xbd96aef6	-0.0735759
231	0x3dd115d6	0.10209243
232	0x3db00dfe	0.08596419
233	0xbca8c428	-0.020601347
234	0x3cc342f8	0.023835644
235	0x3e3e3b3d	0.18577285
236	0x3d0308fc	0.03199099
237	0x3e426e39	0.18987359
238	0x3e49080d	0.19631977
239	0x3e36a43f	0.17836092
240	0x3c850478	0.016237482
241	0x3e6aed19	0.22942008
242	0x3e16ca29	0.14725555
243	0x3e68c65b	0.22731917
244	0x3e267d57	0.16258751
245	0x3df1fc12	0.11815657
246	0xbda1f45e	-0.079079375
247	0x3d441954	0.047875717
248	0x3e3dad6d	0.18523188
249	0x3e347dc3	0.176261
250	0xbd30cf88	-0.043166667
251	0xbe6fa57e	-0.23402974
252	0x3e410fab	0.18853633
253	0x3e4f9325	0.20270975
254	0x3e42a6a9	0.19008888
255	0xbd9d25c8	-0.07673222

bias f4 [18]
0	0x3e467c47	0.19383346
1	0xbe02d056	-0.12774786
2	0x3de667ca	0.11250265
3	0x3dd2f46a	0.103005245
4	0xbcf4f998	-0.029904172
5	0xbe30a38c	-0.17249888
6	0xbd2dbdd8	-0.042417377
7	0x3d107bac	0.035274193
8	0x3d72b524	0.05925478
9	0x3e3282b3	0.1743267
10	0xbce1e4f8	-0.027575001
11	0x3d8fff7a	0.0703115
12	0x3dd0075a	0.10157652
13	0xbe2538ae	-0.16134903
14	0xbe0f3c68	-0.13987887
15	0xbe6ee0ff	-0.23328017
16	0x3d00dde4	0.03146161
17	0xbe466e7c	-0.19378084

weight f4 [18, 18]
0	0x3c934088	0.017975107
1	0xbcde8f10	-0.027167827
2	0xbcf58dd8	-0.029974863
3	0x3e014b79	0.12626447
4	0xbe26c244	-0.16285044
5	0xbccbbba8	-0.024869755
6	0x3cd5be38	0.02609168
7	0xbe0c9704	-0.13729483
8	0x3e22dfe5	0.15905721
9	0x3e4117f1	0.18856789
10	0x3e2ea96b	0.17056815
11	0x3e09066d	0.13381357
12	0xbd629a64	-0.05532302
13	0xbc1ae270	-0.009453401
14	0x3e563d1b	0.20921747
15	0x3e5e4ab3	0.21708183
16	0xbe47d475	-0.1951464
17	0xbde91f39	-0.113829084
18	0xbd605f8c	-0.05477862
19	0x3e1228a1	0.14273311
20	0x3e048041	0.1293955
21	0xbd4882e4	-0.048952952
22	0x3db8c466	0.09021835
23	0x3e6e2c65	0.23259123
24	0x3da8c716	0.08241098
25	0x3e646f25	0.22308023
26	0xbd684f18	-0.056716055
27	0xbe538960	-0.20657873
28	0x3e5a9917	0.21347462
29	0xbe68bd39	-0.22728433
30	0x3d97a2d2	0.074041024
31	0xbe573ebd	-0.21020027
32	0x3de8fa52	0.1137587
33	0xbd2a4d14	-0.041577414
34	0x3cef7ef8	0.029235348
35	0x3e09ec75	0.13469107
36	0x3e01cd0f	0.1267588
37	0xbe056234	-0.13025743
38	0xbe183e5b	-0.14867537
39	0xbd8d09f6	-0.068866655
40	0xbe1ffa84	-0.15622908
41	0x3e6f0c8d	0.23344631
42	0xbcaecb50	-0.021337181
43	0xbdcfcde2	-0.10146691
44	0xbd39c160	-0.045350432
45	0x3c332370	0.010933742
46	0x3e3d9fef	0.18518041
47	0x3e349eb3	0.17638664
48	0x3e4fab39	0.2028016
49	0x3ccf9b68	0.025342658
50	0xbd0fa534	-0.03506966
51	0x3e401dad	0.1876132
52	0xbd5b2348	-0.053500444
53	0x3e44cbdf	0.19218396
54	0xbdd147b2	-0.10218753
55	0xbdb7f266	-0.08981781
56	0xbe29dd5c	-0.16588348
57	0x3e53488b	0.20633142
58	0xbe013b98	-0.1262039
59	0xbdef0662	-0.11671139
60	0xbda8e2c0	-0.08246374
61	0xbe495012	-0.1965945
62	0x3e5a0ecf	0.21294712
63	0xbd7b7c74	-0.061397985
64	0x3d8e2c1a	0.069420055
65	0xbd0feeb8	-0.03513977
66	0x3e570cc7	0.21000968
67	0xbda6bea6	-0.08141832
68	0xbda4e1d4	-0.08050886
69	0xbe154a36	-0.1457909
70	0x3dfa5a2e	0.12224232
71	0xbe180aee	-0.1484792
72	0xbe6bcd4f	-0.23027538
73	0xbc8108c8	-0.015751258
74	0x3e6b3c13	0.22972135
75	0x3d65d55c	0.05611168
76	0xbe16c4e8	-0.14723551
77	0xbe31a558	-0.1734823
78	0xbe6ff38a	-0.23432747
79	0x3e1d7f01	0.1538048
80	0xbe68ce57	-0.22734962
81	0xbd0d9e04	-0.034574524
82	0x3e3602d3	0.17774515
83	0xbdb67046	-0.08908133
84	0xbd9924d8	-0.074777305
85	0xbe419cbf	-0.1890745
86	0xbe172c70	-0.14763045
87	0xbd6c2f48	-0.05766228
88	0xbe1ae32d	-0.15125723
89	0xbd02a688	-0.031897098
90	0xbdacfc4c	-0.08446559
91	0xbe5cddb6	-0.21568951
92	0x3e36abd3	0.17838983
93	0xbaf74f80	-0.0018868297
94	0x3dffa9b6	0.12483542
95	0x3e53509b	0.20636217
96	0xbe07f9c3	-0.1327887
97	0xbd44d39c	-0.04805337
98	0xbd838f38	-0.06423801
99	0x3e33c46b	0.17555396
100	0xbe656ab1	-0.22403981
101	0xbe271ba3	-0.16319136
102	0x3d5cd14c	0.05391054
103	0x3d8db6f6	0.06919663
104	0x3e61ca79	0.22049893
105	0x3dd4a83a	0.10383649
106	0xbe0f77a2	-0.1401048
107	0x3d1db13c	0.038499102
108	0xbda19ab2	-0.07890834
109	0x3e13b34d	0.14423867
110	0x3db10e46	0.086453006
111	0xbe31ce90	-0.17363954
112	0xbde4caa8	-0.11171466
113	0x3e064515	0.1311229
114	0xbe0280be	-0.12744424
115	0x3d3e947c	0.046528324
116	0x3e457553	0.19283037
117	0x3deba086	0.11505227
118	0xbd6f69d0	-0.05845052
119	0x3e1b109d	0.15143056
120	0xbe6394a1	-0.22224666
121	0xba034400	-0.0005007386
122	0x3e0d33ab	0.13789241
123	0xbd80e21a	-0.062931255
124	0x3e6cc4f9	0.23122014
125	0x3c0b69f0	0.008509144
126	0x3b464040	0.0030250698
127	0xbe0d952a	-0.13826433
128	0xbde44a09	-0.111469336
129	0x3dbf31ae	0.093356475
130	0x3d9234ca	0.07138975
131	0xbdc0fbee	-0.09423052
132	0x3e68ed5f	0.227468
133	0xbe349317	-0.17634235
134	0xbd8dc8ea	-0.06923087
135	0x3e705b01	0.23472215
136	0x3e31f865	0.17379911
137	0xbe4d55f9	-0.20052327
138	0xbdc62486	-0.09674935
139	0x3c2ccad0	0.010546401
140	0x3e5dc6dd	0.21657892
141	0xbd487938	-0.04894373
142	0x3e53306b	0.20623939
143	0xbd87a0a0	-0.06622434
144	0xbe17f1b9	-0.14838304
145	0xbe374cfc	-0.17900461
146	0xbcf4b6b8	-0.029872283
147	0xbe326cf4	-0.17424375
148	0xbe42df21	-0.1903043
149	0x3dc18136	0.09448473
150	0x3da294b2	0.07938518
151	0x3da37b4e	0.07982503
152	0x3d0e7974	0.034783795
153	0x3e39a003	0.18127446
154	0xbe340cc5	-0.17582996
155	0x3e0c914f	0.13727306
156	0xbdd7c120	-0.105348825
157	0x3e5c7af1	0.21531273
158	0xbd698bcc	-0.057018086
159	0xbd36a1a4	-0.044587746
160	0x3dd024e6	0.10163288
161	0xbe5abcca	-0.2136108
162	0x3e66a005	0.2252198
163	0x3e2f67e3	0.17129473
164	0x3db6d686	0.08927636
165	0x3d0debf4	0.03464885
166	0x3e6b8ee3	0.23003726
167	0xbdd8a974	-0.105791956
168	0xbe1ea59d	-0.15492864
169	0x3dbb2ee2	0.091398016
170	0xbe022a1b	-0.12711374
171	0xbe1dfebc	-0.15429205
172	0xbe57f47b	-0.21089356
173	0x3e700fd7	0.23443542
174	0x3da72e0e	0.08163081
175	0xbc0dbf10	-0.00865151
176	0xbd29dc20	-0.041469693
177	0x3e391689	0.18075003
178	0x3df9634a	0.12177141
179	0x3d65e31c	0.05612479
180	0x3de4eb62	0.11177708
181	0xbe00de20	-0.12584734
182	0x3c9fc688	0.019503847
183	0xbe083b4f	-0.13303874
184	0xbe54ea97	-0.20792614
185	0x3da275ce	0.07932626
186	0x3e632a25	0.22184046
187	0xbdbb4644	-0.091442615
188	0x3d3c09dc	0.04590784
189	0xbe2783ac	-0.16358823
190	0x3d7228b4	0.05912085
191	0xbe0e2268	-0.13880312
192	0xbda798a2	-0.08183409
193	0xbd9e9aea	-0.07744391
194	0xbe53c62e	-0.20681068
195	0x3d7d1294	0.061785296
196	0xbcde1548	-0.027109757
197	0x3db71332	0.08939208
198	0xbdc7afea	-0.0975035
199	0x3d620cc4	0.055187955
200	0xbe1c847e	-0.15284917
201	0x3db2ab4e	0.0872408
202	0xbcc58ba0	-0.02411443
203	0xbe251cd7	-0.16124283
204	0xbc82d110	-0.01596883
205	0x3dbc9ca2	0.09209563
206	0xbc4c7570	-0.012479171
207	0x3d80573e	0.0626664
208	0xbdc0ff56	-0.094237015
209	0xbe5c5ad4	-0.21519023
210	0xbe172f2e	-0.14764091
211	0x3e0a59f5	0.13510878
212	0xbe04d92e	-0.12973472
213	0xbda0747e	-0.07834719
214	0xbe581c3c	-0.2110452
215	0x3da7adee	0.08187471
216	0x3de577c2	0.112044826
217	0xbd071f24	-0.032988682
218	0xbe2db282	-0.16962627
219	0xbca795e0	-0.020457208
220	0x3e18b307	0.14912044
221	0x3daf483e	0.08558701
222	0x3c9e28d8	0.019306585
223	0xbe2fd848	-0.17172348
224	0xbe217ac0	-0.15769482
225	0xbdd8106e	-0.10550009
226	0xbe4fc1f1	-0.20288827
227	0xbe023232	-0.1271446
228	0xbe57e2cc	-0.2108261
229	0x3e3b598d	0.1829588
230	0x3db6a79e	0.08918689
231	0xbd375a64	-0.044763938
232	0xbda80232	-0.08203544
233	0xbe359bba	-0.17735186
234	0x3e273179	0.16327466
235	0xbd8125fc	-0.06306073
236	0x3c42aa30	0.011881396
237	0x3e2b2653	0.16713838
238	0xbdd845dc	-0.105601996
239	0xbe0bcc93	-0.13652258
240	0x3e437d29	0.19090714
241	0xbdcea61e	-0.10090278
242	0xbdd09612	-0.10184874
243	0xbe19668a	-0.14980522
244	0xbe6d25fc	-0.23159021
245	0x3e5b7295	0.21430428
246	0xbe4c02a4	-0.19922882
247	0x3e09c94d	0.13455696
248	0x3c7a9870	0.015295133
249	0x3e36da7b	0.17856781
250	0x3e63e5dd	0.22255655
251	0x3e58b7e7	0.21163903
252	0x3df7501e	0.12075828
253	0xbdcd4226	-0.100223824
254	0xbe16d3ac	-0.14729184
255	0xbdd30400	-0.10303497

bias f4 [18]
0	0xbd176258	-0.036959022
1	0xbe0841a5	-0.13306291
2	0x3dc97e22	0.09838511
3	0x3ddeea9a	0.108845904
4	0xbe06a9f4	-0.1315077
5	0x3e276073	0.16345386
6	0xbe495c23	-0.19664054
7	0x3de7be12	0.1131555
8	0x3da7006a	0.08154376
9	0xbde10cb4	-0.10988751
10	0x3d8a7db6	0.06762259
11	0x3d0a88f4	0.033822015
12	0xbe5efc40	-0.21775913
13	0xbd7aa338	-0.061190814
14	0xbe0c7910	-0.13718057
15	0x3e3eaba1	0.18620159
16	0x3bed96c0	0.007250637
17	0xbd18a120	-0.037263036
