Linear_simple/TorchSaves/Best_Ball.pt (torch_old, 14130 bytes, 17 tensors)

weight f4 [10, 6]
000000 a0 77 7a bd 78 a0 3e 3d 6c 20 84 bd 5f 38 74 be
       -0.06114924 0.046539754 -0.064514965 -0.23849629
000010 18 99 38 3e dc ff a4 3e 88 84 95 3e 36 19 a7 3e
       0.1802715 0.32226455 0.29202676 0.32636422
000020 a9 28 94 be 1c 13 20 3e cb b6 84 be bc a9 b7 3e
       -0.2893727 0.1563229 -0.2592071 0.35871685
000030 5e 62 b6 3e 00 ee d1 bc 62 61 ab 3e e6 18 87 be
       0.35621923 -0.025626183 0.33472735 -0.26386184
000040 c8 a7 57 3e 74 95 ba 3d 54 a2 ad 3e 73 72 ab be
       0.21060097 0.09110537 0.3391291 -0.33485755
000050 20 52 9c be 18 04 90 3e 67 e4 71 be 24 ff b1 3e
       -0.30531406 0.28128123 -0.23622285 0.3476497
000060 0a a2 ab 3e c0 41 e9 3d 8a 9c 8c 3e f0 e3 0b be
       0.33522063 0.11389494 0.2746318 -0.1366117
000070 a8 b2 f3 3d 65 81 c0 be 62 bf 82 be 70 8d 7d bd
       0.1189931 -0.3759872 -0.25536638 -0.061902463
000080 68 41 98 3d b4 85 ee bd 5e f9 8a 3e 25 58 a4 be
       0.0743435 -0.116465956 0.27143377 -0.320985
000090 00 f1 ec 3b 74 d3 98 bd e8 62 a9 bd 14 b9 e6 bd
       0.007230878 -0.074622065 -0.08270818 -0.112657696
0000a0 3c 15 c9 be a0 0f bf be 10 e3 82 3c 20 f4 5e bc
       -0.39274013 -0.37316608 0.015977412 -0.013608009
0000b0 ac c2 f0 bd e5 7c 9f be 80 48 0b 3b 80 2b 1c 3d
       -0.11755881 -0.31149974 0.002125293 0.038127422
0000c0 86 58 c0 be b0 0e 85 be 00 5f 9b bd d2 4e 56 be
       -0.37567538 -0.25987768 -0.07586479 -0.20928505
0000d0 c8 75 9e 3e 8c e0 a2 bd f2 f4 9e 3e 70 76 89 be
       0.30949235 -0.07952985 0.31046253 -0.26848173
0000e0 88 75 e9 3d bc 49 a1 be b0 72 5f 3e 08 11 57 3e
       0.113993704 -0.31501567 0.21821094 0.2100259

bias f4 [10]
000000 e3 73 2b be fa 8c bc 3e 14 a7 c1 bd 30 ac ae be
       -0.16743426 0.36826307 -0.09455696 -0.34115744
000010 28 70 ca bd 3c f8 75 3e 74 9a bb 3d 46 b1 9a be
       -0.09884673 0.24020475 0.09160319 -0.30213374
000020 8b 0e 32 be 60 32 39 be
       -0.1738836 -0.18085623

weight f4 [10, 10]
000000 06 e1 d3 bd 10 3f 09 3e 6c f9 a0 bd 14 ef 31 be
       -0.10345654 0.13402963 -0.078600734 -0.17376357
000010 b4 0e f5 3d 32 ef 7f 3e cc 97 7e be f6 2c 78 3e
       0.11965695 0.2499359 -0.24862593 0.24235901
000020 2c f2 c4 bd 14 52 d5 3d be 80 29 3e 7e 61 ad bd
       -0.09616503 0.10416046 0.16553017 -0.08465861
000030 b6 6b 13 3e 98 da cc 3d f8 e5 b4 3d 97 29 98 be
       0.14396557 0.10002631 0.088329256 -0.2971923
000040 a2 75 93 bd 86 78 11 be 00 ea 9a bb 48 48 4d 3d
       -0.07200171 -0.14206132 -0.004727602 0.05011776
000050 26 9f 5d 3e 68 e0 19 3d b6 30 2e 3e 20 70 bd 3c
       0.21642742 0.037567526 0.17010769 0.023124754
000060 7b a6 81 3e 4d 53 6a be e0 7f 91 3d bc 2a 19 3e
       0.25322327 -0.22883339 0.07104468 0.14957708
000070 00 43 0f bd ff 3e 9a be 86 e0 8b be 88 be 22 3e
       -0.034976006 -0.30126187 -0.27319735 0.15892994
000080 4c bf 84 3d 40 e0 9e 3c 00 f6 ca bd 80 10 62 be
       0.064817995 0.01939404 -0.09910202 -0.22076607
000090 fa 3a 92 be cc b4 a3 bd 98 a6 57 bd 41 f5 1c be
       -0.2856062 -0.07993469 -0.05264911 -0.15327932
0000a0 56 bc 09 3e c0 b4 89 bb 0f 8a 9a 3e 26 80 64 3e
       0.1345075 -0.0042024553 0.30183455 0.2231451
0000b0 90 a4 5f 3d 08 96 30 3e 74 d2 b8 3d 82 e0 6f be
       0.0546003 0.17244732 0.09024516 -0.23425487
0000c0 bf 12 5b be aa 36 86 be 58 6b 0f 3d 76 4e 49 be
       -0.2139387 -0.2621358 0.03501448 -0.19658837
0000d0 bd 59 91 3e be 5b 2f be 38 79 c9 3d 08 8d 10 3e
       0.28388777 -0.1712484 0.09837574 0.14116299
0000e0 00 54 09 3c 51 f3 29 be 34 6f b0 bd 11 c5 8a 3e
       0.008381844 -0.16596724 -0.0861496 0.27103475
0000f0 60 b8 d6 3d 0e 19 23 3e 8f 77 5a be 1c 43 85 3d
       0.104843855 0.15927526 -0.2133467 0.06506941
000100 8e 0b 6d be 00 fd af bb 34 1e fc 3d cf 2f 80 be
       -0.23148939 -0.005370736 0.12310448 -0.25036475
000110 89 03 92 3e 00 48 21 3e 05 b1 9f be a0 b2 30 3c
       0.28518322 0.15750122 -0.31189743 0.010784775
000120 ea a3 31 3e 90 51 d1 3c fd 08 96 3e 37 c8 03 be
       0.17347685 0.025551587 0.29303733 -0.12869345
000130 c4 5f d9 3d 40 df 5f bd 5a 83 47 3e 66 9c 92 bd
       0.10613969 -0.054656267 0.194837 -0.07158737
000140 0e 82 31 3e 28 c1 e1 bd a0 0a a6 bd 66 3d 98 be
       0.17334768 -0.1102317 -0.08107495 -0.29734343
000150 60 71 d0 3c a8 39 a2 bd c9 34 9e 3e 8c a3 f4 3d
       0.025444686 -0.07921153 0.30899647 0.119452566
000160 c7 83 9b be 14 d6 d4 3d 5e 26 8d be 00 3c 96 3a
       -0.30373976 0.10392395 -0.27568334 0.0011461973
000170 30 ef f7 3d c0 e3 5f be 57 70 89 3e c8 54 7f 3d
       0.12106168 -0.21864223 0.2684352 0.062336713
000180 a0 71 34 3c b1 e7 57 be dc 72 22 3e 2c bd dd 3d
       0.011013418 -0.21084477 0.15864128 0.10827097

bias f4 [10]
000000 10 9e 89 bd 3c e8 6a be 52 87 6a 3e c1 44 93 be
       -0.06719601 -0.22940153 0.22903183 -0.28763393
000010 eb 35 68 be e8 f1 cf 3d 38 e1 8f 3d 4a aa 55 3e
       -0.22676818 0.10153562 0.07025379 0.20865741
000020 84 90 a8 3d ac 18 2f 3e
       0.08230689 0.17099255

weight f4 [10, 10]
000000 1e c2 58 3e 1e 72 79 3e f2 37 26 be 3c 74 89 be
       0.211678 0.24359939 -0.16232279 -0.26846492
000010 6e 4c 45 3e d3 66 92 3e 4b e8 85 3e 81 ff 97 3e
       0.19267437 0.28594074 0.26153788 0.29687122
000020 f0 57 01 bd e0 9f be bd e9 d9 81 3e 3a 9c b6 bd
       -0.031578004 -0.093078375 0.25361565 -0.089165166
000030 b0 1a 9d 3c 3b 0d 90 3e 90 a9 df 3d 5c b7 8c 3d
       0.019177765 0.28135094 0.10921013 0.068709105
000040 ec 03 1e 3e 86 c0 45 3e 35 a2 82 3e d2 b7 4f 3e
       0.15431184 0.19311723 0.2551438 0.20284966
000050 e0 be ad 3c a0 e6 59 bc 0f 0f 07 be 62 64 16 3e
       0.02120918 -0.013299614 -0.13189338 0.1468673
000060 f9 14 85 3e 10 e4 92 be 1f d2 88 3e 98 ee 74 3d
       0.25992563 -0.28689623 0.2672281 0.059797853
000070 48 ec 0c 3d d6 15 1b 3e e3 f2 83 3e 00 09 3e 3b
       0.034405023 0.15145048 0.25771245 0.0028997064
000080 ca b8 58 be 6c 7c 22 3e 8e f3 4d 3e a4 10 1c be
       -0.21164241 0.15867776 0.2011244 -0.15240723
000090 6d fe 93 3e 8e 79 18 be fc 0f 7e be b8 75 d7 3d
       0.2890505 -0.1489012 -0.24810785 0.105205
0000a0 98 f1 d1 bd 89 87 2b be bc 75 e7 3d 10 20 37 be
       -0.102511585 -0.16750921 0.11301753 -0.17883325
0000b0 40 51 19 3c 0c ac be 3d 04 ec 09 be fa cc 35 3e
       0.00935775 0.09310159 -0.13468939 0.17753974
0000c0 d0 fd 77 3d 80 66 e4 3b 62 a1 62 3e 2b 5d 3c be
       0.06054479 0.0069702268 0.22131875 -0.18394916
0000d0 b0 d9 76 bd 00 7f 85 ba 5d fb 92 be 32 3d 51 3e
       -0.060266197 -0.0010184944 -0.287074 0.204335
0000e0 21 9d 9b 3e ef 45 86 3e 1e e4 19 3e 23 87 81 3e
       0.30393317 0.2622523 0.15028426 0.25298414
0000f0 4b 52 97 be d9 2d 77 be ce 0c 8a be c0 94 c8 bb
       -0.29554972 -0.24138583 -0.26962894 -0.006121248
000100 ec cf 2e 3e 0b ac 03 be 12 4c 31 3e 1a 75 0f be
       0.17071503 -0.12858598 0.17314175 -0.14009514
000110 d3 7b 94 3e 0a c6 6a 3e ce cd 22 3e b3 a2 6b be
       0.2900072 0.22927108 0.15898821 -0.23011284
000120 2c 22 4e be a3 1a 87 3e cc 58 e4 3d 56 8d 35 3e
       -0.20130223 0.2638751 0.11149749 0.17729697
000130 42 18 3d 3e 70 76 82 3d 90 f9 53 bd 52 c0 03 be
       0.18466285 0.063702464 -0.051751673 -0.12866333
000140 84 db b3 3d 88 13 3d 3d b6 94 e9 bd 1a b5 ee bd
       0.08782104 0.046161205 -0.114053175 -0.11655636
000150 30 e9 73 be 50 bd 5c 3d c8 b3 ac 3d 28 a2 00 bd
       -0.23819423 0.05389148 0.08432728 -0.031404644
000160 db bd 97 3e 82 0b 9e be 50 90 06 3e 08 ca 63 3d
       0.29637036 -0.30868155 0.13140988 0.055612594
000170 96 c4 59 3e 8d 28 9c 3e e1 d4 81 3e 08 e9 56 3d
       0.21266398 0.30499688 0.25357726 0.05246833
000180 e8 d7 2c 3e e4 2c 67 be 27 d7 82 3e ea 61 76 3e
       0.16879237 -0.22575718 0.25554773 0.24060789

bias f4 [10]
000000 18 f0 95 3d 86 48 1a 3e 3c 49 39 be b6 da 68 3e
       0.07321185 0.15066728 -0.18094343 0.22739682
000010 60 54 5d 3d 20 00 47 be 70 41 63 bd f5 4c 8c 3e
       0.054035544 -0.19433641 -0.055482328 0.27402464
000020 4c dc 84 bd b8 df ad 3d
       -0.06487331 0.084899366

weight f4 [10, 10]
000000 88 11 3b be 33 18 81 3e 5a 13 63 3e 49 e3 9e 3e
       -0.18268406 0.25213775 0.22175351 0.3103278
000010 d3 da 80 3e 22 42 5f 3e 30 b6 20 bd 10 f0 2b 3e
       0.2516695 0.21802571 -0.039236248 0.16790795
000020 59 7e 74 be e3 67 87 3e d1 78 a1 3e c6 b9 45 3e
       -0.23876323 0.26446447 0.31537488 0.19309148
000030 ee 73 48 3e 00 ef 86 3d ee c7 54 3e f8 0d 02 3d
       0.19575474 0.065885544 0.20779392 0.031751603
000040 d1 1a 8e 3e f2 fe 8f bd e8 a5 61 bd 20 fc 96 3c
       0.27754834 -0.07031049 -0.05508986 0.01843077
000050 2e 99 2a 3e 7a ac 5e 3e c1 78 9f 3e b0 d9 15 be
       0.16659996 0.21745482 0.31146815 -0.14633822
000060 90 34 28 bd 57 25 9a 3e d6 b1 1d 3e 3d 7c a0 3e
       -0.041065753 0.30106613 0.1539987 0.31344786
000070 78 6c 02 bd d8 4a a3 bd fa b2 14 3e 4e 04 5f 3e
       -0.031841725 -0.0797326 0.14521399 0.21778986
000080 12 3e 3f 3e b5 c4 20 be 19 11 9c 3e 60 dd 7e bc
       0.18676022 -0.15700038 0.30481794 -0.01555571
000090 a0 05 c9 bd 4c d5 be bd 5c f6 73 be 74 21 e3 bd
       -0.09815526 -0.09318027 -0.23824447 -0.11090365
0000a0 f8 40 e9 bd e8 11 9a 3d c0 42 23 3d 1a fd 3b 3e
       -0.11389345 0.075229466 0.03985858 0.1835827
0000b0 2e 8f 4f 3e 56 51 a9 bd ea 38 18 3e 00 b9 69 3c
       0.20269462 -0.08267467 0.14865461 0.014265299
0000c0 58 e0 7e be d4 df 88 3d 65 6d 85 3e 28 95 4a 3d
       -0.24890268 0.06683317 0.26060024 0.049458653
0000d0 44 da d0 bd 22 17 37 3e 7c 64 de bd ce 5e 50 3e
       -0.10197881 0.17879918 -0.108590096 0.20348665
0000e0 a8 d6 12 3e 12 09 06 3e df 48 9c 3e c0 62 b2 bc
       0.14339697 0.13089398 0.30524346 -0.021775603
0000f0 00 00 a8 38 46 81 27 3e a0 bb 8a be 3a 6d 09 be
       8.010864e-05 0.16357908 -0.27096272 -0.13420573
000100 40 a6 6d 3c e1 af 42 be e1 67 86 be fe c8 0f 3e
       0.014504969 -0.19012405 -0.26251128 0.14041516
000110 34 8b 6d be d2 90 7e be 50 0f 13 3e 14 40 8a be
       -0.23197633 -0.24859932 0.1436131 -0.27002013
000120 3c 19 da 3d 03 2f 99 3e b6 79 76 3e c0 5e 7d bd
       0.10649344 0.2991868 0.24069867 -0.06185794
000130 46 f1 78 be eb e6 9c be 6e e2 72 be c8 10 d5 bd
       -0.24310789 -0.30644926 -0.23719189 -0.104035914
000140 24 52 07 be 78 13 9a 3d 48 fb 25 3e c0 1d 9e bd
       -0.13214928 0.075232446 0.16209137 -0.07720518
000150 f0 ba 78 bd bd 0f 80 3e f4 46 a7 3d 56 b8 a0 be
       -0.060725152 0.25012007 0.0816783 -0.31390637
000160 ac ea 91 be c6 a5 9c bd 60 27 25 bd af f8 53 be
       -0.28499353 -0.07648806 -0.040320754 -0.20700334
000170 4e f6 79 3e 04 c8 8b be 40 23 df bc 5f 6c 82 3e
       0.24410364 -0.27301037 -0.027238488 0.25473306
000180 34 d5 4c be 10 61 5d be 2a 2d eb bd f8 f3 37 3d
       -0.20003206 -0.21619058 -0.11483224 0.0449104

bias f4 [10]
000000 50 d3 99 bc 49 e9 1f be ac 77 80 bd 35 dd 94 be
       -0.01877752 -0.15616335 -0.062728256 -0.29075018
000010 57 14 9f 3e 5b 8c 87 3e f2 dc f5 bd ba 90 60 3e
       0.31070206 0.2647427 -0.120050326 0.21930209
000020 98 89 34 3d aa ec e2 bd
       0.044076532 -0.11080296

weight f4 [10, 10]
000000 bc 4e 1b be a8 12 bd 3d 16 26 28 3e a2 2e 80 be
       -0.15166754 0.09232074 0.16420779 -0.25035578
000010 5e a6 3d 3e 1b f6 39 be 24 33 e9 3d de 7e 0c 3e
       0.18520495 -0.18160288 0.113867074 0.13720271
000020 4c c7 01 3e 1e 56 5f 3e cb d7 8d 3e d4 49 8c bd
       0.12673682 0.21810195 0.277037 -0.06850019
000030 58 3c 3d be d0 0f 2f bd a6 d1 7c 3e 14 d8 80 be
       -0.1848005 -0.04273969 0.2468935 -0.25164855
000040 6a 9e 91 bd a2 9b 94 be 60 c9 e1 3c 58 11 0c 3d
       -0.07110293 -0.29024988 0.027561843 0.034196228
000050 20 e5 0c bc f8 e9 ea 3d 70 30 cd bd c0 ea f0 bd
       -0.0085995495 0.11470407 -0.10019004 -0.11763525
000060 f9 bb 0b be c3 40 91 be d9 68 81 3e 30 aa 7e bd
       -0.13645925 -0.28369722 0.25275305 -0.062174022
000070 8c 42 97 3d 80 8e 62 3c a3 a1 90 be 3a a9 08 be
       0.0738574 0.01382792 -0.2824832 -0.13345805
000080 b2 4e ea bd ae 6a 82 be c7 6a 93 3e 60 32 b1 3d
       -0.11440791 -0.25472015 0.28792402 0.086521864
000090 08 11 f1 3d b0 4b a8 bc 78 22 6f bd 5a 9a 75 3e
       0.117708266 -0.020543903 -0.05838248 0.23984662
0000a0 f0 44 3d bd f1 22 86 be b0 ed 93 3c b2 0e 23 3e
       -0.046208322 -0.26198533 0.018057674 0.15923575
0000b0 ea 2c 84 be a1 aa 6a be f9 a7 90 3e b5 7f 92 3e
       -0.25815517 -0.22916652 0.28253153 0.28613058
0000c0 18 11 48 3d e0 10 69 bc 69 cb 1a be cb ac 93 3e
       0.048844427 -0.014225215 -0.15116657 0.28842768
0000d0 f0 f9 db bc 80 19 e1 3b d7 10 97 3e da ea 76 3e
       -0.026852578 0.006869495 0.29505035 0.24113026
0000e0 76 0e 20 be d4 5e 81 bd ad 99 29 be 99 79 93 be
       -0.15630516 -0.06316915 -0.16562529 -0.2880371
0000f0 ae b0 6b be 9d 12 89 be c4 cb eb bd d7 8d 30 be
       -0.23016617 -0.26772013 -0.115134746 -0.17241608
000100 12 11 09 3e 50 eb c5 3d 40 82 e0 3d c2 1c 55 3e
       0.13385418 0.09664023 0.10962343 0.20811751
000110 c0 7c 43 bc 2e 6d a1 be c0 11 ee bb 40 83 bd bb
       -0.011931598 -0.3152861 -0.0072652996 -0.0057834685
000120 98 47 17 be c3 ad 9d 3e ba 5a 8f be fc 60 6b be
       -0.14773405 0.30796632 -0.27998906 -0.22986215
000130 b4 09 90 be c4 16 7b be 0c 84 88 be c9 9c 08 be
       -0.28132403 -0.24520403 -0.26663244 -0.13341059
000140 d8 af 2f bd 70 08 33 bd 21 e3 94 3e 89 23 8e 3e
       -0.042892307 -0.04370922 0.29079536 0.27761486
000150 7e 31 72 3e 34 21 84 be d8 b9 8b be 62 36 16 3e
       0.23651692 -0.25806582 -0.27290225 0.14669183
000160 22 6e 0b 3e 0e f8 43 be 60 cf c9 3d 58 02 87 be
       0.13616231 -0.19137594 0.09854007 -0.26368976
000170 af e0 8e 3e 50 30 1e 3e 0e 3c 3d 3e a0 5b 80 bc
       0.27905795 0.15448117 0.1847994 -0.01566869
000180 18 7f 69 be c2 32 90 be d0 85 8c bd 97 f5 41 be
       -0.22802389 -0.28163725 -0.0686146 -0.18941341

bias f4 [10]
000000 80 d3 61 3c fa bb 47 be 7c 4f 8c 3d 40 fc 64 3d
       0.013783336 -0.19505301 0.06851098 0.055904627
000010 e3 fd 9e be 60 af 6a bd 55 2a 97 3e ed 67 80 be
       -0.31053075 -0.057296157 0.29524484 -0.2507929
000020 c0 d8 b6 3c ac 6d 71 be
       0.022320151 -0.23576993

weight f4 [10, 10]
000000 c0 b8 bc 3d a0 26 a1 3d e9 9d 85 3e d6 ef 66 3e
       0.09214926 0.07868695 0.26097038 0.22552428
000010 20 b2 75 bc d8 ec 1c 3e 83 b1 88 3e b6 44 76 be
       -0.014996082 0.15324724 0.2669793 -0.24049649
000020 60 2a 77 3d 8a fd 64 be e4 69 c7 3d ee 68 45 3e
       0.060343146 -0.22362342 0.09736994 0.19278309
000030 e8 07 67 3d 06 c7 6a 3e 98 30 8d 3d 80 d3 8b 3d
       0.056404024 0.22927484 0.06894034 0.0682745
000040 dc 96 de 3d ab 91 0d be fa f7 6f 3e fd a8 84 be
       0.10868618 -0.13825099 0.2343444 -0.25910178
000050 58 f3 d9 bd 32 a0 5c be 60 4e 0b 3c 16 f4 9a bd
       -0.10642117 -0.21545485 0.008502573 -0.07566087
000060 22 fd 61 3e a0 6d 18 3d 58 c1 14 bd b0 54 90 bd
       0.22069219 0.03721392 -0.0363172 -0.07047403
000070 dc c5 8e bd 78 8b 2a 3e c6 13 31 3e 22 f0 5c be
       -0.069713324 0.16654766 0.17292699 -0.21575978
000080 60 9c e3 3c f0 f2 3e bd 90 fc f4 bc a6 41 9b be
       0.027784526 -0.046618402 -0.029905587 -0.30323523
000090 d3 37 9b 3e 54 00 8c 3d f6 13 83 be 0c 84 a8 3d
       0.30316028 0.06836 -0.25601166 0.08228311
0000a0 0a 76 43 3e 40 64 ad 3b 80 ba 9b be a6 fa 4b 3e
       0.19087997 0.0052914917 -0.30415726 0.19919834
0000b0 ce eb 29 3e 44 cb 26 be c0 a7 d7 3b 67 25 7b be
       0.16593859 -0.16288477 0.0065812767 -0.24525987
0000c0 1a be 55 3e fe f3 64 3e 80 f3 e1 bc 7c 93 16 3e
       0.20873299 0.223587 -0.02758193 0.14704698
0000d0 78 45 97 be 90 4d 58 3d 8e 98 32 3e 9e c3 77 3e
       -0.29545188 0.052808344 0.17441007 0.24195716
0000e0 a8 9f 62 3d 70 7b 71 be 26 71 ee bd f2 6b a0 be
       0.05532804 -0.23582244 -0.11642675 -0.31332356
0000f0 d9 a2 9e 3e a0 6c a2 bc b4 70 83 3d 02 e9 df bd
       0.30983618 -0.019827187 0.06417981 -0.109331146
000100 6e 9e 8e bd e0 f2 0b 3d 82 e2 1f 3e 58 92 a0 be
       -0.06963812 0.03416717 0.1561375 -0.3136165
000110 41 5d 5f be 9e 95 6f 3e 24 bd 77 be 5e 03 c9 bd
       -0.21812917 0.23396918 -0.24193245 -0.09815095
000120 e6 26 8b bd 5e 5d 7d be 90 30 80 bd 5e e4 48 be
       -0.06794529 -0.24742648 -0.062592626 -0.19618365
000130 11 d3 a0 be ea 53 90 bd 27 cc 2f be 80 e7 22 3c
       -0.3141103 -0.07047255 -0.17167722 0.009942889
000140 e2 87 5b 3e a0 08 1d bd 3e 77 cf bd 76 09 52 be
       0.21438554 -0.038338304 -0.101301655 -0.20511422
000150 82 bb 6e 3e 32 81 5e be 88 54 b1 bd c6 66 29 be
       0.23313716 -0.21728972 -0.08658701 -0.16543111
000160 58 c8 cb 3d dc 65 80 3d bc fa c6 3d e0 d6 3b bc
       0.09950322 0.06269428 0.097157925 -0.011464804
000170 06 60 65 3e be 16 6d be 38 c7 3d 3d 46 46 77 be
       0.22399911 -0.23153207 0.046332568 -0.24147901
000180 61 cd 84 3e a7 c3 80 be ce cc 99 bd 50 a8 a7 bc
       0.25937942 -0.2514927 -0.075097665 -0.020466

bias f4 [10]
000000 50 67 91 3d 4d a6 8e 3e 90 6d ab bc 64 df 08 be
       0.070997834 0.27861252 -0.020926267 -0.13366467
000010 31 15 88 be 75 b5 80 3e 68 57 fa 3d 5e 51 64 3e
       -0.26578668 0.2513844 0.12223703 0.22296664
000020 00 dc ee 3a ac 34 b4 3d
       0.0018223524 0.08799109

weight f4 [1, 10]
000000 a8 24 27 bd 1e 51 28 3e b8 45 27 3d ac f4 73 be
       -0.040806442 0.16437194 0.040837973 -0.23823804
000010 c0 df 63 be 62 a3 23 be 20 06 de bc 4a 6d 77 3e
       -0.22253323 -0.15980294 -0.02710253 0.24162784
000020 b0 f5 f5 3d 59 b1 9a be
       0.12009752 -0.3021343

add_tensors f4 [10, 6]
000000 00 00 00 00 00 00 00 00 00 00 00 00 00 00 00 00
       0.0 0.0 0.0 0.0
000010 00 00 00 00 00 00 00 00 00 00 00 00 00 00 00 00
       0.0 0.0 0.0 0.0
000020 00 00 00 00 00 00 00 00 00 00 00 00 00 00 00 00
       0.0 0.0 0.0 0.0
000030 00 00 00 00 00 00 00 00 00 00 00 00 00 00 00 00
       0.0 0.0 0.0 0.0
000040 00 00 00 00 00 00 00 00 00 00 00 00 00 00 00 00
       0.0 0.0 0.0 0.0
000050 00 00 00 00 00 00 00 00 00 00 00 00 00 00 00 00
       0.0 0.0 0.0 0.0
000060 00 00 00 00 00 00 00 00 00 00 00 00 00 00 00 00
       0.0 0.0 0.0 0.0
000070 00 00 00 00 00 00 00 00 00 00 00 00 00 00 00 00
       0.0 0.0 0.0 0.0
000080 00 00 00 00 00 00 00 00 00 00 00 00 00 00 00 00
       0.0 0.0 0.0 0.0
000090 00 00 00 00 00 00 00 00 00 00 00 00 00 00 00 00
       0.0 0.0 0.0 0.0
0000a0 00 00 00 00 00 00 00 00 00 00 00 00 00 00 00 00
       0.0 0.0 0.0 0.0
0000b0 00 00 00 00 00 00 00 00 00 00 00 00 00 00 00 00
       0.0 0.0 0.0 0.0
0000c0 00 00 00 00 00 00 00 00 00 00 00 00 00 00 00 00
       0.0 0.0 0.0 0.0
0000d0 00 00 00 00 00 00 00 00 00 00 00 00 00 00 00 00
       0.0 0.0 0.0 0.0
0000e0 00 00 00 00 00 00 00 00 00 00 00 00 00 00 00 00
       0.0 0.0 0.0 0.0

add_tensors f4 [10]
000000 00 00 00 00 00 00 00 00 00 00 00 00 00 00 00 00
       0.0 0.0 0.0 0.0
000010 00 00 00 00 00 00 00 00 00 00 00 00 00 00 00 00
       0.0 0.0 0.0 0.0
000020 00 00 00 00 00 00 00 00
       0.0 0.0

add_tensors f4 [10, 10]
000000 00 00 00 00 00 00 00 00 00 00 00 00 00 00 00 00
       0.0 0.0 0.0 0.0
000010 00 00 00 00 00 00 00 00 00 00 00 00 00 00 00 00
       0.0 0.0 0.0 0.0
000020 00 00 00 00 00 00 00 00 00 00 00 00 00 00 00 00
       0.0 0.0 0.0 0.0
000030 00 00 00 00 00 00 00 00 00 00 00 00 00 00 00 00
       0.0 0.0 0.0 0.0
000040 00 00 00 00 00 00 00 00 00 00 00 00 00 00 00 00
       0.0 0.0 0.0 0.0
000050 00 00 00 00 00 00 00 00 00 00 00 00 00 00 00 00
       0.0 0.0 0.0 0.0
000060 00 00 00 00 00 00 00 00 00 00 00 00 00 00 00 00
       0.0 0.0 0.0 0.0
000070 00 00 00 00 00 00 00 00 00 00 00 00 00 00 00 00
       0.0 0.0 0.0 0.0
000080 00 00 00 00 00 00 00 00 00 00 00 00 00 00 00 00
       0.0 0.0 0.0 0.0
000090 00 00 00 00 00 00 00 00 00 00 00 00 00 00 00 00
       0.0 0.0 0.0 0.0
0000a0 00 00 00 00 00 00 00 00 00 00 00 00 00 00 00 00
       0.0 0.0 0.0 0.0
0000b0 00 00 00 00 00 00 00 00 00 00 00 00 00 00 00 00
       0.0 0.0 0.0 0.0
0000c0 00 00 00 00 00 00 00 00 00 00 00 00 00 00 00 00
       0.0 0.0 0.0 0.0
0000d0 00 00 00 00 00 00 00 00 00 00 00 00 00 00 00 00
       0.0 0.0 0.0 0.0
0000e0 00 00 00 00 00 00 00 00 00 00 00 00 00 00 00 00
       0.0 0.0 0.0 0.0
0000f0 00 00 00 00 00 00 00 00 00 00 00 00 00 00 00 00
       0.0 0.0 0.0 0.0
000100 00 00 00 00 00 00 00 00 00 00 00 00 00 00 00 00
       0.0 0.0 0.0 0.0
000110 00 00 00 00 00 00 00 00 00 00 00 00 00 00 00 00
       0.0 0.0 0.0 0.0
000120 00 00 00 00 00 00 00 00 00 00 00 00 00 00 00 00
       0.0 0.0 0.0 0.0
000130 00 00 00 00 00 00 00 00 00 00 00 00 00 00 00 00
       0.0 0.0 0.0 0.0
000140 00 00 00 00 00 00 00 00 00 00 00 00 00 00 00 00
       0.0 0.0 0.0 0.0
000150 00 00 00 00 00 00 00 00 00 00 00 00 00 00 00 00
       0.0 0.0 0.0 0.0
000160 00 00 00 00 00 00 00 00 00 00 00 00 00 00 00 00
       0.0 0.0 0.0 0.0
000170 00 00 00 00 00 00 00 00 00 00 00 00 00 00 00 00
       0.0 0.0 0.0 0.0
000180 00 00 00 00 00 00 00 00 00 00 00 00 00 00 00 00
       0.0 0.0 0.0 0.0

add_tensors f4 [1, 10]
000000 00 00 00 00 00 00 00 00 00 00 00 00 00 00 00 00
       0.0 0.0 0.0 0.0
000010 00 00 00 00 00 00 00 00 00 00 00 00 00 00 00 00
       0.0 0.0 0.0 0.0
000020 00 00 00 00 00 00 00 00
       0.0 0.0
