Relu_fixed_harder/TorchSaves/Best_Ball_Gen179.pt (torch_old, 16332 bytes, 17 tensors)

weight f4 [10, 6]
0.00028338868 -4.7900596 0.0009301372 -0.11821477 -0.06277414 0.00010683974 -0.005356172 0.00461871
-0.021860529 3.1403943e-08 -1.2416246 -0.028297901 3.5348443e-05 -11.88272 -0.0036835312 -0.0015089307
3.908223e-05 -0.068130516 0.0010781721 -0.041281123 -0.00014236363 -0.89856446 9.819277e-05 5.1283627e-05
-0.001180043 -0.0012889871 0.0024286252 2.3153689e-08 -8.138476e-07 0.21571332 -0.0032158154 -2.385124
0.002432883 -0.017151367 14.352354 -0.13103577 1.8110356e-06 -0.0014123423 -0.0005092702 -0.003224471
1.9937692e-05 1.4159572e-05 -4.7400154e-06 -2.2467388e-07 0.69597447 -0.043504834 1.8871056e-07 -0.07635991
-0.00019356883 0.24897549 -0.16174456 -8.128646e-05 -0.003003593 -0.061481476 -3.6209938e-05 -6.0306913e-05
-9.097798e-07 8.1026956e-05 1.1400738e-05 -6.103739e-06
00000000: c993 9439 2b48 99c0 73d4 733a 961a f2bd
00000010: ba8f 80bd 260f e038 d482 afbb 8c58 973b
00000020: da14 b3bc 00e1 0633 8eed 9ebf 00d1 e7bc
00000030: 1a43 1438 9f1f 3ec1 6667 71bb 50c7 c5ba
00000040: 3aec 2338 0388 8bbd 7451 8d3a 6516 29bd
00000050: 7247 15b9 5208 66bf d8ec cd38 6019 5738
00000060: acab 9aba 3bf3 a8ba 9229 1f3b 80e3 c632
00000070: 2e77 5ab5 f4e3 5c3e 6ec0 52bb dfa5 18c0
00000080: 0171 1f3b 0681 8cbc 3ea3 6541 3e2e 06be
00000090: b612 f335 581e b9ba 8b80 05ba a551 53bb
000000a0: de3f a737 e68e 6d37 6c0c 9fb6 e33d 71b4
000000b0: 622b 323f 2032 32bd 5da0 4a34 9662 9cbd
000000c0: bdf8 4ab9 6ef3 7e3e 5ea0 25be 5678 aab8
000000d0: eed7 44bb 00d4 7bbd 20e0 17b8 0ef2 7cb8
000000e0: 9837 74b5 04ed a938 cc45 3f37 b8ce ccb6

bias f4 [10]
0.0011755407 0.0007658295 -0.15566613 5.3517568e-05 9.1293105e-06 -0.00028787064 -4.780032e-05 0.0030926429
-0.46927977 -0.030972136
00000000: 9a14 9a3a f3c1 483a f166 1fbe 0d78 6038
00000010: 172a 1937 58ed 96b9 347d 48b8 f0ad 4a3b
00000020: 7045 f0be 47b9 fdbc

weight f4 [10, 10]
0.0010052415 -0.018521905 0.0018543074 4.4163342e-05 -6.355798e-06 -9.260568e-06 1.4573019 -0.4702598
0.07215517 0.110113695 -0.0041328836 -2.379417e-05 -7.871978e-06 6.6789034e-06 0.15066703 -0.0038048904
0.009367943 -0.0012158861 4.4438896 -17.483366 0.0074337116 4.0649815e-07 2370.717 -0.028713189
-0.0069563063 -6.2952226e-05 -0.0016136598 0.0006892286 -0.12537232 0.00056168553 -0.37532556 -2.6882815e-05
-0.00010187949 102.6486 -0.0004362141 4.3819723 3.7502264e-06 -0.0009351653 -0.009728348 -1.0333761e-07
0.011864135 -1.731064e-07 0.03914811 0.015193522 -0.0003482236 -2.0971918e-06 -4.6832665e-06 0.16496211
-0.004159138 -0.0004500468 -0.027645137 -57.022453 6.962087e-05 0.11843043 -0.00018460614 0.011431821
-4.5495756e-07 7.265387e-05 0.002702591 0.02117496 -0.013290627 -0.18078142 0.02122515 0.016820913
0.00655197 0.0008379953 0.04583117 0.038091455 0.0038171748 -0.012804225 -0.00014752534 0.0022391744
-1.2197715e-06 0.08244236 -0.03218941 0.090765335 -2.2185128e-07 -8.42079e-08 0.008797267 7.661296e-07
0.030196115 0.0045361845 -1.869948e-06 0.0044122264 -0.0010657501 -0.0079057105 -0.00067012355 0.019762654
-1.5374696 -0.00039212406 6.700313e-05 -0.0071507585 0.00060793245 -4.158748e-05 0.15753439 2.1995573e-05
-0.009605218 0.8524941 1.8032921e-07 1.983519e-06
00000000: 4fc2 833a 40bb 97bc 3b0c f33a 073c 3938
00000010: e443 d5b6 d65d 1bb7 de88 ba3f e4c5 f0be
00000020: 17c6 933d 4a83 e13d 246d 87bb 9799 c7b7
00000030: e311 04b7 581b e036 7548 1a3e 785b 79bb
00000040: 007c 193c 5e5e 9fba 5834 8e40 efdd 8bc1
00000050: 7e96 f33b ae3c da34 792b 1445 ec37 ebbc
00000060: baf1 e3bb 3805 84b8 7081 d3ba 59ad 343a
00000070: 9a61 00be 143e 133a ac2a c0be 6882 e1b7
00000080: 22a8 d5b8 154c cd42 aab3 e4b9 1e39 8c40
00000090: 66ac 7b36 e225 75ba a663 1fbc 74ea ddb3
000000a0: ca61 423c 20df 39b4 c559 203d 40ee 783c
000000b0: c891 b6b9 7bbd 0cb6 f424 9db6 d4eb 283e
000000c0: 6149 88bb 42f4 ebb9 0e78 e2bc fe16 64c2
000000d0: 6c01 9238 a78b f23d d592 41b9 884c 3b3c
000000e0: e440 f4b4 c05d 9838 f41d 313b 1c77 ad3c
000000f0: eec0 59bc c41e 39be 5ee0 ad3c 03cc 893c
00000100: e8b1 d63b eaac 5b3a 77b9 3b3d c905 1c3d
00000110: 9129 7a3b d0c8 51bc 08b1 1ab9 1dbf 123b
00000120: 08b7 a3b5 8ad7 a83d 0bd9 03bd 2de3 b93d
00000130: 0436 6eb4 c8d5 b4b3 6a22 103c 06a8 4d35
00000140: d85d f73c 46a4 943b edfa fab5 7094 903b
00000150: a4b0 8bba f486 01bc 3bab 2fba 4ae5 a13c
00000160: cecb c4bf 0096 cdb9 0884 8c38 e950 eabb
00000170: a85d 1f3a 376e 2eb8 b250 213e 2283 b837
00000180: 345f 1dbc 0e3d 5a3f 84a0 4134 991c 0536

bias f4 [10]
0.027344435 6.1679673 -0.00061073306 2.963948e-08 -3.008527e-05 10.210664 -0.00013881785 0.00055301253
0.069221675 -1.1484255e-05
00000000: 7001 e03c fd5f c540 9a19 20ba e899 fe32
00000010: a05f fcb7 e15e 2341 a28f 11b9 0bf8 103a
00000020: 18c4 8d3d 80ac 40b7

weight f4 [10, 10]
-5.840686e-06 -0.04501138 -0.0018455437 -3.924343 -3.0965355e-05 -4.0361578e-05 2.7949104 -7.0009482e-06
0.9831587 -0.0004696882 -0.070136964 0.0011096885 -4.7862704e-05 -1.715704 0.000118682976 -0.11908917
-0.041391894 -2.8886545e-05 0.0011397209 -0.00036049006 -0.00040149782 -1.452473e-06 0.6076601 0.010719962
-0.001218819 -0.0004410052 -3.9972463 -0.03418737 0.002442786 -1.3053512e-05 -1.2630524e-07 -0.00042136476
-1.16702395e-05 1.4821312e-06 -0.00024693215 0.0007656432 4.359801e-05 0.00031372032 0.015821699 9.955298e-08
-38.746212 -0.28733575 1.3777391e-05 0.23343445 0.001022576 -0.007962186 -1.0762616e-08 -0.34681737
0.11854483 -0.00037070908 -63.410034 6.963743e-05 -0.03913593 0.00061117066 -0.06589441 -0.020439694
-6.461628e-06 -0.0008089447 0.0056155697 -0.00838167 -0.052474797 -0.00014354673 0.0043255803 4.2301006e-05
1.0238297 0.00017721916 0.0011228208 -0.019059418 -0.41095465 -7.4653926e-06 5.7004264e-09 -0.00035955425
8.918247e-08 -10.8025465 -2.5951844e-05 -24.293741 0.008279905 -3.2235876e-05 0.00023229857 6.5392014e-05
0.028526302 -0.02730374 0.00032747083 0.083340734 -2.9816027 2.0573575 -0.00046595576 -0.0072003864
0.0021353993 -0.012419639 0.005710219 -0.06251314 -8.454461e-06 9.705702e-05 -0.043329135 0.0031637973
0.19283456 0.028930765 0.024462564 5.9012486e-06
00000000: 1cfb c3b6 da5d 38bd 2ce6 f1ba 7028 7bc0
00000010: cce0 01b8 ea49 29b8 d0df 3240 b0e9 eab6
00000020: 4ab0 7b3f 7c40 f6b9 f8a3 8fbd f872 913a
00000030: 30c0 48b8 309c dbbf 70e5 f838 06e5 f3bd
00000040: 8c8a 29bd 6251 f2b7 b062 953a 2800 bdb9
00000050: 2080 d2b9 98f2 c2b5 9d8f 1b3f c8a2 2f3c
00000060: c7c0 9fba b736 e7b9 e2d2 7fc0 0e08 0cbd
00000070: 2617 203b 6800 5bb7 859e 07b4 9fea dcb9
00000080: 4ccb 43b7 a4ed c635 ac76 81b9 72b5 483a
00000090: 02dd 3638 d47a a439 829c 813c d4c9 d533
000000a0: 1ffc 1ac2 ac1d 93be 7225 6737 7109 6f3e
000000b0: f507 863a d473 02bc 7ce6 38b2 0c92 b1be
000000c0: a2c7 f23d bb5b c2b9 e0a3 7dc2 500a 9238
000000d0: ff4c 20bd f836 203a a6f3 86bd 2571 a7bc
000000e0: f6d0 d8b6 5c0f 54ba d002 b83b 4653 09bc
000000f0: d0ef 56bd 0885 16b9 99bd 8d3b 5c6c 3138
00000100: da0c 833f e8d3 3939 9d2b 933a 7f22 9cbc
00000110: a668 d2be 3c7f fab6 7bdd c331 8e82 bcb9
00000120: 9584 bf33 3bd7 2cc1 29b3 d9b7 9559 c2c1
00000130: 70a8 073c 0235 07b8 2c95 7339 1223 8938
00000140: feaf e93c 18ac dfbc 64b0 ab39 8cae aa3d
00000150: 94d2 3ec0 bfab 0340 864b f4b9 38f1 ebbb
00000160: 0ef2 0b3b be7b 4bbc ca1c bb3b e406 80bd
00000170: a2d7 0db7 178b cb38 e479 31bd b657 4f3b
00000180: 6c76 453e 3600 ed3c b765 c83c 5703 c636

bias f4 [10]
0.00051580224 -0.0021635727 6.837284 -0.00032934165 -8.1093157e-07 0.0001403872 1.924614e-06 -0.001724686
0.0445549 3.6882743e-06
00000000: e736 073a baca 0dbb 08cb da40 7dab acb9
00000010: cbae 59b5 e734 1339 9e28 0136 dc0e e2ba
00000020: 337f 363d 1284 7736

weight f4 [10, 10]
0.00052465353 0.0011141599 0.0011421463 -4.5761135e-06 0.046806693 8.6944914e-05 -3.366022e-05 4.8709574
-0.0035818727 0.0048841042 -0.0012948904 -8.488382e-11 0.19766769 0.21822615 -0.00010337397 -0.0006054995
-4.1812484e-08 -1.7297189e-05 0.00013002183 0.01591752 0.11598267 2.1430144e-05 -17.954155 -0.0002445337
-0.005851918 -0.012842383 0.00012293836 -0.0005827158 -0.0041535096 0.029834181 3.996721e-08 0.9712915
-0.001612728 -0.16101968 0.16913453 0.00037694763 0.061985634 0.022008697 0.0006735296 0.02734721
1.4267101e-07 -0.06467177 -0.008855731 -0.008699369 0.0027182181 4.386933e-07 9.200613e-08 0.010386845
0.36945772 0.028766144 -0.0030473492 -0.013188294 0.037234556 0.0085785035 -9.1666516e-05 1.0916448
1.294035e-07 -4.7224927e-05 -1.1247216e-06 -4.945512e-05 -3.2176806e-06 0.0026717875 4.738279e-08 -0.1599249
-0.9775557 -0.03290373 -0.039795145 0.0034403251 -1.9938152 2.076022e-05 -0.031554982 -0.17054935
-5.613681 6.357697e-05 9.3810406e-05 0.0019505052 17.918648 1.1228113e-07 -0.0028517433 -0.005893615
4.3758843e-07 -1.5331927e-05 8.670428e-05 0.11199093 6.712589e-05 0.5327152 -0.00013320975 -0.0006287739
1.1796722e-09 0.0031425878 -4.1978967e-07 0.0003920824 2.5790598e-06 7.1461465e-05 0.63871 0.0007362232
-0.0001444772 -0.82097906 -0.00023430213 -0.0062192874
00000000: e788 093a 0109 923a 12b4 953a 848c 99b6
00000010: 60b8 3f3d 3256 b638 632e 0db8 e2de 9b40
00000020: dabd 6abb d60a a03b 50b9 a9ba 58a9 baae
00000030: 6669 4a3e ad76 5f3e 7aca d8b8 62ba 1eba
00000040: 5095 33b3 6e19 91b7 7856 0839 7565 823c
00000050: 5288 ed3d e2c4 b337 1ca2 8fc1 c234 80b9
00000060: 72c1 bfbb dc68 52bc 04e9 0039 65c1 18ba
00000070: 2a1a 88bb d066 f43c 6aa8 2b33 8fa6 783f
00000080: 2c62 d3ba 58e2 24be 9a31 2d3e 0ea1 c539
00000090: a6e4 7d3d 954b b43c ce8f 303a 4207 e03c
000000a0: 1c31 1934 a272 84bd a117 11bc cc87 0ebc
000000b0: 2224 323b 8c85 eb34 e894 c533 962d 2a3c
000000c0: 9029 bd3e faa6 eb3c 09b6 47bb b713 58bc
000000d0: 4383 183d da8c 0c3c 163d c0b8 04bb 8b3f
000000e0: 2af2 0a34 6113 46b8 24f5 96b5 086e 4fb8
000000f0: 55ef 57b6 2819 2f3b ee81 4b33 5ac3 23be
00000100: 1741 7abf 10c6 06bd 3c00 23bd 1477 613b
00000110: 5635 ffbf 3c26 ae37 cc3f 01bd 7da4 2ebe
00000120: 46a3 b3c0 a054 8538 14bc c438 18a8 ff3a
00000130: 6459 8f41 341f f133 50e4 3abb 3a1f c1bb
00000140: b2ed ea34 109d 80b7 02d5 b538 805b e53d
00000150: f0c5 8c38 0660 083f 38ae 0bb9 4dd4 24ba
00000160: 0722 a230 e0f3 4d3b 745f e1b4 6990 cd39
00000170: e913 2d36 95dd 9538 8082 233f 1aff 403a
00000180: ce7e 17b9 af2b 52bf 00af 75b9 2acb cbbb

bias f4 [10]
-0.0001640195 -0.00017867278 3.027819e-05 -63.51483 0.00053069944 0.00037523705 0.0054161623 1.7462826e-06
-0.0020318143 0.80005085
00000000: a6fc 2bb9 1c5a 3bb9 ebfd fd37 300f 7ec2
00000010: a31e 0b3a 77bb c439 107a b13b d061 ea35
00000020: 3028 05bb 22d0 4c3f

weight f4 [10, 10]
-0.0007180432 4.571911 -0.00025786867 -0.35125285 -0.0045841923 0.013983661 2.4538186 -4.1731844e-05
-1.8791316e-06 -0.00062346924 3.8733629e-07 -3.2019452e-06 -8.3518564e-05 27.921478 0.061038792 -2.8333088e-06
-0.0008442068 0.0010887115 -0.002802129 0.016406208 -1.1889163 0.01253151 0.013506789 3.4418626e-05
0.00031317974 0.0016039982 -8.764041 6.306566 0.021032885 -4.0915016e-05 0.357788 5.112199e-07
0.013376118 6.1764746 6.833253e-06 0.07066424 -0.006299335 0.2390666 -3.127093e-05 -0.029701298
-1.1724156 0.024864081 290.73148 -6.13354e-09 31.19992 0.019837866 0.04865798 -0.00010109227
-0.021524362 3.0113826 -0.148595 -4.4952975e-07 -0.0007310603 -0.010105718 6.9939446 -9.1936556e-05
-0.00020680449 0.018459119 -0.0074336864 -0.14799908 0.36865073 -0.0019346331 -0.007632323 -3.113874e-05
-7.927913 -5.4555443e-05 0.18103245 5.4743883e-05 -7.809236e-05 -0.010777865 3.397936e-05 -3.443101e-05
4.8317447 -2.623807e-07 3.1033625e-05 0.000364827 -49.329918 -0.000537024 -7.550174 -0.048816014
0.00051392947 -4.1674657 -0.0043678163 0.0003982698 -0.00016289853 -27.08889 0.24036503 -0.0022764208
-0.0040934677 0.0015937248 -9.915422e-06 0.0020259097 0.011946578 0.024321254 -0.0095892195 -0.0016305696
9.0420735e-06 -6.9920964e-07 2.007196e-06 -0.0010082034
00000000: 103b 3cba 184d 9240 8c32 87b9 6ad7 b3be
00000010: fe36 96bb ba1b 653c 5d0b 1d40 3a09 2fb8
00000020: 7836 fcb5 5070 23ba 18f3 cf34 00e1 56b6
00000030: b026 afb8 305f df41 d003 7a3d e023 3eb6
00000040: c24d 5dba 19b3 8e3a eca3 37bb 5066 863c
00000050: 692e 98bf f650 4d3c 944b 5d3c b85c 1038
00000060: 4632 a439 403d d23a 8339 0cc1 64cf c940
00000070: 284d ac3c 2a9c 2bb8 fd2f b73e c43a 0935
00000080: 8127 5b3c aea5 c540 3249 e536 6ab8 903d
00000090: a76a cebb e0cd 743e e828 03b8 2350 f3bc
000000a0: b711 96bf c2af cb3c a15d 9143 30bf d2b1
000000b0: 7099 f941 0583 a23c 974d 473d 8001 d4b8
000000c0: dc53 b0bc 7eba 4040 4a29 18be e656 f1b4
000000d0: a0a4 3fba 7492 25bc 65ce df40 10ce c0b8
000000e0: a8d9 58b9 9437 973c 4896 f3bb 128d 17be
000000f0: cabf bc3e 8493 fdba 9118 fabb f89a 02b8
00000100: 77b1 fdc0 76d2 64b8 9260 393e cc9c 6538
00000110: 84c5 a3b8 a495 30bc 0f85 0e38 046a 10b8
00000120: a79d 9a40 54dd 8cb4 1a2a 0238 4046 bf39
00000130: d651 45c2 12c7 0cba 079b f1c0 4df3 47bd
00000140: 39b9 063a e15b 85c0 e61f 8fbb dece d039
00000150: becf 2ab9 0cb6 d8c1 4022 763e 0130 15bb
00000160: 7f22 86bb 88e4 d03a 6a5a 26b7 20c5 043b
00000170: 94bb 433c 5e3d c73c 1a1c 1dbc d6b8 d5ba
00000180: 69b3 1737 52b1 3bb5 5db3 0636 b125 84ba

bias f4 [10]
4.561876e-08 -2.202926e-05 -0.024919733 1.38592e-05 -1.3823555e-06 -0.010785371 0.0028744815 0.0039015086
-0.013658464 0.000669122
00000000: 5bee 4333 7acb b8b7 7824 ccbc d084 6837
00000010: 6089 b9b5 20b5 30bc cc61 3c3b 74b0 7f3b
00000020: c0c7 5fbc 0468 2f3a

weight f4 [10, 10]
-1.3570178 -0.031089284 -0.008839264 2.7244054e-05 0.3640894 0.032511428 0.0056010075 0.62001604
0.0048631644 0.58037674 0.5639624 0.00013478678 0.0002359529 -0.0017566886 0.001308362 -0.00036751266
-1.1048186e-05 0.014524 -0.0006493824 -0.00015896955 0.1595501 0.768136 -1.7699407e-05 6.940475e-07
0.0017090378 -0.038720593 -1.5385952 0.0019445369 0.0104485005 -0.00059177977 0.037209705 5.6402798e-05
-0.03090385 1.02552244e-10 1.9372445e-05 -0.001815524 0.028208654 -2.4182806e-10 -0.0067055672 -0.04865125
-6.589845e-06 -0.0020857053 -0.0005161143 0.007591623 0.0008796882 -0.002389645 -0.0016739119 -0.011724973
0.0018023995 -1.6299888e-05 1.8129582e-06 0.006373855 0.00013851008 0.01229444 -0.0012127231 0.5375655
-2.428044e-06 0.4519922 -2.3723867 0.0017600134 -0.01704878 0.0007550741 -2.9507093 0.0012049385
2.1629587e-05 0.00533357 1.1902546e-06 0.0004482132 -0.004346367 0.024747362 -7.816477e-05 0.115538746
-6.5415006e-05 -0.0018502739 -0.045050126 0.019028794 5.3716555 0.0075739473 -6.0787516 3.543181e-07
-0.07421398 2.779637e-05 -3.373006e-05 0.0002998103 -0.007471045 -0.005746115 -2.3402672 0.17646459
0.00089234253 -0.031593207 63.881805 -0.0017101441 7.650998e-05 -6.382024e-10 -0.00031103022 0.0015838761
-0.16875777 0.01328948 -12.344011 -0.0032543049
00000000: c2b2 adbf f4ae febc 8fd2 10bc 298a e437
00000010: ed69 ba3e b42a 053d a888 b73b 5fb9 1e3f
00000020: 2e5b 9f3b 9293 143f d75f 103f 8d55 0d39
00000030: 206a 7739 b040 e6ba 587d ab3a b7ae c0b9
00000040: 995b 39b7 12f6 6d3c 513b 2aba 10b1 26b9
00000050: 1a61 233e 90a4 443f 3079 94b7 954e 3a35
00000060: cb01 e03a 7c99 1ebd b0f0 c4bf d5df fe3a
00000070: 3030 2b3c ab21 1bba 3469 183d 0b92 6c38
00000080: 122a fdbc c883 e12e 0282 a237 e0f6 edba
00000090: d615 e73c 46f2 84af 60ba dbbb 8846 47bd
000000a0: 561e ddb6 54b0 08bb d84b 07ba 26c3 f83b
000000b0: e09a 663a 979b 1cbb 2a67 dbba 1a1a 40bc
000000c0: 7e3e ec3a bebb 88b7 c554 f335 c5db d03b
000000d0: 043d 1139 9e6e 493c 3cf4 9eba e59d 093f
000000e0: 7af1 22b6 866b e73e 2fd5 17c0 40b0 e63a
000000f0: e2a9 8bbc 2af0 453a 6cd8 3cc0 07ef 9d3a
00000100: 2f71 b537 3ac5 ae3b d6c0 9f35 28fe ea39
00000110: f86b 8ebb fbba ca3c 64ec a3b8 949f ec3d
00000120: 6a2f 89b8 e484 f2ba 7b86 38bd 46e2 9b3c
00000130: 9ae4 ab40 e02e f83b 2285 c2c0 1c39 be34
00000140: 80fd 97bd 402c e937 6079 0db8 db2f 9d39
00000150: abcf f4bb e849 bcbb f0c6 15c0 22b3 343e
00000160: 18ec 693a e167 01bd f886 7f42 ea26 e0ba
00000170: fc73 a038 806d 2fb0 c511 a3b9 109a cf3a
00000180: d6ce 2cbe 1ebc 593c 1281 45c1 2d46 55bb

bias f4 [10]
0.0039246613 -29.31223 -0.00022813701 0.30575854 9.769724e-07 0.15161556 -0.016805291 0.00022457974
8.960726e-07 0.0007176085
00000000: 729a 803b 727f eac1 1038 6fb9 628c 9c3e
00000010: 8420 8335 1c41 1b3e 40ab 89bc 2a7d 6b39
00000020: a489 7035 e41d 3c3a

weight f4 [1, 10]
0.0002240361 6.2380465e-08 0.0014721197 -1.909607e-05 10.15153 -5.940981e-05 6.892864e-06 6.709529e-05
-2.7982165e-05 -1.6946965
00000000: 3ceb 6a39 06f6 8533 24f4 c03a 8030 a0b7
00000010: ab6c 2241 cc2e 79b8 4049 e736 82b5 8c38
00000020: 3ebb eab7 d1eb d8bf

add_tensors f4 [10, 6]
0.000118984375 0.062782116 9.036608e-05 -0.046473484 -0.014867314 1.796546e-05 -0.0033001273 0.0077384505
-0.003068708 -5.988914e-06 1.0568912 -0.15280949 8.623269e-06 -4.725829 -0.0017099702 -0.0110040475
-8.118296e-05 -0.13585354 0.0020434693 -0.013951759 -8.197875e-05 0.636382 0.00095753366 -0.0007445215
-0.0007568894 -0.002376117 -0.00028451296 6.190837e-07 6.607452e-07 0.4116572 -0.0017023651 -0.98499894
0.0009914059 -0.010876876 6.4929347 -0.08125907 -3.6379873e-07 -0.0050591044 -6.912265e-05 -0.00055030984
6.0063785e-06 -1.8101871e-05 1.43014895e-05 1.9028201e-08 -0.06394852 0.015216238 -1.9822025e-08 -0.034946647
5.034091e-05 -0.16334465 0.37709346 -2.5096277e-05 -0.0007039069 -9.877359 -5.461588e-06 -3.173076e-05
-1.8864132e-07 -3.1501488e-05 3.372361e-05 -8.207657e-06
00000000: 4087 f938 e993 803d eb82 bd38 fb5a 3ebd
00000010: 0996 73bc 88b4 9637 f346 58bb d492 fd3b
00000020: 611c 49bb 61f4 c8b6 3648 873f 177a 1cbe
00000030: a9ac 1037 fe39 97c0 1421 e0ba 524a 34bc
00000040: c540 aab8 311d 0bbe baeb 053b eb95 64bc
00000050: 02ec abb8 eee9 223f ff02 7b3a fe2b 43ba
00000060: fd69 46ba a1b8 1bbb af2a 95b9 1c2f 2635
00000070: 105e 3135 bcc4 d23e e521 dfba e428 7cbf
00000080: 10f2 813a ed34 32bc 1fc6 cf40 286b a6bd
00000090: 1e50 c3b4 d8c6 a5bb f1f5 90b8 ab42 10ba
000000a0: 668a c936 79d9 97b7 6ef0 6f37 7573 a332
000000b0: 71f7 82bd 874d 793c 1845 aab2 3724 0fbd
000000c0: 2425 5338 d243 27be 6512 c13e d885 d2b7
000000d0: 6486 38ba aa09 1ec1 af42 b7b6 a516 05b8
000000e0: 558d 4ab4 7720 04b8 7372 0d38 9eb3 09b7

add_tensors f4 [10]
0.00057251105 0.0012975951 0.11141442 3.039256e-05 1.6470785e-06 0.00024169641 0.00021595448 0.02745023
-1.1694953 4.5494726e-05
00000000: 9114 163a 1114 aa3a 3e2d e43d 87f3 fe37
00000010: 3011 dd35 e36f 7d39 d771 6239 4edf e03c
00000020: 06b2 95bf 97d1 3e38

add_tensors f4 [10, 10]
-0.820099 -0.099131905 -0.0017031154 -6.914846e-06 0.85941935 0.008726388 0.002304216 1.1074225
0.0012248785 -0.1328438 0.16694461 -0.000113602655 0.00082011486 0.020684421 -0.0008708174 -0.00024383827
-9.1289496e-07 0.008175162 -0.000287905 2.5588588e-05 0.029781463 0.38314205 -0.00017172811 3.7281602e-08
-0.0012211177 -0.022286655 0.6047292 0.000802143 0.0015123877 0.0005630176 0.005412866 2.3244393e-06
-0.016944695 5.049528e-10 1.0347809e-05 0.008548948 -0.055217776 8.568409e-10 0.03480287 -0.12544598
-3.103317e-07 -0.00070459663 -0.00021337076 -0.002424386 0.0014648436 0.0004006553 -0.0012175551 0.005626716
0.000754797 -8.673537e-06 6.149691e-08 0.004112013 0.0006897391 -6.713483e-05 -0.00015336949 0.042999413
8.766016e-07 -0.100757666 -1.5620986 0.00092830916 0.002869046 -0.00034111433 -1.3634909 0.0029975758
2.0449195e-07 -0.008036264 -2.39338e-06 -0.000489424 0.00071477244 0.0011552928 -3.1709635e-05 0.03312098
3.5672114e-05 -0.0012109512 -0.007437219 -0.00041723158 3.1979628 0.035008367 -2.223278 1.2778677e-06
0.14818549 -1.9433999e-06 -0.0018430711 6.5030305e-05 -0.0043707835 0.0486974 -25.813612 0.09540851
0.000327692 -0.014720805 -56.516434 -0.0006391826 2.1797587e-05 7.398686e-08 0.0002038319 0.0005976769
-0.08853614 0.003551572 31.069967 -0.0019321579
00000000: 02f2 51bf ab05 cbbd 123b dfba 1306 e8b6
00000010: e802 5c3f 20f9 0e3c 5402 173b 05c0 8d3f
00000020: 1a8c a03a 3508 08be 87f3 2a3e f63d eeb8
00000030: fafc 563a 6072 a93c 9147 64ba d6ae 7fb9
00000040: aa0d 75b5 1df1 053c f4f1 96b9 13a7 d637
00000050: 41f8 f33c 322b c43e ea11 34b9 8e1f 2033
00000060: e90d a0ba 8192 b6bc 88cf 1a3f e846 523a
00000070: 4f3b c63a 7997 133a 695e b13b 90fd 1b36
00000080: 9acf 8abc e5cc 0a30 809b 2d37 e310 0c3c
00000090: 092c 62bd d186 6b30 748d 0e3d e974 00be
000000a0: aa9b a6b4 aeb4 38ba 47bc 5fb9 73e2 1ebb
000000b0: ffff bf3a 0b0f d239 5f96 9fba 5160 b83b
000000c0: 92dd 453a 8f84 11b7 4910 8433 11be 863b
000000d0: 9ccf 343a bdca 8cb8 cfd1 20b9 2720 303d
000000e0: 9a4f 6b35 095a cebd d9f2 c7bf c659 733a
000000f0: 9b06 3c3b 97d7 b2b9 df86 aebf fa72 443b
00000100: 5292 5b34 89aa 03bc f59d 20b6 b04c 00ba
00000110: 915f 3b3a 326d 973a f6ff 04b8 dda9 073d
00000120: a49e 1538 c8b8 9eba eab3 f3bb e0bf dab9
00000130: 6cab 4c40 ef64 0f3d 304a 0ec0 3383 ab35
00000140: f0bd 173e 5b6b 02b6 3493 f1ba e160 8838
00000150: ca38 8fbb ed76 473d 4782 cec1 8965 c33d
00000160: 13ce ab39 882f 71bc d410 62c2 d18e 27ba
00000170: f6d9 b637 b5e2 9e33 b6bb 5539 6bad 1c3a
00000180: 7052 b5bd 7ec1 683b 4b8f f841 7640 fdba

add_tensors f4 [1, 10]
-0.00048871146 -1.276988e-07 0.000689876 -7.767465e-06 2.8667402 -2.3517903e-05 3.875597e-05 3.3112545e-05
-1.29178e-06 0.16931207
00000000: df1c 00ba 941d 09b4 cbd8 343a 0251 02b7
00000010: ac78 3740 5048 c5b7 e88d 2238 53e2 0a38
00000020: 3961 adb5 2560 2d3e
