Relu_fixed_harder/TorchSaves/Last_Gen997.pt (torch_old, 16332 bytes, 17 tensors)

weight f4 [10, 6]
00000000: 84c2 b43b c3d1 b439 947a 3739 96a3 dbba
00000010: 08ea af3f d4b0 8fbe 6e92 7cbb 76c4 0442
00000020: 46a1 abbf aff9 6b3e 8a1c 9c3b 2016 22bc
00000030: d69c 07b9 79b1 8438 82a1 dc3e 4068 91b6
00000040: 3810 04b3 0a79 f93e 7861 3737 aa6b 99bf
00000050: d64e 513f 98e5 f1bc 5d8d 9438 9a24 62b9
00000060: 86e1 17bd ccc3 b639 017e 76b3 442d 8936
00000070: c5ea f6b8 c395 12bb b6d5 813e 76d8 79bb
00000080: c5be beb6 87ae 22b9 0d54 3b3e 3d75 c4bb
00000090: 75b8 1342 5b99 03bf bcf1 f5ba 5633 c63e
000000a0: e39f 1840 6222 89b4 4aec 9739 43e7 f3bd
000000b0: 5394 1d3b d186 da3a c03a b739 fe65 b239
000000c0: 6088 05bd 4cb8 cdbe 98c5 823e b3a3 0c41
000000d0: 6ecd 06c1 866e 0c3e c534 4e3a 8464 3338
000000e0: c6ea d03b 58f6 4c38 7424 93c0 83ac 183c
0.005516352 0.0003448856 0.00017497904 -0.0016757126 1.3743296 -0.28064597 -0.0038539427 33.191856
-1.3408592 0.23044465 0.0047641443 -0.00989297 -0.00012933029 6.327307e-05 0.4309197 -4.333473e-06
-3.0748396e-08 0.48725158 1.0930344e-05 -1.1985981 0.8176092 -0.029528424 7.083521e-05 -0.00021566675
-0.03708031 0.00034859625 -5.739094e-08 4.088188e-06 -0.00011773923 -0.0022367097 0.2535836 -0.0038123406
-5.6846498e-06 -0.0001551454 0.18293782 -0.005995421 36.930134 -0.51405877 -0.0018764059 0.3871104
2.3847587 -2.5543255e-07 0.00028977013 -0.11909344 0.0024044707 0.0016672258 0.00034948252 0.00034026796
-0.03260076 -0.4017967 0.25541377 8.789966 -8.425154 0.13714036 0.00078661396 4.2770538e-05
0.0063756434 4.8866816e-05 -4.5982 0.009318474

bias f4 [10]
00000000: 2e24 07b9 1ef5 1bbe 3cb5 043d ec9d b8b1
00000010: 5bf1 2237 d8e2 e5bb f0c1 3337 d416 29bc
00000020: bee3 b5bb 342c 3fb6
-0.00012888081 -0.15230224 0.0323994 -5.3730584e-09 9.712147e-06 -0.0070155673 1.0714386e-05 -0.010320384
-0.0055508306 -2.8486947e-06

weight f4 [10, 10]
00000000: 976f 86ba 5a6f 4c3f f992 7e3a 62a7 943b
00000010: 889c d3be e6f4 0bbf 17e5 383d e01a 193e
00000020: b2df 5ebc a493 1db6 10a0 7639 cad5 bf39
00000030: a3ca 253b 5408 d236 6158 a9c1 8c5b 6fbb
00000040: 9408 37bd bc96 6a40 eb6b a9bb 007d 5337
00000050: 16e6 653a 3041 0734 a723 1437 7194 b2b6
00000060: a736 0ebf 7820 1538 ec66 6d37 3865 d9bd
00000070: 951e a83f 60d5 2d3a f050 e33a 7c3e eeba
00000080: 5052 833e 5ebb 7dc1 b79e 6a3a 04d0 b037
00000090: 798e 9b3c 7afb d2b6 c0e9 07b9 068d 2cb7
000000a0: b576 a638 4e96 6ebe c15c bf3e 9f71 3841
000000b0: 2075 503d c4a7 983c 3a48 0bc0 16ed 84bb
000000c0: 7ffa 15be a660 22b7 22cb c6bc da8c abc1
000000d0: 4f2b cab9 348c 53ba 8cd5 3738 8045 bbbc
000000e0: 8642 303b c61e e0bc 69f6 853b 92d0 2a3a
000000f0: 1757 72be f52c 8b41 1d46 08b7 0064 ba3b
00000100: b371 c83a c08e 54bb a4db 263b 96a2 84bc
00000110: a85c 22b4 1ea2 ce38 fc3b b33d de1b 58bc
00000120: e302 f1bb 55ba 2339 3256 953b 4c1e e93b
00000130: 4048 c839 1806 81ba bf66 893c 8a33 e6bc
00000140: 7721 5f3c 242b 803a c19f 693b e489 62b8
00000150: 690c e940 30bc abbb c4fa 9139 a4b9 583b
00000160: 8be1 fab6 ccad fdbd 064f 3b40 5a61 15bd
00000170: 00a1 cdb0 bb53 93b8 cd76 0c38 e082 163c
00000180: 54e4 3b3c fc70 5340 ea1b c838 15b8 cfbc
-0.0010256645 0.7985741 0.00097112317 0.004536555 -0.4133036 -0.5467056 0.045140352 0.14951658
-0.013603138 -2.3480761e-06 0.00023520016 0.00036589644 0.0025297783 6.259457e-06 -21.168154 -0.0036523072
-0.044685915 3.66545 -0.0051703355 1.2605684e-05 0.0008769942 1.259657e-07 8.829788e-06 -5.3220942e-06
-0.5555214 3.5554607e-05 1.4150264e-05 -0.10615009 1.3134333 0.00066312216 0.0017342847 -0.0018176581
0.25648737 -15.858244 0.0008950042 2.10777e-05 0.018988835 -6.2877634e-06 -0.00012961682 -1.02848335e-05
7.937608e-05 -0.23299524 0.37375453 11.52774 0.05089295 0.018634684 -2.1762834 -0.004056583
-0.14646338 -9.678455e-06 -0.024266783 -21.443775 -0.0003856071 -0.0008069903 4.382948e-05 -0.022860289
0.002689512 -0.027358424 0.0040882123 0.0006516065 -0.23666035 17.396952 -8.122556e-06 0.0056881905
0.0015292674 -0.0032433718 0.0025460506 -0.016190808 -1.5121134e-07 9.853042e-05 0.087516755 -0.013190238
-0.0073550805 0.00015614305 0.0045573944 0.0071142074 0.00038200803 -0.0009843735 0.016772626 -0.028100748
0.0136188185 0.0009778482 0.00356482 -5.401102e-05 7.282765 -0.0052409396 0.0002784339 0.0033069635
-7.4768373e-06 -0.12386665 2.9266982 -0.036469795 -1.4961472e-09 -7.025102e-05 3.3489243e-05 0.0091864765
0.011468012 3.303771 9.5419426e-05 -0.025356332

bias f4 [10]
00000000: e826 9c38 660f 133f d864 c039 0ab8 8bbb
00000010: df07 0d39 a25f b63d f049 923b 1c05 7837
00000020: a95e f4b7 96ad 4a39
7.4459065e-05 0.5744537 0.00036696228 -0.0042638825 0.0001344974 0.08904959 0.0044643804 1.47831415e-05
-2.9131146e-05 0.00019328887

weight f4 [10, 10]
00000000: 03e3 f0bb 90a3 f340 edbf 7838 0aec 673c
00000010: db08 d8bc e0bb ab37 ea55 54ba a0c6 25be
00000020: ee40 a338 679f b7bb 000b bb3e ac34 acb9
00000030: 50ac 1d3b ee5e 85bf 42ab 4abc 9caf 073a
00000040: 90e9 c5ba 4b59 5ec1 2d1e bd38 c675 adbf
00000050: dccb fa39 2c00 ddbb 05c8 fabe 0471 133b
00000060: a845 83be f082 95b4 ad4f 2233 065c 0a3c
00000070: 0e68 4ebe d6be 673f ef9f 123f 1027 acbc
00000080: 40a5 a73e 2c7b bcbc 4b0a 3635 ccfe a6ba
00000090: 5db6 eabe 3805 4db9 0232 a637 ec83 33bb
000000a0: f87a dbbb aa6b 45bc bc1d ae3b d0b8 29ba
000000b0: 906a dabd eca9 8d3d e46b 583f 54f0 82bd
000000c0: d2d2 bb3a 1a58 b232 946f d1c0 5bd2 933c
000000d0: c43b ac42 327f 91bf a03b a739 f759 12bf
000000e0: 182b 12bd 8437 913e 8e75 58b8 14de f13d
000000f0: 5061 ac3a 2683 3139 fd48 373e 8a76 0bb8
00000100: a424 93bc 3e49 88c2 10d5 3a3f d406 973a
00000110: 128b ecbe 1e45 e2b9 9e43 19ba 5888 023a
00000120: 009c b93b 5095 1c3f d483 9e3b 44c0 293d
00000130: 7eee 1e34 d8a3 8ebd 54f7 ce3a 3239 6e3b
00000140: 2219 fa3c 2279 113e 20ea 803d 80ec 9d3a
00000150: 1813 15bc 3434 3838 dd43 8ebb d8de ca3e
00000160: 0e0c 61ba d8fe 5b38 42a7 093a 184e 4cb9
00000170: 5474 0f39 d167 0239 7be5 d4bb 7d7d 12bf
00000180: 40b0 febf d3cf afbe aa3a 96bf c529 fe3e
-0.0073512807 7.613716 5.9306552e-05 0.014155397 -0.02637141 2.0472275e-05 -0.00080999604 -0.1618905
7.78454e-05 -0.005603719 0.3653183 -0.0003284564 0.0024059005 -1.0419595 -0.012369933 0.0005176009
-0.0015099514 -13.8968 9.017843e-05 -1.3551567 0.00047835603 -0.0067444053 -0.48980728 0.0022497782
-0.2563908 -2.7848682e-07 3.779103e-08 0.008444792 -0.20156881 0.9052557 0.5727529 -0.02101472
0.32743263 -0.023007952 6.781526e-07 -0.001274073 -0.45842257 -0.00019552268 1.9812029e-05 -0.0027391864
-0.0066980086 -0.012049595 0.005313603 -0.00064743776 -0.106648564 0.06917176 0.8453963 -0.06393495
0.0014329797 2.0761991e-08 -6.5448704 0.018044641 86.11673 -1.1366942 0.00031897146 -0.57168525
-0.03568563 0.28362668 -5.1607894e-05 0.11809936 0.001315156 0.00016928892 0.17898937 -3.325058e-05
-0.017961808 -68.14305 0.7298136 0.0011522421 -0.46199852 -0.00043157575 -0.00058465626 0.0004979423
0.0056643486 0.6116533 0.0048374925 0.041443124 1.480166e-07 -0.069648445 0.0015790262 0.003635001
0.030529562 0.14206365 0.06294656 0.0012048632 -0.009098791 4.3917637e-05 -0.004341586 0.3962314
-0.0008584865 5.245101e-05 0.00052510586 -0.00019484048 0.00013680878 0.00012436441 -0.0064970828 -0.5722273
-1.9897537 -0.34338245 -1.1736653 0.49641243

bias f4 [10]
00000000: 0096 8bbd fff4 72b8 14ca a9b2 c758 1bba
00000010: 04c8 febb e342 53ba 048f d93b f4a7 5538
00000020: afe9 9c3a 5c7b bcba
-0.068157196 -5.7925467e-05 -1.9766084e-08 -0.00059260096 -0.0077753086 -0.0008058978 0.0066393632 5.0939576e-05
0.0011971499 -0.0014380026

weight f4 [10, 10]
00000000: fc80 15b5 2192 223c 6a34 54b8 0ae8 cdbd
00000010: 8826 cd39 9454 1aba 4250 fc3b 6d65 ee3b
00000020: 4521 9033 1e4d 27ba 1477 a3b6 9fc5 a93d
00000030: 5ada 5eba 7314 0236 de94 99b9 f713 faba
00000040: 90fb 0ac1 b974 033b 51f7 5b3c 474c 78ba
00000050: daad cbbd 9886 05bc d159 7ebc 6da0 b33a
00000060: 46d3 583d cd84 23be 9da3 1e38 260f a33d
00000070: 58eb b338 0cfc 903d 28ef 8535 bccf a4b7
00000080: 31bd aeb6 5837 4fbd 6a76 e6bc 3ccc ca39
00000090: 0133 48bb aa6c 9f35 a057 2739 f3b2 023e
000000a0: c83d c03a f4b4 163d 7a96 9339 901c 25bc
000000b0: e756 5fb9 ccc6 41bc 20ee 1339 2456 6039
000000c0: 6692 8b39 3e04 26be e1c9 95ba e67c beb8
000000d0: 5c18 e9bd daef 0fbd be53 71bb e49b 63c0
000000e0: 26ce d838 7c24 ad3c 382c 3c38 8ee2 4b3d
000000f0: fe80 eab9 e51c 72b8 a22d aab6 4093 8634
00000100: 520c a2c0 21df 053b 0207 c63a 12d7 8cb7
00000110: b348 01bb 1c83 3e39 b014 a23a 2050 7539
00000120: e631 41b4 5b4f 5d38 1814 c23a cc53 75b9
00000130: 0923 b7b7 ec87 a53a d0d2 b4bc 833d 6d38
00000140: 7dca 4940 7806 dab5 e0d5 6639 f684 1fbd
00000150: a975 113d 0b73 0a3d 42a6 5d3a b6ff 2034
00000160: 6c60 1cc0 c8fa b938 740a c0c0 f92a ff39
00000170: 4037 4cb9 f27d 00b9 0eb2 e0b9 a40b a9ba
00000180: 78e6 37bf 2421 9b3c 572d 3b36 44e8 6038
-5.569452e-07 0.009922535 -5.0593553e-05 -0.100540236 0.00039129355 -0.0005887237 0.007699997 0.0072752745
6.711574e-08 -0.0006382036 -4.871641e-06 0.08289646 -0.0008501165 1.9383413e-06 -0.0002929335 -0.0019079436
-8.686417 0.0020058586 0.013425664 -0.00094718154 -0.09945269 -0.008149765 -0.015524344 0.0013704427
0.05293586 -0.15968628 3.7822512e-05 0.07961874 8.579221e-05 0.07079324 9.978876e-07 -1.9647057e-05
-5.207629e-06 -0.05058989 -0.028132636 0.0003868061 -0.0030547979 1.1878049e-06 0.00015959004 0.12763576
0.001466685 0.036793664 0.0002815014 -0.010077611 -0.00021299311 -0.011827182 0.00014107721 0.00021394395
0.0002662122 -0.16212556 -0.0011427962 -9.08317e-05 -0.11381599 -0.03514085 -0.0036823596 -3.5563898
0.00010338081 0.021135561 4.4863875e-05 0.049776606 -0.00044728065 -5.7724206e-05 -5.071707e-06 2.5066583e-07
-5.064004 0.0020427185 0.001510829 -1.678945e-05 -0.001972717 0.00018168654 0.0012365784 0.0002339487
-1.7992679e-07 5.276441e-05 0.0014807014 -0.00023396238 -2.1831615e-05 0.0012629009 -0.02207318 5.656249e-05
3.152984 -1.6244148e-06 0.00022014184 -0.03894516 0.0355126 0.03380112 0.00084552553 1.4994188e-07
-2.4433851 8.868199e-05 -6.001276 0.00048669407 -0.00019475538 -0.0001225395 -0.0004285727 -0.0012897146
-0.7183604 0.018936701 2.7891563e-06 5.3622076e-05

bias f4 [10]
00000000: d06a 8ebc 18a0 aebb 644b 2cc0 0088 0abd
00000010: cd80 9bb8 a00d ee3e f590 343d 2e58 c63b
00000020: b89d 913a de69 7fbb
-0.017384917 -0.0053291433 -2.6921015 -0.033821106 -7.414967e-05 0.4649477 0.044083554 0.0060529923
0.0011109626 -0.0038973014

weight f4 [10, 10]
00000000: 5c15 a93b e694 a83d 79e6 07c2 c603 bc3e
00000010: 7bcf 0539 02ea b9ba fa02 333a 3664 2738
00000020: 4007 4bba d8f6 873c 604d 003b 6e02 013e
00000030: ad82 3fbd a273 ddbc 44e1 903d d8a0 dabd
00000040: 54e6 88bb dd0e 85b7 c257 3f3b 30e6 02b8
00000050: b064 e2b7 507d c837 68f6 8dbe 07ec 90bc
00000060: b0f4 3938 4b47 11b6 5852 b4bb 7f85 2e3b
00000070: e25a 22b7 d0e5 5ab9 be6e cb3c 2cc6 c8bd
00000080: 00ea 1db3 c85e f83c a8ef 84c1 1857 a241
00000090: e064 89b5 04c9 a63d 406b d23d 08a7 8137
000000a0: 8b6e 373e 0592 da37 20e8 103a 5ce1 feba
000000b0: b815 cd3d 2c6d 1ebc 085b 18bd c6eb 3ab8
000000c0: 60f6 bcb5 ee76 83b8 c017 573f 9e90 25bd
000000d0: 42a9 44bb b818 ec3b a458 37be 80ab 54ba
000000e0: 5c7c 8b37 ccee 2541 8e55 06b6 07ed 25bc
000000f0: ece2 eebf 76a5 cbba d122 353c 9ebe a0bb
00000100: f4ba 3844 c0d1 e6ba 7433 bbbe 2099 5fb6
00000110: e823 a7b7 b161 cabb 2457 fe3e e414 5139
00000120: 2e5e 0d41 378d 863e a19a f8be 3a58 8539
00000130: a9ac 70ba b67b b7bd 9bba 14b9 a937 313b
00000140: e8f1 be37 f31e 0c3d b8cd c8b9 e92d e03b
00000150: c1b9 f3bb aa0f 26bd 771a bcba d638 d93d
00000160: d2d1 82be 86dd ff3d 267d 7c41 68ce a5c0
00000170: a814 c4bd d7bc 13be 00ba 5eb9 26ac 0eba
00000180: 6aca 60ba 1483 9fb8 fcb4 d539 40e0 c8ba
0.005160017 0.08231525 -33.97507 0.3672163 0.00012761161 -0.001418412 0.00068287516 3.990923e-05
-0.0007744916 0.016597196 0.001957737 0.12598583 -0.04675548 -0.027032677 0.07074216 -0.1067521
-0.004177848 -1.5861757e-05 0.0029196595 -3.1208794e-05 -2.6988186e-05 2.3900211e-05 -0.27727056 -0.017690672
4.433532e-05 -2.1648182e-06 -0.00550298 0.0026629863 -9.677113e-06 -0.00020875712 0.02483308 -0.09803423
-3.6767233e-08 0.030318633 -16.61702 20.292526 -1.0236654e-06 0.081438094 0.102743626 1.5455778e-05
0.17913263 2.605562e-05 0.00055277534 -0.0019445824 0.10013908 -0.009669583 -0.03719619 -4.4565437e-05
-1.4078796e-06 -6.268719e-05 0.84020615 -0.04042112 -0.0030008112 0.007205095 -0.17904907 -0.00081127137
1.6628e-05 10.3708 -2.0017355e-06 -0.0101273125 -1.8663001 -0.0015536982 0.011055664 -0.004905536
738.92114 -0.0017610118 -0.36562693 -3.331872e-06 -1.9924672e-05 -0.0061761965 0.49675858 0.00019939576
8.835493 0.26279613 -0.48555472 0.0002543347 -0.0009181002 -0.08959143 -0.00014183896 0.0027041233
2.2762411e-05 0.034209203 -0.00038300245 0.0068414104 -0.007437915 -0.040542282 -0.0014351149 0.10606544
-0.25550705 0.12493424 15.780554 -5.181446 -0.09574252 -0.14427505 -0.0002124086 -0.0005442522
-0.0008575084 -7.606126e-05 0.0004076137 -0.0015325621

bias f4 [10]
00000000: 90cd f6bb 1644 38bb 6b3e c3c0 0235 31be
00000010: 547c b63e f2a3 e238 91fe 9f3c c074 4eb4
00000020: 5a87 aa3e d19f 61ba
-0.007531829 -0.0028116754 -6.1013694 -0.17305377 0.3564173 0.00010807057 0.019530566 -1.9227718e-07
0.3330639 -0.00086068833

weight f4 [10, 10]
00000000: 1251 23bd 9457 f037 c09d 7cb9 f901 0e3f
00000010: 4508 edba 1e96 413a 3434 08bb 80e1 8cb7
00000020: 0c5c f5bd 7e44 153c 4b93 e53b 79b8 c53c
00000030: 049c 602c ba30 4dba 46b0 edbb d2bc aebe
00000040: 644c 133b 3e03 8bbe bc20 d036 10cd ba39
00000050: 1ef4 b93b 0031 80bd 70b4 c1b7 9a33 ce37
00000060: c0da 1ebf 20e3 d339 c425 b13c ea66 b43a
00000070: 51fd 87ba 5869 313c 9362 253b 0f18 083d
00000080: 053f 0ebd 0840 3cb7 2be3 92b8 3ea7 193f
00000090: d058 9c39 f85d f9ba 90ef 90b7 d8ef 57b5
000000a0: 404a 8933 7493 3b3b 01da ce3c 8572 fb3c
000000b0: 38c2 2c3c 9965 113a 824a 1937 d20c ce3a
000000c0: da34 b437 a9e7 fbbb 2268 85b6 1648 0a40
000000d0: 84f3 0d39 64f1 123e 5410 533a 198b 8737
000000e0: 881b 503e bf32 a3be 58f4 c736 fd97 49be
000000f0: 1420 8d3c cabe 31b9 2a8d 41be 4887 e93c
00000100: 2693 823b 5a66 a63e 3e97 0cbc 8e8a 463e
00000110: 28a5 b5c0 bcd4 2f40 2575 84bd fa48 a2b8
00000120: 07fb 4bb8 4279 b53b e85e fbbe 7b71 6abc
00000130: c0f3 d434 5f19 01b8 46f4 e03d c828 cdbc
00000140: 789c e6be 8014 e0bc 4a84 90b7 2489 873b
00000150: cccf 19b9 3891 a4b7 5e73 f839 2d32 693b
00000160: f8e6 f0b9 d1e6 59be 3c72 373b f711 8ebd
00000170: 3860 ae36 3ceb ec3c 9449 73bc f9e8 9f34
00000180: c92f 5fbb d1b8 c93c 4874 1233 3c92 0a3a
-0.039872237 2.8651011e-05 -0.00024091359 0.5547176 -0.001808413 0.0007384735 -0.0020783069 -1.6794307e-05
-0.11980447 0.009110568 0.007006084 0.024135815 3.191892e-12 -0.000782739 -0.0072536794 -0.34128433
0.0022475952 -0.2715091 6.202694e-06 0.00035629468 0.005674853 -0.06259346 -2.3091416e-05 2.4581142e-05
-0.62052536 0.00040414277 0.021624453 0.0013763581 -0.0010375177 0.010828339 0.0025235757 0.03322607
-0.03472807 -1.1220582e-05 -7.004136e-05 0.60020816 0.0002982081 -0.0019025197 -1.7277693e-05 -8.044276e-07
6.3930656e-08 0.0028621824 0.025250437 0.030694256 0.010544352 0.000554645 9.136858e-06 0.0015720373
2.1482283e-05 -0.007687528 -3.9758315e-06 2.1606498 0.00013537525 0.14349896 0.00080514443 1.6158026e-05
0.20323002 -0.31874654 5.9591075e-06 -0.19686885 0.01722721 -0.0001695111 -0.18901506 0.02850689
0.0039848266 0.32499963 -0.008580981 0.19388792 -5.6764107 2.7473593 -0.06467656 -7.738355e-05
-4.863276e-05 0.0055381367 -0.49095845 -0.014309282 3.966543e-07 -3.0779625e-05 0.109840915 -0.02504386
-0.4504125 -0.027353525 -1.722774e-05 0.0041362215 -0.00014668627 -1.9617946e-05 0.000473882 0.0035582886
-0.00045948452 -0.21279456 0.0027991673 -0.0693702 5.1968054e-06 0.028920762 -0.014849085 2.9785568e-07
-0.0034055582 0.02462426 3.409903e-08 0.0005286073

bias f4 [10]
00000000: f0e8 fb39 26f3 f23a 58a8 023b f487 92bd
00000010: 5b0a 8a37 defa 8dbf ec22 34bc 4ae4 f13f
00000020: 7a4d 6033 a49c 0140
0.00048048003 0.0018535599 0.0019936766 -0.07154837 1.6455704e-05 -1.1092184 -0.010994654 1.8897793
5.222453e-08 2.0251856

weight f4 [1, 10]
00000000: 4a7b b93c 588f 4638 40b1 453b 0876 113f
00000010: b0c9 4136 19a8 41bd 4ce0 b936 08ce 4333
00000020: f835 7f37 3169 9bbe
0.022641797 4.7340378e-05 0.0030165464 0.56820726 2.8876639e-06 -0.04727945 5.5395412e-06 4.558936e-08
1.521175e-05 -0.30353692

add_tensors f4 [10, 6]
00000000: 3c67 81bb 061d 11b9 32c0 9f38 7be3 17ba
00000010: 9474 65c0 496f d5bb 2e1c 33b9 a96c c8c2
00000020: e882 31bf e118 57be 182c 243b e0ff 89bc
00000030: b481 8738 4d1d 0638 7044 8b3f 8e04 aeb5
00000040: 3036 0f33 978d b3bd b15b 9738 2db8 19c0
00000050: a8c5 72be bb48 0bbc 1189 3936 f7ff 10b8
00000060: f091 b2bc 0d35 daba 44c8 04b0 2eb9 5c37
00000070: 5819 b1b8 bbd6 46b9 69f2 023e d61b 213a
00000080: 1364 dab5 b96a 6139 c4bc 383d ba34 32bb
00000090: 42f5 4b41 1590 27be 7999 97ba 9c80 b63d
000000a0: 402e 523f 6742 3935 8f62 d338 fce4 88bd
000000b0: 73ce 58b9 8a3f 753a 8ca0 c33a 377b 8838
000000c0: a1ab 05be 3d3b b53c a3a2 b33f 2fac ef3f
000000d0: cf9b a0c0 6a97 453d 54a8 4439 8fdb aa37
000000e0: 48f2 a23c e726 a239 4370 75c1 23c6 c73a
-0.003949074 -0.0001383909 7.61751e-05 -0.000579409 -3.5852404 -0.0065135104 -0.00017081268 -100.21223
-0.6934037 -0.21005584 0.0025050696 -0.016845644 6.461461e-05 3.1975378e-05 1.088026 -1.2965336e-06
3.3344065e-08 -0.087672405 7.21732e-05 -2.4018662 -0.23708212 -0.008501227 2.7646931e-06 -3.457066e-05
-0.021798104 -0.001664789 -4.8305915e-10 1.3156137e-05 -8.444738e-05 -0.00018962745 0.12787785 0.00061458105
-1.6271391e-06 0.0002149743 0.045101896 -0.0027192072 12.747377 -0.16363557 -0.0011566124 0.08911249
0.8210182 6.90145e-07 0.00010079622 -0.066843 -0.00020676274 0.00093554764 0.0014925166 6.507936e-05
-0.13053752 0.022122974 1.4034008 1.8724421 -5.0190196 0.048240103 0.00018754724 2.036782e-05
0.01989092 0.00030928032 -15.339908 0.0015241544

add_tensors f4 [10]
00000000: 9110 e0b9 c21a 923b 255b fc3d 85d2 d632
00000010: 297b 1536 7529 a6bc 39cf 1536 8f6d 0bbb
00000020: 4efa 24bb 3a10 0537
-0.00042736952 0.004458756 0.12322072 2.5008612e-08 2.2274419e-06 -0.02028344 2.232335e-06 -0.0021275019
-0.0025173607 7.931196e-06

add_tensors f4 [10, 10]
00000000: 7017 1fbc c7c3 06b7 a7e6 cc38 0b90 b7ba
00000010: aab2 3aba 5f2a 6d39 ab18 68bc 119f 02ba
00000020: a1a0 a33e 7db1 a53b b318 cab8 ae0a 9c3a
00000030: fe31 85ac e014 2b3a 9175 743c 2cae a6bd
00000040: b5e6 843a 9d00 c9bd 887a 2e36 6c71 a23a
00000050: 0e9c c3bb c00e 83bf 525e d737 bbdb 27b7
00000060: da4c 1b3f ca5f 85b9 8180 2bbb 9226 eeba
00000070: 81b7 803a 482d 173b 71dc dbb9 d4e0 363c
00000080: db0d 673c b4a3 c437 3d23 c2b7 cf84 a0be
00000090: 8cc5 1b39 ce63 89bb c1e9 99b6 1ee5 b133
000000a0: b7c0 9cb6 62a5 b3bb d6b0 1b3c 8f1b 973c
000000b0: 89e5 9a39 ea9f fdb9 5a60 5936 0648 983b
000000c0: fbeb 6437 0298 54bb 1519 5e36 ce3a 563f
000000d0: 44e0 5d37 e6d2 9f3d 18a6 ba39 f6d6 74b7
000000e0: 6e1c 433f 3321 b1bd f9a1 3eb6 4ba3 26bc
000000f0: 4985 cd3b 618b 2eb7 7322 c9bd c732 9f3b
00000100: 0375 61bc 30f6 243e 6ea9 bfba 4624 c83d
00000110: 9fdb 9ec1 a071 fc3f 97fc 05bd 9a3d 0b39
00000120: 5899 8ab6 6216 883a 4ea9 69bf a39c 59bb
00000130: 97eb b237 b1f0 5c38 b745 ac3c d477 813c
00000140: 0c9e a9bf 74fe 7bc0 9b31 5db8 b6b6 7739
00000150: 98f4 a7b8 022e 29b7 c15b a738 5d0e 503a
00000160: 1bfc bab8 b61f 94bc 0974 85bb 2ba4 74bc
00000170: 2d30 1435 fc95 0b3b b67c 02bc c24c 3834
00000180: 0e57 dfba 22d6 723c 7ce5 6834 e27a b938
-0.009710178 -8.032605e-06 9.7704404e-05 -0.001400472 -0.000712196 0.00022617866 -0.014166038 -0.0004982809
0.31958488 0.0050565586 -9.636711e-05 0.0011905038 -3.7856376e-12 0.0006526243 0.014920608 -0.081386894
0.0010139557 -0.0981457 2.5999343e-06 0.0012393421 -0.005969531 -1.0238876 2.5673919e-05 -1.0005136e-05
0.6066414 -0.00025439105 -0.0026169124 -0.0018169454 0.0009820313 0.0023067761 -0.00041935177 0.011162002
0.0141024245 2.3441251e-05 -2.3143011e-05 -0.31351325 0.00014855544 -0.004192806 -4.586968e-06 8.283881e-08
-4.6715973e-06 -0.0054823617 0.00950261 0.018445758 0.00029544186 -0.00048375066 3.2391604e-06 0.0046472577
1.36448025e-05 -0.0032439237 3.3095178e-06 0.8368348 1.3224842e-05 0.078038976 0.00035600434 -1.4593583e-05
0.76215255 -0.086489104 -2.8406487e-06 -0.010170768 0.0062719923 -1.040366e-05 -0.09821024 0.004858348
-0.013760808 0.16109538 -0.0014622638 0.097725436 -19.857237 1.9722176 -0.03271159 0.00013279021
-4.130572e-06 0.0010382647 -0.91273963 -0.0033204935 2.1328959e-05 5.267625e-05 0.021029336 0.015804209
-1.3251357 -3.9374056 -5.2736705e-05 0.00023623821 -8.00874e-05 -1.0083897e-05 7.980271e-05 0.00079367106
-8.9161294e-05 -0.018081527 -0.0040726704 -0.014931719 5.52044e-07 0.0021299114 -0.007964304 1.716426e-07
-0.0017039494 0.014821561 2.169017e-07 8.844376e-05

add_tensors f4 [1, 10]
00000000: ebc0 133c bf50 3c37 d9bd 123e 53a1 59bb
00000010: 43c7 1838 d3fe b9bc a7cb 7436 edbd e034
00000020: f838 9836 8b1f bdbd
0.009018163 1.1224473e-05 0.14330234 -0.003320773 3.64252e-05 -0.022704517 3.6477375e-06 4.186144e-07
4.536585e-06 -0.09234532
