Relu_fixed_harder/TorchSaves/Last_Gen998.pt (torch_old, 16332 bytes, 17 tensors)

weight f4 [10, 6]
-4.0540508e-05 -0.002615219 2.0216434e-05 2.2308366 7.399672 0.00016067913 -0.0001033576 0.022507254
-8.7228614e-07 -0.02732785 0.10381153 -1.3878453e-05 0.00028223853 -0.12569161 -0.029618166 0.15631618
-1.216763e-07 0.010405103 0.03874166 0.011379488 0.69561917 -0.0005916776 -0.0012649843 -0.00034725177
0.0039420268 1.0562626 -0.011753016 0.026133666 0.008780894 0.98936063 -0.106945604 0.0006325296
0.017564029 -0.105462834 7.961906e-05 0.7467734 -8.900021e-05 0.01027346 0.17451656 -6.789309e-07
-0.18397379 -1.7418215 -1.0007334e-06 79.675865 -2.5858784 0.00014244588 -2.1104417 -0.0030183769
-0.026672293 -0.0013022434 0.06233895 -0.00036998763 -0.65230644 -0.02080372 0.0043810066 -0.012537424
1.0524133 -0.17391191 -0.013852939 -0.007014904
00000000: 0a0a 2ab8 1864 2bbb 7696 a937 07c6 0e40
00000010: 1dca ec40 fa7b 2839 b0c1 d8b8 2261 b83c
00000020: 0c27 6ab5 a8de dfbc 249b d43d 80d7 68b7
00000030: 6af9 9339 4db5 00be cca1 f2bc 5911 203e
00000040: 20a6 02b4 2a7a 2a3c 93af 1e3d 0871 3a3c
00000050: 1914 323f d01a 1bba d4cd a5ba 580f b6b9
00000060: 1e2c 813b 9d33 873f b98f 40bc 4516 d63c
00000070: bddd 0f3c bd46 7d3f 4c06 dbbd 58d0 253a
00000080: 70e2 8f3c e6fc d7bd 28f9 a638 8b2c 3f3f
00000090: a0a5 bab8 0452 283c 78b4 323e c73f 36b5
000000a0: a063 3cbe 02f4 debf f050 86b5 0b5a 9f42
000000b0: 087f 25c0 865d 1539 7a11 07c0 f6cf 45bb
000000c0: da7f dabc 0ab0 aaba 2057 7f3d e6fa c1b9
000000d0: 8efd 26bf 906c aabc 8c8e 8f3b c569 4dbc
000000e0: 7bb5 863f f715 32be 70f7 62bc 48dd e5bb

bias f4 [10]
-0.018871821 -0.018774644 0.14280349 -0.030853275 0.0005199407 0.0037794998 0.012022913 0.004589075
0.050240654 -0.05701877
00000000: 1499 9abc 48cd 99bc 143b 123e 02c0 fcbc
00000010: a14c 083a 7cb1 773b c1fb 443c f45f 963b
00000020: 25c9 4d3d 848c 69bd

weight f4 [10, 10]
0.0033568456 3.1555743e-07 -0.000533515 2.2832294 -0.03673576 -0.17206782 0.08014842 -10.552809
1.2699008 -0.048929237 0.15885074 0.1155265 -0.020309117 0.00023930846 -0.009255247 2.636775
0.00478631 0.0021625462 -0.18042372 -0.016734924 -0.006148977 -0.00013553479 0.00010849453 -0.05018722
-0.0065106424 0.0050884485 -0.09326598 13.52439 -0.050982386 0.8590843 -0.035160594 0.13028693
0.09577049 -0.02043996 -1.732583e-05 -0.092742965 0.000102866165 -0.17771225 0.00071918964 -0.08989349
-0.0002285746 0.023942687 -0.12304819 0.13715553 -7.927617e-05 -1.2729768e-05 -0.0006221123 -0.003275347
-0.033902854 -0.00019158563 -0.8454256 -5.6769873e-05 1.4469799e-05 0.0007468362 0.00037292915 -0.010779487
-0.00015912889 0.0011258123 0.0050527 -0.08139376 -0.22030227 0.0745076 1.6322813 -0.009238634
0.06775594 2.3448783e-06 -0.058723465 -0.032961927 -0.92319953 0.42705736 0.00019231004 0.51869583
0.00048891176 0.013028951 -0.023143558 -0.000833943 -0.00014208013 0.003720995 -0.32198903 0.0021440687
0.00019041359 -0.025048923 -5.366801 1.2551949e-05 -0.014716011 4.8626407e-07 -0.003573645 -47.702126
0.062098913 -0.027366834 5.4558397e-05 -0.029969934 -0.18542036 0.00017441064 0.0197344 9.996562e-05
-0.0067439927 0.25946128 -0.13001426 0.06926009
00000000: 86fe 5b3b e269 a934 96db 0bba 6e20 1240
00000010: 3c78 16bd 8c32 30be db24 a43d 4ed8 28c1
00000020: 1c8c a23f 066a 48bd c5a9 223e 2899 ec3d
00000030: 4e5f a6bc e0ee 7a39 52a3 17bc ecc0 2840
00000040: 7ad6 9c3b 81b9 0d3b ffc0 38be ae17 89bc
00000050: 5c7d c9bb 581e 0eb9 8f87 e338 1d91 4dbd
00000060: 3a57 d5bb 00bd a63b 3c02 bfbd e763 5841
00000070: e8d2 50bd f3ec 5b3f 8e04 10bd f069 053e
00000080: 5223 c43d b471 a7bc f056 91b7 06f0 bdbd
00000090: dab9 d738 33fa 35be 0088 3c3a 141a b8bd
000000a0: 87ad 6fb9 7423 c43c b000 fcbd 8072 0c3e
000000b0: 1241 a6b8 f091 55b7 4015 23ba 34a7 56bb
000000c0: b8dd 0abd 60e4 48b9 d06d 58bf 301c 6eb8
000000d0: 50c3 7237 54c7 433a b485 c339 729c 30bc
000000e0: d6db 26b9 fe8f 933a 1f91 a53b c6b1 a6bd
000000f0: eb96 61be 7197 983d 98ee d03f a45d 17bc
00000100: a0c3 8a3d b45c 1d36 0488 70bd 1603 07bd
00000110: ce56 6cbf 43a7 da3e d5a6 4939 40c9 043f
00000120: 502a 003a 6277 553c 8f97 bdbc f89c 5aba
00000130: 58fb 14b9 f0db 733b bfdb a4be 8183 0c3b
00000140: c2a9 4739 6633 cdbc d5bc abc0 3696 5237
00000150: 6c1b 71bc d087 0235 d033 6abb face 3ec2
00000160: 6e5b 7e3d 6930 e0bc a2d5 6438 8283 f5bc
00000170: d6de 3dbe 00e2 3639 09aa a13c a2a4 d138
00000180: b6fc dcbb 1cd8 843e 7522 05be 3cd8 8d3d

bias f4 [10]
0.020900395 -0.0007230407 -0.0056141005 0.015403502 -0.120422125 -1.0953054e-05 -2.6675825e-06 0.045965455
-0.020194532 -0.0041436516
00000000: 4e37 ab3c 718a 3dba 7df6 b7bb f85e 7c3c
00000010: e09f f6bd 02c3 37b7 b804 33b6 4646 3c3d
00000020: 016f a5bc 78c7 87bb

weight f4 [10, 10]
-0.00021628168 0.15651062 -3.54342 -0.00017132831 -2.8801434e-05 0.019015027 -0.32231665 0.001116917
-0.2049844 -0.0019399356 0.011588319 -7.185025e-07 -0.0052858153 -0.0020370963 -3.4102963e-05 0.072023615
-0.00044492632 -0.8005048 -0.10039176 -2.7181928 -0.00016596934 0.00096238614 0.021775141 5.4533804e-05
0.020933965 -8.49207e-05 4.5536444e-06 -0.039463148 0.0006124475 -0.9115677 -4.9888476e-06 -0.029968727
-0.53655654 -0.0029422133 0.00031643003 0.00011038952 -0.26332906 -0.03990311 0.59555024 0.013596873
0.014901894 -2.4754336 0.49652642 -0.00012024264 0.060691193 0.0030072234 -0.00047521543 0.00022548629
0.13383108 0.010400873 0.0015754837 0.11114672 -0.39658678 0.44554812 -0.01292726 0.082920134
-0.004352721 0.0072891414 -0.120431446 -0.00082552386 -0.0013060716 -0.0008299295 -0.00024231219 0.0036399993
0.13597636 -1.5752735 -0.3399951 9.585392 7.837766e-05 -0.012825176 0.00015196594 -0.005147023
-11.442234 -2.0980017 0.10765617 -0.00045015715 -1.1320949 -0.10550436 -0.0021172964 0.07637369
-0.0019272929 -1.635564 -0.007520429 -0.114691794 -0.0010325038 -6.9131107 0.0002228186 -0.015748559
-0.16221395 0.0029696415 0.5378413 0.33723956 -0.010870272 0.0051944195 0.017597936 -2.198863e-05
1.6638121e-05 0.0029358878 2.049628e-05 -0.003906402
00000000: acc9 62b9 5244 203e 65c7 62c0 98a6 33b9
00000010: 9c9a f1b7 67c5 9b3c b006 a5be 8465 923a
00000020: 6ee7 51be 7045 feba efdc 3d3c 1edf 40b5
00000030: a234 adbb ce80 05bb c709 0fb8 1e81 933d
00000040: 0045 e9b9 e2ed 4cbf 329a cdbd dff6 2dc0
00000050: 0e08 2eb9 a448 7c3a c861 b23c 3abb 6438
00000060: b57d ab3c 7417 b2b8 82cb 9836 1ca4 21bd
00000070: a88c 203a 805c 69bf e065 a7b6 fa80 f5bc
00000080: c55b 09bf 26d2 40bb 85e6 a539 ec80 e738
00000090: 11d3 86be 7271 23bd fb75 183f 6bc5 5e3c
000000a0: 1327 743c 816d 1ec0 b638 fe3e c72a fcb8
000000b0: 5497 783d d614 453b 5626 f9b9 8470 6c39
000000c0: 040b 093e 6c68 2a3c 7680 ce3a e4a0 e33d
000000d0: 6c0d cbbe e21e e43e dccc 53bc 08d2 a93d
000000e0: 45a1 8ebb c0d9 ee3b c3a4 f6bd f867 58ba
000000f0: 7e30 abba a08f 59ba 2f15 7eb9 0e8d 6e3b
00000100: 633d 0b3e 90a2 c9bf d613 aebe c45d 1941
00000110: b05e a438 b020 52bc 0c59 1f39 5ca8 a8bb
00000120: 6413 37c1 a945 06c0 d77a dc3d 1203 ecb9
00000130: 7ce8 90bf ab12 d8bd 57c2 0abb cf69 9c3d
00000140: 389d fcba 295a d1bf ee6d f6bb 88e3 eabd
00000150: 1455 87ba 3438 ddc0 6aa4 6939 1f03 81bc
00000160: 6a1b 26be 519e 423b f8af 093f aaaa ac3e
00000170: 3a19 32bc f335 aa3b 8c29 903c 3974 b8b7
00000180: 1892 8b37 0668 403b 6def ab37 4601 80bb

bias f4 [10]
3.3696706e-05 -0.06402594 0.0020773052 -0.50326073 0.010121942 0.013498487 0.8028269 6.753656e-05
-0.3447228 0.013655271
00000000: 9055 0d38 0820 83bd 6623 083b b2d5 00bf
00000010: 80d6 253c c228 5d3c 1086 4d3f 6aa2 8d38
00000020: 827f b0be 5cba 5f3c

weight f4 [10, 10]
-0.0008387234 -1.4643309 0.05979882 5.2010365 -0.0056394134 -1.41778255e-05 -0.00018167461 25.592281
-1.01464025e-07 -9.1823415e-05 -1.2825349e-05 0.286426 -0.0003529542 -0.48176366 0.10951101 -0.00038349256
-0.00014744324 -0.0039897077 -3.6008998e-05 -0.017977186 -0.1002544 1.0490393e-05 -0.0047007743 -0.016361754
-0.0010838327 -0.00093414437 -0.01436944 -0.428837 0.04073924 -5.1071707e-05 -0.00012995627 0.0023215397
-3.2074542e-05 -0.09592893 -0.0386424 0.03070563 0.010680318 0.025514498 0.015651258 0.046287164
0.029399233 -0.00025832604 5.550353 -0.26682413 -0.02363662 0.0009161784 1.0934405e-06 -0.051193077
-0.13010412 0.0011809951 -0.78925645 -0.42307648 0.14779136 -1.0103985 -0.85601616 0.38924187
0.011953041 -2.9947028e-06 0.008431439 -0.0013592739 0.0052324994 0.0017154082 -0.004424764 -0.030546797
0.02383108 -0.00014695134 0.03284317 0.0014767272 0.0001258791 -0.11740448 -1.422165 0.055143714
0.01893948 0.011856424 0.2264759 -9.062639 0.2312996 0.22790737 -0.0075529097 -0.067713656
0.0010217044 -0.0010671365 0.002463697 0.010665976 0.23868933 8.2176586e-05 0.016183283 -0.025605459
-0.014880711 0.026942842 -0.0010863226 -0.085471734 0.6820195 -0.23612352 -0.015164107 -1.2860743e-05
0.022105258 0.38149536 -0.05142075 -0.0031791925
00000000: c6dd 5bba 326f bbbf 9cef 743d e46e a640
00000010: d4ca b8bb 4cdd 6db7 e87f 3eb9 febc cc41
00000020: 70e4 d9b3 5291 c0b8 742c 57b7 6ea6 923e
00000030: b60c b9b9 baa9 f6be 4f47 e03d 800f c9b9
00000040: fe9a 1ab9 18bc 82bb 5e08 17b8 e444 93bc
00000050: 2e52 cdbd e5ff 2f37 f408 9abb 1609 86bc
00000060: 640f 8eba 5ee1 74ba cd6d 6bbc 8690 dbbe
00000070: 30de 263d d435 56b8 df44 08b9 f924 183b
00000080: c787 06b8 6376 c4bd 7e47 1ebd 608a fb3c
00000090: 80fc 2e3c c803 d13c 1137 803c 9c97 3d3d
000000a0: a9d6 f03c ef6f 87b9 7e9c b140 2c9d 88be
000000b0: 96a1 c1bc b12b 703a 54c2 9235 d5af 51bd
000000c0: 043a 05be 9fcb 9a3a b60c 4abf 7b9d d8be
000000d0: 9e56 173e bd54 81bf e023 5bbf b64a c73e
000000e0: b0d6 433c 9af8 48b6 0524 0a3c aa29 b2ba
000000f0: 6375 ab3b 8cd7 e03a 9cfd 90bb 473d fabc
00000100: 6639 c33c f316 1ab9 8f86 063d be8e c13a
00000110: 6afe 0339 c371 f0bd 8109 b6bf 60de 613d
00000120: f826 9b3c 7241 423c 4ce9 673e 9200 11c1
00000130: cdd9 6c3e 8d60 693e 667e f7bb 75ad 8abd
00000140: b6ea 853a 29df 8bba fa75 213b 59c0 2e3c
00000150: fa6a 743e 3856 ac38 ce92 843c 8ac2 d1bc
00000160: 3ace 73bc 3cb7 dc3c f062 8eba ce0b afbd
00000170: d498 2e3f 5dca 71be e072 78bc 78c4 57b7
00000180: 1616 b53c 5c53 c33e 909e 52bd 005a 50bb

bias f4 [10]
0.0012538556 0.012990218 2.6486557 0.0009203607 0.017790131 0.008791847 0.0011586505 -0.0037287683
-0.001156884 -0.00013593164
00000000: 6a58 a43a ecd4 543c 9383 2940 5c44 713a
00000010: 9cbc 913c ae0b 103c dcdd 973a 5a5e 74bb
00000020: 96a2 97ba df88 0eb9

weight f4 [10, 10]
0.0066481344 -0.009779712 0.25498116 -2.2436518e-05 0.57725644 7.574581 0.018477887 -1.0009845e-06
0.001177898 0.047558993 -1.9375925 0.0072022295 1.3360557e-05 2.3839672e-07 0.0066354778 0.0062264237
-0.034447424 -0.00019754731 -3.8214076 0.009914941 -0.33982944 0.011242347 -0.036542494 8.6118154e-05
0.4839849 -1.589972e-05 0.0009767453 0.03737066 -0.01360313 0.0031203297 -0.43191227 -0.0011444703
0.007497702 -0.0018822192 0.059097942 -3.0912986 -0.16695802 -0.001138581 0.2799167 0.010245331
-0.028654147 -0.00047916363 0.16048852 -0.0006328827 -0.0889035 -0.082827464 0.0005993552 -0.002970322
0.0048716306 0.011767325 0.06220665 -0.0079764 0.0006686935 -0.00027642687 -0.00039307674 -0.41939723
1.1111115e-06 -0.15977341 0.103442915 -0.004398481 -0.36553663 1.9642574e-05 1.7494407e-05 -0.01654492
-0.0040141386 0.36242917 0.0017345619 -0.033766385 0.02271672 -3.600925e-05 46.31068 0.00042516962
0.044742778 -1.9067482e-05 0.13444431 7.110042e-05 2.6859632 0.75651956 -0.15464601 -0.0003831319
0.00025145052 6.740277e-06 -0.0004993116 -0.20499912 -0.00012383277 -8.7249755e-06 0.20265862 0.055223495
-0.011173759 -1.1028666 -0.05102196 0.016098894 0.54053915 -0.002577283 -0.00027494834 0.024029745
1.4092541 0.0035276122 -19.93114 -0.57351595
00000000: 98d8 d93b 163b 20bc e48c 823e 0e36 bcb7
00000010: 14c7 133f f862 f240 f05e 973c 9159 86b5
00000020: b363 9a3a 38cd 423d 0803 f8bf ae00 ec3b
00000030: 2827 6037 fef9 7f34 6c6e d93b 0707 cc3b
00000040: be18 0dbd b424 4fb9 f191 74c0 4772 223c
00000050: 20fe adbe d231 383c 95ad 15bd 559a b438
00000060: decc f73e 6460 85b7 2206 803a fa11 193d
00000070: aadf 5ebc 727e 4c3b 9b23 ddbe 0d02 96ba
00000080: 48af f53b ccb4 f6ba af10 723d d6d7 45c0
00000090: 0bf7 2abe 703c 95ba 3e51 8f3e 08dc 273c
000000a0: 1abc eabc 4138 fbb9 1a57 243e 0ae8 25ba
000000b0: 0a13 b6bd 72a1 a9bd 0c1e 1d3a bca9 42bb
000000c0: 33a2 9f3b bdcb 403c 66cc 7e3d 72af 02bc
000000d0: 434b 2f3a 63ed 90b9 de15 ceb9 3cbb d6be
000000e0: 8021 9535 a49b 23be e1d9 d33d 2221 90bb
000000f0: 9e27 bbbe 1bc6 a437 f4c0 9237 3689 87bc
00000100: 0989 83bb 5190 b93e 3d5a e33a 9f4e 0abd
00000110: 6a18 ba3c a308 17b8 233e 3942 4de9 de39
00000120: 3444 373d 1bf3 9fb7 c5ab 093e bf1b 9538
00000130: d2e6 2b40 44ab 413f 865b 1ebe 18df c8b9
00000140: 1ed5 8339 8a2a e236 3ce4 02ba 4aeb 51be
00000150: 1bd9 01b9 7c61 12b7 be85 4f3e 0832 623d
00000160: 2412 37bc bc2a 8dbf 67fc 50bd d4e1 833c
00000170: c660 0a3f a2e7 28bb f126 90b9 07da c43c
00000180: 7062 b43f 832f 673b fa72 9fc1 f1d1 12bf

bias f4 [10]
-0.004249127 -0.020201035 0.059278287 0.001097278 0.0018121165 -0.0022660154 -0.0038070474 0.0082794875
-15.21019 1.1254346
00000000: 433c 8bbb a47c a5bc cacd 723d 8ad2 8f3a
00000010: 8a84 ed3a 6e81 14bb a87f 79bb b0a6 073c
00000020: f05c 73c1 3e0e 903f

weight f4 [10, 10]
-0.00031894672 0.0031913836 4.0174447e-05 -0.0009441874 0.011868373 0.35166228 0.00039400696 4.7703506e-06
0.00029028347 -5.439063 5.763548 0.0002753004 0.334965 -0.0045329 -1.2300739 0.005783922
-0.00035786402 -0.016631521 0.008332804 0.010817647 -0.027245492 0.044628277 -0.532125 0.0002415695
-0.0031379468 3.3345833e-09 0.0042774435 0.009387557 0.00026404258 -0.00032623953 -12.094309 2.6208014e-07
-12.039669 6.5330977e-07 0.00010095918 0.25159904 0.00090038194 -5.9517646e-05 -0.12321105 -0.6237671
-0.3866625 0.0840591 -0.018875524 -1.2224927 -0.006663466 0.008610645 0.00011987089 0.0011734879
0.03232631 0.00035741203 -0.052816376 7.703691e-05 -0.08108693 0.00039556026 0.00024073137 -0.08038032
-2.2171404 0.13171068 -0.11014412 -0.36529443 1.6566462e-06 0.04037004 0.0002457207 -0.00051996135
0.00031090356 1.946032 0.007915467 -0.08080451 -0.0024674349 0.01725335 0.0017785011 0.00035332097
-0.027550783 -0.0001481265 -0.25698224 -0.025082044 0.002291238 0.00092613045 0.0033685714 0.011237463
0.047637895 0.11768058 0.00020366441 0.013063984 -0.007372047 -0.011881914 -0.000334726 0.00036925683
0.0005792938 0.2157042 -0.19880396 -1.4766753e-06 0.001409983 0.015142085 0.0012953181 0.254102
-0.010990799 -0.0039421907 0.386199 0.9843329
00000000: 4e38 a7b9 8826 513b fc80 2838 5883 77ba
00000010: 9073 423c 140d b43e b892 ce39 0011 a036
00000020: 3031 9839 ce0c aec0 fc6e b840 3256 9039
00000030: 8880 ab3e b988 94bb 1073 9dbf 0e87 bd3b
00000040: b29f bbb9 d43e 88bc 5086 083c 803c 313c
00000050: f031 dfbc 24cc 363d 5839 08bf d24d 7d39
00000060: 03a6 4dbb 9c26 6531 cc29 8c3b 45ce 193c
00000070: 326f 8a39 210b abb9 4a82 41c1 05b4 8c34
00000080: 7ca2 40c1 1b5f 2f35 0cba d338 97d1 803e
00000090: 9c07 6c3a 96a2 79b8 1356 fcbd 33af 1fbf
000000a0: a1f8 c5be 2d27 ac3d d8a0 9abc a47a 9cbf
000000b0: 3459 dabb aa13 0d3c 3263 fb38 b8cf 993a
000000c0: 9868 043d 0863 bb39 fc55 58bd e08e a138
000000d0: e810 a6bd 3363 cf39 d66c 7c39 709e a4bd
000000e0: a1e5 0dc0 2adf 063e 3e93 e1bd df07 bbbe
000000f0: ee59 de35 0e5b 253d 13d4 8039 044e 08ba
00000100: c500 a339 9417 f93f e0af 013c d67c a5bd
00000110: b0b4 21bb e656 8d3c 981c e93a f03d b939
00000120: 2eb2 e1bc 6852 1bb9 2d93 83be dc78 cdbc
00000130: 9828 163b 90c7 723a 40c3 5c3b 561d 383c
00000140: f41f 433d 8402 f13d c08e 5539 520a 563c
00000150: 3691 f1bb 5cac 42bc 2a7e afb9 d098 c139
00000160: c0db 173a 90e1 5c3e 4493 4bbe 2d32 c6b5
00000170: 2ecf b83a 8216 783c aac7 a93a a819 823e
00000180: c112 34bc 7e2d 81bb e0bb c53e 3efd 7b3f

bias f4 [10]
4.0779786 0.00016714045 0.12879342 1.4561824e-06 17.11462 0.0039906725 0.05084291 5.4815354
-0.00025842624 -0.0021676926
00000000: cd7e 8240 6c42 2f39 6ce2 033e 0c72 c335
00000010: beea 8841 30c4 823b a840 503d bd68 af40
00000020: 627d 87b9 d90f 0ebb

weight f4 [1, 10]
-0.0039807837 3.6502723e-05 -0.20688 3.1685056e-05 -2.6505313 0.0048862454 7.2671566e-05 0.038166683
-1.9338877e-05 -3.190094e-05
00000000: 3c71 82bb 801a 1938 5ad8 53be 92e5 0438
00000010: 4ea2 29c0 cc1c a03b 4067 9838 ab54 1c3d
00000020: ec39 a2b7 60cd 05b8

add_tensors f4 [10, 6]
-7.202449e-06 0.010175401 -4.4702497e-06 0.9664421 1.8522639 -9.715594e-05 -0.00030372286 0.0075807236
-2.0179543e-06 -0.09214115 0.037023116 0.0011376423 0.00013026656 0.019346999 0.0039147185 0.042151827
3.496723e-07 0.0048917285 0.02264182 0.036838233 0.034636617 0.011170286 0.002021092 0.00070913206
-0.0005535774 0.0010837526 -0.023983967 0.013796994 0.004892108 0.62539464 0.16546056 -0.000514462
-0.20514408 -0.05600376 -0.00064691174 -0.23764126 -0.00017085751 -0.0177201 0.049207605 8.485341e-08
-0.39040205 -0.82609755 2.9206272e-05 -76.259056 -1.2516185 -0.00019521257 -0.9986408 0.00053853274
0.015349929 0.0035928658 -0.4690246 0.00024412555 -0.21029133 -0.006150567 0.0014773038 -0.003960424
-1.4028033 -0.02969441 0.20272693 -0.0020583495
00000000: 91ac f1b6 bab6 263c 27ff 95b6 c068 773f
00000010: fc16 ed3f 33c0 cbb8 fe3c 9fb9 b867 f83b
00000020: 316c 07b6 80b4 bcbd 8da5 173d f11c 953a
00000030: 2a98 0839 997d 9e3c 0a47 803b 65a7 2c3d
00000040: 98ba bb34 cb4a a03b 577b b93c b0e3 163d
00000050: 20df 0d3d 9303 373c 4c74 043b 0ce5 393a
00000060: f31d 11ba b40c 8e3a 067a c4bc ca0c 623c
00000070: fa4d a03b dd19 203f 7e6e 293e f6dc 06ba
00000080: 4a11 52be 3364 65bd 8395 29ba 3b58 73be
00000090: 3728 33b9 be29 91bc ea8d 493d a838 b633
000000a0: c7e2 c7be 217b 53bf feff f437 a384 98c2
000000b0: 0935 a0bf fab1 4cb9 eca6 7fbf 522c 0d3a
000000c0: 457e 7b3c 4976 6b3b fe23 f0be f4fb 7f39
000000d0: 9c56 57be b28a c9bb 17a2 c13a 72c6 81bb
000000e0: 0f8f b3bf b141 f3bc a697 4f3e 60e5 06bb

add_tensors f4 [10]
-0.040971465 -0.0071528824 -0.3201809 -0.010449865 -0.00029981224 -0.0051793726 0.0001779019 -0.0243799
0.01837622 -0.017334433
00000000: b2d1 27bd ba62 eabb c0ee a3be e935 2bbc
00000010: 1e30 9db9 bab7 a9bb 2d8b 3a39 5bb8 c7bc
00000020: ba89 963c f100 8ebc

add_tensors f4 [10, 10]
-0.00018176601 0.017464543 -0.000103982195 -0.00018336777 0.003918329 -1.2172662 0.0020519772 0.0019079522
8.547653e-05 -3.7081704 2.622018 -0.00011333685 -0.22664727 0.0059540276 -0.38105306 -0.0009945642
-0.00011136331 0.0038051468 0.03241619 1.6539997 -0.06633907 0.01650685 0.5093355 -8.550278e-05
0.00053743954 1.2262027e-08 0.030223528 -0.003157365 0.0009647492 -2.6660757e-05 -1.8465803 -2.4436153e-08
0.39307442 -9.201843e-09 -5.6817396e-05 0.014614263 0.0028233253 -3.0813484e-05 -0.010844283 -0.34761643
-0.18577856 -0.028477838 0.1691236 -0.79173374 0.0012073395 -0.00091938936 -0.00013412476 0.00086182123
0.008188915 -7.636775e-05 -0.21711585 -0.0005825598 0.005691234 -0.00039505013 -0.00016511831 -0.013357511
-4.718919 0.07800299 -0.035236146 -0.082220055 6.069078e-08 -0.01310041 -0.00029181966 -0.00022154566
0.00015037102 -1.6029902 0.032921698 0.026660945 0.0012548863 0.009997569 0.005794457 -0.0030663072
0.005593252 0.0005791201 -0.15561023 -0.008021951 -0.007177511 0.00039852146 0.0004891292 0.026913628
0.018195668 0.04965201 -0.0081484765 0.021243067 0.013536663 -0.03477439 -0.000888008 0.0011395637
0.020379048 0.13183832 0.6568624 -4.972695e-07 0.0004446014 -0.028631186 0.005103502 -0.026906047
0.001634716 0.0008659427 0.16406025 0.37890732
00000000: 7198 3eb9 cd11 8f3c 0411 dab8 6946 40b9
00000010: 5365 803b 61cf 9bbf 777a 063b 4114 fa3a
00000020: dd41 b338 aa52 6dc0 25cf 2740 42af edb8
00000030: 3916 68be 011a c33b 6319 c3be 095c 82ba
00000040: b98b e9b8 c55f 793b d7c6 043d 43b6 d33f
00000050: c7dc 87bd 6039 873c d063 023f f54f b3b8
00000060: f5e2 0c3a f7a8 5232 5597 f73c cbeb 4ebb
00000070: 39e7 7c3a 8aa5 dfb7 be5c ecbf abe7 d1b2
00000080: 0d41 c93e 2216 1eb2 374f 6eb8 a970 6f3c
00000090: 8a07 393b ba3d 01b8 38ac 31bc c8fa b1be
000000a0: bc3c 3ebe 5b4a e9bc bd2e 2d3e 10af 4abf
000000b0: 973f 9e3a 2d03 71ba d7a3 0cb9 d8eb 613a
000000c0: cd2a 063c a027 a0b8 9e53 5ebe edb6 18ba
000000d0: 887d ba3b bb1e cfb9 9c23 2db9 76d9 5abc
000000e0: 6201 97c0 08c0 9f3d c753 10bd fd62 a8bd
000000f0: 1c55 8233 1aa3 56bc 5fff 98b9 b64e 68b9
00000100: eaac 1d39 c82e cdbf e7d8 063d 0e68 da3c
00000110: ff7a a43a d8cc 233c 6edf bd3b 19f4 48bb
00000120: 9947 b73b 18d0 173a 4a58 1fbe 806e 03bc
00000130: 5431 ebbb a5f0 d039 e838 003a f879 dc3c
00000140: 150f 953c e85f 4b3d 3081 05bc f105 ae3c
00000150: e1c8 5d3c 976f 0ebd 35c9 68ba 6a5d 953a
00000160: f6f1 a63c a000 073e 2228 283f 1a7c 05b5
00000170: 6419 e939 f38b eabc 473b a73b 126a dcbc
00000180: f843 d63a 6e00 633a 69ff 273e 2400 c23e

add_tensors f4 [1, 10]
-5.9848204e-05 -0.0015131971 0.0042134295 -8.106116e-06 -1.7268794 -0.007993122 -0.002447748 -0.009942214
-8.433657e-05 0.00022743654
00000000: 8505 7bb8 7856 c6ba cf10 8a3b 81ff 07b7
00000010: 620a ddbf 95f5 02bc 666a 20bb abe4 22bc
00000020: dadd b0b8 087c 6e39
