Random_hardest/TorchSaves/Best_Ball_Gen997.pt (torch_old, 21499 bytes, 13 tensors)

weight f4 [8, 6]
00000000: 806a ccb0 80da 8c38 10dc 8a39 30a1 8738
00000010: 2d5c aebb 3846 ddba 08bd 9db6 ae69 203c
00000020: 78a9 3039 df64 e1b5 10d9 ae3a d281 05c0
00000030: e04d 03ba 44d0 963e faba 9abb d61b 55b3
00000040: fcea c037 0b26 c4c1 7a69 8437 9c89 a63f
00000050: b673 4abd a098 5eb9 d8c0 b83b b9c1 b0bc
00000060: a28a 24bd 311f 9db8 00d9 383a 34da eeb7
00000070: f331 2db6 9876 17be e012 36b8 8ac3 f12f
00000080: a194 9731 9f71 0135 aec4 6333 8e5b 61bb
00000090: e2e8 992f 45d9 1e41 5606 5e31 a487 2db5
000000a0: 8474 1535 6892 8330 2416 3b34 d542 94b6
000000b0: 0403 81b5 6c33 87bb c809 2bb7 56b6 4a38
-1.4873223e-09 6.716419e-05 0.0002648537 6.467325e-05 -0.005321047 -0.0016881889 -4.7009707e-06 0.009790821
0.000168478 -1.6793164e-06 0.0013339836 -2.0860486 -0.00050088577 0.2945577 -0.0047219964 -4.9618244e-08
2.2997607e-05 -24.518576 1.5784743e-05 1.3010745 -0.049426757 -0.00021228427 0.005638223 -0.02157675
-0.040171273 -7.492153e-05 0.00070513785 -2.847342e-05 -2.5808083e-06 -0.14791334 -4.340976e-05 4.3976583e-10
4.4115755e-09 4.8221585e-07 5.3031435e-08 -0.0034386846 2.799601e-10 9.928044 3.2308853e-09 -6.4644905e-07
5.567638e-07 9.573116e-10 1.7423787e-07 -4.418524e-06 -9.612127e-07 -0.004126003 -1.0194672e-05 4.8330367e-05

bias f4 [8]
00000000: 1b5c 7f3c 148e 443d 6a2a afb6 1ce0 713d
00000010: 95e4 21b5 925d d4bc 9123 d5bc 484c 5130
0.0155859245 0.04798706 -5.220344e-06 0.059051618 -6.0309804e-07 -0.025923524 -0.026017936 7.614216e-10

weight f4 [8, 8]
00000000: 178d 8d33 6425 a53c 5d29 e236 dee1 cab9
00000010: f4c9 adb9 509e c73b 89d2 543a ccc2 9cb9
00000020: a6ec 932f 7075 dc3c 62c0 f9b8 66ff ffb4
00000030: 6819 37b1 1813 d339 b2e0 4cae db7e 133c
00000040: 5812 db3b 7ef6 fcb8 13e6 a12d bec7 ebba
00000050: 0894 da36 9c05 39b1 3643 113e 3ec1 d8bd
00000060: f0c1 203a f29b 2c35 d50e 32bf 9853 8c33
00000070: 6e5d b034 c13f cbb5 1cac 1e35 90e4 27b9
00000080: bea4 18b9 594f e2ad 0ed8 1fb8 7045 60b2
00000090: d253 8ab8 40e5 9a33 7332 1c39 5669 6b36
000000a0: e090 aab5 d000 9a35 9f63 2037 2898 59ba
000000b0: 002f 4138 e2bd d7b5 e3b9 10ba 819f 7bbe
000000c0: f5e0 2736 3ac9 1eb5 feb9 1339 d2ca da3d
000000d0: 3e1f 9a32 acaa c0b9 cb98 8fc1 be99 2db2
000000e0: 9836 b7bc c0a3 0f3b c19e 1c2d 74d9 6b3a
000000f0: 74fb 8fb6 965f d8ba 37a7 97bb 66f3 1c3a
6.591488e-08 0.02015943 6.74014e-06 -0.00038696727 -0.00033147598 0.0060918704 0.00081185304 -0.00029899774
2.6907293e-10 0.026911467 -0.00011909079 -4.7683278e-07 -2.6644447e-09 0.00040259282 -4.65838e-11 0.009002413
0.0066855364 -0.00012062209 1.8405754e-11 -0.0017988605 6.5141394e-06 -2.6924232e-09 0.14185795 -0.10583733
0.00061324146 6.4301923e-07 -0.6955388 6.5344636e-08 3.2850534e-07 -1.5143233e-06 5.911004e-07 -0.00016011507
-0.00014557221 -2.5728463e-11 -3.810977e-05 -1.3054304e-08 -6.5959655e-05 7.212884e-08 0.00014896113 3.5079042e-06
-1.2708151e-06 1.1474131e-06 9.559938e-06 -0.0008300566 4.6058558e-05 -1.6074011e-06 -0.00055208633 -0.24572565
2.5015881e-06 -5.915241e-07 0.000140883 0.10683216 1.7942167e-08 -0.00036748254 -17.949606 -1.0104882e-08
-0.0223649 0.002191767 8.902824e-12 0.00089969416 -4.291005e-06 -0.0016507979 -0.004628088 0.0005987197

bias f4 [8]
00000000: a867 58b8 b41a d2be 3e42 aa34 4a7d 813e
00000010: c38b cdb3 f27a 2a3e e40f 1b41 e63d 30b8
-5.159495e-05 -0.41035998 3.1713165e-07 0.252909 -9.571479e-08 0.16648462 9.69138 -4.2019317e-05

weight f4 [8, 8]
00000000: 3814 bebc d6f2 84bb 0c77 d632 5b37 eb34
00000010: ba83 4538 c56a b2b9 dec7 2b31 00a2 4e34
00000020: bc43 092e 60b9 783f ea7e 323e 8283 d8b1
00000030: 028e 8e3e 9767 cab9 4aba 8d37 8820 88b8
00000040: 3082 83b1 0c05 b0ba 0534 6eb6 4636 13b2
00000050: b038 42b2 dd9c 9eb6 7f48 2131 23c8 04b7
00000060: 712c 253b 48dc 0d3d 0c06 2b3c 9516 c032
00000070: c026 1c3e 86db b5bb f163 95bc 1219 b943
00000080: 6c38 d9b4 14a7 213c 73b6 e636 c4eb 62b7
00000090: 6e9d adb6 1114 c5bd 4855 5bab ca8c 6db8
000000a0: 0e08 39b5 0a0f 9e41 ee33 9b44 c010 90b4
000000b0: 06e2 09b6 8e45 0ab8 26c4 ddbb a679 f1bd
000000c0: 45b7 b7bc 449a 2f3d ecbc 8035 f05b ae39
000000d0: 2275 1e31 16f2 6938 5578 1d39 9c87 a934
000000e0: 36d8 662d 08d4 362e df7a cb32 038f 27b6
000000f0: 68ae 1d39 dca4 4abc 6602 a03a d84a e2bd
-0.023203 -0.0040572686 2.4967015e-08 4.3812437e-07 4.709114e-05 -0.00034030355 2.4997386e-09 1.924418e-07
3.1210354e-11 0.9715786 0.17431226 -6.301378e-09 0.27842718 -0.00038605623 1.6895257e-05 -6.491045e-05
-3.8274024e-09 -0.0013429238 -3.5495043e-06 -8.5688665e-09 -1.13051755e-08 -4.727028e-06 2.3469793e-09 -7.914411e-06
0.002520349 0.034633905 0.010438453 2.2362011e-08 0.15249157 -0.005549851 -0.018236132 370.19586
-4.0460452e-07 0.009866495 6.875774e-06 -1.3525543e-05 -5.174129e-06 -0.09622968 -7.792278e-13 -5.6636323e-05
-6.892959e-07 19.757343 1241.6228 -2.6834277e-07 -2.0546154e-06 -3.296654e-05 -0.0067677675 -0.11790781
-0.022426257 0.04287173 9.591727e-07 0.00033256365 2.3058608e-09 5.577699e-05 0.00015017514 3.1577372e-07
1.3121995e-11 4.157033e-11 2.3688186e-08 -2.4968183e-06 0.00015037658 -0.012368407 0.0012207746 -0.110494316

bias f4 [8]
00000000: c925 cbba 0ca4 3c39 6251 d22b b62c 2436
00000010: 2e6d 2838 be96 83c1 2dd3 72b4 5e2f 593d
-0.0015498932 0.0001799019 1.4943986e-12 2.446393e-06 4.0156003e-05 -16.448605 -2.2614832e-07 0.05302369

weight f4 [8, 8]
00000000: 8e14 bbb0 5893 a836 d282 8032 bc44 a734
00000010: b044 29b9 ee1b 2db7 ea79 a1b9 5414 adb7
00000020: f0e0 8ab1 300f 613b d502 783f be64 8dbf
00000030: f146 babc 5c79 1848 d874 553c e4db 9939
00000040: 0554 4b3b 89be 4ac1 84f1 13b5 d8b6 c832
00000050: 1868 7537 780e bc34 76c7 5cba aca3 6f38
00000060: 6088 90b3 c241 0738 f00e 4a34 c76f 8a38
00000070: c194 8739 d0e3 ba3b 862d 13b9 648f 09bb
00000080: 18ca e438 8a88 bb34 f25b b7b3 b0a5 bfb4
00000090: f0e7 7535 d233 233b 20b4 d7b6 4c3c 54b8
000000a0: 3a90 8ebb e024 b534 4166 93b2 5959 c3b6
000000b0: bc19 643f 127e 2d3e 106c 4dbf 8cdb 16b7
000000c0: b79f a93b d248 6f32 98fe 133b 4f98 fd3c
000000d0: 8e98 a734 a8fc 80b6 4806 e2bb e06a 20b4
000000e0: 90ba 46b9 9b14 28c0 45d2 c1b6 b043 2c3f
000000f0: 9f5a 8a3c 100a 6b33 33ba 6137 be6c 0fb9
-1.3611883e-09 5.0239432e-06 1.4960651e-08 3.1156185e-07 -0.00016142684 -1.0318106e-05 -0.00030799146 -2.0632673e-05
-4.041901e-09 0.0034341328 0.9687932 -1.1046369 -0.022738906 156133.44 0.013028346 0.00029346265
0.0031025421 -12.671517 -5.511322e-07 2.3366212e-08 1.4627374e-05 3.5028256e-07 -0.0008422056 5.713447e-05
-6.730329e-08 3.224775e-05 1.881815e-07 6.601173e-05 0.00025860037 0.005703427 -0.00014035971 -0.0020990008
0.0001090953 3.493081e-07 -8.538326e-08 -3.5697076e-07 9.1607126e-07 0.0024902713 -6.4284686e-06 -5.0600895e-05
-0.0043506892 3.3740707e-07 -1.7159552e-08 -5.8218543e-06 0.8910177 0.16942623 -0.80243015 -8.991814e-06
0.00517651 1.3928188e-08 0.002258217 0.030956415 3.1217172e-07 -3.8441103e-06 -0.0068977214 -1.4940042e-07
-0.00018952251 -2.6262577 -5.776327e-06 0.6729078 0.016888915 5.4724353e-08 1.3454398e-05 -0.00013678052

bias f4 [8]
00000000: 1c66 553a 72ff c9b3 e85c 4742 f45a 48b8
00000010: 4ad2 223a d87d 6037 c43c 703f bc4d 6736
0.00081405207 -9.406257e-08 49.84073 -4.7768423e-05 0.0006211145 1.3380741e-05 0.9384272 3.446693e-06

weight f4 [1, 8]
00000000: 2aee fa36 745e 6045 50be 14b9 77ad a7bd
00000010: e730 2a3e 736e e238 adf5 4cb7 2094 9c39
7.4783065e-06 3589.9033 -0.00014185277 -0.08187383 0.16620217 0.000107970925 -1.2216548e-05 0.00029865

add_tensors f4 [8, 6]
00000000: 9ff8 8d33 17f2 86b9 41b1 3439 31e7 6239
00000010: 95ce 5aba 4393 efbb 40a8 8fb7 0607 c63b
00000020: f10a d336 c72a dc35 a284 413a 3e01 423f
00000030: 995c 00bc a25c 3d3c 0bea 19bc 1e79 39b2
00000040: e3ec e138 345f bdc0 e846 0f37 753b 003f
00000050: 674e f6bc f9c7 8db8 916a 7e3b bde6 d8bb
00000060: 87f5 c1bc e709 ce38 b874 3abe 8cb0 64b8
00000070: 144c 4bb4 8c3a ebbe dc34 5338 c9f5 cc2e
00000080: 3f51 9ab1 d188 3534 48bd 5fb2 76e5 7f3b
00000090: 590d df2e 2ac3 5140 428a 48b1 cb74 6e36
000000a0: 03d5 f0b4 5f01 82b1 b0a7 a433 e3cd a4b5
000000b0: 2495 1cb5 f4fa 0fbb 2734 84b8 0d01 f9b7
6.611048e-08 -0.00025738843 0.0001723217 0.00021639165 -0.0008346823 -0.007311256 -1.7125276e-05 0.0060433177
6.2895638e-06 1.6403727e-06 0.00073821296 0.75783145 -0.007834577 0.01155773 -0.009394179 -1.0795956e-08
0.0001077296 -5.9178715 8.539973e-06 0.50090724 -0.030066682 -6.760652e-05 0.0038820843 -0.006619303
-0.023676647 9.82469e-05 -0.18208587 -5.4523858e-05 -1.8933525e-07 -0.45943105 5.035555e-05 9.320506e-11
-4.4912265e-09 1.6906712e-07 -1.3023346e-08 0.0039046681 1.0143237e-10 3.2775369 -2.918242e-09 3.5532746e-06
-4.485847e-07 -3.783654e-09 7.667347e-08 -1.2278873e-06 -5.8331557e-07 -0.0021969648 -6.3039646e-05 -2.9683602e-05

add_tensors f4 [8]
00000000: 827d d6bb ea98 313e 8446 c2b5 b462 97bb
00000010: fb21 1035 f9c0 4dbb a2fb 043c 2e4d 23b1
-0.0065457234 0.17343488 -1.4474649e-06 -0.0046199206 5.369363e-07 -0.0031395538 0.008116635 -2.3763493e-09

add_tensors f4 [8, 8]
00000000: 3702 3db1 5eac 4c36 4af6 0532 30a3 c5b1
00000010: d3f3 73bb 0164 a1b6 7b29 96b8 013a eeb4
00000020: 11fa d830 30eb 4a3a 5e7f e93e 7de6 44c0
00000030: 7f0b d73c 15ee 27c9 e04f b63b 082b 1dba
00000040: eb6d 25bb 15da 9fc0 81f1 5b33 5faf 1c32
00000050: f81a b3b6 240c 1436 b31e 8f3a c114 bc37
00000060: dab7 deb5 bbf2 8737 b8d8 a235 2a02 1239
00000070: b326 5d38 4a94 65bd 0d76 ceb9 c2bd 0ab9
00000080: 19bf 1238 15bb 6534 c3f2 36b3 cc88 2db4
00000090: fe74 d234 8585 8c3a a13b 6039 69f2 bbb7
000000a0: 5d3f 57bc e5e5 a5b6 2296 ebb1 4e9f 26b6
000000b0: f8f2 e53e 9676 ad3d e69c 2241 5f01 0b36
000000c0: ce7f c539 1438 d6b0 7809 30bb 4855 333c
000000d0: bf7f 7235 3c2f 7eb7 61f3 053b a760 87b6
000000e0: 5a02 a83a 1d70 c2bd ef3a e9b5 ec2c 633d
000000f0: b13e 4b3b bb03 e932 f225 2935 723f aab8
-2.7504379e-09 3.04987e-06 7.7976186e-09 -5.752007e-09 -0.0037224188 -4.809816e-06 -7.160284e-05 -4.4373158e-07
1.5787142e-09 0.0007740734 0.45604986 -3.076568 0.026250599 -687841.3 0.005563721 -0.0005995487
-0.0025242518 -4.9953713 5.1209557e-08 9.12027e-09 -5.3377553e-06 2.2060785e-06 0.0010919183 2.242101e-05
-1.6593797e-06 1.6206284e-05 1.2133014e-06 0.00013924451 5.2726547e-05 -0.056049623 -0.00039379337 -0.00013231396
3.4987086e-05 2.1395347e-07 -4.2595968e-08 -1.6161647e-07 3.920067e-07 0.0010720944 0.00021384518 -2.2405018e-05
-0.013137666 -4.9441464e-06 -6.8564683e-09 -2.4828655e-06 0.44911933 0.08469884 10.163305 2.0713412e-06
0.0003766999 -1.5586488e-09 -0.0026861113 0.010945626 9.033792e-07 -1.5150577e-05 0.0020439255 -4.0345653e-06
0.0012818084 -0.0949404 -1.7377005e-06 0.055462763 0.0031012709 2.7126466e-08 6.3012624e-07 -8.118049e-05

add_tensors f4 [1, 8]
00000000: 9599 6b36 e3da afc3 3f7c 6ab8 e1af 833d
00000010: c5a1 65be 9657 a7b6 9a54 f9b4 e2b6 b738
3.5107125e-06 -351.71005 -5.590566e-05 0.064300306 -0.22424991 -4.987184e-06 -4.644142e-07 8.7601846e-05
