Random_hardest/TorchSaves/Last_Gen997.pt (torch_old, 21499 bytes, 13 tensors)

weight f4 [8, 6]
000000 1c 69 3f b4 80 17 fe b7 a9 32 10 b5 14 d6 29 38
       -1.78265e-07 -3.0290103e-05 -5.37179e-07 4.0492116e-05
000010 98 a7 2f b8 e8 69 25 38 82 c3 b6 34 2c da 9b 3a
       -4.1879335e-05 3.94377e-05 3.4042392e-07 0.0011890582
000020 4b d3 0c 37 a6 04 4c 37 e9 8c a2 36 d6 9a 43 c3
       8.393846e-06 1.216043e-05 4.8443803e-06 -195.60483
000030 c0 b1 95 b7 d0 66 e4 ba 28 00 c1 b8 29 40 2c 39
       -1.7844955e-05 -0.001742566 -9.202986e-05 0.000164271
000040 0f ad 87 37 26 f7 87 39 e0 84 9d 34 be 68 2f bd
       1.617384e-05 0.00025933346 2.9340208e-07 -0.0428245
000050 9a 34 b5 3b 4f e3 08 3c 8e 67 1f 38 b8 f3 d1 3d
       0.0055299522 0.008354976 3.8004997e-05 0.10251564
000060 c4 9f 80 39 ed af c3 3c 2b ad 2c 37 a0 a7 fb 37
       0.00024533097 0.023887599 1.0292318e-05 2.9999588e-05
000070 a0 8f b3 b6 90 5a 98 3d 56 4e 4b 3c 5a 51 16 b0
       -5.351336e-06 0.074391484 0.012408813 -5.468529e-10
000080 a6 f5 0c 32 85 b1 07 37 d9 d9 2d ba 80 35 dd 41
       8.2049265e-09 8.087959e-06 -0.0006631888 27.651123
000090 8f b0 3b ac 46 4c 8a 40 2c 94 26 ae 9c 5d 3d b9
       -2.6672308e-12 4.3218107 -3.7875633e-11 -0.00018059317
0000a0 df eb 88 3a 38 42 18 30 ee cc d0 38 ea 40 8e b9
       0.0010446272 5.539138e-10 9.956384e-05 -0.00027132715
0000b0 60 51 43 34 a6 2c df 38 fd b4 e3 b9 ad 4c f3 b7
       1.8190394e-07 0.00010641785 -0.0004343166 -2.9003562e-05

bias f4 [8]
000000 fd 31 a6 bb aa 00 fa 3a 40 8c fb 33 b0 9d 50 b7
       -0.005071877 0.0019073684 1.17136096e-07 -1.2434481e-05
000010 d8 8b 13 b3 b0 71 a3 bc 50 72 f6 39 c5 7f 03 bb
       -3.435329e-08 -0.019951671 0.00047005946 -0.002006517

weight f4 [8, 8]
000000 c0 7d 14 af 80 d4 0c b9 d6 c0 fa b6 e0 64 ee 30
       -1.3505197e-10 -0.00013430603 -7.4730297e-06 1.734545e-09
000010 44 96 a0 3a 10 a0 30 39 de 45 57 3c 80 7e 70 3a
       0.0012251814 0.00016844296 0.013139216 0.00091741234
000020 3b 7a d8 ae cf 12 a5 bf 7e f4 6e 36 94 04 44 38
       -9.844255e-11 -1.2896365 3.5607077e-06 4.6734305e-05
000030 63 45 93 2d 34 e1 64 b9 36 28 d6 32 ac 7f f3 ba
       1.6742779e-11 -0.00021827669 2.4931165e-08 -0.0018577478
000040 7e d4 03 ba ab 2a 53 b7 80 57 d6 32 1c 87 80 ba
       -0.0005028917 -1.25865145e-05 2.495267e-08 -0.0009805891
000050 7c 66 0a 3b 5e cf f3 b2 99 dd 7e 40 c4 a6 7c ba
       0.0021118214 -2.8383223e-08 3.9822752 -0.0009637887
000060 aa 99 f8 3c 30 c4 1e b8 64 fd 13 c1 ef 7b 56 b0
       0.03034671 -3.785285e-05 -9.249363 -7.8028867e-10
000070 2c 94 b1 3b f2 6f dc b7 99 14 a9 b1 d8 c8 19 39
       0.005419275 -2.6278172e-05 -4.920889e-09 0.00014666037
000080 30 c3 7b b7 50 46 1a ae 01 2d d5 30 70 b0 06 b0
       -1.50062115e-05 -3.5077996e-11 1.5510581e-09 -4.899965e-10
000090 46 46 c0 b9 ff 23 e7 b4 8f 19 14 ba 56 cb d1 37
       -0.00036673452 -4.3053294e-07 -0.00056495605 2.5009427e-05
0000a0 e7 28 56 39 b5 0e 05 b8 ae e5 6b 37 36 4f 2c c1
       0.00020423868 -3.1723368e-05 1.4060568e-05 -10.769339
0000b0 58 65 df 38 6d 10 97 33 24 1d b2 39 00 c4 05 c5
       0.000106523454 7.034473e-08 0.00033972517 -2140.25
0000c0 62 58 b2 36 42 6f a1 35 89 82 2f 3a 34 b8 61 37
       5.3151025e-06 1.2027815e-06 0.00066951715 1.3453933e-05
0000d0 50 6f 0e 32 4e 89 a5 3c 9f cc ef 3f 04 1b 8d 36
       8.290797e-09 0.020207074 1.873432 4.2052725e-06
0000e0 1b 2f 9f be ac bf 8e b9 ee 4d 1a b5 90 41 1c bb
       -0.31090626 -0.00027227157 -5.7482873e-07 -0.002384279
0000f0 1d 8f d8 bb 00 e3 54 3b dc c1 4b 3c 58 4d cd b9
       -0.0066088573 0.0032483935 0.012436356 -0.00039158273

bias f4 [8]
000000 32 90 76 bb ae 18 4c bd b8 59 97 bb b8 c3 02 be
       -0.0037622568 -0.049828224 -0.0046188496 -0.12769973
000010 00 02 f7 b6 64 7f 9e b8 24 c6 f5 3a d5 51 7f 39
       -7.3614065e-06 -7.5577555e-05 0.0018751067 0.0002434918

weight f4 [8, 8]
000000 8a c5 d0 be 84 dd 81 37 0e 7a 93 b1 69 fd fd 33
       -0.4077571 1.548115e-05 -4.292139e-09 1.18273256e-07
000010 e0 8b b4 35 72 86 cf 3d 46 b4 42 2c 10 e9 05 b1
       1.3451754e-06 0.10133065 2.766913e-12 -1.9486528e-09
000020 a0 bb 0b 35 0c cb fe bb ff 90 ad 3a 8a b7 14 b4
       5.2054565e-07 -0.00777567 0.0013242065 -1.3850345e-07
000030 f3 f1 9c 3e d0 54 81 b3 80 c6 9a 38 ce 59 8b bc
       0.30653343 -6.022458e-08 7.380266e-05 -0.017010596
000040 d0 18 47 b5 22 55 08 bb 2b 04 31 37 5a b2 79 31
       -7.4169384e-07 -0.0020802696 1.0550993e-05 3.633565e-09
000050 d0 98 2b 39 c8 a6 1b 34 e0 fe a7 b8 5e 81 3c 36
       0.00016364758 1.4496175e-07 -8.010655e-05 2.8089485e-06
000060 40 2b d0 3b 00 15 20 3b a1 a8 10 bf 15 da 37 b7
       0.006352812 0.002442658 -0.5650731 -1.0958426e-05
000070 e0 12 eb bc fa e0 c6 b6 3a b9 8a be 24 fe 65 c0
       -0.028695524 -5.9270506e-06 -0.27094442 -3.5936365
000080 8f fc a7 37 e8 3b 98 34 37 22 a9 37 84 dc 3c 38
       2.0025558e-05 2.8355794e-07 2.0162302e-05 4.5028064e-05
000090 64 79 14 3a 44 9e e0 42 02 f0 34 b6 17 81 17 36
       0.00056638406 112.30911 -2.6961793e-06 2.2575894e-06
0000a0 47 04 29 38 3b 7a 9a c0 20 fe 34 43 42 d1 21 b7
       4.0296723e-05 -4.8274207 180.99268 -9.645069e-06
0000b0 80 ec f9 b8 18 1d f5 b2 d0 a8 f1 38 16 52 54 38
       -0.00011917297 -2.8534984e-08 0.00011523219 5.0621187e-05
0000c0 00 a5 c6 3b f7 eb 36 3a bf d2 9f 3a 53 31 92 38
       0.00606215 0.00069779105 0.0012193545 6.97101e-05
0000d0 f6 72 ff af 70 d7 0f 3d 38 3c 0a bf 89 02 24 3a
       -4.6465914e-10 0.035117567 -0.53998137 0.0006256481
0000e0 66 57 96 36 33 b8 cb 30 1a de 99 3a 4e 9e bd b2
       4.480523e-06 1.4822547e-09 0.0011739165 -2.2074484e-08
0000f0 4c c0 b9 b9 68 05 46 b6 50 cb f1 3b 1d 3c e2 bd
       -0.00035429222 -2.9507446e-06 0.007378973 -0.11046622

bias f4 [8]
000000 2e 0d 04 38 a2 b7 c5 3d 80 7f 76 b3 7a 78 05 38
       3.1483527e-05 0.09654166 -5.73923e-08 3.1821874e-05
000010 9c ba 22 b8 1b c7 f7 3b 85 55 f4 b9 b4 8f 53 bc
       -3.8797603e-05 0.007561577 -0.00046603024 -0.012912679

weight f4 [8, 8]
000000 f8 fe d2 2a 60 e8 90 3c 8b b5 04 b5 ec 7b 6a 32
       3.7480414e-13 0.01768893 -4.943801e-07 1.3648769e-08
000010 6e 01 52 3d 5e d6 83 39 ba ae 03 39 0d 6f 08 33
       0.051270895 0.00025145983 0.00012558224 3.1765968e-08
000020 28 30 15 2b e2 90 98 b7 9e d5 2b bc 18 31 23 3b
       5.3002264e-13 -1.8187278e-05 -0.010487942 0.0024901088
000030 32 08 86 3f ae bc bb c5 58 49 d2 b8 0e dd 1c 3b
       1.0471251 -6007.585 -0.00010027242 0.002393547
000040 9c 71 fc 39 38 98 3c be ee da 1d 31 63 f8 38 31
       0.0004814983 -0.18417442 2.2970954e-09 2.6916716e-09
000050 ca 56 58 2f 62 09 36 3a 48 58 00 35 a7 fe 16 3f
       1.9675919e-10 0.0006944147 4.781218e-07 0.5898232
000060 88 35 4c 37 49 52 a9 bd 6c 4c fc 33 c0 0d 99 b5
       1.2171811e-05 -0.08267648 1.17485655e-07 -1.140339e-06
000070 b4 3a 52 3f 3f cb 05 3f c4 d2 a8 3b f8 75 2b b7
       0.82120824 0.52263254 0.0051520783 -1.0219861e-05
000080 6a e8 85 3c 20 ff 0b 37 c4 9f ac 36 f0 11 1a 2f
       0.016346175 8.3444465e-06 5.1445986e-06 1.4012591e-10
000090 48 8a c5 bd 0a 51 a5 37 58 c4 38 3b 2a 92 6e 3e
       -0.09645516 1.970727e-05 0.0028193202 0.23297945
0000a0 b2 46 ba bd 3f 6c 36 b9 44 5d da 31 34 11 d9 34
       -0.09095515 -0.00017397197 6.355238e-09 4.0431917e-07
0000b0 b0 46 ca 3e d1 68 8a 38 9c f7 99 bd 89 90 dc 35
       0.39507055 6.599876e-05 -0.07517931 1.6433343e-06
0000c0 c2 1f 44 40 52 6b 70 31 38 a9 1b 39 ec af 2a c0
       3.0644383 3.49856e-09 0.00014844991 -2.6669874
0000d0 27 12 bc 36 a4 25 19 b3 c7 90 c5 3c 88 2a a5 35
       5.60495e-06 -3.5657322e-08 0.024116887 1.2305836e-06
0000e0 a8 af 0f 3b 7c da 4c 37 94 fa b2 b9 f8 02 19 b9
       0.0021924768 1.2210217e-05 -0.000341375 -0.00014592323
0000f0 53 0a 54 38 e5 aa 85 31 fb 15 d7 b8 1e 95 e0 34
       5.0554354e-05 3.890238e-09 -0.00010256093 4.1831748e-07

bias f4 [8]
000000 fe 2f 0d bb 51 f7 3a b9 73 29 71 b8 00 93 0b 2f
       -0.0021543498 -0.00017830475 -5.749748e-05 1.2694201e-10
000010 14 ce 87 39 b4 b7 8f b5 20 8b bd 39 f3 55 59 3c
       0.00025902747 -1.0707795e-06 0.00036152545 0.013265121

weight f4 [1, 8]
000000 c0 bb e2 36 c8 9e 62 bd 06 df c6 bb ec 12 c4 3b
       6.757182e-06 -0.055327207 -0.006069067 0.005983701
000010 ba e3 c6 3d 63 c6 ef ba 57 7d 8f b5 b0 65 21 38
       0.09711404 -0.0018293377 -1.0690809e-06 3.8480095e-05

add_tensors f4 [8, 6]
000000 77 4a d6 b3 20 77 01 3b 9a ef 62 b5 4d e7 26 39
       -9.9786966e-08 0.0019754842 -8.4540227e-07 0.0001591716
000010 0e 13 91 b7 96 8c 84 b9 93 6b 1a 34 31 80 f9 38
       -1.729422e-05 -0.00025281747 1.4381503e-07 0.00011897123
000020 b0 2d 99 b5 a5 95 ba 37 b3 fc ae b6 32 ed cc c2
       -1.1412685e-06 2.2242612e-05 -5.215022e-06 -102.46327
000030 ca f0 0f 3a 3f 5b c6 b9 69 9b 7d ba 7d 7a 39 38
       0.00054908975 -0.00037833487 -0.0009674342 4.4221513e-05
000040 db 52 5f 36 b1 ce 41 38 b0 cd e5 33 b1 18 03 3c
       3.3277818e-06 4.6207282e-05 1.0701058e-07 0.008001492
000050 34 25 16 3b 47 32 9f 3c 5f 16 b6 b8 16 64 8a 3e
       0.0022910358 0.019433154 -8.682603e-05 0.27029485
000060 94 ba 11 38 76 33 32 3c 24 3d 06 b4 82 d6 ef b8
       3.474446e-05 0.010876527 -1.2501965e-07 -0.00011436363
000070 2f c1 d4 b7 13 2c 16 3e 84 35 dc ba 46 8f 01 af
       -2.5362328e-05 0.1466525 -0.0016800617 -1.1783383e-10
000080 15 e4 a5 b2 35 04 34 b6 b5 9a e7 b9 de 71 0d 44
       -1.9312248e-08 -2.682454e-06 -0.0004417502 565.7792
000090 75 ee 3f 29 1f fa 0a 40 44 94 93 2e 83 f3 97 b9
       4.2617348e-14 2.1715162 6.711123e-11 -0.00028982395
0000a0 da 7e 27 39 44 b4 d0 30 c4 f8 5e 38 88 fc 1b 37
       0.00015973617 1.5185226e-09 5.3160606e-05 9.297517e-06
0000b0 bc 8b e7 35 0b 43 64 38 d2 90 1d b9 aa ab 14 b7
       1.7251509e-06 5.4421875e-05 -0.00015026637 -8.861456e-06

add_tensors f4 [8]
000000 b5 96 84 39 fb 8f 50 ba 43 56 b4 b1 e0 03 f7 b8
       0.00025289287 -0.0007956025 -5.2484963e-09 -0.000117785996
000010 15 6d 89 b2 50 7f e5 bd 7c 97 0e 3b 6d 56 b1 b8
       -1.5998504e-08 -0.112059236 0.0021757772 -8.456116e-05

add_tensors f4 [8, 8]
000000 cb 81 23 2c 58 b8 2e 3c c5 77 05 b4 ab ba 3c 33
       2.3235743e-12 0.010664068 -1.2430162e-07 4.3941935e-08
000010 0a 69 43 bc 64 6a 8c 36 a1 98 9a 38 0e 2c f8 b2
       -0.011926899 4.1847106e-06 7.3717216e-05 -2.8891034e-08
000020 da e0 a9 2b 19 f4 26 b7 0a 05 85 bb 22 c6 59 3c
       1.2070581e-12 -9.951204e-06 -0.0040594386 0.013291867
000030 bf 39 6b 3e 1f 16 28 c5 db f3 80 ba e8 80 79 39
       0.22971247 -2689.3826 -0.00098383 0.00023794512
000040 26 7f d3 3a f8 05 03 be 2d 71 a7 30 3c ef bf 30
       0.0016135916 -0.12795246 1.2183016e-09 1.3965074e-09
000050 f3 65 bb af 0b e1 d4 b9 54 7a af b4 40 e9 a2 3d
       -3.408754e-10 -0.0004060346 -3.2685296e-07 0.07954645
000060 73 87 80 38 21 b5 a1 bc 57 75 ee 34 ac 01 87 34
       6.128745e-05 -0.01973969 4.441633e-07 2.5146926e-07
000070 c1 8a 18 3f 4b 7e 20 be a7 6d e0 3a b5 60 c5 b6
       0.5958672 -0.15673177 0.0017122523 -5.8823157e-06
000080 72 d0 f7 3b 99 c1 35 38 78 1e 6e 36 6f de 0b b1
       0.0075626904 4.3334065e-05 3.5482499e-06 -2.03536e-09
000090 41 5b 43 bd 63 5b 19 37 40 bf a1 bb a5 67 ea 3d
       -0.04769445 9.140788e-06 -0.004936129 0.1144555
0000a0 64 31 0d bd 25 3c 5d 39 a9 d5 74 b1 3c 80 e1 b4
       -0.03447093 0.00021098608 -3.5628125e-09 -4.200282e-07
0000b0 4e cf 87 3f 5c 8f 31 38 51 62 b4 3c b2 78 1f 35
       1.0610139 4.2333602e-05 0.022019537 5.940775e-07
0000c0 5f 3d af 3f 27 29 e4 31 7b 9c b0 38 50 47 ae bf
       1.3690604 6.640352e-09 8.421481e-05 -1.3615513
0000d0 56 88 72 36 35 80 0f b4 39 c9 68 3c d7 e6 18 35
       3.6140168e-06 -1.3364554e-07 0.0142081315 5.696033e-07
0000e0 2a ad ac ba 58 95 fd b6 e7 f5 81 ba 3e 54 16 ba
       -0.0013174166 -7.5573735e-06 -0.0009915204 -0.0005734599
0000f0 4d 9c 1d 37 b7 12 c3 b1 2f 76 0e 36 46 ad dd 33
       9.394321e-06 -5.6773746e-09 2.122844e-06 1.0322633e-07

add_tensors f4 [1, 8]
000000 66 a3 51 b9 fc c5 48 3d b4 b1 25 bc 9a 26 40 bc
       -0.00019992664 0.049016938 -0.0101131685 -0.011727953
000010 d8 ff 58 bd 24 94 81 ba 9a 51 68 35 8a 86 b8 39
       -0.052978367 -0.0009886068 8.654548e-07 0.00035195454
